archive-july16/results/nif_sketch_pcg_w0.5_50epochs/model_epoch38.pt (torch, 44782 bytes, 56 tensors)

mps.0.l1.edge_block.m.0.weight f4 [16, 17]
0	0x3e42cacd	0.19022675
1	0x3f030709	0.5118261
2	0x3ee42edf	0.4456701
3	0x3fa0ce0c	1.256288
4	0x3f144d05	0.5793002
5	0x3fff1039	1.9926826
6	0x3fa058dd	1.2527119
7	0x3f89b951	1.0759679
8	0x3d074160	0.03302133
9	0x3f5f3e57	0.872045
10	0x3facebf2	1.3509505
11	0x3fa5b9b5	1.2947298
12	0x3f99e29c	1.2022281
13	0x3fe04273	1.7520279
14	0x3fb4e89c	1.4133487
15	0x3f995768	1.1979799
16	0x3f68af4f	0.908925
17	0x3b90322e	0.004400513
18	0xbda3beb0	-0.07995355
19	0x3d232b2c	0.039836094
20	0xbda1b746	-0.07896285
21	0xbcb40869	-0.021976667
22	0xbd8a11ec	-0.067416996
23	0x3de0a037	0.109680586
24	0xbe06780c	-0.13131732
25	0xbdaa1d32	-0.0830635
26	0xbd484d53	-0.048901867
27	0xbdd058d1	-0.101731904
28	0x3c5673ec	0.013089161
29	0xbe29ed42	-0.16594413
30	0x3e1908d5	0.14944775
31	0xbe107f7c	-0.14111131
32	0x3e029d65	0.12755354
33	0x3ce27328	0.027642801
34	0xbe89fafb	-0.26949295
35	0x3da23808	0.07920843
36	0x3e8b70cd	0.27234498
37	0x3f584437	0.8447909
38	0x3e9b94f4	0.3038708
39	0x3ff07303	1.8785099
40	0x3f25e907	0.64808697
41	0x3ec416b8	0.38298583
42	0x3e6ad37b	0.22932236
43	0x3ec0b6e0	0.37639523
44	0x3ed27f23	0.41112623
45	0x3f2f62a8	0.6850991
46	0x3f048cce	0.5177735
47	0x3fef481b	1.869388
48	0x3f300d3d	0.687702
49	0x3ed03652	0.40666443
50	0x3fb44d88	1.4086161
51	0xbd8c094b	-0.0683771
52	0xbe0ce99d	-0.13760991
53	0x3e016af0	0.1263845
54	0x3d0ef885	0.034904975
55	0x3d6c4299	0.0576807
56	0x3d506650	0.050878823
57	0xbb8eb6bd	-0.00435528
58	0x3e02a352	0.12757614
59	0xbdf3617f	-0.1188383
60	0x3aaaba79	0.0013025544
61	0xbdf8b7df	-0.12144446
62	0x3d21f4a4	0.039539948
63	0xbd89dc5e	-0.06731485
64	0x3d497316	0.04918202
65	0xbd137e87	-0.036009338
66	0x3e0ab589	0.13545813
67	0xbdc74e5c	-0.09731743
68	0xbdf9037d	-0.121588685
69	0xbe138844	-0.1440745
70	0x3dd7d308	0.10538298
71	0x3b14b16a	0.0022688755
72	0x3de35752	0.111006394
73	0xbe150228	-0.14551604
74	0xbe31669c	-0.17324299
75	0xbe1173c0	-0.14204311
76	0xbe0424ad	-0.12904616
77	0x3cbbf95a	0.022946049
78	0x3c8ae8a8	0.016956642
79	0x3daf51a0	0.085604906
80	0xbe08b782	-0.13351253
81	0xbdf9c3a7	-0.12195521
82	0x3da21639	0.07914395
83	0xbda23061	-0.07919384
84	0x3d9de374	0.07709399
85	0xbdc507d7	-0.09620636
86	0xbe70de48	-0.23522294
87	0xbf6372c8	-0.8884702
88	0xbf4f142d	-0.8089016
89	0xbf1fc31a	-0.62407076
90	0xbfda05d7	-1.7033032
91	0xbf649e2e	-0.89303863
92	0xbf10dc9b	-0.5658662
93	0x3e511e04	0.20421606
94	0xbf66ab36	-0.90105
95	0xbf2b5f02	-0.66941845
96	0xbf2dac59	-0.67841107
97	0xbf4a51b1	-0.790309
98	0xc047be17	-3.1209772
99	0xbf816f55	-1.0112101
100	0xbf6bcaa8	-0.92106104
101	0x3b9ccbfb	0.0047850586
102	0xbdf1d942	-0.11809017
103	0x3c660ca4	0.0140411
104	0x3f8c97f8	1.0983877
105	0x3f192096	0.5981535
106	0x3eb3052e	0.3496489
107	0x3f656a0b	0.89614934
108	0x3f140ba1	0.57830244
109	0x3ed2ca1e	0.41169828
110	0x3cf4d8e2	0.029888574
111	0x3e78d608	0.24300396
112	0x3f3640af	0.7119245
113	0x3ef812c2	0.4845181
114	0x3ec34d5b	0.38144955
115	0x3f499a42	0.78751004
116	0x3f3fd2b6	0.74930894
117	0x3ed6b211	0.4193273
118	0x3f1ff6e8	0.62486124
119	0xbdcb4110	-0.09924519
120	0x39f0dcf6	0.00045940996
121	0xbd7caa58	-0.06168589
122	0xbc3c363d	-0.011487541
123	0xbde6102a	-0.11233552
124	0xbde90995	-0.11378781
125	0xbdc611e6	-0.096713826
126	0xbd686d36	-0.056744777
127	0xbe05fc03	-0.13084416
128	0x3e0e553f	0.13899706
129	0xbd06c272	-0.03290028
130	0x3e120e57	0.14263283
131	0x3d539248	0.051653177
132	0xbe0fbf1b	-0.14037745
133	0x3deaf3cd	0.114722826
134	0xbd3ad3ff	-0.04561233
135	0xbd822427	-0.06354552
136	0xbe1a49a2	-0.15067151
137	0xbe4950fb	-0.19659798
138	0x3c869ffa	0.016433705
139	0xbd98e696	-0.07465856
140	0x3cf19467	0.029489709
141	0xbe110cfc	-0.1416511
142	0x3df04909	0.1173268
143	0xbe04cfb9	-0.12969865
144	0xbd1bf215	-0.038072664
145	0x3b628597	0.003456449
146	0x3d62c9d4	0.05536826
147	0x3dc46ec5	0.0959144
148	0x3dee42e3	0.116338514
149	0xbe0c75d6	-0.13716826
150	0x3d1354e1	0.03596962
151	0xbda2408e	-0.07922469
152	0xbd05a893	-0.032631468
153	0xbd1eb82d	-0.038749862
154	0x3f00bac2	0.5028497
155	0x3e2eda93	0.17075567
156	0x3f82b1cd	1.021051
157	0x3f1789d5	0.5919469
158	0x400830f4	2.1279879
159	0x3f74d8d0	0.9564333
160	0x3f6e4d67	0.93086857
161	0xbc369ecc	-0.011146259
162	0x3f375d30	0.7162657
163	0x3f3b0a05	0.73062164
164	0x3f8f57f8	1.1198721
165	0x3f4de421	0.8042622
166	0x3fbd9d4d	1.4813629
167	0x3f982073	1.1884903
168	0x3f7629be	0.96157444
169	0x3f88cb71	1.0687085
170	0xbdd77279	-0.10519881
171	0xbe0281a5	-0.12744768
172	0xbec8a4ae	-0.3918814
173	0xbf185bfe	-0.5951537
174	0xbf0af2ac	-0.5427654
175	0xbfe4928e	-1.7857225
176	0xbf4b3cf9	-0.7938991
177	0xbed3d8a6	-0.41376227
178	0x3e7ff14e	0.24994394
179	0xbf4188f9	-0.7559963
180	0xbea344e4	-0.31888497
181	0xbf12f54d	-0.5740555
182	0xbf04f1ae	-0.51931274
183	0xc044c1d9	-3.0743315
184	0xbf156268	-0.5835328
185	0xbf0f090e	-0.5587319
186	0x3de5edc8	0.11226994
187	0xbcf04f8f	-0.029334811
188	0xbd3dfb75	-0.046382386
189	0x3c7ce378	0.015435092
190	0xbd0516d3	-0.03249247
191	0xbd5603ee	-0.05224984
192	0x3dd827ea	0.10554488
193	0x3e117aed	0.14207049
194	0xbc8ae46b	-0.016954621
195	0xbd18de15	-0.03732117
196	0xb889ecdc	-6.5767876e-05
197	0xbc47da26	-0.012198007
198	0x3d161a98	0.036646456
199	0x3d329eac	0.043608353
200	0xbe1a9c1f	-0.15098618
201	0xbd7c3412	-0.061573096
202	0x3e0e65cd	0.13906021
203	0x3d80af2e	0.06283413
204	0xbc071711	-0.008245246
205	0xbdccb11a	-0.09994717
206	0xbdcfb6a0	-0.10142255
207	0xbe180f52	-0.14849594
208	0xbd5d55a1	-0.05403674
209	0x3d654e51	0.05598289
210	0x3dd87a67	0.105702214
211	0x3d9cc038	0.0765385
212	0xbe160d32	-0.14653471
213	0xbdcc2af0	-0.09969127
214	0xbcd651e6	-0.0261621
215	0x3e243627	0.16036282
216	0x3cc47368	0.023980811
217	0xbd2fd8ab	-0.04293124
218	0x3d8c75b4	0.068583876
219	0xbd81500a	-0.06314094
220	0xbddbc049	-0.10730035
221	0x3e80e0fc	0.2517165
222	0x3e97f3fe	0.2967834
223	0x3f0d227f	0.5513076
224	0x3f84ff96	1.0390499
225	0x3f474caa	0.77851355
226	0x40079916	2.1187186
227	0x3fc09f0a	1.5048535
228	0x3f6e2c00	0.9303589
229	0xbe6d3569	-0.23164906
230	0x3f6dda93	0.9291164
231	0x3fba6787	1.4562844
232	0x3fba4809	1.4553233
233	0x3fa828ec	1.3137488
234	0x3ff43695	1.9079157
235	0x3fbe3f02	1.4862978
236	0x3fa868c8	1.3156977
237	0x3f1f4f25	0.6223014
238	0xbe11708d	-0.14203091
239	0xbe1ec79b	-0.15505831
240	0x3d8afb7d	0.06786249
241	0xbda6afc5	-0.08138994
242	0xbd08a741	-0.03336263
243	0xbdc3639d	-0.09540484
244	0xbcf77739	-0.030208217
245	0xbdeef578	-0.11667913
246	0xbdddd781	-0.1083212
247	0x3d613ccc	0.05498962
248	0xbd49ccec	-0.049267694
249	0x3dd197fd	0.102340676
250	0xbd59d627	-0.053182747
251	0xbdf90db1	-0.121608146
252	0xbcef9c2e	-0.029249277
253	0xbda49363	-0.08035924
254	0xbd4fbd60	-0.05071771
255	0xb9930e43	-0.0002804865

mps.0.l1.edge_block.m.0.bias f4 [16]
0	0x3fb89b34	1.4422364
1	0x3dfcdb50	0.12346518
2	0x3f542eef	0.82884115
3	0xbd2c0f15	-0.04200657
4	0xbe1c739f	-0.15278481
5	0xbf5131c9	-0.8171659
6	0x3f4ac6be	0.79209507
7	0xbe28f531	-0.16499783
8	0xbd4764c5	-0.048680086
9	0x3f799731	0.97496325
10	0xbf319078	-0.69361067
11	0xbda8b8b6	-0.08238356
12	0xbd8ac7c4	-0.067763835
13	0x3fb3661c	1.4015536
14	0xbe215166	-0.15753707
15	0x3f1a3443	0.60235995

mps.0.l1.edge_block.m.2.weight f4 [1, 16]
0	0x3e322ec4	0.17400652
1	0xbc857001	-0.01628876
2	0x3f0fefb1	0.56225115
3	0xbd8429b4	-0.06453267
4	0xbdf86e35	-0.12130395
5	0xbe9a203d	-0.3010272
6	0x3bf484c8	0.007462118
7	0xbdc024b2	-0.09381999
8	0xbdb088c4	-0.08619836
9	0x3c4db5bb	0.012555535
10	0xbe81da2b	-0.2536176
11	0xbd606459	-0.0547832
12	0x3bb3ea09	0.0054905456
13	0x3ff78411	1.9337178
14	0xbd70fd8c	-0.05883555
15	0xbf39e61c	-0.72616744

mps.0.l1.node_block.m.0.weight f4 [16, 9]
0	0xbb062a38	-0.0020471942
1	0x3e7251b8	0.23663986
2	0xbedecff5	-0.43518034
3	0xbefa747e	-0.48917
4	0xbd8e6d1e	-0.06954406
5	0x3eeca965	0.46222988
6	0xbeb7cc73	-0.3589817
7	0xbece3ee1	-0.40282348
8	0xbeaf4648	-0.34233308
9	0x3d04844a	0.032352723
10	0x3e830716	0.25591344
11	0x3fd014c0	1.6256332
12	0x3f867b26	1.0506332
13	0x3f1d4c78	0.6144481
14	0xbfa128ba	-1.2590554
15	0x3f3b4011	0.7314463
16	0x3f1c7d73	0.6112892
17	0xbf0f4449	-0.5596357
18	0xb81ccd58	-3.738454e-05
19	0x3e35ee58	0.17766702
20	0x3f996de8	1.1986666
21	0x3f81ec55	1.0150248
22	0x3f191d00	0.59809875
23	0xbe0facf1	-0.14030816
24	0x3f98744f	1.1910495
25	0x3f8d1a9c	1.1023746
26	0x3e88dec5	0.2673246
27	0xbe3173ad	-0.17329283
28	0xbe3b29a6	-0.18277606
29	0x3de820dc	0.113343924
30	0xbe2d8abe	-0.16947457
31	0xbce5cf9c	-0.028053097
32	0x3ddfd673	0.10929575
33	0xbdd7f415	-0.10544602
34	0xbccb8427	-0.024843289
35	0xbca27649	-0.019831793
36	0xbd5cc8c8	-0.053902417
37	0xbe0a02aa	-0.13477579
38	0xbe63b1f1	-0.22235848
39	0xbe527276	-0.20551476
40	0xbe122292	-0.14271
41	0x3e5a70b4	0.21332055
42	0xbdefcb8a	-0.11708744
43	0xbe2589f6	-0.16165909
44	0x3c8e16b1	0.017344804
45	0xba5e673f	-0.0008484013
46	0xbf079ae9	-0.5297075
47	0xbf86b6ba	-1.0524514
48	0xbf1ed0cc	-0.6203735
49	0xbf855dd0	-1.0419254
50	0x40842379	4.12933
51	0xbf1fab6b	-0.6237094
52	0xbf3f36a4	-0.7469275
53	0xbe18bda8	-0.14916098
54	0xbbaf9502	-0.0053583393
55	0xbea6a95d	-0.3255109
56	0xbfd10c3b	-1.6331857
57	0xbf8ceafc	-1.1009212
58	0xbf322537	-0.69588035
59	0x3f8a7d47	1.0819482
60	0xbf600676	-0.8750986
61	0xbf284592	-0.65731156
62	0x3dadc0d0	0.08484042
63	0xbe654af3	-0.22391872
64	0xbe218da1	-0.15776683
65	0x3e55729e	0.20844504
66	0x3f2c281a	0.6724869
67	0x3d2ddfac	0.04244964
68	0x401f4d68	2.4890995
69	0x3edcf1ae	0.43153137
70	0x3e746ee8	0.23870432
71	0x3f04c2d8	0.5185981
72	0xbca595c1	-0.02021301
73	0x3ebd7070	0.36999846
74	0x3db4b9f1	0.08824528
75	0x3f6875a0	0.9080448
76	0x3e4a9cb2	0.19786337
77	0x3fee1701	1.860077
78	0x3f77b272	0.9675666
79	0x3f17f32c	0.59355426
80	0x3f2afdd3	0.66793555
81	0x3a8c86b1	0.0010721294
82	0x3ed09bb5	0.40743795
83	0x3fcffe0b	1.6249403
84	0x3fa814dc	1.3131366
85	0x3f733d6a	0.95015585
86	0xbdbade51	-0.09124435
87	0x3fc2415a	1.5176194
88	0x3f976842	1.1828692
89	0x3f27d1d1	0.6555453
90	0xbe1f8744	-0.15578943
91	0xbe570cb2	-0.21000937
92	0x3ae93a33	0.0017793834
93	0x3d2e8f20	0.042616963
94	0xbe03a890	-0.1285727
95	0xbda259e1	-0.07927299
96	0x3e0fe9d5	0.14054044
97	0x3acb2d6f	0.0015501211
98	0xbc27997b	-0.010229464
99	0x39bf13a6	0.00036444998
100	0x3d8e468e	0.06947051
101	0x3f31e238	0.6948581
102	0x3f80e134	1.0068727
103	0x3f15ee34	0.58566594
104	0x3f6a14d3	0.91438025
105	0x3f8e4476	1.1114643
106	0x3f4cde54	0.80026746
107	0x3f508454	0.81451917
108	0xbb1d951d	-0.0024045177
109	0x3ef8a804	0.48565686
110	0x3f543150	0.82887745
111	0x3f2c5476	0.6731638
112	0x3f2fe3ef	0.68707174
113	0xbe798197	-0.24365841
114	0x3f315633	0.69272155
115	0x3f27bfc8	0.6552701
116	0xbe48a93d	-0.1959581
117	0x3ba8892f	0.0051433067
118	0x3f46f779	0.77721363
119	0x3fea424c	1.8301482
120	0x3faf026a	1.3672612
121	0x3f85d4ae	1.045553
122	0xbf3f1007	-0.7463383
123	0x3fa21889	1.2663738
124	0x3f96797d	1.1755825
125	0x3f1a1822	0.60193074
126	0xbdd5e0e8	-0.10443288
127	0xbd168630	-0.036749065
128	0x3c06cb4f	0.0082271835
129	0x3ed35b51	0.41280606
130	0x3ed559ea	0.4167016
131	0x4037053f	2.8596952
132	0x3f37a874	0.71741414
133	0x3edc44e0	0.43021297
134	0x3ea6183a	0.32440358
135	0x3a252840	0.0006300248
136	0x3f2d0414	0.6758435
137	0x3fb73fd4	1.4316354
138	0x3fc4e054	1.538096
139	0x3f9b6324	1.213963
140	0xbd1d1059	-0.03834567
141	0x3fa1366e	1.2594736
142	0x3fa86afe	1.3157651
143	0x3f23bd2d	0.63960534

mps.0.l1.node_block.m.0.bias f4 [16]
0	0xbf236b47	-0.6383557
1	0x3f5fdfa2	0.8745061
2	0x3f834087	1.0254067
3	0xbe3efbcd	-0.18650742
4	0x3d06168e	0.032736354
5	0xbf33e921	-0.702776
6	0xbf623978	-0.8836894
7	0x3f14bc14	0.58099484
8	0x3f7d0276	0.9883188
9	0x3fb5a1a3	1.4189953
10	0xbe1ba5a8	-0.15199912
11	0x3f9616b2	1.1725676
12	0x3f6551da	0.8957802
13	0x3fb98458	1.4493513
14	0x3f0eccdf	0.5578136
15	0x3fc283ac	1.5196433

mps.0.l1.node_block.m.2.weight f4 [8, 16]
0	0xbe365fdf	-0.1781001
1	0xbe78e246	-0.24305066
2	0xbd359fa4	-0.0443417
3	0x3e28c01c	0.16479534
4	0x3e159f69	0.14611591
5	0x3d229713	0.039694857
6	0x3cb0e23f	0.021592258
7	0x3f304e9f	0.68869966
8	0xbec36f4d	-0.38170853
9	0xbe3d50ba	-0.18487826
10	0x3db59ddc	0.08868
11	0x3e64b1a9	0.22333397
12	0xbdb5ff4b	-0.08886584
13	0xbe624552	-0.22096756
14	0xbd89bff7	-0.067260675
15	0x3dd0390f	0.10167133
16	0xbc5b8743	-0.013398948
17	0x39a48ce8	0.000313855
18	0x3e139bfa	0.14414969
19	0xbdce469b	-0.10072061
20	0xbde3c24b	-0.11121043
21	0x3d5cea2b	0.053934257
22	0x3ccf6f53	0.025321638
23	0xbe9cf134	-0.30652773
24	0x3d39cd49	0.04536179
25	0xbd16458e	-0.036687426
26	0x3d759223	0.05995382
27	0xbdd6bc68	-0.104851544
28	0x3d08db17	0.033412065
29	0xbc4816c6	-0.012212461
30	0xbda0005d	-0.07812569
31	0x3d8ec8c9	0.069718905
32	0x3d9cecc0	0.07662344
33	0xbce3e35e	-0.027818378
34	0x3ce23f52	0.027618084
35	0xbd297e95	-0.041380484
36	0xbda8ccc3	-0.0824218
37	0xbd0cabe7	-0.034343626
38	0x3e0eabe0	0.13932753
39	0x3f82418c	1.0176253
40	0xbdb5f53d	-0.08884666
41	0xbea33b49	-0.31881168
42	0xbdb50349	-0.08838517
43	0x3d41ba49	0.047296796
44	0xbdae3e8c	-0.085080236
45	0xbe8bbb90	-0.27291536
46	0xbee50bf5	-0.44735685
47	0xbdb78ed8	-0.08962792
48	0xbda3f360	-0.080054045
49	0x3c765a90	0.01503624
50	0x3d0e8296	0.034792505
51	0x3e18767d	0.1488895
52	0xbe25a181	-0.1617489
53	0x3e346aba	0.17618838
54	0x3dba4a91	0.09096254
55	0xbf05ad13	-0.52217215
56	0x3e0f546c	0.13997048
57	0xbe8c2aa1	-0.27376273
58	0x3ddb0d3a	0.10695882
59	0x3d56f381	0.052478317
60	0xbd2a1282	-0.041521557
61	0xbe56a635	-0.2096184
62	0xbd71fb79	-0.059077714
63	0xbe5a8df9	-0.21343221
64	0xbc74baf9	-0.014937156
65	0x3bb1f391	0.0054306467
66	0xbd55b942	-0.05217863
67	0xbcb31819	-0.021862077
68	0x3e2658d8	0.16244829
69	0x3c5fea2a	0.013666669
70	0xbcc01a71	-0.023450108
71	0x3bcd1016	0.006258021
72	0xbe4769f5	-0.19474013
73	0xbefebae9	-0.49751976
74	0x3e0eb660	0.13936758
75	0xbedf9787	-0.43670294
76	0x3d0841ec	0.033265993
77	0xbee642b2	-0.4497276
78	0xbe840302	-0.25783545
79	0xbec397b7	-0.38201687
80	0xbd65068d	-0.05591445
81	0x3d54241b	0.051792245
82	0x3c2090c0	0.009800136
83	0x3e0d431a	0.13795128
84	0xbd7165a9	-0.05893484
85	0xbdd963f0	-0.10614765
86	0x3cdd46b5	0.027011255
87	0xbfb4c33c	-1.4122081
88	0x3e41a491	0.18910433
89	0x3e0f0d2e	0.13969871
90	0xbde4feca	-0.1118141
91	0x3c146061	0.009056182
92	0xbcaceebf	-0.021109937
93	0x3e89d132	0.26917416
94	0xbee1a967	-0.44074556
95	0x3e44f26b	0.192331
96	0x3e02dbdd	0.12779184
97	0x3d9adcfc	0.07561681
98	0xbd32c44c	-0.043644235
99	0xbdf58150	-0.11987555
100	0xbdd9234d	-0.10602436
101	0xbe1c24d1	-0.1524842
102	0xbd0c7fc3	-0.03430153
103	0xbf9b0a26	-1.2112472
104	0xbcd01743	-0.025401717
105	0xbe630303	-0.22169118
106	0xbe2b4ffa	-0.16729727
107	0xbe7d1703	-0.2471581
108	0x3d4b2fcb	0.049606126
109	0xbd67f7ed	-0.056632925
110	0xbf05050f	-0.51960844
111	0xbe679f0d	-0.22619267
112	0x3d679b1c	0.05654441
113	0xbdd676a5	-0.104718484
114	0xbd58ecb2	-0.052960105
115	0x3dd79ecb	0.10528334
116	0xbe186d56	-0.14885458
117	0xbcd42e3f	-0.025900958
118	0x3dddd3c2	0.10831405
119	0x3f121a5e	0.57071483
120	0xbc98a3c7	-0.018632783
121	0xbdcf959f	-0.1013596
122	0xbae8f3ce	-0.0017772855
123	0x3e890f56	0.26769513
124	0xbccd477d	-0.025058502
125	0xbc1a4c24	-0.009417567
126	0x3f105f1d	0.5639513
127	0xbd527619	-0.051382158

mps.0.l1.node_block.m.2.bias f4 [8]
0	0xbfb4221e	-1.4072912
1	0xbe583aa6	-0.21116123
2	0xbfb1fcd8	-1.3905287
3	0xbf6b0375	-0.9180215
4	0xbf9952b4	-1.1978364
5	0x3f30dbfe	0.6908568
6	0xbf18ef44	-0.5974009
7	0xbf4e5142	-0.8059274

mps.0.l2.edge_block.m.0.weight f4 [16, 17]
0	0x3ec7fec5	0.3906156
1	0xbda980ca	-0.08276518
2	0x3dd1a051	0.10235656
3	0x3d09c604	0.033636108
4	0xbd6be850	-0.057594597
5	0xbebf2343	-0.3733159
6	0x3d01a3d8	0.031650394
7	0x3e88fe0f	0.2675633
8	0x3e89c224	0.2690593
9	0x3e274621	0.16335346
10	0xbe626e5c	-0.22112411
11	0xbda02d4b	-0.07821139
12	0x3e0f8055	0.14013799
13	0x3c99f08e	0.018791463
14	0x3d6aa170	0.057282865
15	0xbdb04a97	-0.08607977
16	0xbe89a6c4	-0.26885045
17	0xbcbd947b	-0.02314209
18	0x3e3d9c44	0.18516642
19	0x3dacce2e	0.08437763
20	0x3dc6155a	0.09672041
21	0xbd5eacf8	-0.054364175
22	0xbe244eab	-0.16045634
23	0x3e12c92e	0.14334556
24	0xbd07f25f	-0.033190127
25	0x3be24f34	0.0069064144
26	0x3dbb6671	0.091503985
27	0xbd1f94ac	-0.038960144
28	0x3e1c3bc4	0.15257174
29	0xbcf56a96	-0.02995805
30	0xbe1358c0	-0.14389324
31	0x3e5b07b9	0.21389665
32	0x3e431316	0.1905025
33	0xbe0fe677	-0.14052759
34	0xbe2165b0	-0.15761447
35	0xbe146a7b	-0.14493744
36	0xbe249783	-0.16073422
37	0xbe9d4377	-0.30715534
38	0xbe78b385	-0.24287231
39	0x3e0625e0	0.13100386
40	0xbea6d673	-0.32585487
41	0x3d872063	0.06597974
42	0x3dc43391	0.09580148
43	0xbda9daf7	-0.08293717
44	0xbe092fa9	-0.13397087
45	0x3d7257df	0.05916583
46	0xbdefe1f7	-0.11713021
47	0xbd20a1da	-0.039216854
48	0xbd9ea346	-0.07745986
49	0x3e253263	0.16132502
50	0xbf1f8927	-0.6231865
51	0x3dd33a97	0.103139095
52	0x3d3a3dd3	0.045469116
53	0x3dc15fc5	0.09442095
54	0x3e773c34	0.2414406
55	0xbd3266a2	-0.04355491
56	0xbd898b1e	-0.067159876
57	0x3dc8e094	0.0980846
58	0x3e4be561	0.1991172
59	0xbdf085c3	-0.11744263
60	0x3d952c3f	0.0728383
61	0xbd7d7466	-0.061878584
62	0x3e48329d	0.19550557
63	0x3d5a4826	0.053291462
64	0xbcc18827	-0.023624493
65	0x3e303744	0.17208582
66	0x3dd3bbbc	0.10338542
67	0x3d9215d4	0.0713307
68	0xbdb94700	-0.09046745
69	0x3e1f3b3b	0.15549938
70	0x3d3ce583	0.046117317
71	0x3ecdb449	0.4017661
72	0x3de0ff0a	0.10986145
73	0xbe4e6d10	-0.20158792
74	0x3e965979	0.29365137
75	0xbdea7349	-0.1144777
76	0xbd1b5bf0	-0.037929475
77	0xbd18efe7	-0.037338164
78	0xbe044f79	-0.12920941
79	0x3e833104	0.25623333
80	0x3bc75b5f	0.0060838903
81	0xbdf8cd46	-0.12148528
82	0x3e24d928	0.16098464
83	0xbe2b9595	-0.1675628
84	0x3e029988	0.1275388
85	0xbe761ed7	-0.24035202
86	0xbd74add5	-0.05973609
87	0xbe872ad7	-0.26399872
88	0xbe21cf9b	-0.15801851
89	0xbe16420e	-0.14673635
90	0x3e5e3a09	0.21701826
91	0xbde015f3	-0.109416865
92	0x3dcb5682	0.099286094
93	0x3d6493a6	0.05580487
94	0x3dd94322	0.10608508
95	0x3ddb42ed	0.107061245
96	0x3dad6d8d	0.08468161
97	0xbe20887e	-0.15677068
98	0x3de08cec	0.10964379
99	0x3b21ba9a	0.0024677874
100	0xbd15cce5	-0.036572356
101	0xbee67c4d	-0.4501671
102	0xbe1077d8	-0.14108217
103	0x3cec8b03	0.02887488
104	0x3d33a548	0.043858796
105	0x3db4ef15	0.08834664
106	0x3e9e77a3	0.3095065
107	0xbdb8f82c	-0.0903171
108	0x3e805469	0.250644
109	0x3daeed68	0.085413754
110	0x3d120132	0.03564567
111	0x3c94604e	0.018112328
112	0xbd6b6870	-0.057472646
113	0xbc292262	-0.010323139
114	0x3db4b1ab	0.0882295
115	0x3e030661	0.12795402
116	0xbe0c290f	-0.13687538
117	0xbdccbe6c	-0.099972576
118	0x3f4c5d30	0.7982969
119	0x3e01c9b6	0.12674603
120	0x3e85debb	0.26146492
121	0x3dc2095d	0.09474442
122	0x3e7e75a7	0.24849568
123	0xbb5bc8e8	-0.0033536498
124	0xbdd10b3d	-0.10207222
125	0x3e2f6729	0.17129196
126	0xbe0688fe	-0.13138196
127	0xb8c2a89c	-9.282047e-05
128	0x3db4034e	0.08789693
129	0x3df690cf	0.12039339
130	0xbd36be31	-0.044614974
131	0xbddca9c7	-0.1077457
132	0xbd7fa17a	-0.062409855
133	0x3e446ba8	0.19181693
134	0x3e0065f4	0.12538892
135	0xbdfc32c0	-0.12314367
136	0x3c8674a5	0.016413042
137	0x3e22e0d6	0.1590608
138	0x3e4c887d	0.19973941
139	0x3e0ccb62	0.1374946
140	0x3deddb02	0.11614038
141	0xbda268df	-0.07930159
142	0x3e1ab440	0.15107822
143	0xbd00b6ac	-0.03142421
144	0x3d85f7eb	0.06541427
145	0x3e42e124	0.19031197
146	0xbd9f415f	-0.077761404
147	0xbd8b4502	-0.068002716
148	0x3e50dea8	0.20397437
149	0xbda5fe1f	-0.081051104
150	0x3d2ec4df	0.04266822
151	0xbb9a7899	-0.0047140834
152	0xbe013857	-0.12619148
153	0x3e583dc6	0.21117315
154	0x3d773cf3	0.06036086
155	0xbd6b3b7a	-0.05742977
156	0x3df91c7d	0.12163637
157	0xbe48420a	-0.19556442
158	0x3d44ad61	0.04801691
159	0xbb38fcb9	-0.0028226806
160	0x3e1d84c0	0.15382671
161	0x3ebd2e65	0.3694946
162	0x3d09c6d9	0.0336369
163	0xbe0f86d0	-0.1401627
164	0x3db5187a	0.08842559
165	0xbd1004ac	-0.035160705
166	0xbefda907	-0.4954302
167	0xbdba99a7	-0.09111338
168	0x3ed22434	0.41043246
169	0xbbdf655a	-0.006817502
170	0x3be0f671	0.0068653156
171	0xbe21c8d6	-0.15799269
172	0xbdf1dfa3	-0.118102334
173	0xbe89ee80	-0.26939774
174	0xbeb8350d	-0.35977975
175	0xbdca39fa	-0.098743394
176	0xbe759932	-0.2398422
177	0xbe01e2d4	-0.12684184
178	0xbe5b249e	-0.21400687
179	0x3d9bd212	0.07608427
180	0x3d55b6f8	0.052176446
181	0x3d86aaf1	0.06575573
182	0x3ded4fcd	0.115874864
183	0x3d7cfe25	0.06176581
184	0xbdd2169a	-0.10258217
185	0x3ddfa9ec	0.10921082
186	0xbed144d5	-0.40872827
187	0xbdcf552e	-0.101236686
188	0x3dd81705	0.105512656
189	0x3c3f9e86	0.01169551
190	0x3da33c6c	0.07970509
191	0x3e87c2f4	0.26515925
192	0xbe0d2c1a	-0.13786355
193	0x3e3c41ab	0.18384425
194	0xbe2dd155	-0.16974385
195	0xbe56ec74	-0.20988637
196	0xbe2c07d9	-0.16799869
197	0xbdcdf2ad	-0.10056052
198	0xbc9714f1	-0.018442603
199	0xbd827e60	-0.0637176
200	0x3e3bf57b	0.18355362
201	0xbe76fc80	-0.24119759
202	0x3c284c41	0.010272087
203	0x3f265e48	0.6498761
204	0xbe044dd0	-0.12920308
205	0x3e081ece	0.13293001
206	0x3e6fb308	0.23408139
207	0x3e685ff6	0.22692856
208	0xbd30d38b	-0.043170493
209	0xbe0668f0	-0.13125968
210	0x3e368991	0.17825915
211	0x3ceafe6d	0.028685773
212	0x3d880fd4	0.06643644
213	0x3e4e97ed	0.20175143
214	0x3df8ae34	0.121426016
215	0x3e433b3f	0.1906557
216	0x3e3c524b	0.18390767
217	0xbdc23003	-0.09481814
218	0x3e832f89	0.25622204
219	0x3d857e24	0.065182
220	0x3dc64adf	0.09682249
221	0xbd42ed50	-0.0475896
222	0xbd0185ba	-0.031621672
223	0x3b208bc6	0.0024497374
224	0x3e4f79df	0.20261334
225	0x3eb0c726	0.34526938
226	0xbe109f86	-0.14123353
227	0x3e8e4af4	0.2779156
228	0x3df3b06b	0.118988834
229	0x3e333a17	0.17502628
230	0xbcb6ed19	-0.022329854
231	0xbdbb9dab	-0.09160932
232	0xbd99d60f	-0.075115316
233	0x3a33ec3f	0.00068635115
234	0x3c8c5984	0.017132528
235	0xbdcccc3b	-0.09999891
236	0x3ddb973c	0.10722205
237	0x3e4a9ace	0.19785616
238	0xbb9e7497	-0.004835676
239	0x3e395c4c	0.18101615
240	0xbe675585	-0.22591217
241	0x3db7a553	0.0896708
242	0xbe068a59	-0.13138713
243	0xbe2f22eb	-0.17103164
244	0x3d789841	0.060692076
245	0xbb962a08	-0.0045826472
246	0x3cb5d5d0	0.02219668
247	0x3e2d513b	0.16925518
248	0x3da9366e	0.08262335
249	0x3e3ce554	0.18446857
250	0xbd8746e6	-0.0660532
251	0xbe675a4b	-0.22593038
252	0x3e1fdba9	0.15611137
253	0xbe0450ee	-0.12921497
254	0xba859483	-0.0010191355
255	0x3dce033f	0.10059213

mps.0.l2.edge_block.m.0.bias f4 [16]
0	0xbc43f49a	-0.011960173
1	0xbdc47e15	-0.09594361
2	0xbf00ab1f	-0.5026111
3	0x3dde3298	0.10849494
4	0x3dc8f83b	0.09812971
5	0x3ed7ccc7	0.4214842
6	0x3e0ef4cc	0.1396057
7	0xbeb3d9f0	-0.3512721
8	0xbe38ff20	-0.18066072
9	0x3da53620	0.08066964
10	0x3d0dfac4	0.034662977
11	0x3f17a78b	0.59240025
12	0x3dc05566	0.093912885
13	0x3f1f4206	0.6221012
14	0xbdbf6709	-0.09345824
15	0xbe1f4a80	-0.15555763

mps.0.l2.edge_block.m.2.weight f4 [1, 16]
0	0x3d98ebf1	0.07466877
1	0xbc171152	-0.009220438
2	0xbe81a831	-0.25323632
3	0xbbdec855	-0.006798784
4	0x3e642456	0.22279486
5	0xbe8f905f	-0.28039834
6	0x3f53791f	0.8260669
7	0xbc1332ac	-0.008984249
8	0xbd78a759	-0.06070647
9	0xbc20a324	-0.009804521
10	0xbec171b5	-0.37782064
11	0x3f045ab3	0.51700896
12	0x3d25a8ac	0.04044406
13	0x3e4296b1	0.19002797
14	0xbb8dcbdc	-0.0043272804
15	0x3c124080	0.008926511

mps.0.l2.node_block.m.0.weight f4 [16, 9]
0	0xbe5707f9	-0.20999135
1	0xbd0162cd	-0.031588364
2	0xbd977eae	-0.07397209
3	0xbdc682c8	-0.09692913
4	0xbe624f6b	-0.22100608
5	0x3e1765e4	0.14784962
6	0x3cb2aee2	0.021811906
7	0x3d82b639	0.063824125
8	0x3ed4ba07	0.41548178
9	0x3bcd5c4e	0.006267107
10	0x3dc07c73	0.09398737
11	0x3cdca7c8	0.026935473
12	0x3b81bcaa	0.003959258
13	0x3cb0b539	0.021570789
14	0xbea0f8a5	-0.314397
15	0x3d72bd72	0.0592627
16	0xbd944b84	-0.07240966
17	0x3cb74f4c	0.022376679
18	0x3e9cd378	0.30630088
19	0x3c02c2a0	0.0079809725
20	0xbe096c73	-0.13420276
21	0x3e1749ba	0.14774218
22	0xbd085eac	-0.03329341
23	0xbdc3900e	-0.095489606
24	0x3e7fee2e	0.24993202
25	0xbdebef26	-0.11520223
26	0xbd580d1b	-0.052746873
27	0x3e13679d	0.14394994
28	0x3d2235ea	0.039602198
29	0xbc040f82	-0.008060338
30	0x3b8a3e43	0.004218848
31	0x3de4171e	0.11137222
32	0xbd66c5d1	-0.056340996
33	0x3d56e983	0.052468788
34	0x3d068295	0.032839376
35	0xbe8c13d9	-0.27358893
36	0xbdbcfd6d	-0.09228025
37	0xbe05e82a	-0.13076845
38	0xbe0966ff	-0.13418196
39	0xbc0f8bdb	-0.0087613715
40	0xbe059614	-0.13045532
41	0xbe59fb58	-0.21287286
42	0xbe4ee8ad	-0.20205946
43	0x3d4b3f0e	0.04962068
44	0xbe1adf44	-0.15124232
45	0xbe1912bb	-0.14948551
46	0x3e1d18a3	0.1534143
47	0x3e3495d5	0.17635281
48	0x3e99be54	0.3002802
49	0xbe14d2fe	-0.14533612
50	0xbdf9e6b2	-0.12202205
51	0x3e59a678	0.21254909
52	0x3da152fa	0.07877155
53	0xbc6fd8c2	-0.014639081
54	0xbe4d176f	-0.2002847
55	0xbcf5d512	-0.030008826
56	0xbe218952	-0.1577504
57	0xbd0cee8c	-0.034407184
58	0xbd9f9dba	-0.07793756
59	0x3e0d430b	0.13795106
60	0xbd9ef977	-0.077624254
61	0xbde71467	-0.11283188
62	0x3e614753	0.21999864
63	0xbd80bc39	-0.062859006
64	0x3deab7d2	0.11460842
65	0x3d9c2eff	0.07626151
66	0xbd5ea4fe	-0.054356568
67	0xbe041799	-0.12899627
68	0x3dd32058	0.103089035
69	0x3d8a3c13	0.067497395
70	0x3c94fdd9	0.01818745
71	0xbe0a8b43	-0.13529687
72	0x3e86fd94	0.2636534
73	0x3eb13f92	0.34618813
74	0x3d29129f	0.041277524
75	0xbd29d489	-0.041462455
76	0x3e2729ae	0.16324493
77	0x3e19b38a	0.15009895
78	0xbdc3de8f	-0.09563934
79	0xbdbe7808	-0.09300238
80	0xbdbebf70	-0.093138576
81	0x3e504fe3	0.20342974
82	0x3e4a880c	0.1977846
83	0x3d1dc774	0.03852029
84	0x3ca37c78	0.019956812
85	0x3e3977a5	0.18112047
86	0xbe106399	-0.14100493
87	0xbdc59d7a	-0.09649177
88	0x3e241dfe	0.16027066
89	0xbd7a67c8	-0.06113413
90	0x3dbfce9b	0.09365579
91	0x3d8da5b3	0.0691637
92	0xbdd9a232	-0.106266394
93	0xbe20f1d0	-0.15717244
94	0x3d7edab6	0.062220298
95	0xbe688811	-0.22708155
96	0xbe43c7f1	-0.1911924
97	0x3e4aab99	0.19792022
98	0x3e62cac3	0.2214766
99	0xbe47167c	-0.19442171
100	0xbd8c377c	-0.0684652
101	0xbd5610e2	-0.052262194
102	0xbdae19b9	-0.08501
103	0xbe04d754	-0.12972766
104	0x3d57c7ce	0.052680783
105	0xbd502278	-0.050814122
106	0xbd40a515	-0.047032434
107	0xbea1ae32	-0.31578213
108	0x3e4499e9	0.19199337
109	0x3db09571	0.08622254
110	0xbcd666e8	-0.026172116
111	0x3e062b60	0.13102484
112	0x3e618860	0.22024679
113	0xbc7af6e3	-0.015317651
114	0xbd2a9eb7	-0.04165527
115	0x3d0831bc	0.033250555
116	0xbeaa4600	-0.3325653
117	0x3d37bc69	0.044857416
118	0x3e955e8a	0.2917369
119	0xbc9b01eb	-0.018921813
120	0x3e1ca524	0.15297371
121	0x3d8521ae	0.065005645
122	0xbe11faa0	-0.14255762
123	0xbcb71a56	-0.022351425
124	0x3d31cc20	0.04340756
125	0xbd8649d2	-0.06557049
126	0x3d9e1df6	0.07720558
127	0xbd186b13	-0.03721149
128	0xbde2b67c	-0.110699624
129	0x3e239b81	0.15977289
130	0xbd8057a8	-0.06266719
131	0xbe8665f4	-0.2624966
132	0x3d93bfb5	0.072142996
133	0xbdff8c4a	-0.1247793
134	0xbc0b4958	-0.008501373
135	0x3e60ba0f	0.21945976
136	0x3ddbcac3	0.10732033
137	0x3dd236c0	0.10264349
138	0x3ca21b00	0.019788265
139	0x3d05312a	0.03251759
140	0xbd0fb8fd	-0.035088528
141	0x3e2460e0	0.1605258
142	0x3b46bb90	0.0030324198
143	0xbc9a36e6	-0.018825006

mps.0.l2.node_block.m.0.bias f4 [16]
0	0x3f3665ae	0.712489
1	0xbe3bd5c6	-0.18343267
2	0xbe640580	-0.22267723
3	0xbed9e814	-0.42559874
4	0x3f313ab7	0.69230217
5	0x3dcfd26d	0.101475574
6	0x3f6c36b3	0.92270964
7	0x3ec9b0fd	0.39392844
8	0xbb1ff246	-0.002440588
9	0xbeae474f	-0.3403878
10	0xbe39cd67	-0.18144761
11	0x3f7bfc97	0.98432297
12	0xbde42fd3	-0.11141934
13	0x3d8777ff	0.06614684
14	0xbe7ca22e	-0.24671242
15	0xbe428538	-0.18996131

mps.0.l2.node_block.m.2.weight f4 [8, 16]
0	0xbe4118de	-0.18857142
1	0x3d1d84c7	0.038456704
2	0x3d82d941	0.06389094
3	0x3e579021	0.21051075
4	0x3e80de69	0.25169685
5	0x3e1ea552	0.15492752
6	0xbd678e57	-0.05653223
7	0x3e107cde	0.14110133
8	0x3c3a87e0	0.011384934
9	0x3d84a6e6	0.06477146
10	0xbdea6a5e	-0.11446069
11	0x3ddc482c	0.10755953
12	0x3e76e2f4	0.24110013
13	0xbda4c8e2	-0.08046128
14	0xbdab3e33	-0.08361473
15	0xbb994d17	-0.0046783793
16	0xbe4053a5	-0.18781908
17	0xbe554afd	-0.20829387
18	0x3d1139b0	0.035455406
19	0x3e5d9fb9	0.2164296
20	0x3db92c8d	0.090417005
21	0x3d16e7eb	0.036842268
22	0xbe7657cb	-0.24056928
23	0xbddb767c	-0.107159585
24	0x3df2200f	0.11822521
25	0x3e1e9102	0.15485004
26	0xbe85b523	-0.2611476
27	0x3d8687ba	0.065688565
28	0x3e43c5d0	0.19118428
29	0x3c674e57	0.014117799
30	0xbde7d340	-0.113195896
31	0x3e1d5136	0.15363011
32	0x3c90cde4	0.017676301
33	0x3d4e2254	0.050325707
34	0xbd33cc8f	-0.043896254
35	0xbcd34cd8	-0.025793478
36	0xbe697b5c	-0.22800964
37	0x3d9e6598	0.07734221
38	0x3bee30f1	0.007269018
39	0x3da7973f	0.08183145
40	0x3dce5017	0.1007387
41	0x3df2dad1	0.11858142
42	0xbea4709b	-0.3211716
43	0x3e090ae2	0.13383058
44	0xbdcaaf74	-0.09896746
45	0xbe11604b	-0.14196889
46	0xbd631071	-0.0554356
47	0x3d93fca0	0.07225919
48	0x3deb8c99	0.11501426
49	0x3e2ecf9e	0.17071387
50	0x3cc2610e	0.02372792
51	0x3d1e8861	0.03870428
52	0x3dcc308b	0.09970196
53	0xbd842a24	-0.0645335
54	0xbda3fe11	-0.08007444
55	0xbe11cb4e	-0.14237711
56	0x3d440ba8	0.04786268
57	0xbe05c852	-0.13064697
58	0x3e440564	0.19142681
59	0xbe7f8e0d	-0.24956532
60	0xbd74d2d3	-0.05977137
61	0x3e3bcf3e	0.18340775
62	0x3e2614ca	0.16218868
63	0x3c8be7ec	0.017078362
64	0xbe418d2f	-0.18901514
65	0x3da53e10	0.08068478
66	0xbdc5796c	-0.096423
67	0xbdfeecce	-0.12447511
68	0x3e63861f	0.22219132
69	0xbd964672	-0.07337655
70	0xbe113a66	-0.14182433
71	0x3e18944a	0.14900318
72	0xbd4b7ec1	-0.04968143
73	0xbd5f5baf	-0.054530796
74	0x3dd9a544	0.10627225
75	0xbdb2794a	-0.0871454
76	0x3e01b762	0.12667611
77	0xbdebdeed	-0.11517129
78	0x3d243355	0.040088017
79	0xbd072827	-0.032997277
80	0x3d1deaf5	0.03855415
81	0xbe15c779	-0.14626874
82	0x3d9bc99a	0.07606812
83	0x3d96f111	0.073701985
84	0x3e234e12	0.1594775
85	0x3e37f8e9	0.17966045
86	0x3dc3f046	0.09567313
87	0x3d037587	0.032094505
88	0xbc9a1997	-0.01881103
89	0x3dbad4d1	0.09122623
90	0x3e0361d6	0.1283029
91	0x3e0eb0cc	0.1393463
92	0xbc5b68d0	-0.0133916885
93	0x3df362ef	0.118841045
94	0x3d079aac	0.03310649
95	0x3d53c0ad	0.05169742
96	0x3d42845e	0.047489516
97	0x3df6c01b	0.1204836
98	0xbd90a086	-0.070618674
99	0x3e353b1d	0.17698331
100	0xbe8e3e9c	-0.27782142
101	0xbb7a8f94	-0.0038232552
102	0xbddd0879	-0.10792632
103	0xbcc6b3b3	-0.02425561
104	0xba003b57	-0.0004891655
105	0x3cc609f3	0.024174666
106	0x3ba24cff	0.0049530263
107	0x3bdf6f6c	0.0068187024
108	0x3ca91345	0.020639071
109	0x3d71e924	0.05906023
110	0x3de34f70	0.11099136
111	0xbd73ca64	-0.059519187
112	0x3d0a7c10	0.03380972
113	0xbc7cddf3	-0.015433776
114	0xbc628107	-0.013824708
115	0x3da63d21	0.08117128
116	0xbe8d009a	-0.2753952
117	0xbd8b83e7	-0.06812268
118	0xbcb705c9	-0.022341626
119	0xbd5dd26d	-0.054155756
120	0x3beffa75	0.007323558
121	0xba1c71b5	-0.00059678714
122	0xbcb21ee0	-0.021743238
123	0x3e5010ec	0.20318955
124	0x3cff9f6b	0.031203946
125	0x3dab54b1	0.08365763
126	0x3d3f808d	0.046753455
127	0xbda1d1f5	-0.07901374

mps.0.l2.node_block.m.2.bias f4 [8]
0	0x3ec23c9f	0.37936875
1	0xbf3a36c2	-0.72739804
2	0x3e0d32b3	0.13788871
3	0xbec6cb24	-0.3882686
4	0xbf1a331e	-0.6023425
5	0x3dafc7e2	0.085830465
6	0xbe931dac	-0.28733575
7	0x3ed66a84	0.4187814

mps.1.l1.edge_block.m.0.weight f4 [16, 18]
0	0xbe0aabeb	-0.13542144
1	0x3eb60253	0.35548648
2	0xbd21329a	-0.039354898
3	0x3dc4de44	0.09612706
4	0x3d9d82c0	0.07690954
5	0xbdada4b2	-0.08478679
6	0x3e6c1866	0.23056182
7	0xbd188e11	-0.03724486
8	0x3dc43309	0.09580047
9	0x3dc0bfbe	0.09411572
10	0x3d8133bd	0.063086964
11	0x3e9edf71	0.31029847
12	0xbc917c9a	-0.01775961
13	0x3db26ad0	0.08711779
14	0x3e4a52c0	0.19758129
15	0xbe592a2c	-0.21207494
16	0xbdbb0b36	-0.09132998
17	0xbe988d1c	-0.29795158
18	0xbe614828	-0.22000182
19	0x3e40c658	0.18825662
20	0x3d4e6493	0.050388884
21	0xbd5993b3	-0.053119373
22	0x3e5eb8a0	0.21750116
23	0xbd9513b5	-0.072791494
24	0x3d91bee1	0.071164854
25	0x3d6d8ff2	0.057998605
26	0xbddc2f1b	-0.10751172
27	0xbba2e3db	-0.00497101
28	0x3dd0c5a3	0.10193946
29	0x3d6d484e	0.057930283
30	0x3e0b31e0	0.13593245
31	0x3d165d13	0.036709856
32	0x3df412c4	0.11917642
33	0xbe560e3a	-0.20903865
34	0x3cdf90e3	0.027290767
35	0x3f886883	1.0656894
36	0xbe02f0e4	-0.12787205
37	0x3e2ede76	0.1707705
38	0xbdaa9b59	-0.083304115
39	0x3cd92b16	0.026509803
40	0x3dcc193a	0.09965749
41	0xbd83e248	-0.06439644
42	0x3e05fcdd	0.13084741
43	0xbd5c8743	-0.053839933
44	0xbe53e04b	-0.2069103
45	0x3cd0227b	0.025407067
46	0x3c82f5ff	0.01598644
47	0xbd351788	-0.044211894
48	0x3d732601	0.059362415
49	0xbe0107b8	-0.126006
50	0xbc0a152e	-0.008427901
51	0xbd874bec	-0.06606278
52	0xbcad7c74	-0.021177508
53	0x3f921896	1.1413753
54	0xbdc0e9d1	-0.09419597
55	0xbe3d351c	-0.18477291
56	0x3e75895f	0.23978184
57	0xbe7af3cb	-0.24507062
58	0xbd9dcdfc	-0.07705304
59	0x3de6d423	0.112709306
60	0xbd7f6869	-0.062355433
61	0xbdbcc007	-0.09216314
62	0x3e96a8cf	0.29425666
63	0xbb8269cf	-0.0039798985
64	0xbdde442d	-0.10852847
65	0x3d62da3f	0.055383917
66	0x3da98a21	0.08278299
67	0xbc9e9ddd	-0.019362384
68	0xbe196902	-0.14981464
69	0x3cb0dcd7	0.02158968
70	0x3e05fb95	0.13084252
71	0xbf5d21bc	-0.863796
72	0xbd6b374c	-0.057425782
73	0x3ea7eafe	0.32796472
74	0x3de1a0f8	0.110170305
75	0x3e4c0b29	0.19926132
76	0x3e6e82f5	0.23292144
77	0x3dc725a5	0.09723977
78	0xbdce12a7	-0.100621514
79	0xbe1b927a	-0.15192595
80	0xbd2a42a7	-0.04156747
81	0xbd928193	-0.071536206
82	0x3dbe7fba	0.09301706
83	0x3d32fbf8	0.043697327
84	0x3de06ea6	0.109586045
85	0xbe74d5af	-0.23909639
86	0x3e81bc42	0.25338942
87	0x3e578d09	0.21049894
88	0x3e9c162b	0.30485663
89	0xbebcfc69	-0.36911324
90	0x3d788c2e	0.06068056
91	0x3dc76607	0.09736257
92	0x3dff872a	0.124769524
93	0x3e109f39	0.14123239
94	0xbdbcb5d7	-0.09214371
95	0xbd91db3e	-0.07121895
96	0x3aee5c12	0.0018185398
97	0x3cb99ec4	0.022658713
98	0xbe3447c5	-0.17605503
99	0x3e526fbf	0.2055044
100	0x3be2785b	0.00691132
101	0x3d1c8af0	0.03821844
102	0x3b991bab	0.0046724877
103	0x3d98a4a5	0.074532785
104	0x3e06a1e4	0.13147694
105	0xbe590b6c	-0.21195763
106	0xbc53add4	-0.012919862
107	0x3f6afead	0.91794854
108	0x3d0e368e	0.034719996
109	0x3d4a75e3	0.04942883
110	0x3d2e57c5	0.042564172
111	0xbde34d53	-0.11098733
112	0x3e1f4e86	0.15557298
113	0xbe1ec94d	-0.15506478
114	0xbd5aa37e	-0.053378575
115	0x3d52d439	0.051471923
116	0xbe93bfcc	-0.28857267
117	0x3dce1665	0.10062865
118	0xbd9a76b1	-0.0754217
119	0x3d539151	0.051652256
120	0xbd87c978	-0.06630224
121	0xbe709cdd	-0.23497339
122	0x3c86f531	0.016474338
123	0xbdcc3b31	-0.09972227
124	0xbd3edc51	-0.04659683
125	0x3f61c90d	0.88197404
126	0xbe97ed86	-0.29673404
127	0x3e68329c	0.22675556
128	0xbe22beff	-0.15893172
129	0x3dd9291d	0.10603545
130	0x3e3e2463	0.18568568
131	0x3d9611de	0.07327627
132	0xbda95a0f	-0.082691304
133	0xbba6d280	-0.0050910115
134	0xbcbfbf55	-0.023406664
135	0x3d86f40b	0.06589516
136	0x3e1fbe7a	0.15600005
137	0xbd847550	-0.06467688
138	0x3ba56fd8	0.005048733
139	0xbdaec2aa	-0.08533223
140	0xba839730	-0.0010039564
141	0xbc90be67	-0.017668916
142	0x3c47f470	0.012204275
143	0xbf4ea337	-0.80717796
144	0xbbe6a70f	-0.007038958
145	0xbb6f1290	-0.003647957
146	0xbe1c4746	-0.15261564
147	0x3ccb6101	0.024826529
148	0x3d6e34d4	0.05815585
149	0xbe60e0eb	-0.219608
150	0x3e14ed3f	0.14543627
151	0x3df6abe5	0.12044505
152	0xbd410be0	-0.047130466
153	0xbe879563	-0.2648116
154	0xbe81f59a	-0.25382692
155	0x3e4c161c	0.19930309
156	0xbe47fc4f	-0.19529842
157	0xbe70d75b	-0.23519652
158	0x3cbce4d3	0.02305833
159	0x3d9ff781	0.078108795
160	0xbee57a70	-0.44819975
161	0xbe779701	-0.24178697
162	0x3de0e9f7	0.10982125
163	0x3d47a2f8	0.048739403
164	0xbe9a568c	-0.30144155
165	0x3df8ff8f	0.12158119
166	0x3ebf36a6	0.3734638
167	0x3daf1da9	0.08550579
168	0x3b522999	0.0032068251
169	0xbdde82f3	-0.1086482
170	0xbeaba3ac	-0.3352331
171	0xbdac37fa	-0.08409114
172	0x3e26c7ab	0.16287105
173	0x3e4fdd23	0.202992
174	0xbc41ebb7	-0.011835984
175	0xbe5c4f8c	-0.2151472
176	0x3ed8ffb2	0.4238258
177	0x3e9c5033	0.30529937
178	0xbe6761ac	-0.22595853
179	0x3f04496c	0.5167453
180	0x3e31c264	0.1735931
181	0xbe1964bc	-0.14979833
182	0x3d452d8f	0.04813915
183	0x3c9389ad	0.018009985
184	0xbdd236bc	-0.10264346
185	0x3e1ebed9	0.1550249
186	0xbe0fd263	-0.140451
187	0x392c52a5	0.00016433986
188	0xbe7ed0a4	-0.24884278
189	0xbe0ba51c	-0.13637203
190	0xbd8d9d45	-0.069147624
191	0x3d3b9983	0.045800697
192	0xbe0f7bc1	-0.14012052
193	0xbb03e576	-0.0020125783
194	0x3cf4401a	0.029815722
195	0x3c2f05d1	0.010682539
196	0xbf1633a5	-0.58672553
197	0x3f99318c	1.1968246
198	0xbcee22f9	-0.02906941
199	0xbdf20af5	-0.11818496
200	0xbe9aae41	-0.3021107
201	0x3d62584a	0.05525998
202	0x3dd2aecc	0.10287246
203	0xbbab16f8	-0.005221244
204	0xbdb72ea0	-0.0894444
205	0xbd56cec6	-0.05244329
206	0xbdf5e282	-0.120060936
207	0x3e5f2156	0.2179006
208	0x3e40a836	0.18814167
209	0x3ccd53b5	0.025064329
210	0x3e30fe47	0.17284499
211	0xbe30881c	-0.17239422
212	0x3d032487	0.032017257
213	0x3d63fdc3	0.055661928
214	0xbeaafc21	-0.33395484
215	0x3f1fc0ed	0.62403756
216	0xbdc54807	-0.09632879
217	0x3e3f9a36	0.1871117
218	0xbbe3e002	-0.006954194
219	0x3e4c54fd	0.19954295
220	0x3d53b1dc	0.05168329
221	0xbe2df2b2	-0.16987112
222	0x3da4f2fe	0.080541596
223	0xbe83fc8e	-0.2577862
224	0xbdd158d4	-0.10222021
225	0x3dae95e7	0.08524685
226	0xbd5d400e	-0.054016165
227	0xbd32bd1f	-0.04363739
228	0x3e1e596e	0.15463802
229	0x3d56c25f	0.05243146
230	0x3d9283f0	0.07154071
231	0x3d3022c6	0.043001913
232	0xbc59f7d9	-0.01330372
233	0x3f4cb9ef	0.7997121
234	0x3e35efb5	0.17767222
235	0x3e251103	0.1611977
236	0xbe8a041a	-0.26956254
237	0x3e86e8dd	0.26349536
238	0xbce49865	-0.027904699
239	0xbe005b8f	-0.12534927
240	0x3e053319	0.13007773
241	0xbdf3275c	-0.118727416
242	0xbe8d8dec	-0.2764734
243	0xbd1222a5	-0.03567757
244	0x3c9d622d	0.019211853
245	0x3eca2685	0.39482513
246	0xbe3f3895	-0.18673928
247	0xbe8512bd	-0.2599086
248	0x3e8781be	0.26466173
249	0xbd3777ec	-0.0447921
250	0xbe97f364	-0.2967788
251	0x3ecc336e	0.39882988
252	0xbdd52b34	-0.10408631
253	0xbc4b944a	-0.012425492
254	0x3d20d678	0.039267033
255	0x3daee1e0	0.08539176

mps.1.l1.edge_block.m.0.bias f4 [16]
0	0x3dd1f6a2	0.102521196
1	0x3dfc4738	0.123182714
2	0x3e167fb2	0.1469715
3	0x3d6b57f0	0.05745691
4	0xbd89ada5	-0.06722573
5	0x3dea465d	0.11439202
6	0xbdd6a695	-0.10480992
7	0x3e52cb83	0.20585446
8	0x3e20bd35	0.15697177
9	0x3ea95f04	0.33080304
10	0x3f2138e1	0.62977415
11	0x3cf431ec	0.02980896
12	0x3d65cff4	0.056106523
13	0xbdfe3d38	-0.1241402
14	0x3e96eed3	0.29479083
15	0x3cde3496	0.027124684

mps.1.l1.edge_block.m.2.weight f4 [1, 16]
0	0xbc667434	-0.014065791
1	0x3e5fcb03	0.21854787
2	0x3ee73f88	0.45165658
3	0xbd95a0f2	-0.073060885
4	0xbc963711	-0.018336805
5	0x3ec22744	0.37920582
6	0x3f1ec33f	0.6201667
7	0x3e2aab93	0.16667013
8	0xbea15dfa	-0.3151701
9	0x3f669229	0.9006677
10	0x3f3b2979	0.7311016
11	0x3e76a06a	0.2408463
12	0x3e103efc	0.14086527
13	0xbf16f40c	-0.58966136
14	0x3e8247f2	0.25445515
15	0x3f1ab2e7	0.60429233

mps.1.l1.node_block.m.0.weight f4 [16, 9]
0	0x3e146e04	0.14495093
1	0xbcfe2798	-0.03102474
2	0x3d81568e	0.06315337
3	0xbcfa9870	-0.030590266
4	0x3cd6aab9	0.026204454
5	0x3d4a5e60	0.04940641
6	0xbd0b2981	-0.033975128
7	0x3d805b2c	0.0626739
8	0x3f053ab8	0.5204272
9	0xbe544900	-0.20730972
10	0x3d4021c9	0.04690722
11	0xbd9a0f50	-0.07522452
12	0xbd5a9905	-0.053368587
13	0x3d60eb6e	0.054912023
14	0xbdd9be01	-0.106319435
15	0xbdb327d7	-0.08747833
16	0xbddcee35	-0.10787622
17	0xbe0a09db	-0.13480322
18	0x3dc9454c	0.098276705
19	0xbd095b6f	-0.033534463
20	0x3eac934f	0.33706138
21	0xbe39a46d	-0.1812913
22	0xbe8833a0	-0.26601887
23	0x3c81ff66	0.015868854
24	0x3e1a5c1b	0.15074198
25	0x3e47026a	0.19434515
26	0xbe809fef	-0.2512202
27	0xbe19724b	-0.14985006
28	0x3a58487c	0.0008250547
29	0x3de088f0	0.10963619
30	0x3d176d71	0.036969606
31	0x3df5998a	0.11992176
32	0xbc7b493b	-0.015337284
33	0xbc80d110	-0.015724689
34	0xbde0c5dd	-0.109752394
35	0xbe3e6afa	-0.18595496
36	0xbe97e5e9	-0.29667595
37	0x3e2617e7	0.16220056
38	0x3e38eb4e	0.18058512
39	0x3e5fdd83	0.21861844
40	0xbc30a8bc	-0.010782417
41	0xbd44af07	-0.04801848
42	0x3e00ea0e	0.12589285
43	0x3e2173dc	0.15766853
44	0x3e4d48e8	0.20047343
45	0x3d2025bb	0.039098483
46	0x3d4a1b38	0.049342364
47	0xbc7a43f5	-0.015274991
48	0x3d5bb4da	0.05363927
49	0xbc85c7a3	-0.016330546
50	0xbe1a9c7d	-0.15098758
51	0x3bee0470	0.0072637126
52	0xbd8659cd	-0.06560097
53	0xbe2e7a8e	-0.17038938
54	0x3c9af5c2	0.018916015
55	0x3d2fcd57	0.042920437
56	0xbea1d571	-0.31608155
57	0x3e6e32af	0.23261522
58	0x3e8fc2cb	0.28078303
59	0xbe430801	-0.19046022
60	0x3da2d325	0.07950429
61	0xbddc6ad1	-0.10762561
62	0x3f1e65cd	0.61874086
63	0x3d01c257	0.031679478
64	0x3dc55a9f	0.09636425
65	0xbe41b715	-0.18917497
66	0x3ec7fcb3	0.39059982
67	0x3e36ea37	0.17862783
68	0x3cef179d	0.029186064
69	0x3c800cf2	0.015631173
70	0xbec280cf	-0.37988898
71	0xbd6fb807	-0.05852511
72	0xbe4b6293	-0.19861822
73	0xbd8f23b7	-0.06989234
74	0xbe094382	-0.13404658
75	0xbe07fcad	-0.13279982
76	0x3e5d9b8e	0.2164137
77	0xbe2d78e1	-0.16940643
78	0x3de44820	0.11146569
79	0xbe4ee412	-0.2020419
80	0xbdf7964e	-0.12089215
81	0xbdc0e9ac	-0.094195694
82	0x3e7ab1a6	0.2448183
83	0xbda98c64	-0.082787305
84	0x3ea1c53e	0.31595796
85	0x3dabc814	0.08387771
86	0x3e0d787c	0.13815492
87	0x3d5ecbd8	0.05439362
88	0x3d1f82cf	0.03894311
89	0xbe2323c6	-0.15931615
90	0xbe4b9db7	-0.19884382
91	0x3e625331	0.22102048
92	0xbde650f6	-0.11245911
93	0x3cfcd21c	0.030861907
94	0xbc64c407	-0.013962752
95	0x3e126d03	0.14299397
96	0x3d000fe8	0.03126517
97	0xbda4356a	-0.080180004
98	0xbda01c1d	-0.07817862
99	0xbcb8b3e7	-0.022546722
100	0x3e2382b4	0.15967828
101	0x3da1397f	0.07872295
102	0x3defd768	0.11711007
103	0x3e171b17	0.14756428
104	0xbea085a4	-0.3135196
105	0x3e024c6a	0.12724462
106	0xbc7af84e	-0.0153179895
107	0x3e67ef66	0.22649917
108	0xbe22630c	-0.15858096
109	0xbd9882bb	-0.0744681
110	0x3a65a74c	0.0008760586
111	0xbe72aa17	-0.23697697
112	0xbdfb10ce	-0.122590646
113	0x3c0b7483	0.008511665
114	0xbd901fce	-0.07037316
115	0xbc5add1e	-0.0133583825
116	0x3f098cab	0.5373027
117	0xbb89e749	-0.0042084795
118	0x3d656c5f	0.056011554
119	0xbe014d7c	-0.12627214
120	0x3d3fc4a9	0.04681841
121	0x3cfc9836	0.030834299
122	0xbe6252a6	-0.2210184
123	0x3ea3992e	0.31952804
124	0xbe0ad197	-0.13556515
125	0x3c2cc9bb	0.010546143
126	0xbe7c352b	-0.24629657
127	0x3ddf8601	0.10914231
128	0xbe4dbca3	-0.2009149
129	0x3e4eadb1	0.20183446
130	0xbd25a6f2	-0.040442415
131	0xbd80de8e	-0.06292449
132	0xbd98da16	-0.074634716
133	0x3de12d0c	0.1099492
134	0xbeb6d2f0	-0.35707808
135	0x3dea5f53	0.11443963
136	0xbe4e0f52	-0.20123032
137	0xbd49c0f0	-0.049256265
138	0xbddb4274	-0.10706034
139	0xbbb76be3	-0.005597578
140	0x3e9384c1	0.2881222
141	0xbe759e90	-0.23986268
142	0x3dae4539	0.08509297
143	0xbf382aab	-0.71940106

mps.1.l1.node_block.m.0.bias f4 [16]
0	0x3f08c6bb	0.5342824
1	0x3dbc6660	0.09199214
2	0xbd5e594f	-0.05428439
3	0xbe688a69	-0.2270905
4	0x3e26da92	0.16294315
5	0xbe1ddbf8	-0.15415943
6	0x3ee6ab6d	0.45052662
7	0xbdc68695	-0.09693638
8	0x3e40f3cd	0.18843003
9	0xbd2d62a4	-0.0423304
10	0xbe62c6af	-0.22146104
11	0x3efd7cfc	0.49509418
12	0x3e8db3f3	0.27676353
13	0xbdd2e00d	-0.102966405
14	0xbe7d0753	-0.24709825
15	0x3f20c606	0.6280216

mps.1.l1.node_block.m.2.weight f4 [8, 16]
0	0x3e4e46da	0.20144215
1	0x3cb63ca7	0.022245718
2	0x3e47a12d	0.19495077
3	0xbd8a7ea5	-0.06762437
4	0xbdfbd957	-0.12297314
5	0xbdca2fe5	-0.098724164
6	0x3e3648dc	0.17801231
7	0xbdc48744	-0.09596112
8	0xbd930c85	-0.07180122
9	0x3ea4aaa4	0.32161438
10	0x3e4afab8	0.19822204
11	0xbe1e8582	-0.15480617
12	0x3d1919ed	0.03737824
13	0xbd9d2921	-0.0767386
14	0xbde4400d	-0.11145029
15	0x3ec26f81	0.37975696
16	0xbd467b92	-0.04845769
17	0xbe32601d	-0.17419477
18	0xbce1d00d	-0.027565027
19	0x3e59fae4	0.21287113
20	0xbda0bd79	-0.07848639
21	0x3e0293be	0.12751672
22	0x3dc50682	0.09620382
23	0x3ebb715f	0.36609933
24	0x3c8d429c	0.017243676
25	0x3d8acf5a	0.067778304
26	0x3e1a339f	0.15058754
27	0x3d99d701	0.07511712
28	0x3e79237a	0.2432994
29	0x3ce1ca03	0.027562147
30	0xbcb1105f	-0.021614252
31	0x3dc565c6	0.09638552
32	0xbdc7ce98	-0.097562015
33	0xba2240cc	-0.0006189465
34	0x3e13ca14	0.14432555
35	0x3dfeef70	0.12448013
36	0x3e03668b	0.12832086
37	0x3b799251	0.0038081596
38	0x3ee05244	0.43812764
39	0x3d999518	0.074991405
40	0xbe2eea9f	-0.17081688
41	0xbe446bbf	-0.19181727
42	0x3e1b2b18	0.15153158
43	0x3e778fa0	0.24175882
44	0xbe504978	-0.20340526
45	0x3dba0fd0	0.09085047
46	0x3a997e21	0.0011710563
47	0x3dcfcc15	0.101463474
48	0x3ea1a992	0.31574684
49	0x3d85db96	0.06536023
50	0x3d10615c	0.0352491
51	0xbc851b9d	-0.016248519
52	0xbe893dd9	-0.26805
53	0xbc5c7266	-0.013455009
54	0x3df849dc	0.121234626
55	0xbeae83a6	-0.34084815
56	0x3e0ee1f9	0.13953389
57	0xbe22c47c	-0.15895265
58	0xbc8ac5fa	-0.016940106
59	0x3dada7c1	0.08479262
60	0x3e0c1b78	0.13682353
61	0xbe15f373	-0.1464365
62	0x3e06a5c6	0.13149175
63	0x3e61a5ac	0.22035855
64	0x3e573c08	0.21018994
65	0x3bd315bb	0.0064417995
66	0xbe498b5a	-0.19682065
67	0x3dceffee	0.101074085
68	0x3d8cca24	0.06874493
69	0xbd3fe807	-0.046852138
70	0xbe20ea0e	-0.15714285
71	0x3d841be1	0.0645063
72	0xbcf2a6ad	-0.029620493
73	0x3c6654b6	0.014058283
74	0xbe1b2993	-0.15152578
75	0x3ddf7fd3	0.109130524
76	0x3dac92ab	0.08426412
77	0x3b81265e	0.0039413413
78	0xbe6553c5	-0.22395237
79	0xbf029a5c	-0.51016784
80	0xbd0ee3d3	-0.03488524
81	0xbdea925f	-0.11453699
82	0xbc7f388b	-0.015577446
83	0x3d9f2bbb	0.07772013
84	0x3df262ce	0.11835252
85	0x3d8876c8	0.06663281
86	0x3e3c7ed9	0.18407764
87	0xbdd39817	-0.10331743
88	0xbe0a5505	-0.13508995
89	0xbce57778	-0.028011069
90	0x3cb97ce5	0.022642562
91	0x3e2dbbb1	0.1696613
92	0xbd3bb6ab	-0.045828503
93	0xbb673c86	-0.0035283878
94	0x3decb69d	0.11558268
95	0x3d0d7bc8	0.034541875
96	0xbcadce9d	-0.021216685
97	0x3d74fbaf	0.059810337
98	0x3e0d9378	0.13825786
99	0xbde4d13e	-0.11172722
100	0x3dbfb87b	0.09361359
101	0x3d3d7a53	0.046259236
102	0x3e4c1d69	0.19933094
103	0xbd0d20ca	-0.0344551
104	0x3d03aa20	0.032144666
105	0xbd04260c	-0.032262847
106	0xbdc9718a	-0.09836109
107	0x3d3fe806	0.046852134
108	0xbe11f30c	-0.14252871
109	0xbd444ca9	-0.04792467
110	0x3e37af05	0.17937858
111	0xbd4dbd30	-0.05022925
112	0xbb01260f	-0.0019706523
113	0xb9715441	-0.00023014938
114	0xbdc51daf	-0.09624802
115	0x3e282142	0.16418937
116	0xbe6501cd	-0.22363968
117	0xbd844059	-0.06457586
118	0xbeb6107b	-0.3555945
119	0x3e240f11	0.16021372
120	0x3a0b5426	0.00053149683
121	0x3e0098d0	0.12558293
122	0xbd9d4f95	-0.07681195
123	0xbe1a2d24	-0.15056282
124	0x3ceaa4d7	0.028643055
125	0x3e486c25	0.19572504
126	0xbe292f44	-0.16521937
127	0xbc43ac45	-0.011942928

mps.1.l1.node_block.m.2.bias f4 [8]
0	0xbdba7c8a	-0.09105785
1	0xbf4ff795	-0.81237155
2	0x3ec03e5b	0.37547573
3	0x3eb8a13e	0.36060518
4	0x3de38d53	0.1111094
5	0x3f68c59e	0.9092654
6	0xbf648427	-0.8926415
7	0xbeb2d549	-0.3492835
