archive-july16/results/nif_sketch_pcg_w0.5_50epochs/model_epoch42.pt (torch, 44782 bytes, 56 tensors)

mps.0.l1.edge_block.m.0.weight f4 [16, 17]
0.19023888 0.5848814 0.41701248 1.2517607 0.63508654 1.8832579 1.3162465 1.1470746
0.015321963 0.99255276 1.4567118 1.3562255 1.2915237 1.6102077 1.4705981 1.2764428
0.86955726 0.00422777 -0.07681488 0.03827202 -0.07586263 -0.021113625 -0.064770654 0.10537428
-0.12616159 -0.07980242 -0.046982005 -0.097737476 0.012575255 -0.15943015 0.14357959 -0.13557112
0.122545965 0.026557531 -0.2608202 0.10507187 0.3147831 0.8547023 0.3275634 1.8008909
0.6586698 0.40360337 0.21814552 0.4059032 0.45363382 0.7096401 0.5401732 1.8192875
0.6967412 0.4323896 1.4217763 -0.065692164 -0.13220857 0.121422276 0.03353455 0.055416003
0.048881043 -0.004184311 0.122567646 -0.114172086 0.0012514062 -0.116676256 0.037987627 -0.064672776
0.04725106 -0.03459561 0.13013802 -0.09349627 -0.116815165 -0.13841806 0.10124569 0.0021798066
0.10664778 -0.13980305 -0.16644198 -0.13646702 -0.12397987 0.022045037 0.016290724 0.08224313
-0.12827083 -0.11716642 0.07603689 -0.0760849 0.07406684 -0.10032907 -0.22018467 -0.8879356
-0.76436895 -0.63569397 -1.5263324 -0.9013905 -0.5571601 0.20778506 -0.91182977 -0.71988285
-0.6932923 -0.80266637 -2.8702633 -1.0149189 -0.92882 0.019804819 -0.1240205 0.006364781
1.0469674 0.55902827 0.3140405 0.89292973 0.53607005 0.3803721 0.010395705 0.19858982
0.65935844 0.43957517 0.33956254 0.7334478 0.70035976 0.37760493 0.5464274 -0.09534891
0.00044137213 -0.059263866 -0.011036552 -0.10792493 -0.109320186 -0.092916556 -0.054516822 -0.12570503
0.13354044 -0.031608924 0.13703287 0.04962496 -0.13486564 0.11021855 -0.043821633 -0.06105124
-0.14475566 -0.18887907 0.01578859 -0.07172709 0.028331922 -0.13608816 0.11271985 -0.124606125
-0.03657785 0.0033207461 0.05319439 0.09214851 0.11177093 -0.13178134 0.03455753 -0.07611459
-0.031350292 -0.069059156 0.48927796 0.052697927 0.94690603 0.5255227 2.4428315 0.87923115
0.869816 -0.053124994 0.6517904 0.647849 1.0356061 0.73216873 1.5748533 1.1021538
0.8851958 1.0465567 -0.10147385 -0.07692186 -0.35728002 -0.520079 -0.50170153 -1.6435709
-0.7548003 -0.36490732 0.25538546 -0.7063537 -0.2960749 -0.54055524 -0.47774237 -2.9646642
-0.55269295 -0.5246663 0.11498123 -0.028182954 -0.044561375 0.014829013 -0.031216964 -0.050198626
0.10140075 0.13649352 -0.01628877 -0.03585576 -6.318659e-05 -0.01171909 0.03520782 0.04189601
-0.14505787 -0.05915583 0.13360155 0.060367867 -0.007921564 -0.09602327 -0.09744068 -0.14266585
-0.05191492 0.053784896 0.10155143 0.07353337 -0.14078182 -0.095776916 -0.025134975 0.1540654
0.023039255 -0.041245874 0.065890424 -0.060661945 -0.10308702 0.25443304 0.38187534 0.5185729
1.0471976 0.82976794 2.004781 1.5652479 1.0132821 -0.23399915 1.0531452 1.5634438
1.5155367 1.4042037 1.759013 1.547425 1.3959461 0.5948421 -0.1364552 -0.14897056
0.06519763 -0.07819484 -0.032052893 -0.09165904 -0.02902225 -0.112097785 -0.1040686 0.05283063
-0.04733349 0.09832298 -0.0510945 -0.11683391 -0.028100904 -0.077203944 -0.048726548 -0.0022057937
00000000: fbcd 423e caba 153f a982 d53e b239 a03f
00000010: 0895 223f 980e f13f c47a a83f 57d3 923f
00000020: f808 7b3c f017 7e3f 8875 ba3f cc98 ad3f
00000030: a650 a53f 491b ce3f 8f3c bc3f 7a62 a33f
00000040: 4e9b 5e3f 1b89 8a3b 1f51 9dbd 1fc3 1c3d
00000050: de5d 9bbd 7bf6 acbc 7aa6 84bd 78ce d73d
00000060: 8130 01be 746f a3bd 3470 40bd 962a c8bd
00000070: 7108 4e3c a841 23be 8706 133e 28d3 0abe
00000080: 61f9 fa3d 2e8f d93c 3a8a 85be ec2f d73d
00000090: 402b a13e c5cd 5a3f 64b6 a73e 9883 e63f
000000a0: 969e 283f 1aa5 ce3e 8a61 5f3e 8bd2 cf3e
000000b0: b142 e83e f9aa 353f ca48 0a3f 6ade e83f
000000c0: a25d 323f 2b62 dd3e c4fc b53f 9d89 86bd
000000d0: af61 07be 3eac f83d 865b 093d e4fb 623d
000000e0: 7d37 483d 8b1c 89bb bf04 fb3d 0ed3 e9bd
000000f0: 3906 a43a f6f3 eebd ea98 1b3d 2973 84bd
00000100: 548a 413d 20b4 0dbd e742 053e f97a bfbd
00000110: ca3c efbd 77bd 0dbe e659 cf3d 16db 0e3b
00000120: 276a da3d 8828 0fbe c46f 2abe 03be 0bbe
00000130: 28e9 fdbd cb97 b43c 2074 853c 166f a83d
00000140: 6e59 03be f3f4 efbd 3bb9 9b3d 66d2 9bbd
00000150: 5bb0 973d 5479 cdbd 1778 61be bf4f 63bf
00000160: afad 43bf d7bc 22bf dc5e c3bf 87c1 66bf
00000170: 0ba2 0ebf 9bc5 543e ad6d 69bf 3e4a 38bf
00000180: 9b7b 31bf 8b7b 4dbf 65b2 37c0 dde8 81bf
00000190: 26c7 6dbf b73d a23c 76fe fdbd a78f d03b
000001a0: 0703 863f 7a1c 0f3f ebc9 a03e 0b97 643f
000001b0: e33b 093f 22c0 c23e bf52 2a3c 215b 4b3e
000001c0: b7cb 283f ff0f e13e 24db ad3e 3cc3 3b3f
000001d0: c74a 333f 6f55 c13e abe2 0b3f 4a46 c3bd
000001e0: f767 e739 abbe 72bd a7d2 34bc bf07 ddbd
000001f0: 43e3 dfbd 094b bebd 084d 5fbd d2b8 00be
00000200: d3be 083e 5c78 01bd 5852 0c3e 8b43 4b3d
00000210: 381a 0abe 43ba e13d 507e 33bd dd10 7abd
00000220: d43a 14be 8469 41be 1357 813c a7e5 92bd
00000230: 5918 e83c b25a 0bbe aad9 e63d 7f31 ffbd
00000240: a8d2 15bd e0a0 593b 5ce2 593d 5cb8 bc3d
00000250: 28e8 e43d b0f1 06be 328c 0d3d f7e1 9bbd
00000260: 2a69 00bd e36e 8dbd a482 fa3e c8d9 573d
00000270: 6f68 723f a888 063f 5a57 1c40 4b15 613f
00000280: 43ac 5e3f 9899 59bd bcdb 263f 6fd9 253f
00000290: be8e 843f 696f 3b3f cb94 c93f 6013 8d3f
000002a0: 319c 623f 92f5 853f 86d1 cfbd 3589 9dbd
000002b0: 68ed b6be e623 05bf 836f 00bf 8860 d2bf
000002c0: 983a 41bf 22d5 babe e2c1 823e 99d3 34bf
000002d0: 2197 97be d461 0abf a69a f4be 0fbd 3dc0
000002e0: 497d 0dbf 8850 06bf 477b eb3d f0df e6bc
000002f0: fd85 36bd 63f5 723c b8ba ffbc 139d 4dbd
00000300: 32ab cf3d f5c4 0b3e 0770 85bc 7ddd 12bd
00000310: 0b83 84b8 6d01 40bc 1336 103d 279b 2b3d
00000320: 0d8a 14be 624d 72bd d8ce 083e 4c44 773d
00000330: 73c9 01bc d9a7 c4bd fb8e c7bd ff16 12be
00000340: bda4 54bd 8d4d 5c3d 32fa cf3d aa98 963d
00000350: 1c29 10be b026 c4bd dde7 cdbc 52c3 1d3e
00000360: d2bc bc3c 6ff1 28bd 8ff1 863d a978 78bd
00000370: 4a1f d3bd 0c45 823e 2a85 c33e 32c1 043f
00000380: 920a 863f ac6b 543f 554e 0040 0b5a c83f
00000390: 3ab3 813f 799d 6fbe 76cd 863f ed1e c83f
000003a0: 1bfd c13f f2bc b33f 5727 e13f 0612 c63f
000003b0: 5dae b23f 9247 183f e9ba 0bbe bd8b 18be
000003c0: 5686 853d 9e24 a0bd e549 03bd bcb7 bbbd
000003d0: 12c0 edbc 8693 e5bd eb21 d5bd ee64 583d
000003e0: c3e0 41bd 8f5d c93d 7748 51bd 9e46 efbd
000003f0: de33 e6bc 1a1d 9ebd 7d95 47bd 148f 10bb

mps.0.l1.edge_block.m.0.bias f4 [16]
1.4993172 0.11861719 0.8323644 -0.04035691 -0.1467859 -0.8286399 0.74149144 -0.15851814
-0.04676869 0.89616513 -0.6584094 -0.07914873 -0.06510224 1.4661201 -0.1513513 0.69983226
00000000: a0e9 bf3f 92ed f23d d515 553f 4a4d 25bd
00000010: 0b4f 16be bf21 54bf 62d2 3d3f 9452 22be
00000020: 8790 3fbd 146b 653f 858d 28bf bb18 a2bd
00000030: 5354 85bd d3a9 bb3f d6fb 1abe 3528 333f

mps.0.l1.edge_block.m.2.weight f4 [1, 16]
0.16983604 -0.0156494 0.5691747 -0.061999135 -0.11654091 -0.30314898 0.009568539 -0.09013634
-0.08281377 0.020881733 -0.25870928 -0.05263205 0.0052749356 1.9633877 -0.056525532 -0.75836587
00000000: 80e9 2d3e 2c33 80bc 6fb5 113f cef2 7dbd
00000010: 00ad eebd 5836 9bbe 5dc5 1c3c 6799 b8bd
00000020: 449a a9bd 2b10 ab3c 8b75 84be b494 57bd
00000030: 5ed9 ac3b 4a50 fb3f 5187 67bd 4424 42bf

mps.0.l1.node_block.m.0.weight f4 [16, 9]
-0.009777526 0.22316173 -0.4219486 -0.47435674 -0.07115104 0.44430202 -0.34896636 -0.39121556
-0.323979 0.031187225 0.39505848 1.7066678 1.176786 0.74438524 -1.0262914 0.8697031
0.7496855 -0.6676971 -0.024068763 0.14038359 1.1267316 0.9695952 0.55237937 -0.063813284
1.1362693 1.045058 0.24414648 -0.1664901 -0.17559999 0.10889368 -0.1628195 -0.026951669
0.10500449 -0.10130607 -0.023867939 -0.019053105 -0.051786028 -0.12948567 -0.21362796 -0.19744521
-0.13710682 0.20494524 -0.11249049 -0.15531188 0.016663687 -0.009505575 -0.5230472 -1.0252305
-0.61145467 -1.0155069 3.9484415 -0.6128857 -0.73162293 -0.1571425 -0.005147949 -0.31273228
-1.5690622 -1.0577092 -0.66855586 1.0394627 -0.8407387 -0.6315085 0.08150868 -0.21283469
-0.18291247 0.19713244 0.6885362 0.022254478 2.471377 0.41858172 0.23103283 0.48862863
-0.024685893 0.3892695 0.20956536 0.9464183 0.25547203 1.6476953 1.0112793 0.6363738
0.68964154 0.0011590632 0.40649748 1.58266 1.3023765 0.93745387 0.029549547 1.4965504
1.1682155 0.6929184 -0.14967212 -0.201763 0.0017095202 0.04094402 -0.12352598 -0.076160766
0.13502342 0.0014892636 -0.0098277815 0.0020247938 0.022842092 0.63081366 0.9496371 0.5262391
0.9762773 1.0423306 0.73933274 0.8665654 -0.0075438065 0.4606583 0.7931398 0.6401358
0.6548676 -0.26014376 0.6571805 0.62136847 -0.25307614 0.0014244972 0.767156 1.7884749
1.3609715 1.036237 -0.5931799 1.2629123 1.1680979 0.64086646 -0.11187626 -0.047357827
0.061909918 0.47424412 0.41403145 2.8283107 0.73600745 0.4497651 0.32457054 0.004299786
0.6467458 1.3741008 1.4943283 1.1703742 0.057352424 1.223815 1.2734123 0.68402815
00000000: eb31 20bc 8284 643e a609 d8be e3de f2be
00000010: a3b7 91bd 8e7b e33e b8ab b2be 684d c8be
00000020: 93e0 a5be 5a7c ff3c 1b45 ca3e 1774 da3f
00000030: eca0 963f 0890 3e3f 845d 83bf dda4 5e3f
00000040: 64eb 3f3f 32ee 2abf db2b c5bc b7c0 0f3e
00000050: be38 903f 6437 783f bc68 0d3f 8ab0 82bd
00000060: 4671 913f 76c4 853f 8901 7a3e 617c 2abe
00000070: 7cd0 33be a603 df3d 28ba 26be bfc9 dcbc
00000080: 980c d73d 8f79 cfbd b286 c3bc 4215 9cbc
00000090: 961d 54bd e497 04be 4ac1 5abe 142f 4abe
000000a0: bb65 0cbe 2add 513e 6a61 e6bd 140a 1fbe
000000b0: 4982 883c 45bd 1bbc 6ce6 05bf c13a 83bf
000000c0: 4b88 1cbf 21fc 81bf 44b3 7c40 14e6 1cbf
000000d0: a44b 3bbf f7e9 20be 20b0 a8bb 721e a0be
000000e0: 08d7 c8bf 0463 87bf 7a26 2bbf 1d0d 853f
000000f0: a73a 57bf 8baa 21bf 06ee a63d 56f1 59be
00000100: 684d 3bbe 16dd 493e e943 303f 064f b63c
00000110: 0a2b 1e40 5850 d63e df93 6c3e 882d fa3e
00000120: 123a cabc 554e c73e 4d98 563e 7848 723f
00000130: 3bcd 823e aee7 d23f 9a71 813f 65e9 223f
00000140: 598c 303f b5eb 973a 7020 d03e 9a94 ca3f
00000150: 46b4 a63f fafc 6f3f e411 f23c f78e bf3f
00000160: 1688 953f 1a63 313f a643 19be f69a 4ebe
00000170: fb11 e03a ebb4 273d 30fb fcbd 2dfa 9bbd
00000180: 9443 0a3e 6533 c33a b404 21bc 67b2 043b
00000190: 571f bb3c 017d 213f 6b1b 733f 9bb7 063f
000001a0: 4fed 793f 176b 853f e944 3d3f 3bd7 5d3f
000001b0: 0932 f7bb 68db eb3e 360b 4b3f f1df 233f
000001c0: 67a5 273f 9031 85be fb3c 283f 0112 1f3f
000001d0: 3293 81be 32b6 ba3a 5664 443f bfec e43f
000001e0: 5034 ae3f 6aa3 843f a3da 17bf 1ca7 a13f
000001f0: 3b84 953f d30f 243f 611f e5bd 48fa 41bd
00000200: 4195 7d3d 20d0 f23e eefb d33e 0b03 3540
00000210: fc6a 3c3f 9c47 e63e 1c2e a63e 38e5 8c3b
00000220: 2291 253f 89e2 af3f 2646 bf3f d2ce 953f
00000230: 60ea 6a3d f8a5 9c3f 2dff a23f 781c 2f3f

mps.0.l1.node_block.m.0.bias f4 [16]
-0.6175421 1.0081353 0.97697854 -0.17918426 0.03145059 -0.68983483 -0.84899473 0.5621895
1.0316064 1.4018216 -0.14603129 1.1010299 0.8533016 1.438735 0.58279943 1.4737738
00000000: 3d17 1ebf 940a 813f 441b 7a3f 147c 37be
00000010: 55d2 003d 0499 30bf b857 59bf a7eb 0f3f
00000020: ae0b 843f e46e b33f 3a89 15be 8cee 8c3f
00000030: f971 5a3f 7828 b83f 5832 153f 9fa4 bc3f

mps.0.l1.node_block.m.2.weight f4 [8, 16]
-0.16871034 -0.26977643 -0.06407255 0.15832442 0.14037846 0.0124713965 0.020744307 0.5431644
-0.45072922 -0.14312169 0.085197516 0.2560627 -0.07477915 -0.1901504 -0.19514723 0.11813407
-0.012015421 0.010570081 0.11358122 -0.096766405 -0.10684412 0.07496703 0.024327425 -0.19745475
0.063697815 -0.020060668 0.05759986 -0.09928951 0.031011328 0.0020019752 -0.014719981 0.0840276
0.07510235 0.014213841 -0.0064088674 -0.039755836 -0.07918525 -0.024214948 0.13385826 0.98896265
-0.1396708 -0.24811347 -0.084915034 0.09609047 -0.08601055 -0.20760381 -0.47062874 -0.032660183
-0.075680174 0.034033876 0.02156306 0.14304367 -0.15539758 0.15561019 0.08739066 -0.4870529
0.13490072 -0.24870433 0.10275946 0.05563779 -0.060191114 -0.18812653 -0.06399453 -0.18823946
-0.013938355 0.014494519 -0.052796 -0.02100388 0.15607025 0.040281508 -0.02252939 0.008953248
-0.19018069 -0.48555544 0.13389662 -0.44060153 0.022019796 -0.43456113 -0.24661632 -0.3707211
-0.054646727 0.058779873 0.01385163 0.13253567 -0.05662105 -0.07709622 0.02595059 -1.3968269
0.15123297 0.12330359 -0.10742378 0.004468892 -0.0014167897 0.24775106 -0.4529995 0.17047627
0.12408062 0.09865128 -0.05899921 -0.115168825 -0.10186217 -0.12005112 -0.03295449 -1.1134163
-0.029231291 -0.20326808 -0.16072991 -0.23642394 0.042725876 -0.04617937 -0.49586156 -0.20800124
0.0540626 -0.0947243 -0.05414966 0.10115026 -0.14301014 -0.057987325 0.10406175 0.591089
-0.007054331 -0.102670796 -0.0017075045 0.25571185 -0.006496413 -0.01315481 0.562908 -0.06170443
00000000: 67c2 2cbe 2320 8abe 7838 83bd cc1f 223e
00000010: 5fbf 0f3e d454 4c3c f7ef a93c d20c 0b3f
00000020: fbc5 e6be 7e8e 12be 097c ae3d a61a 833e
00000030: d025 99bd c9b6 42be add4 47be 46f0 f13d
00000040: 54dc 44bc 222e 2d3c 459d e83d 772d c6bd
00000050: 17d1 dabd 5088 993d 4f4a c73c 9431 4abe
00000060: 0074 823d 4556 a4bc d5ed 6b3d 4c58 cbbd
00000070: 780b fe3c 9233 033b 132c 71bc aa16 ac3d
00000080: 43cf 993d 2ce1 683c 7a01 d2bb 04d7 22bd
00000090: e02b a2bd 6d5e c6bc 2412 093e a82c 7d3f
000000a0: dd05 0fbe 7511 7ebe efe7 adbd 15cb c43d
000000b0: 4d26 b0bd 1896 54be 40f6 f0be afc6 05bd
000000c0: 35fe 9abd 1b67 0b3d 04a5 b03c 0a7a 123e
000000d0: 8b20 1fbe 4758 1f3e e0f9 b23d ff5e f9be
000000e0: 6a23 0a3e 59ac 7ebe 8d73 d23d 74e4 633d
000000f0: f58a 76bd 3ea4 40be 900f 83bd d8c1 40be
00000100: b35d 64bc 6b7a 6d3c 9e40 58bd 5410 acbc
00000110: e1d0 1f3e 39fe 243d 8e8f b8bc a5b0 123c
00000120: babe 42be b99a f8be 321c 093e 8696 e1be
00000130: dc62 b43c cc7e debe fd88 7cbe 28cf bdbe
00000140: 3fd5 5fbd 2ac3 703d f2f1 623c 6eb7 073e
00000150: 79eb 67bd 9fe4 9dbd 5596 d43c 39cb b2bf
00000160: d1dc 1a3e 9886 fc3d 0001 dcbd c86f 923b
00000170: 93b3 b9ba 74b2 7d3e 8def e7be 5591 2e3e
00000180: fb1d fe3d af09 ca3d 28a9 71bd a2dd ebbd
00000190: 1d9d d0bd 5ddd f5bd 4afb 06bd 6d84 8ebf
000001a0: 7676 efbc 8225 50be 6296 24be 1e19 72be
000001b0: 5401 2f3d 9426 3dbd 91e1 fdbe 47fe 54be
000001c0: bf70 5d3d d0fe c1bd 09cc 5dbd de27 cf3d
000001d0: 4071 12be 1e84 6dbd 541e d53d 9c51 173f
000001e0: 0428 e7bb 1145 d2bd 58ce dfba aaec 823e
000001f0: dddf d4bb 4687 57bc bd1a 103f c9bd 7cbd

mps.0.l1.node_block.m.2.bias f4 [8]
-1.6120517 -0.20074831 -1.4098815 -0.9038223 -1.1669049 0.7444411 -0.5689763 -0.83228457
00000000: b657 cebf f790 4dbe ff76 b4bf e660 67bf
00000010: 245d 95bf b193 3e3f 6ea8 11bf 9a10 55bf

mps.0.l2.edge_block.m.0.weight f4 [16, 17]
0.3752796 -0.07951573 0.098338194 0.03231578 -0.055333234 -0.35865775 0.030407604 0.257056
0.2584977 0.15693863 -0.21244268 -0.07514068 0.13463424 0.018053664 0.055033788 -0.0827003
-0.25829574 0.018158281 0.14276819 0.1191317 0.100031585 -0.02872363 -0.1931417 0.101215884
0.0053221383 0.047287807 0.05197369 0.00037344996 0.1510507 -0.006429473 -0.17746566 0.16887346
0.22032131 -0.16457379 -0.13959442 -0.13453682 -0.15619655 -0.3028627 -0.24474949 0.12928607
-0.32874572 0.08625635 0.09010094 -0.07431256 -0.12226637 0.056280937 -0.116261676 -0.043673545
-0.083123595 0.1640019 -0.6029346 0.06950256 0.08524477 0.13002841 0.30961484 -0.029826455
-0.047405407 0.14821737 0.15380377 -0.14230126 0.121883005 -0.023817696 0.25662294 0.060236428
-0.0034755247 0.21257731 0.061737973 0.059034504 -0.083479 0.11690905 0.06140979 0.4042656
0.14665371 -0.21015328 0.313738 -0.11304261 -0.0337973 -0.07725063 -0.10789124 0.2681642
0.04464541 -0.13135532 0.17718755 -0.16326042 0.164384 -0.22655244 -0.040492162 -0.25535747
-0.15554605 -0.14840922 0.21388704 -0.11132712 0.08869585 0.046050683 0.118046366 0.111290686
0.086316675 -0.14818539 0.09927978 0.005572534 -0.05717541 -0.44610813 -0.1549639 0.012778929
0.04616688 0.08662883 0.30589378 -0.09364456 0.24995509 0.050840218 0.016695114 0.0147408545
-0.060545012 -0.012269868 0.087186866 0.12804715 -0.124143906 -0.1347855 0.78431416 0.11035155
0.28151086 0.11955786 0.32059374 -0.0068464745 -0.08669285 0.20265682 -0.13314006 -0.010804063
0.12456336 0.14846216 0.04367034 -0.10452065 -0.049521383 0.22357638 0.11405697 -0.18630672
0.0048627625 0.20506647 0.19906214 0.15928996 0.11259647 -0.06355227 0.15796651 -0.0358251
0.052056473 0.23536202 -0.06664944 -0.03899232 0.19591174 -0.06526849 0.05360446 -0.010257887
-0.12264142 0.21859223 0.13872665 -0.008923718 0.14005119 -0.1626441 -0.032109406 -0.0062526665
0.19218299 0.33328578 0.13025418 -0.10455327 0.10270051 -0.021036228 -0.52598983 -0.09791772
0.4420565 0.028149946 0.008506816 -0.13872464 -0.117250144 -0.26786292 -0.35787052 -0.08961557
-0.2455851 -0.109510824 -0.21795386 0.08822732 0.05330731 0.06108053 0.1061475 0.056621242
-0.10684203 0.10152318 -0.39591995 -0.092596464 0.09355215 0.015534225 0.08103392 0.2620575
-0.14069432 0.17915942 -0.13719991 -0.18778373 -0.15959682 -0.1065023 -0.021311374 -0.0653433
0.1862147 -0.23603621 0.037191328 0.65210325 -0.17043579 0.22558473 0.17570451 0.20766576
-0.04866509 -0.09151197 0.26357687 -0.026794937 0.01715136 0.2700435 0.06522901 0.17319898
0.16488115 -0.05445747 0.3283095 0.010880901 0.16342951 -0.045721103 -0.030380068 0.0023535627
0.19465815 0.33171052 -0.13568819 0.26700485 0.114316724 0.1681552 -0.021453043 -0.08801229
-0.07216612 0.00065939856 0.016459627 -0.096073076 0.10301172 0.19008744 0.0080926865 0.1722365
-0.2149408 0.08683395 -0.12430284 -0.16916655 0.05468343 0.016740259 0.034158673 0.16090736
0.08143348 0.17781292 -0.061594713 -0.2219016 0.14622706 -0.102726094 -0.0019827762 0.096642695
00000000: a624 c03e 25d9 a2bd 8965 c93d 8d5d 043d
00000010: 1aa5 62bd fda1 b7be 5e19 f93c d89c 833e
00000020: cf59 843e 85b4 203e 938a 59be 5be3 99bd
00000030: 8fdd 093e 47e5 933c 1c6b 613d c65e a9bd
00000040: 573f 84be adc0 943c d331 123e 52fb f33d
00000050: 5cdd cc3d d14d ebbc f0c6 45be 464a cf3d
00000060: 5565 ae3b dcb0 413d 5de2 543d 9bcb c339
00000070: 09ad 1a3e 54ae d2bb 8fb9 35be 2aed 2c3e
00000080: e99b 613e 0886 28be d7f1 0ebe 05c4 09be
00000090: fdf1 1fbe d210 9bbe 9c9f 7abe 9163 043e
000000a0: 5c51 a8be 2ba7 b03d d786 b83d 2f31 98bd
000000b0: ca66 fabd d786 663d 9a1a eebd 08e3 32bd
000000c0: b43c aabd 1df0 273e ec59 1abf 5c57 8e3d
000000d0: cf94 ae3d 2b26 053e d685 9e3e 9c56 f4bc
000000e0: 2c2c 42bd 4bc6 173e bc7e 1d3e 6cb7 11be
000000f0: cc9d f93d 541d c3bc 1564 833e 79ba 763d
00000100: a1c5 63bb dead 593e f5e0 7c3d 2ace 713d
00000110: 0af7 aabd 036e ef3d d588 7b3d e7fb ce3e
00000120: 642c 163e 6c32 57be 44a2 a03e e282 e7bd
00000130: 0a6f 0abd 9435 9ebd 15f6 dcbd d14c 893e
00000140: 1bde 363d 0282 06be a770 353e bd2d 27be
00000150: 4754 283e 5dfd 67be 1cdb 25bd 37be 82be
00000160: 7747 1fbe 96f8 17be 3405 5b3e 79ff e3bd
00000170: 2ba6 b53d a49f 3c3d 4bc2 f13d 5fec e33d
00000180: ccc6 b03d e9bd 17be 3353 cb3d ce99 b63b
00000190: c330 6abd 4968 e4be dbae 1ebe b75e 513c
000001a0: 7b19 3d3d 756a b13d 1c9e 9c3e b8c8 bfbd
000001b0: 3af4 7f3e d53d 503d 31c4 883c a083 713c
000001c0: 0cfe 77bd 8e07 49bc 078f b23d cb1e 033e
000001d0: 293f febd 3605 0abe d0c8 483f feff e13d
000001e0: 3122 903e c0da f43d dd24 a43e 6458 e0bb
000001f0: 058c b1bd 4585 4f3e de55 08be 8603 31bc
00000200: 131b ff3d 7706 183e acdf 323d ec0e d6bd
00000210: efd6 4abd 35f1 643e b396 e93d 30c7 3ebe
00000220: cf57 9f3b f2fc 513e f2d6 4b3e e81c 233e
00000230: fa98 e63d b127 82bd f9c1 213e 57bd 12bd
00000240: 2b39 553d be02 713e 807f 88bd 69b6 1fbd
00000250: 169d 483e 7cab 85bd 5a90 5b3d b210 28bc
00000260: 6d2b fbbd a4d6 5f3e 5c0e 0e3e c934 12bc
00000270: 9469 0f3e 2d8c 26be 2785 03bd 2be3 ccbb
00000280: 9ecb 443e 6fa4 aa3e 5a61 053e 0620 d6bd
00000290: a554 d23d 2b54 acbc 45a7 06bf 1689 c8bd
000002a0: 3b55 e23e b79a e63c 2c60 0b3c d50d 0ebe
000002b0: d820 f0bd 5425 89be ce3a b7be 5e88 b7bd
000002c0: a97a 7bbe 3647 e0bd 4c2f 5fbe 86b0 b43d
000002d0: c458 5a3d 942f 7a3d dc63 d93d adeb 673d
000002e0: ffcf dabd 63eb cf3d 05b6 cabe 37a3 bdbd
000002f0: 4598 bf3d 4383 7e3c 1df5 a53d 672c 863e
00000300: 2c12 10be 9175 373e 227e 0cbe 614a 40be
00000310: 596d 23be e11d dabd 3195 aebc b5d2 85bd
00000320: 11af 3e3e 7ab3 71be ef55 183d 3df0 263f
00000330: b886 2ebe afff 663e e2eb 333e 55a6 543e
00000340: 0c55 47bd a16a bbbd 8cf3 863e 0e81 dbbc
00000350: 0281 8c3c 2443 8a3e ca96 853d 135b 313e
00000360: 9bd6 283e cc0e 5fbd 2f18 a83e ce45 323c
00000370: 115a 273e 0d46 3bbd 9fdf f8bc 3b3e 1a3b
00000380: 7754 473e f6d5 a93e d8f1 0abe dcb4 883e
00000390: e31e ea3d e030 2c3e 4bbe afbc ca3f b4bd
000003a0: d5cb 93bd 7ddb 2c3a 57d6 863c f6c1 c4bd
000003b0: cff7 d23d 48a6 423e 3097 043c c45e 303e
000003c0: 7119 5cbe ffd5 b13d 7d92 febd ff39 2dbe
000003d0: bbfb 5f3d de22 893c f7e9 0b3d e6c4 243e
000003e0: 99c6 a63d 9714 363e bd4a 7cbd 2c3a 63be
000003f0: 8cbc 153e 0f62 d2bd 77f1 01bb 9bec c53d

mps.0.l2.edge_block.m.0.bias f4 [16]
-0.011490565 -0.13364339 -0.4600827 0.10755843 0.094614886 0.42429316 0.16698171 -0.32618788
-0.16357243 0.08731619 0.060515918 0.5459499 0.13285686 0.5976775 -0.09452817 -0.14945018
00000000: ec42 3cbc d0d9 08be f68f ebbe 9847 dc3d
00000010: 73c5 c13d f43c d93e 41fd 2a3e 1902 a7be
00000020: 887f 27be d5d2 b23d 8adf 773d 5fc3 0b3f
00000030: a10b 083e 6501 193f fc97 c1bd 7809 19be

mps.0.l2.edge_block.m.2.weight f4 [1, 16]
0.071736895 -0.06348244 -0.2508151 -0.04315614 0.27542105 -0.2727162 0.8433419 -0.04985501
-0.026868647 -0.039296053 -0.37291163 0.5284498 0.095814094 0.1825669 -0.00032561852 0.008576014
00000000: cbea 923d 1503 82bd d66a 80be 7ec4 30bd
00000010: fd03 8d3e 75a1 8bbe 41e5 573f c434 4cbd
00000020: a31b dcbc e6f4 20bd 46ee bebe 7c48 073f
00000030: 2e3a c43d d1f2 3a3e c7b7 aab9 6982 0c3c

mps.0.l2.node_block.m.0.weight f4 [16, 9]
-0.21494985 -0.029034493 -0.075131826 -0.09958832 -0.21995683 0.1411793 0.007645652 0.079129174
0.39905563 0.006021012 0.09029707 0.02587793 0.003803801 0.020723727 -0.3020513 0.056935985
-0.06956608 0.021498034 0.32476988 -0.01916742 -0.09867857 0.11217417 -0.06118997 -0.122091666
0.20971209 -0.08024091 -0.020157956 0.16468368 0.047706515 -0.017697517 0.00014138466 0.0964398
-0.03610867 0.043625023 0.059528973 -0.26802927 -0.104145065 -0.106737226 -0.12615874 -0.0052479086
-0.12240866 -0.20410329 -0.1900651 0.035366256 -0.16147117 -0.11787995 0.17928448 0.20746557
0.3560419 -0.073826954 -0.16482621 0.25386605 0.098388426 0.0071372893 -0.21883392 -0.024475975
-0.15439555 -0.034730274 -0.079983264 0.1305288 -0.08182787 -0.11446168 0.20663269 -0.073606774
0.09846368 0.06939928 -0.06129612 -0.1332278 0.10513873 0.053848922 0.026546266 -0.09664088
0.24880116 0.34089378 0.052818395 -0.029286789 0.16147119 0.14353499 -0.0798883 -0.13758089
-0.09953414 0.19592473 0.19207841 0.03841876 0.021923741 0.17687283 -0.13309032 -0.0899082
0.15079163 -0.055391993 0.09621878 0.106869474 -0.070207916 -0.10325419 0.0954601 -0.25992686
-0.15781938 0.17635728 0.24851088 -0.20411918 -0.06512055 -0.04615653 -0.07354265 -0.11983612
0.058151715 -0.02867872 -0.11564017 -0.30633888 0.18793607 0.09542668 -0.007903246 0.13132843
0.21519099 -0.019143209 -0.031725224 0.030994317 -0.33965605 0.049596094 0.33580834 0.012512965
0.21140152 0.11054145 -0.1570445 0.033441436 0.04218529 -0.066918574 0.07417414 -0.035750464
-0.10635338 0.15350057 -0.06020689 -0.25218982 0.06931041 -0.11988029 -0.008167654 0.21084379
0.103106305 0.09861285 0.019011417 0.03124122 -0.033710763 0.15422234 0.002913366 -0.01808588
00000000: d01b 5cbe bfd9 edbc b7de 99bd f6f4 cbbd
00000010: 5d3c 61be 4e91 103e 6188 fa3b 7a0e a23d
00000020: 0551 cc3e e94b c53b aced b83d f4fd d33c
00000030: 3149 793b cec4 a93c 78a6 9abe b535 693d
00000040: a978 8ebd a51c b03c 3d48 a63e fe04 9dbc
00000050: fd17 cabd 92bb e53d 55a2 7abd 320b fabd
00000060: c4be 563e 5955 a4bd 4c22 a5bc d7a2 283e
00000070: e867 433d 62fa 90bc a840 1439 3b82 c53d
00000080: afe6 13bd 27b0 323d a7d4 733d 223b 89be
00000090: 024a d5bd 0c99 dabd c22f 01be a6f6 abbb
000000a0: 64b1 fabd 7400 51be 6da0 42be 35dc 103d
000000b0: b358 25be 0b6b f1bd 5a96 373e db71 543e
000000c0: 204b b63e 9632 97bd 34c8 28be bbfa 813e
000000d0: df7f c93d ecdf e93b 0016 60be d781 c8bc
000000e0: de19 1ebe 5541 0ebd 44ce a3bd 57a9 053e
000000f0: 5f95 a7bd e36a eabd 8597 533e 26bf 96bd
00000100: 53a7 c93d 3621 8e3d a411 7bbd de6c 08be
00000110: f952 d73d b090 5c3d 8e77 d93c a7eb c5bd
00000120: bbc5 7e3e a189 ae3e 1a58 583d d9ea efbc
00000130: b458 253e d6fa 123e 7a9c a3bd 01e2 0cbe
00000140: 8ed8 cbbd 7ea0 483e 34b0 443e fd5c 1d3d
00000150: 6b99 b33c 271e 353e d448 08be ca21 b8bd
00000160: 1f69 1a3e b7e2 62bd 5a0e c53d 62de da3d
00000170: 2bc9 8fbd ef76 d3bd 9680 c33d 2215 85be
00000180: 679b 21be 0197 343e a379 7e3e 9e04 51be
00000190: ec5d 85bd a10e 3dbd 879d 96bd a46c f5bd
000001a0: 7e30 6e3d a3ef eabc c1d4 ecbd 73d8 9cbe
000001b0: 5072 403e 106f c33d 9e7c 01bc f67a 063e
000001c0: 075b 5c3e 38d2 9cbc 4ff2 01bd cbe7 fd3c
000001d0: 66e7 adbe 4625 4b3d 12ef ab3e 2e03 4d3c
000001e0: a479 583e 8e63 e23d 46d0 20be e3f9 083d
000001f0: 7cca 2c3d 9b0c 89bd 9de8 973d 146f 12bd
00000200: cdcf d9bd 412f 1d3e 809b 76bd 061f 81be
00000210: 9ef2 8d3d cc83 f5bd a0d1 05bc 6fe7 573e
00000220: 6629 d33d 89f5 c93d d5bd 9b3c 96ed ff3c
00000230: 4c14 0abd 76ec 1d3e 2cee 3e3b d728 94bc

mps.0.l2.node_block.m.0.bias f4 [16]
0.7095195 -0.17622991 -0.23909913 -0.47847944 0.6725072 0.09245129 0.9779131 0.42876828
-0.0028245386 -0.3294097 -0.1850307 0.9857783 -0.1516233 0.048763014 -0.23702563 -0.18250284
00000000: 12a3 353f 9d75 34be 67d6 74be 42fb f4be
00000010: 6f29 2c3f 1a57 bd3d 8358 7a3f 8487 db3e
00000020: e51b 39bb 63a8 a8be b078 3dbe f75b 7c3f
00000030: 2343 1bbe babb 473d d9b6 72be 06e2 3abe

mps.0.l2.node_block.m.2.weight f4 [8, 16]
-0.1914826 0.03694686 0.0312359 0.18893324 0.23985152 0.13226132 -0.057228908 0.13439313
0.00039688888 0.062242065 -0.13685928 0.10368872 0.2671533 -0.062553786 -0.080332264 -0.004494701
-0.189831 -0.20011446 0.0050888034 0.19684795 0.082443945 0.037117343 -0.23926957 -0.10726423
0.026879882 0.14870828 -0.26525453 0.06407106 0.21599525 0.068156764 -0.108751506 0.14759839
0.0018359224 0.04834989 -0.07195122 0.0035127662 -0.2123177 0.05953022 -0.008534272 0.07916475
0.07571444 0.11373664 -0.33002335 0.1232171 -0.05603744 -0.14878643 -0.05325902 0.06942182
0.113391444 0.16401142 0.052865937 0.0005959103 0.09757619 -0.051099464 -0.07606217 -0.13858902
0.07669851 -0.12541425 0.17127283 -0.2470672 -0.08677802 0.17628546 0.15582018 0.016407816
-0.18695143 0.07751743 -0.12199088 -0.119271986 0.2157603 -0.080297954 -0.14027695 0.1429481
-0.10290704 -0.05236722 0.09169469 -0.079510435 0.15486942 0.039341602 0.03851376 -0.03170182
0.037387777 -0.14052504 0.0432751 0.09724308 0.16361305 0.1977973 0.10175495 0.044638913
-0.019771589 0.087612174 0.14965418 0.14207605 -0.008062863 0.04610406 0.03180613 0.049667306
0.04718884 0.11575266 -0.039281495 0.14434291 -0.27161777 -0.021127533 -0.10615549 -0.026696632
-0.05889741 0.023268167 -0.01646425 0.010866495 0.028703218 0.07782786 0.106633365 -0.0571822
0.036408603 -0.014827752 -0.042902224 0.059749946 -0.26888552 -0.08161811 -0.01593526 -0.050039217
-0.013519428 -0.0005597221 -0.01591093 0.20103382 0.01444355 0.06041045 0.04491784 -0.0759116
00000000: 0414 44be 9755 173d 6ee2 ff3c b777 413e
00000010: a39b 753e 836f 073e dc68 6abd 5a9e 093e
00000020: 8615 d039 89f1 7e3d d724 0cbe c05a d43d
00000030: 51c8 883e 331c 80bd 3e85 a4bd 4948 93bb
00000040: 0f63 42be ceea 4cbe fabf a63b 8292 493e
00000050: 5fd8 a83d 5b08 183d 1503 75be 59ad dbbd
00000060: 3333 dc3c fc46 183e 71cf 87be b037 833d
00000070: dc2d 5d3e c695 8b3d 1cb9 debd 0824 173e
00000080: 55a3 f03a 890a 463d 295b 93bd 7036 663b
00000090: d069 59be f6d5 733d 55d3 0bbc 2121 a23d
000000a0: 2c10 9b3d c1ee e83d d2f8 a8be 3f59 fc3d
000000b0: 8487 65bd 785b 18be 2126 5abd 072d 8e3d
000000c0: c639 e83d 9cf2 273e f489 583d dd36 1c3a
000000d0: 07d6 c73d ac4d 51bd 7cc6 9bbd 48ea 0dbe
000000e0: 1c14 9d3d 986c 00be 2562 2f3e 2fff 7cbe
000000f0: adb8 b1bd 2d84 343e 538f 1f3e af69 863c
00000100: 3270 3fbe 75c1 9e3d 5bd6 f9bd df44 f4bd
00000110: 45f0 5c3e 4173 a4bd c3a4 0fbe fd60 123e
00000120: edc0 d2bd 037f 56bd 6dca bb3d 5ed6 a2bd
00000130: 1796 1e3e a924 213d 9bc0 1d3d c5d9 01bd
00000140: ed23 193d cce5 0fbe 3b41 313d 6127 c73d
00000150: 2e8a 273e 608b 4a3e e664 d03d 4bd7 363d
00000160: 07f8 a1bc 036e b33d f23e 193e 627c 113e
00000170: 191a 04bc 9cd7 3c3d 2547 023d f26f 4b3d
00000180: 1649 413d bb0f ed3d a2e5 20bd a1ce 133e
00000190: 7c11 8bbe a613 adbc 0d68 d9bd e5b2 dabc
000001a0: 693e 71bd e29c be3c 09e0 86bc 6209 323c
000001b0: 0323 eb3c 3764 9f3d 9862 da3d e237 6abd
000001c0: 3021 153d 19f0 72bc 3eba 2fbd 5cbc 743d
000001d0: 5dab 89be 6527 a7bd aa8a 82bc ecf5 4cbd
000001e0: 9780 5dbc 50ba 12ba a357 82bc cfdb 4d3e
000001f0: a4a4 6c3c f370 773d c5fb 373d 8a77 9bbd

mps.0.l2.node_block.m.2.bias f4 [8]
0.38524726 -0.7740408 0.15943801 -0.40301496 -0.6144186 0.2681578 -0.42943949 0.4424504
00000000: 213f c53e 8a27 46bf b843 233e fa57 cebe
00000010: 8a4a 1dbf fb4b 893e 7edf dbbe dc88 e23e

mps.1.l1.edge_block.m.0.weight f4 [16, 18]
-0.14523731 0.32130393 -0.03360304 0.103779145 0.059499674 -0.09556732 0.22088487 -0.05265292
0.07841609 0.07208466 0.06258421 0.3086967 -0.029118944 0.07067082 0.18942468 -0.21956672
-0.046676375 -0.3094696 -0.21136408 0.18086526 0.048410725 -0.051033784 0.20896068 -0.06993364
0.068371184 0.055721376 -0.10329106 -0.004775818 0.09793666 0.05565568 0.1305959 0.035268657
0.11449726 -0.20083238 0.026219307 1.0238632 -0.122851506 0.16406558 -0.08003274 0.025469102
0.095744394 -0.061868824 0.1257081 -0.05172613 -0.1987855 0.024409594 0.015358773 -0.042476017
0.057031788 -0.12105937 -0.008097075 -0.0634688 -0.020345924 1.0965625 -0.06598452 -0.16693263
0.20404732 -0.24446017 -0.06282848 0.12167424 -0.06368228 -0.09895017 0.29798627 -0.0044236276
-0.10771232 0.040442467 0.07877304 -0.00399217 -0.14707762 0.04878328 0.12823555 -0.8255271
-0.056134824 0.3399538 0.093237035 0.20639768 0.24137262 0.08124484 -0.079186894 -0.17414588
-0.03458259 -0.04677298 0.13651998 0.043264985 0.11958875 -0.2376692 0.256727 0.22009403
0.27170688 -0.33016983 0.058297984 0.093539685 0.119870916 0.13568708 -0.08852599 -0.068423025
0.0017471424 0.0217691 -0.1691425 0.19743523 0.0066399775 0.036717847 0.0044890335 0.071606345
0.12631576 -0.20363645 -0.012412523 0.8819079 0.033501457 0.04772742 0.04087626 -0.10663169
0.14974974 -0.14903852 -0.051256124 0.049418278 -0.2770812 0.096859835 -0.07247723 0.04962171
-0.06348375 -0.2258112 0.015855268 -0.09583926 -0.04454513 0.8471883 -0.28508413 0.2178524
-0.15269083 0.101872794 0.17839538 0.070399545 -0.07944452 -0.0048911655 -0.02248767 0.06330872
0.14987472 -0.062137555 0.0048505254 -0.081982076 -0.0009645469 -0.016975127 0.011725118 -0.77548754
-0.024342896 0.009222782 -0.10985375 0.027041432 0.04873361 -0.2251991 0.1667513 0.19751309
-0.08338471 -0.2522447 -0.19722816 0.21034122 -0.21601944 -0.24587665 0.049197916 0.081914775
-0.4439137 -0.1494731 0.113328665 0.05748285 -0.30427605 0.13563272 0.3784016 0.06847289
0.0060411766 -0.1316357 -0.30270177 -0.06497288 0.16098486 0.19127882 0.010839131 -0.22295229
0.40137526 0.25151986 -0.21042967 0.4636625 0.16199853 -0.15107353 0.05673334 0.020353101
-0.08789477 0.14525238 -0.13642018 -0.026992885 -0.2525712 -0.15416422 -0.060852658 0.046186514
-0.1489286 0.0048658415 0.027114477 0.046252765 -0.59753203 1.1493737 -0.035533268 -0.12500939
-0.27666575 0.06859319 0.10643817 -0.015046273 -0.09750727 -0.093377076 -0.11075904 0.20940717
0.22043583 0.025851157 0.19956072 -0.17178915 0.013626604 0.017580468 -0.32870638 0.5068216
-0.09254684 0.17976537 -0.0066811685 0.19170827 0.049653776 -0.16320097 0.07737955 -0.24766654
-0.09820716 0.0819004 -0.05189507 -0.04192406 0.14856642 0.05037265 0.06873138 0.04131381
-0.01278132 0.76831585 0.15477784 0.16475643 -0.29251203 0.29195577 -0.012279553 -0.1401167
0.17301513 -0.06900025 -0.22845013 -0.0028432847 0.0008764431 0.37206942 -0.13803598 -0.26495454
0.2680389 -0.07568356 -0.30595356 0.30297494 -0.099999204 -0.011937643 0.037725363 0.08203901
00000000: 17b9 14be f381 a43e 57a3 09bd 298a d43d
00000010: eeb5 733d cdb8 c3bd a52f 623e 97aa 57bd
00000020: 9d98 a03d 1fa1 933d 262c 803d 7e0d 9e3e
00000030: da8a eebc ddbb 903d 8bf8 413e 19d6 60be
00000040: ba2f 3fbd cd72 9ebe d36f 58be be34 393e
00000050: 534a 463d cd08 51bd caf9 553e 5e39 8fbd
00000060: 3106 8c3d 193c 643d 438a d3bd 777e 9cbb
00000070: 0493 c83d 36f7 633d eeba 053e de75 103d
00000080: 8a7d ea3d 01a7 4dbe dfc9 d63c f30d 833f
00000090: 9299 fbbd cf00 283e 35e8 a3bd 94a4 d03c
000000a0: a315 c43d 2a6a 7dbd a0b9 003e c7de 53bd
000000b0: 6d8e 4bbe a1f6 c73c 5da3 7b3c 55fb 2dbd
000000c0: 2a9a 693d faed f7bd 98a9 04bc eefb 81bd
000000d0: 7fac a6bc 295c 8c3f e422 87bd 63f0 2abe
000000e0: c8f1 503e c453 7abe 38ac 80bd 5830 f93d
000000f0: db6b 82bd 63a6 cabd a891 983e 14f4 90bb
00000100: 4798 dcbd 00a7 253d c253 a13d c0d0 82bb
00000110: 849b 16be fad0 473d 2e50 033e be55 53bf
00000120: a1ed 65bd 6d0e ae3e 0ff3 be3d ea59 533e
00000130: 622a 773e b263 a63d bd2c a2bd 4c53 32be
00000140: 79a6 0dbd 0695 3fbd e5cb 0b3e a036 313d
00000150: f2ea f43d 8e5f 73be b971 833e 5460 613e
00000160: 2a1d 8b3e 050c a9be dec9 6e3d bc91 bf3d
00000170: e27e f53d 8ef1 0a3e 1d4d b5bd 5f21 8cbd
00000180: 5f00 e53a 1d55 b23c b133 2dbe 762c 4a3e
00000190: 2b94 d93b 7465 163d be18 933b 59a6 923d
000001a0: eb58 013e 1386 50be e55d 4bbc b7c4 613f
000001b0: d338 093d d47d 433d dd6d 273d b761 dabd
000001c0: ff57 193e 8e9d 18be f1f1 51bd d26a 4a3d
000001d0: 96dd 8dbe 735e c63d f16e 94bd 2240 4b3d
000001e0: c503 82bd 0d3b 67be e8e2 813c 6047 c4bd
000001f0: f474 36bd 55e1 583f 8cf6 91be b314 5f3e
00000200: fc5a 1cbe afa2 d03d 47ad 363e a32d 903d
00000210: cfb3 a2bd 1246 a0bb 1038 b8bc 01a8 813d
00000220: c278 193e f383 7ebd 28f1 9e3b 38e6 a7bd
00000230: a6d9 7cba 6c0f 8bbc b61a 403c 5a86 46bf
00000240: c16a c7bc 271b 173c 01fb e0bd fe85 dd3c
00000250: e59c 473d 989a 66be dac0 2a3e df40 4a3e
00000260: 9ac5 aabd 3826 81be 2ef6 49be b063 573e
00000270: 3334 5dbe 17c7 7bbe c183 493d efc2 a73d
00000280: a848 e3be 7a0f 19be dc18 e83d 2373 6b3d
00000290: 12ca 9bbe 4ee3 0a3e dbbd c13e 843b 8c3d
000002a0: 10f5 c53b 82cb 06be bafb 9abe 8010 85bd
000002b0: 37d9 243e 98de 433e 9c96 313c 9b4d 64be
000002c0: 0f81 cd3e 36c7 803e e07a 57be 2c65 ed3e
000002d0: f1e2 253e 05b3 1abe 3861 683d 8cbb a63c
000002e0: 2c02 b4bd 0abd 143e bbb1 0bbe 2f20 ddbc
000002f0: 0351 81be 3add 1dbe a340 79bd 122e 3d3d
00000300: bd80 18be a371 9f3b 2e1f de3c 8a73 3d3d
00000310: dcf7 18bf ad1e 933f 558b 11bd 7602 00be
00000320: 22a7 8dbe 967a 8c3d 41fc d93d a584 76bc
00000330: e4b1 c7bd 7b3c bfbd a3d5 e2bd d56e 563e
00000340: eeb9 613e cec5 d33c a559 4c3e 7fe9 2fbe
00000350: 1f42 5f3c ea04 903c 344c a8be 0fbf 013f
00000360: 3389 bdbd 6a14 383e b4ed dabb 2c4f 443e
00000370: c261 4b3d 281e 27be 2b79 9e3d 4c9c 7dbe
00000380: d620 c9bd 66bb a73d ed8f 54bd 90b8 2bbd
00000390: cc21 183e 8d53 4e3d 0ac3 8c3d ab38 293d
000003a0: be68 51bc 59b0 443f 157e 1e3e e9b5 283e
000003b0: 23c4 95be 3a7b 953e 2e30 49bc c17a 0fbe
000003c0: e12a 313e 0150 8dbd d5ee 69be 6756 3abb
000003d0: 1ac1 653a e27f be3e 4e59 0dbe 1fa8 87be
000003e0: 653c 893e fbff 9abd f2a5 9cbe 881f 9b3e
000003f0: 62cc ccbd 1b96 43bc e985 1a3d 1204 a83d

mps.1.l1.edge_block.m.0.bias f4 [16]
0.09302674 0.11834665 0.14120136 0.083043195 -0.07247264 0.109900616 -0.10078575 0.19777262
0.15530269 0.30846804 0.6266151 0.0027836715 0.053903665 -0.15692464 0.2832163 0.02605971
00000000: ce84 be3d ba5f f23d 1797 103e 8d12 aa3d
00000010: 896c 94bd 9313 e13d c268 cebd e884 4a3e
00000020: ab07 1f3e 86ef 9d3e d969 203f 426e 363b
00000030: 17ca 5c3d dab0 20be ba01 913e 2c7b d53c

mps.1.l1.edge_block.m.2.weight f4 [1, 16]
-0.011023035 0.20996714 0.4339235 -0.07275354 -0.008216214 0.36431712 0.5958173 0.16012518
-0.33782735 0.8198264 0.73144805 0.23250657 0.13533543 -0.5444423 0.2444684 0.5805663
00000000: f699 34bc a001 573e 392b de3e cfff 94bd
00000010: 4d9d 06bc c687 ba3e 7c87 183f dbf7 233e
00000020: b5f7 acbe 25e0 513f 2e40 3b3f 3416 6e3e
00000030: 5f95 0a3e 9260 0bbf ed55 7a3e fe9f 143f

mps.1.l1.node_block.m.0.weight f4 [16, 9]
0.15426981 -0.027086942 0.0716482 -0.040862724 0.04228237 0.055907547 -0.04405551 0.05262272
0.5188068 -0.17034456 0.073692106 -0.043007415 -0.080482826 0.08164505 -0.1313436 -0.05459977
-0.07571525 -0.15886581 0.096195556 -0.04126871 0.2972671 -0.18426934 -0.27183747 0.020229094
0.13818923 0.1871457 -0.25188127 -0.14396675 0.00079265813 0.10533138 0.035517916 0.11521333
-0.014735048 -0.01510747 -0.105443604 -0.17865388 -0.2491441 0.2084199 0.18159361 0.18618579
0.05626191 -0.10888584 0.24593046 0.20323287 0.14244801 0.0375634 0.047404975 -0.014675256
0.051532984 -0.015689287 -0.14505921 0.006978525 -0.06302507 -0.16370103 0.011065688 0.041447636
-0.32335073 0.2517018 0.27784693 -0.17810766 0.06934961 -0.13824363 0.6111323 -0.0039437595
0.080496095 -0.16509774 0.39060283 0.14344588 0.0046076723 0.033245496 -0.33789462 -0.05392067
-0.17124987 -0.043739174 -0.1088786 -0.14602709 0.22310278 -0.18076009 0.11631426 -0.18665704
-0.13498291 -0.09049737 0.23520707 -0.079537064 0.30355307 0.08058438 0.13273054 0.052257746
0.03741394 -0.15306088 -0.17571874 0.23234653 -0.16305341 0.027091049 -0.008245669 0.11002704
0.17934993 -0.06426015 -0.10229461 -0.02166135 0.15340948 0.075631775 0.11251226 0.1417702
-0.30121103 0.1222505 -0.014716573 0.21760614 -0.1458176 -0.054345317 0.0057386444 -0.22098325
-0.100062706 0.004616905 -0.0564591 0.011983763 0.51726377 -0.0040433067 0.05381246 -0.121314555
0.044980224 0.029623652 -0.21234122 0.30698404 -0.13024071 0.010132135 -0.24849346 0.10662207
-0.17555678 0.1822768 -0.04630501 -0.07785019 0.030341312 0.30074257 -0.3775276 0.12546541
-0.19624534 -0.06803666 -0.1188542 -0.01515895 0.2878191 -0.23774372 0.08493311 -0.7006161
00000000: e8f8 1d3e 6fe5 ddbc 4bbc 923d ac5f 27bd
00000010: 4730 2d3d 50ff 643d 8d73 34bd ec8a 573d
00000020: 86d0 043f ce6e 2ebe e3eb 963d 8b28 30bd
00000030: 2ed4 a4bd 8535 a73d f07e 06be 02a4 5fbd
00000040: 9910 9bbd b8ad 22be 2d02 c53d 6109 29bd
00000050: 6533 983e 1ab1 3cbe 482e 8bbe 7cb7 a53c
00000060: 7a81 0d3e 1fa3 3f3e 95f6 80be 056c 13be
00000070: 63ca 4f3a fbb7 d73d 3c7b 113d f7f4 eb3d
00000080: 456b 71bc 5285 77bc d1f2 d7bd 0bf1 36be
00000090: a21f 7fbe 076c 553e adf3 393e 7da7 3e3e
000000a0: e372 663d 8aff debd 32d5 7b3e 471c 503e
000000b0: e4dd 113e 14dc 193d b82b 423d 7c70 70bc
000000c0: 4014 533d d286 80bc 678a 14be 1cac e43b
000000d0: 4a13 81bd 3ea1 27be dc4c 353c ffc4 293d
000000e0: 3a8e a5be 0fdf 803e f441 8e3e db61 36be
000000f0: 2b07 8e3d bd8f 0dbe 2b73 1c3f a73a 81bb
00000100: 23db a43d 620f 29be 18fd c73e 7ae3 123e
00000110: f5fb 963b 6e2c 083d 8600 adbe ecdb 5cbd
00000120: 205c 2fbe d927 33bd befb debd 2088 15be
00000130: 0e75 643e 2c19 39be 2c36 ee3d 0623 3fbe
00000140: f638 0abe af56 b9bd 1fda 703e 54e4 a2bd
00000150: 4f6b 9b3e 6c09 a53d 84ea 073e 380c 563d
00000160: 5c3f 193d febb 1cbe 9def 33be 40ec 6d3e
00000170: 79f7 26be 0cee dd3c d818 07bc db55 e13d
00000180: 82a7 373e d39a 83bd d67f d1bd 2573 b1bc
00000190: 6017 1d3e d5e4 9a3d d46c e63d 352c 113e
000001a0: 5538 9abe 785e fa3d c81d 71bc 25d4 5e3e
000001b0: 3551 15be 3299 5ebd 3d0b bc3b 6f49 62be
000001c0: aded ccbd 6849 973b a841 67bd 8c57 443c
000001d0: 666b 043f b77d 84bb 746a 5c3d c473 f8bd
000001e0: 2f3d 383d 4dad f23c fa6f 59be 032d 9d3e
000001f0: d25d 05be 4101 263c 1275 7ebe ac5c da3d
00000200: 28c5 33be c5a6 3a3e 52aa 3dbd ec6f 9fbd
00000210: 588e f83c eefa 993e 4c4b c1be 017a 003e
00000220: 8af4 48be ce56 8bbd d569 f3bd 3f5d 78bc
00000230: 065d 933e 1773 73be 69f1 ad3d 945b 33bf

mps.1.l1.node_block.m.0.bias f4 [16]
0.5326655 0.06527316 -0.020793676 -0.2181743 0.06660873 -0.14810625 0.42309806 -0.101014316
0.17951253 -0.040668312 -0.25715345 0.4756562 0.27413046 -0.09892406 -0.3161584 0.65781116
00000000: c45c 083f efad 853d 8057 aabc 1569 5fbe
00000010: 286a 883d 2aa9 17be 4fa0 d83e 98e0 cebd
00000020: 22d2 373e d193 26bd 9ea9 83be 3689 f33e
00000030: d45a 8c3e b398 cabd 84df a1be 5066 283f

mps.1.l1.node_block.m.2.weight f4 [8, 16]
0.20495553 0.036305107 0.22019204 -0.064968914 -0.08148968 -0.094847605 0.1765052 -0.08051311
-0.06852111 0.3089866 0.06879096 -0.14872809 0.04810409 -0.0737257 -0.17150465 0.39615688
-0.058797754 -0.13905004 -0.027789539 0.20451227 -0.072413266 0.122510634 0.14503913 0.32030332
0.016458021 0.06511623 0.113983266 0.07216786 0.23397186 0.02647992 -0.10480115 0.07743403
-0.0986309 -0.027033139 0.12721555 0.11959273 0.16701849 0.0036586355 0.45087153 0.028557237
-0.16406445 -0.18428594 0.11059389 0.23226763 -0.1826745 0.08728319 0.15873316 0.096091375
0.32608536 0.091653444 0.024842486 -0.015610686 -0.29474613 -0.012926764 0.11377788 -0.28121677
0.13348392 -0.15271097 -0.08915256 0.08146265 0.14360438 -0.1406866 0.068047255 0.22824214
0.19373642 0.033987716 -0.2078562 0.097105026 0.045019552 -0.045012612 -0.14819635 0.06313997
-0.02906543 0.013506309 -0.094169386 0.10484601 0.0949743 0.0037866086 -0.10694782 -0.5147056
-0.032720104 -0.12969884 -0.0022629362 0.0746689 0.16399992 0.064017445 0.13841747 -0.1094424
-0.12972079 -0.026911316 0.017200457 0.16299853 -0.043444496 -0.0033898554 0.23383681 0.031170243
-0.026244039 0.03343564 0.09582666 -0.107340395 0.050274514 0.044442818 0.23432946 -0.04016377
0.030537145 -0.030996222 0.056940977 0.04501261 -0.13239762 -0.04604299 0.13175668 -0.064517416
1.2230789e-05 -0.025223589 -0.077534705 0.15774362 -0.20578976 -0.062040593 -0.35508397 0.14185198
0.0006024378 0.120653465 0.021209858 -0.1446513 0.029022258 0.18804081 -0.2153557 -0.0018526218
00000000: dddf 513e aab4 143d 067a 613e 6c0e 85bd
00000010: 10e4 a6bd 763f c2bd c7bd 343e 0fe4 a4bd
00000020: cc54 8cbd 7e33 9e3e 46e2 8c3d 2d4c 18be
00000030: cb08 453d 80fd 96bd ea9e 2fbe 13d5 ca3e
00000040: ead5 70bd 2263 0ebe e3a6 e3bc aa6b 513e
00000050: 684d 94bd dbe6 fa3d 2385 143e ccfe a33e
00000060: f9d2 863c a85b 853d 0f70 e93d becc 933d
00000070: 5296 6f3e 6bec d83c fca1 d6bd bc95 9e3d
00000080: fffe c9bd 9a74 ddbc cb44 023e 09ed f43d
00000090: e506 2b3e b8c5 6f3b a2d8 e63e def0 e93c
000000a0: 8300 28be 74b5 3cbe 0d7f e23d 91d7 6d3e
000000b0: 060f 3bbe 87c1 b23d f28a 223e 8ecb c43d
000000c0: a9f4 a63e cdb4 bb3d 7882 cb3c f6c3 7fbc
000000d0: f7e8 96be c7ca 53bc 6104 e93d a5fb 8fbe
000000e0: 02b0 083e 4460 1cbe 9e95 b6bd e4d5 a63d
000000f0: 070d 133e 2610 10be 5c5c 8b3d 4fb8 693e
00000100: d762 463e b436 0b3d 41d8 54be 00df c63d
00000110: 6c66 383d 255f 38bd c9c0 17be 874f 813d
00000120: a01a eebc 9149 5d3c e1db c0bd 81b9 d63d
00000130: e381 c23d c028 783b 7507 dbbd bfc3 03bf
00000140: 8405 06bd c6cf 04be c54d 14bb 02ec 983d
00000150: 98ef 273e 941b 833d 4fbd 0d3e 5623 e0bd
00000160: 87d5 04be 1f75 dcbc f9e7 8c3c 16e9 263e
00000170: dbf2 31bd 5628 5ebb eb72 6f3e bd58 ff3c
00000180: bdfd d6bc cff3 083d c540 c43d 48d5 dbbd
00000190: a6ec 4d3d ac09 363d 10f4 6f3e c482 24bd
000001a0: 0929 fa3c caeb fdbc f13a 693d 245f 383d
000001b0: 3e93 07be 9397 3cbd 39eb 063e b521 84bd
000001c0: d732 4d37 b3a1 cebc 84ca 9ebd 8b87 213e
000001d0: 8dba 52be 471e 7ebd 91cd b5be a541 113e
000001e0: ebec 1d3a 2a19 f73d 4cc0 ad3c 781f 14be
000001f0: 16c0 ed3c c58d 403e 3486 5cbe acd3 f2ba

mps.1.l1.node_block.m.2.bias f4 [8]
-0.026775157 -0.7922465 0.34245095 0.3778919 0.06250888 0.8995535 -0.9159259 -0.34816813
00000000: 9357 dbbc abd0 4abf bb55 af3e 0c7b c13e
00000010: a804 803d 2349 663f 1f7a 6abf 1843 b2be

mps.1.l2.edge_block.m.0.weight f4 [16, 17]
0.047265574 -0.19378115 0.13389342 -0.015521581 0.06405128 0.11320264 -0.024369827 0.06399003
-0.22975107 -0.0845949 0.14119592 0.04154077 0.017368212 -0.022411404 -0.11514883 0.06878932
-0.0667608 0.041100204 -0.042153 0.03857941 -0.1495065 -0.14956255 0.0027659207 0.22383016
0.052474387 -0.12282428 -0.04040552 -0.0022836379 -0.0046879724 0.02004684 -0.23123051 0.20361575
0.021952357 0.030939102 0.023675533 -0.012147383 0.10860218 -0.12775148 -0.17863582 -0.19112742
0.16973542 0.10336625 -0.09061127 0.015527249 0.13901635 -0.17619738 0.06718159 -0.021396583
0.072409846 0.19679092 0.026517447 0.030867914 0.060227755 0.10498765 0.03842442 -0.22668032
0.06460081 -0.13555159 -0.010940746 -0.0019683524 0.007515669 -0.11202207 -0.028935293 0.11847628
0.039310463 0.013415328 -0.0811418 0.1815684 0.14221436 0.121292636 -0.03574109 0.19986106
-0.29992703 -0.09359673 -0.07176738 -0.024359014 0.08971192 0.017308414 0.2218031 0.30281457
-0.5255285 0.056473766 -0.15945798 -0.16866311 -0.6216153 0.4919153 0.23561633 -0.0026115223
0.23832303 -0.42867267 0.043224372 -0.3085244 -0.14518827 -0.05046753 -0.15873322 -0.32525915
0.010785709 0.1415718 0.29343927 0.059147906 -0.07898445 -0.9929768 -0.16076098 -0.09610345
-0.019643666 0.10021785 -0.023823353 0.051799435 -0.03405839 0.14026274 0.09153559 -0.2133963
-0.027289363 -0.13144737 0.052459467 -0.14132842 -0.042285062 0.16936983 -0.13060172 0.12189829
0.012664517 0.11269571 -0.09858863 0.078148015 -0.030630907 0.06591419 0.09470507 -0.19474511
-0.17771034 0.108513966 -0.11935708 -0.14462739 -0.009851932 0.01066724 0.022734853 -0.10655205
0.08239611 -0.15266639 0.029205095 0.08769021 -0.14030345 0.011162361 0.039640367 -0.030981973
-0.022111876 -0.09519244 -0.06425281 -0.10376832 0.11341951 -0.07590046 0.0875391 0.22733378
-0.036885284 -0.19891608 -0.17146757 -0.061461702 0.05988039 -0.15989913 0.079873376 0.024207706
0.0019730951 0.016527727 0.12034458 0.08312154 0.159436 0.09885571 -0.0373523 -0.2520416
-0.14001136 0.22059803 -0.081943914 -0.10121061 0.013725824 0.04274693 -0.0766161 -0.13332027
0.021098666 0.0067149247 -0.004241279 -0.18659149 -0.06697306 -0.09725761 -0.108323775 0.0877238
0.03638387 0.0762571 -0.092451 -0.13708895 0.37138253 -0.1631427 0.0030992313 0.1782876
-0.2695039 -0.114981405 -0.018333629 -0.19620155 -0.4624365 0.25454202 -0.16932735 -0.032720804
0.1824607 0.25176975 0.056254476 0.19968508 -0.1381414 -0.031102609 -0.014759205 -0.15681803
-0.07598694 0.026028002 0.11984701 0.2063556 0.061580934 -0.17493497 -0.08241236 -0.06112246
-0.12848668 -0.05730742 -0.041195612 0.1513555 0.027510485 0.022998769 -0.15942392 -0.17360842
-0.022057591 -0.061602872 -0.017363844 0.056016713 0.09759121 0.1408442 0.17910685 -0.22970581
0.1838289 0.046152547 -0.2960298 -0.19112206 -0.029348684 0.25992373 -0.17318204 -0.2755968
-0.21070358 -0.17155045 0.36347634 0.22480486 0.16426253 0.030800015 -0.0864081 0.106742844
-0.100170694 0.025798466 0.2970208 0.017944586 0.21466537 -0.316655 0.059289668 -0.11597905
00000000: 8c99 413d 916e 46be 5b1b 093e 3b4e 7ebc
00000010: 512d 833d c9d6 e73d 3ba3 c7bc 340d 833d
00000020: dd43 6bbe 1740 adbd aa95 103e a826 2a3d
00000030: c847 8e3c 1f98 b7bc 26d3 ebbd 6ae1 8c3d
00000040: e3b9 88bd b058 283d a0a8 2cbd 7205 1e3d
00000050: 3b18 19be ed26 19be 7344 353b bc33 653e
00000060: 62ef 563d 4c8b fbbd 4280 25bd 16a9 15bb
00000070: 909d 99bb 4539 a43c b1c7 6cbe a680 503e
00000080: 6ed5 b33c 0074 fd3c 31f3 c13c d105 47bc
00000090: d26a de3d 49d1 02be 4fec 36be e8b6 43be
000000a0: 1fcf 2d3e afb1 d33d 6792 b9bd 0166 7e3c
000000b0: 4d5a 0e3e 166d 34be 8096 893d e347 afbc
000000c0: 9d4b 943d 8f83 493e 1e3b d93c b5de fc3c
000000d0: 61b1 763d c403 d73d ed62 1d3d e31e 68be
000000e0: 6e4d 843d 09ce 0abe d140 33bc 79ff 00bb
000000f0: 0046 f63b d46b e5bd b509 edbc b1a3 f23d
00000100: 0204 213d f7cb 5b3c ac2d a6bd 11ed 393e
00000110: a4a0 113e 4668 f83d 4065 12bd 61a8 4c3e
00000120: 0990 99be a4af bfbd c7fa 92bd 8e8c c7bc
00000130: e2ba b73d 60ca 8d3c 5a20 633e 830a 9b3e
00000140: 0989 06bf 0951 673d f448 23be 06b6 2cbe
00000150: 2e22 1fbf 52dc fb3e 6845 713e 1326 2bbb
00000160: f40a 743e fc7a dbbe 0a0c 313d e9f6 9dbe
00000170: 3cac 14be 0ab7 4ebd f68a 22be 5e88 a6be
00000180: 8bb6 303c 33f8 103e ac3d 963e 1345 723d
00000190: 99c2 a1bd ba33 7ebf 879e 24be e3d1 c4bd
000001a0: c1eb a0bc 043f cd3d 3129 c3bc a52b 543d
000001b0: cf80 0bbd 09a1 0f3e 0377 bb3d 8f84 5abe
000001c0: f18d dfbc 249a 06be bddf 563d 66b8 10be
000001d0: 1a33 2dbd 496f 2d3e 75bc 05be d0a5 f93d
000001e0: d67e 4f3c 02cd e63d d6e8 c9bd 110c a03d
000001f0: abed fabc 05fe 863d bbf4 c13d 436b 47be
00000200: b3f9 35be 923c de3d 7c71 f4bd 3419 14be
00000210: ff69 21bc a6c5 2e3c 713e ba3c f637 dabd
00000220: 4bbf a83d 9454 1cbe 863f ef3c ed96 b33d
00000230: b5ab 0fbe 56e2 363c f05d 223d e8cd fdbc
00000240: f723 b5bc 41f4 c2bd fa96 83bd 7c84 d4bd
00000250: 7d48 e83d b371 9bbd b347 b33d 30ca 683e
00000260: 0615 17bd a8b0 4bbe 3295 2fbe 44bf 7bbd
00000270: 2445 753d 99bc 23be a794 a33d 3d4f c63c
00000280: 0b4f 013b 2865 873c 3877 f63d a03b aa3d
00000290: 3143 233e dd74 ca3d bafe 18bd 990b 81be
000002a0: 235f 0fbe 73e4 613e 36d2 a7bd 8247 cfbd
000002b0: 47e2 603c 6817 2f3d e7e8 9cbd 1c85 08be
000002c0: 1cd7 ac3c df08 dc3b 6dfa 8abb d711 3fbe
000002d0: 2c29 89bd ff2e c7bd dbd8 ddbd 89a8 b33d
000002e0: 4107 153d af2c 9c3d f356 bdbd 0c61 0cbe
000002f0: da25 be3e e10e 27be 791c 4b3b 0691 363e
00000300: 6afc 89be 5f7b ebbd 6830 96bc 0fe9 48be
00000310: 7ac4 ecbe 5553 823e 2664 2dbe 4006 06bd
00000320: fad6 3a3e f7e7 803e 186b 663d 3f7a 4c3e
00000330: f074 0dbe e6ca febc 98d0 71bc e894 20be
00000340: 0a9f 9bbd ad38 d53c 5972 f53d e24e 533e
00000350: 4a3c 7c3d 2722 33be d0c7 a8bd 8b5b 7abd
00000360: 0392 03be 2fbb 6abd bbbc 28bd f0fc 1a3e
00000370: ab5d e13c ea67 bc3c 0640 23be 68c6 31be
00000380: 1fb2 b4bc 4b53 7cbd 9f3e 8ebc c871 653d
00000390: e6dd c73d 7639 103e c967 373e 0038 6bbe
000003a0: a53d 3c3e 740a 3d3d 3891 97be 80b5 43be
000003b0: a76c f0bc b914 853e a256 31be 061b 8dbe
000003c0: aec2 57be ecaa 2fbe 9219 ba3e 3f33 663e
000003d0: 7034 283e 5050 fc3c bbf6 b0bd fe9b da3d
000003e0: 4b26 cdbd 4e57 d33c 1c13 983e 8600 933c
000003f0: 3dd1 5b3e 9b20 a2be b9d9 723d 6d86 edbd

mps.1.l2.edge_block.m.0.bias f4 [16]
0.37006265 0.12351165 -0.009310956 0.3165683 0.36455327 0.30118215 -0.0013388196 -0.053774603
-0.19779803 0.53971565 -0.07059461 0.01971198 -0.1502138 0.19605803 0.2817212 0.43481356
00000000: da78 bd3e adf3 fc3d fb8c 18bc 3d15 a23e
00000010: baa6 ba3e 8c34 9a3e 557b afba c242 5cbd
00000020: 918b 4abe ce2a 0a3f e893 90bd 057b a13c
00000030: a5d1 19be 70c3 483e c33d 903e e29f de3e

mps.1.l2.edge_block.m.2.weight f4 [1, 16]
0.06112032 0.011186771 0.019122018 0.09533839 -0.39481875 -1.1687925 0.06673546 0.1473144
0.0007129464 0.21527709 0.080681965 -0.33609828 -0.0043743765 0.19044931 -0.027190262 0.13952851
00000000: 4d59 7a3d b848 373c c7a5 9c3c c640 c33d
00000010: af25 cabe fe9a 95bf 9aac 883d 96d9 163e
00000020: 06e5 3a3a 9971 5c3e 963c a53d 1315 acbe
00000030: ee56 8fbb 2505 433e 1dbe debc 90e0 0e3e
