archive-july16/results/nif_sketch_pcg_w0.5_50epochs/model_epoch44.pt (torch, 44782 bytes, 56 tensors)

mps.0.l1.edge_block.m.0.weight f4 [16, 17]
00000000: a339 443e 9f2e 173f 4e9d c63e e647 983f
00000010: 3c12 223f 04c1 eb3f ccd2 a83f ce26 923f
00000020: 003a de3b 3e5e 833f e563 bf3f 741b af3f
00000030: ca75 a73f e1d2 c33f 5430 bc3f ad0c a53f
00000040: 73d7 583f e8c9 873b a232 9abd 64a7 193d
00000050: 3d49 98bd d588 a9bc ed04 82bd 3187 d33d
00000060: ac41 fdbd f431 a0bd 739f 3cbd a732 c4bd
00000070: 5ef2 493c 0405 20be 551c 103e 5412 08be
00000080: 51ff f53d ed3e d53c 9b71 82be 3be9 e83d
00000090: 6b23 a43e efa1 593f c845 ab3e c2a7 e33f
000000a0: d8fc 283f e932 d13e d3ce 5b3e 61d1 d53e
000000b0: 060f ec3e f40c 373f cfda 0b3f 0bd0 e83f
000000c0: 328a 323f d4b9 e13e 9aab b83f 6cde 83bd
000000d0: 8bb2 04be 08be f33d 14a2 063d bc7b 5e3d
000000e0: 5b3f 443d 8064 86bb 6a0a f63d 3630 e5bd
000000f0: 6ec5 a03a fa36 eabd 2183 183d cad2 81bd
00000100: 8db3 3d3d cfe4 0abd c19e 023e 2aaf bbbd
00000110: 6b7e eabd f2ed 0abe 333d cb3d 1206 0c3b
00000120: 4e15 d63d de51 0cbe 710e 27be daf8 08be
00000130: 5ae0 f8bd 7403 b13c 10cf 823c 4a18 a53d
00000140: 41be 00be 0e33 ebbd cfa2 983d 7cbb 98bd
00000150: 6eae 943d 1ece d8bd 48d7 50be 5276 5dbf
00000160: 2449 3bbf bb25 20bf 8366 bcbf b9e7 65bf
00000170: 60f8 0abf aea4 543e cd25 69bf 819b 3dbf
00000180: 33a8 31bf 4db9 4dbf fc48 2fc0 a231 81bf
00000190: e5f9 6cbf a56d ef3c ba9e dcbd e502 ab3c
000001a0: 2dbb 843f 8fab 0e3f eae8 a13e acd3 683f
000001b0: 3b99 083f 3620 c43e 911d 0c3d 960b 4f3e
000001c0: 4e65 273f fb6b e03e f38d ae3e 1796 3a3f
000001d0: 8dd2 313f 2e71 c13e 5109 f33e e266 bfbd
000001e0: 5bd1 e239 97ee 6dbd d43c 31bc c5a5 d8bd
000001f0: d472 dbbd e384 babd aadf 5abd b457 fcbd
00000200: dd08 063e 24ce fdbc f589 093e ea3b 473d
00000210: 755d 07be 7540 dd3d efee 2fbd 881b 75bd
00000220: 564a 11be 8393 3dbe 008d 7d3c d8fb 8fbd
00000230: 427e e33c 7e97 08be df45 e23d 5f22 fabd
00000240: 18da 12bd 4050 553b 5c90 553d 39fa b83d
00000250: 395e e03d 1045 04be bdbd 0a3d beca 98bd
00000260: 00bb fbbc 70f2 13bd be06 063f b8db 9d3d
00000270: a6cc 753f d9e9 0c3f 6a72 1d40 b7aa 643f
00000280: 4f4d 633f 272d c7bc 5d7a 2c3f 30f5 2b3f
00000290: c654 863f 267b 403f 688c c63f 3f4d 8e3f
000002a0: 048d 663f 5194 7f3f 9cf2 d7bd a4ad a0bd
000002b0: 0f12 aabe 5e7f 03bf 4c93 00bf d447 cebf
000002c0: 1923 46bf fa4f c0be 353a 823e 2763 37bf
000002d0: b57c a5be b78c 0fbf a158 fdbe 42c7 3ac0
000002e0: 206c 13bf 156f 0bbf 393e ef3d 044c e2bc
000002f0: 51e7 32bd 4724 6e3c 65a8 fabc 4d89 49bd
00000300: f08c cb3d a5ff 083e 0fcb 82bc daf3 0fbd
00000310: 4ee2 81b8 6e32 3cbc 385a 0d3d 1634 283d
00000320: 1d98 11be 737f 6dbd 8718 063e 445d 723d
00000330: 766d febb 43c1 c0bd d699 c3bd 7e31 0fbe
00000340: 966d 50bd 6eef 573d c6da cb3d 479c 933d
00000350: 874d 0dbe 1b43 c0bd 6ed2 c9bc 7ea2 1a3e
00000360: 92fe b83c bb97 25bd f044 843d 668b 73bd
00000370: dfef cebd e2d8 833e 341a c93e d575 f93e
00000380: 6699 7d3f 182f 533f 450d fb3f 5a69 c83f
00000390: efa4 813f 6c46 70be 5851 8b3f 9119 cd3f
000003a0: 7c66 c33f 14ed b53f 186b d63f 102d c63f
000003b0: 1a67 b43f 65f9 133f d1f5 08be 6c85 15be
000003c0: dce0 823d c3f7 9cbd 14af 00bd d8fe b7bd
000003d0: 4209 e9bc 3606 e1bd 15e8 d0bd 791a 543d
000003e0: 9a08 3ebd 225f c53d 1c22 4dbd 0f88 eabd
000003f0: 5ea3 e1bc 78fa 9abd 33a0 43bd 8c84 75bc
0.19162612 0.59055513 0.3879189 1.1896942 0.63309073 1.8418279 1.318933 1.1418092
0.0067818165 1.0263135 1.495236 1.3680253 1.3082821 1.529873 1.4702249 1.2894493
0.8470375 0.004143942 -0.07529189 0.03751315 -0.07435844 -0.02069513 -0.06348596 0.1032852
-0.123660415 -0.07822028 -0.0460505 -0.09579974 0.012325851 -0.15626913 0.14073308 -0.13288242
0.12011588 0.026030982 -0.254773 0.1137261 0.32058272 0.85012716 0.33451676 1.7785571
0.6601081 0.40859154 0.21465616 0.41761306 0.46105212 0.7150414 0.5463075 1.818849
0.6974212 0.44087088 1.4427369 -0.06438908 -0.12958734 0.1190148 0.032869413 0.05431722
0.047911983 -0.004101336 0.12013705 -0.11190836 0.001226587 -0.11436267 0.03723443 -0.06339033
0.04631381 -0.033909615 0.12755872 -0.09164269 -0.114498936 -0.13567331 0.09923782 0.0021365923
0.10453282 -0.13703105 -0.16314103 -0.1337618 -0.12152167 0.021608092 0.015967876 0.080612734
-0.12572576 -0.11484347 0.07452928 -0.07457635 0.07259832 -0.10586189 -0.20394623 -0.8650867
-0.7315848 -0.6255757 -1.4718784 -0.89806706 -0.5428524 0.20765945 -0.91073304 -0.74065405
-0.69397277 -0.8036087 -2.7388296 -1.0093272 -0.9256881 0.029227087 -0.10772462 0.020875404
1.0369622 0.5573053 0.31623012 0.90947986 0.5335881 0.38305825 0.034207884 0.20219263
0.65388954 0.43832383 0.34092674 0.7288527 0.694619 0.37781662 0.47468045 -0.09345795
0.0004326206 -0.058088865 -0.010817725 -0.10578493 -0.10715261 -0.091073774 -0.05343596 -0.123214155
0.13089319 -0.030982085 0.13431533 0.048641123 -0.13219245 0.1080331 -0.042952474 -0.05984071
-0.14188513 -0.18513303 0.015475512 -0.07030457 0.027770165 -0.1333904 0.11048483 -0.12213587
-0.03585252 0.0032549053 0.052139625 0.09032101 0.109554715 -0.1291697 0.033872355 -0.07460545
-0.030728817 -0.03611988 0.5235404 0.07707924 0.96015394 0.55044323 2.4601083 0.8932299
0.8878984 -0.024313523 0.6737421 0.67171 1.0494621 0.7518791 1.5511599 1.1117324
0.9005892 0.9983569 -0.10544321 -0.07845619 -0.33216903 -0.5136622 -0.5022476 -1.611567
-0.77397305 -0.37561017 0.25435033 -0.7163567 -0.32321706 -0.5607409 -0.4948168 -2.9184117
-0.5758686 -0.5446637 0.1168179 -0.027624138 -0.04367763 0.014535016 -0.030597875 -0.049203206
0.09938991 0.1337877 -0.015965967 -0.035144664 -6.193352e-05 -0.011486633 0.034509867 0.041065298
-0.14218183 -0.057982873 0.13095294 0.059170976 -0.0077645136 -0.09411862 -0.09550826 -0.13983724
-0.05088576 0.052718572 0.09953837 0.07207542 -0.13799106 -0.09387799 -0.024636474 0.15101048
0.022582326 -0.040427905 0.06458461 -0.059459113 -0.101043455 0.25751406 0.39277804 0.4872271
0.9906219 0.82493734 1.9613425 1.5657151 1.0128459 -0.23464364 1.0884199 1.6023427
1.5265651 1.4212976 1.6751432 1.5482502 1.4093964 0.5780242 -0.13375022 -0.14601678
0.06390545 -0.07664444 -0.031416968 -0.089841545 -0.028446797 -0.10987513 -0.10200516 0.05178306
-0.04639492 0.09637286 -0.050081357 -0.11451732 -0.02754372 -0.075673044 -0.0477602 -0.014985215

mps.0.l1.edge_block.m.0.bias f4 [16]
00000000: 9fd3 bf3f 9d1c ee3d 7f93 543f 7106 22bd
00000010: 2454 13be 6ea9 53bf 093e 3c3f bc1a 1fbe
00000020: 35c4 3bbd d31a 693f 14fa 2dbf 10e2 9ebd
00000030: faaf 82bd 4dfb bb3f 21e9 17be 549e 343f
1.4986457 0.11626551 0.8303756 -0.039556924 -0.14387566 -0.82680404 0.7353216 -0.15537542
-0.045841414 0.91056556 -0.67959714 -0.07757962 -0.06381221 1.4686066 -0.14835025 0.7055409

mps.0.l1.edge_block.m.2.weight f4 [1, 16]
00000000: 7947 2b3e f150 7bbc f7d4 103f c5e9 78bd
00000010: 60f1 e9bd ed0e 9bbe 1a76 cbbb 50f0 b4bd
00000020: 843d a6bd e4be 8a3c 9df6 84be 954e 53bd
00000030: 426c a93b b679 fc3f 17f0 62bd b068 40bf
0.16726483 -0.015339122 0.5657496 -0.060769815 -0.11422992 -0.30284825 -0.006209147 -0.088348985
-0.08117202 0.016936727 -0.259694 -0.051588614 0.005170376 1.9724643 -0.05540475 -0.7515974

mps.0.l1.node_block.m.0.weight f4 [16, 9]
00000000: cf04 1dbc 91fc 5f3e 1fc1 d3be 330e eebe
00000010: 1ed4 8ebd d4f8 de3e e520 afbe f054 c4be
00000020: 7796 a2be 3060 013d 0d8c f13e 150f e23f
00000030: 044d a03f 78a8 513f f16b 68bf 5611 733f
00000040: e629 543f 4141 37bf cf53 a0bc 0dc5 3d3e
00000050: f2cd 963f 9b5a 813f fcd7 183f 9155 c5bd
00000060: 85c9 953f 3c16 8a3f 2cf1 973e d41a 27be
00000070: 923f 30be 8797 da3d 0e6c 23be 0e69 d8bc
00000080: e3c8 d23d 295c cbbd 48a6 bfbc 08fd 98bc
00000090: ade8 4fbd adf6 01be 0c6b 56be f22c 46be
000000a0: ec9c 09be 04b4 4d3e 03d0 e1bd e3e2 1bbe
000000b0: abcd 853c c5a6 18bc c33e 03bf 4aa0 80bf
000000c0: b46d 19bf 09d1 7ebf 5bb0 7740 abc9 19bf
000000d0: 9794 37bf 03b9 1dbe 9857 a5bb b5f1 9cbe
000000e0: 96db c4bf d8b3 84bf e4c1 27bf 9569 823f
000000f0: f7f5 52bf f475 1ebf cd9e a33d 5085 5bbe
00000100: 70ac 3ebe 31eb 4a3e 0718 363f 623a cf3c
00000110: 43cd 2040 8f4b dd3e 4406 793e e91a f43e
00000120: df17 93bc 1bd2 da3e 78aa 8e3e 1732 7a3f
00000130: d1c8 9b3e 2ece c33f 688d 853f 916d 2c3f
00000140: cd6a 323f aa30 c13b f11f df3e 201d cb3f
00000150: 4af1 a93f 5429 763f 7f69 0b3e 9374 c23f
00000160: 1aa7 983f f695 333f b139 16be 7982 4abe
00000170: 99a0 db3a a161 243d faf6 f7bd 7be2 98bd
00000180: e885 073e 4954 bf3a 3fd3 1dbc 1704 503b
00000190: 8a1d ad3c f861 1d3f 55d1 703f d887 043f
000001a0: b534 833f 68d4 833f ccf9 3a3f 34a7 623f
000001b0: 574b f2bb 292e e73e 6e04 473f 30a0 203f
000001c0: 6552 243f 9d8d 82be 39e7 243f a9ea 1b3f
000001d0: df02 7ebe 5029 3dbb 3fb9 493f 91ad e43f
000001e0: 3406 b13f 7a48 873f feed eebe bce7 a43f
000001f0: 366b 983f bc1c 263f 7e36 d4bd 3961 58bd
00000200: 309c 9f3d e700 003f 9492 d33e 1d42 3540
00000210: 915f 3f3f 834e eb3e e8e5 a43e 3cf4 023b
00000220: 5658 283f c2a4 ae3f 8798 bf3f 1e43 963f
00000230: 97e2 1b3e 0fcb 9d3f 7d9d a33f d139 333f
-0.009583666 0.2187369 -0.41358277 -0.46495208 -0.06974052 0.43549216 -0.34204784 -0.38346052
-0.3175542 0.031585872 0.47177163 1.7660853 1.2523503 0.8189769 -0.90789706 0.9494833
0.8287643 -0.71583945 -0.019571213 0.185322 1.17816 1.0105776 0.59704566 -0.09635461
1.1702124 1.0788035 0.29676187 -0.16318828 -0.1721175 0.10673433 -0.15959188 -0.026417281
0.10292222 -0.099296875 -0.023394719 -0.018675342 -0.050759006 -0.12691756 -0.20939273 -0.19353083
-0.13438767 0.20088202 -0.11026003 -0.15223269 0.016333422 -0.009317105 -0.5126764 -1.0048916
-0.5993302 -0.9953771 3.870139 -0.60073346 -0.71711105 -0.15402608 -0.0050458424 -0.30653158
-1.5379512 -1.0367384 -0.6553023 1.0188471 -0.8240656 -0.6189873 0.07989273 -0.21437573
-0.18620467 0.19816281 0.7113041 0.025296394 2.5125282 0.4322171 0.24318796 0.4767678
-0.017955719 0.42738423 0.27864432 0.9773268 0.30426648 1.5297296 1.0433779 0.67354685
0.69694215 0.005895694 0.43579057 1.5868263 1.327676 0.9615681 0.13614462 1.5191826
1.1925995 0.701507 -0.14670445 -0.19776334 0.0016756236 0.04013217 -0.12107654 -0.07465073
0.13234675 0.0014597262 -0.0096328845 0.003174072 0.02113225 0.61477613 0.94069415 0.5176978
1.025046 1.0299196 0.7303741 0.8853638 -0.007394235 0.45152405 0.77741134 0.62744427
0.64188224 -0.25498667 0.6441532 0.6090494 -0.24805783 -0.0028863735 0.7879829 1.7865468
1.3830018 1.0568993 -0.4666595 1.288322 1.1907718 0.64887595 -0.10361956 -0.052827094
0.07793462 0.50001377 0.41322768 2.8321602 0.747552 0.45958337 0.32206655 0.0019982
0.6575979 1.364403 1.4968423 1.1739233 0.15223156 1.2327594 1.2782437 0.70010096

mps.0.l1.node_block.m.0.bias f4 [16]
00000000: b8f4 1abf c1f6 8a3f 4bf9 813f fed8 33be
00000010: c289 fc3c 5b18 2dbf a108 55bf 53b1 123f
00000020: 1421 883f 1f94 b63f 2992 12be 0732 8b3f
00000030: ff1c 563f 0cf9 ba3f ecf2 183f 0428 bd3f
-0.6052966 1.0856553 1.0154203 -0.17563245 0.030827407 -0.6761529 -0.8321629 0.57301825
1.0635095 1.4263953 -0.14313568 1.0874642 0.83637995 1.4607253 0.5974567 1.4777837

mps.0.l1.node_block.m.2.weight f4 [8, 16]
00000000: b355 29be ab00 9ebe b6f9 d2bd ffe8 1e3e
00000010: 7fe5 0c3e 6447 483c 9991 a63c 7897 023f
00000020: cf1b d3be f7a5 f5bd ae06 ab3d 50d1 8b3e
00000030: 721c 96bd 3d51 27be e3b1 5bbe c824 033e
00000040: eaf4 40bc b6dd 11bc 460b cd3d 313f c2bd
00000050: 857a d6bd ff7c 963d bd56 c33c 2ed9 43be
00000060: 1d63 b43c 2cbc 83bc 3b40 673d b561 c2bd
00000070: d701 f93c 872b 923c 4ff2 72bc 2dbd bb3d
00000080: 8ac2 963d b02f 8fbc 34bd 02bd 5e9c 1fbd
00000090: d9f4 9ebd 516f c2bc 545a 063e b9ed 773f
000000a0: 2dab e1bd 9e7a 5abe 3275 aabd 8502 fc3d
000000b0: 4aa8 acbd 89cd 2cbe 9783 eebe 4ac1 1bbb
000000c0: 74eb 97bd 8313 0a3d ef3c b9ba 7992 0f3e
000000d0: ecf8 1bbe 542f 1c3e b76d af3d 6d58 f3be
000000e0: 63bc 0e3e 9ed6 73be 2247 ce3d 86cd 633d
000000f0: 5ba7 71bd 815c 38be b000 7dbd 201e 37be
00000100: 88d6 5fbc c5c9 a43c 633e 85bd c6a6 a8bc
00000110: 9fa5 1c3e d6b8 213d a0e6 b4bc 9dd2 ca3b
00000120: 872b 38be 8210 f4be 2964 063e 0e41 e0be
00000130: 77cf b03c 9455 d9be e2e0 73be b233 bbbe
00000140: 1965 5bbd 0be5 493d ada2 113b 5d06 053e
00000150: 4452 63bd 13c3 9abd 7d5f d03c aeb9 b1bf
00000160: 6af9 d83d 4cdf e33d 24a4 d7bd 28fd 81bb
00000170: aa04 b6ba d246 673e cf6e edbe dddd 1e3e
00000180: e913 f93d 840e b63d 3bff 9dbd 5830 e7bd
00000190: 2b7a ccbd 7cfd f0bd 734e 04bd 78c2 8bbf
000001a0: 245d 0cbd d15c 4abe eb52 21be 9ecb 6ebe
000001b0: bc88 2b3d 0831 3ebd 422d f6be 9ea4 4fbe
000001c0: 9a0c 593d 81fd 96bd 617b 9abd 450c cb3d
000001d0: dd89 0fbe 75ce 68bd 91e4 d03d efab 123f
000001e0: 38c7 3fbd 31cc c8bd 565e dbba aa42 7e3e
000001f0: 72a7 d0bb 63fc 95bc bf6e 0a3f 4a38 8abd
-0.16536598 -0.30859885 -0.10301535 0.15518568 0.13759421 0.012224052 0.020333098 0.5101237
-0.41232154 -0.11994546 0.083508834 0.2730813 -0.07329644 -0.16339584 -0.21454577 0.12807
-0.011777142 -0.008902958 0.10011916 -0.09484709 -0.104725875 0.0734806 0.023845071 -0.19125816
0.022019917 -0.016080938 0.05645774 -0.094912924 0.030396385 0.017843021 -0.014828279 0.09166942
0.07361324 -0.017478794 -0.03191872 -0.038967483 -0.07761545 -0.02373472 0.13120395 0.9684711
-0.11018977 -0.21335837 -0.083231345 0.12305168 -0.08430536 -0.1687528 -0.4658477 -0.0023766332
-0.07417956 0.033710014 -0.001413254 0.14020719 -0.15231675 0.15252429 0.08565848 -0.475284
0.13939051 -0.23812339 0.10072161 0.055615924 -0.058997493 -0.18004037 -0.061768234 -0.17882586
-0.013661988 0.020115742 -0.0650604 -0.020587336 0.15297554 0.039482914 -0.022082627 0.006189658
-0.17985354 -0.47668844 0.13124146 -0.43799633 0.021583302 -0.42448103 -0.23816255 -0.36562878
-0.05356321 0.049290698 0.0022222206 0.12990709 -0.055498376 -0.07556739 0.025436157 -1.388479
0.10594447 0.11126575 -0.10529354 -0.003966946 -0.0013886888 0.2258561 -0.46373603 0.15514322
0.12162001 0.088894874 -0.07714697 -0.11288518 -0.09984239 -0.11767098 -0.032301378 -1.0918722
-0.034268513 -0.19761969 -0.15754287 -0.23319861 0.041878447 -0.04643348 -0.48081404 -0.2027764
0.052990533 -0.07372571 -0.07543064 0.099144496 -0.14017434 -0.056837518 0.101998456 0.572936
-0.04682085 -0.098045714 -0.0016736488 0.24830118 -0.0063676173 -0.018308824 0.54075235 -0.067490175

mps.0.l1.node_block.m.2.bias f4 [8]
00000000: 9183 dcbf 3fc0 4fbe defd b7bf fbce 6abf
00000010: 21d9 97bf 4f84 463f bd57 12bf 2f64 5dbf
-1.7227651 -0.2028818 -1.4374349 -0.9172208 -1.1863137 0.77545637 -0.5716513 -0.86480993

mps.0.l2.edge_block.m.0.weight f4 [16, 17]
00000000: 1955 bc3e 759e 9fbd fd66 c53d aebd 013d
00000010: b226 5ebd 3efe b3be 2629 f43c d400 813e
00000020: 06ba 813e ed84 1d3e 6b3a 55be 3cd6 96bd
00000030: 0622 073e 8cf6 903c e7f2 5c3d 1903 a6bd
00000040: 29a0 81be 9825 58bc 5e21 0d3e 582e 1e3e
00000050: 8fb9 153e 3066 babd c5fb 29be 6a14 0e3e
00000060: 238a f0bc 1cdf 863c b8f1 483d a783 233d
00000070: 1f70 493e 3bc2 86bd deef 1bbe 32fe 503e
00000080: 6da9 3a3e 7f95 78be 84e6 0abe d5bb fdbd
00000090: 57e8 22be e4e0 9cbe 1b1c 81be 43ad 0c3e
000000a0: 6dd0 aabe c901 c63d e931 af3d 9884 83bd
000000b0: 867e f4bd f23e 503d 58a8 f3bd 9a5a 21bd
000000c0: 8005 aebd ce6e 223e 80a7 16bf ce8e dc3d
000000d0: 1db0 8d3d 6c44 163e c05e 893e fb85 b3bc
000000e0: e053 9bbd 1629 db3d 75e1 413e 229e c9bd
000000f0: 1e2d d83d 4103 b1ba fb44 5f3e 22c2 8b3d
00000100: 753b 0dbd a9bd 2e3e be35 cd3d e8a5 073d
00000110: 2f07 b5bd 6f1f 143e 1a70 843d f219 dd3e
00000120: 7c82 1f3e e21f 4ebe 1c15 a03e 775e eebd
00000130: abbb 28bd cffd 40bd 9057 cfbd 2abb 993e
00000140: 93b7 663d adab fbbd 6eeb 383e 5caf 2abe
00000150: afde 783e 54f1 63be 2989 27bd bee1 82be
00000160: bfd8 24be 6478 21be 5fa3 633e 3d0d f2bd
00000170: 078a a83d 5496 2a3d 3129 e43d e25d e63d
00000180: 56f3 a73d a354 18be 6c53 ce3d 32bf b53b
00000190: 0a97 9bbd 36d0 debe f2db 21be fe6e 993b
000001a0: 48c4 363d 64d2 b03d e309 9b3e fc2f bdbd
000001b0: 244c 803e 1428 373d 91f7 283c 842e 463c
000001c0: 5b5c 84bd 9587 63bc 3fc5 ab3d fe2e 053e
000001d0: 3fd2 f6bd bd4d 08be 4267 483f 98c0 dc3d
000001e0: da3b 713e 718a e53d b6e8 a43e 50c2 03bd
000001f0: 92f3 b8bd 9112 403e c4e2 03be 386f 1fbc
00000200: 51dd a73d f25c 133e 4db4 5e3d df46 febd
00000210: 8bc6 63bd 6c3b 553e 4cee ea3d 5d90 7cbe
00000220: f448 053d cf0a 353e 2324 533e 053d 083e
00000230: fae4 df3d 6d56 bbbd 2737 fe3d 9a50 acbb
00000240: 004d a43d 4700 533e 30da 58bd 9f02 80bd
00000250: 57b6 453e a785 c1bd 67f2 a83c 8242 ad3c
00000260: 8767 1dbe 3afc 823e e260 0e3e fe97 3c3d
00000270: 63cd 403e f5f1 d4bd de45 abbd 30bf 393d
00000280: 4734 163e 6737 b83e 48f5 f53d 7e93 45bd
00000290: 39ee 1d3e 476a 163d bdb3 11bf fb9a 27bd
000002a0: c701 c53e a931 2abc 8c5d fb3b bc84 0abe
000002b0: df5e eebd 3f11 89be 270a b8be bb95 a4bd
000002c0: 0897 7dbe b2cb d8bd 3262 5fbe f3d0 b13d
000002d0: 2bd1 6a3d 83fd 743d 8718 d23d 62c3 633d
000002e0: a6b0 d4bd 46c7 b13d 33d3 c9be fb9f f1bd
000002f0: 2382 be3d 0c74 903c db58 b03d 3a11 883e
00000300: b172 12be 1daf 3f3e 7021 2ebe e657 54be
00000310: 6910 1ebe cac1 debd 15e8 9dbc 5fe5 7fbd
00000320: 4f98 3d3e e8e0 68be a0ad 633c 7ef3 213f
00000330: ab30 19be 5fd1 863e 5ae8 493e 5a00 7e3e
00000340: dfe1 99bc b969 e1bd d87c 903e 7e70 98bc
00000350: b47d 073d eb0d 9c3e dfde b93d 239d 603e
00000360: dc69 443e f3b0 96bd 28d3 b13e d9eb 903c
00000370: 4da0 5d3e 40b8 4ebd 9b0d f3bc 91cf 0b3b
00000380: 7afa 433e cd78 a63e 2754 07be bef8 863e
00000390: d807 e03d 6eb1 223e 1d68 abbc b7e1 b0bd
000003a0: e134 8fbd 0025 793a 52d2 8a3c 0261 bcbd
000003b0: a132 c93d 7542 453e 64ae 6e3a 0cbe 423e
000003c0: 3a5d 20be 21d4 143e 6f33 a0bd 7b9b 4dbe
000003d0: 4978 df3d d303 1c3b a654 ef3c ab2a 313e
000003e0: f2db 063e af53 6a3e 4c13 abbc 6d2d 80be
000003f0: 3bf2 423e 6b68 e2bd c4b4 ecbd 5d09 f33d
0.36783674 -0.07793895 0.09638784 0.031675033 -0.05423612 -0.3515491 0.029804777 0.25195944
0.25337237 0.15382738 -0.20823066 -0.07365081 0.13196573 0.017695688 0.053942587 -0.081060596
-0.25317505 -0.013192557 0.1378226 0.15447366 0.14621566 -0.09101522 -0.16599949 0.13874975
-0.029362744 0.016463809 0.049058646 0.039920475 0.19671677 -0.06580015 -0.15228221 0.20409468
0.18228693 -0.24275778 -0.13564497 -0.12389342 -0.15908943 -0.30640328 -0.25216755 0.13737969
-0.3336214 0.09668309 0.085544415 -0.064217746 -0.11938195 0.05084128 -0.118973434 -0.039393045
-0.08497143 0.15862581 -0.58849335 0.10769425 0.069183566 0.14674538 0.268301 -0.021914473
-0.07584357 0.10701196 0.18933661 -0.098446146 0.105554804 -0.0013504998 0.21803658 0.06824137
-0.03448053 0.17064537 0.10020016 0.033117205 -0.08839261 0.14465116 0.06466694 0.43183857
0.1557712 -0.2012935 0.31266105 -0.116391115 -0.0411946 -0.04711705 -0.10124123 0.30025607
0.056327414 -0.12288604 0.1805856 -0.16668457 0.24303697 -0.22260028 -0.04090229 -0.25562853
-0.16098307 -0.15768582 0.2223029 -0.11818931 0.082294516 0.04164727 0.11140669 0.112483755
0.082007095 -0.14876036 0.10074505 0.005546474 -0.07597168 -0.43518227 -0.15806559 0.0046824208
0.044620782 0.08633879 0.3028098 -0.09237668 0.2505809 0.044715956 0.010312931 0.012096051
-0.06462928 -0.013887306 0.08387231 0.13006207 -0.1205182 -0.13310905 0.7828256 0.10778922
0.23557988 0.11208046 0.32208794 -0.032167733 -0.09030832 0.18757083 -0.12879473 -0.009731106
0.0819651 0.14390925 0.054371167 -0.12415861 -0.055609267 0.20823449 0.11471233 -0.24664445
0.032540277 0.17679904 0.20619254 0.13304527 0.10932346 -0.09147344 0.12412863 -0.005258632
0.08022499 0.20605575 -0.052942455 -0.062505 0.19307838 -0.0944932 0.020623399 0.021149877
-0.15371524 0.2558306 0.13904145 0.04604339 0.18828349 -0.10397712 -0.083629355 0.045348346
0.1466838 0.3597977 0.12009674 -0.048236363 0.15422906 0.036722448 -0.56914884 -0.040919285
0.38477919 -0.0103878165 0.0076710638 -0.13527197 -0.11639189 -0.2677097 -0.35945246 -0.08036371
-0.24764645 -0.10585727 -0.21814802 0.08682432 0.057328384 0.05981208 0.102585845 0.055606253
-0.103852555 0.086805865 -0.39418945 -0.11798092 0.09302165 0.01763346 0.08610698 0.26575643
-0.14301564 0.18719144 -0.17004943 -0.20736656 -0.15435947 -0.10876806 -0.019275704 -0.062474605
0.18515132 -0.22742045 0.013896376 0.63262165 -0.14959972 0.26331612 0.19717541 0.24804822
-0.018784462 -0.11006493 0.28220248 -0.018608328 0.033078864 0.3047937 0.090757124 0.21934943
0.19181007 -0.07357969 0.34731412 0.017690586 0.21643181 -0.050468683 -0.029669574 0.0021333436
0.19138518 0.3251404 -0.13215695 0.2636165 0.10938996 0.15887997 -0.020923669 -0.08636802
-0.06992508 0.00095041096 0.016945992 -0.0919819 0.0982411 0.19263633 0.0009104966 0.1901781
-0.15660563 0.14534046 -0.0782231 -0.20078842 0.109116144 0.002380599 0.029215168 0.17301433
0.1316984 0.22883485 -0.020883225 -0.25034657 0.19037716 -0.110550724 -0.11557916 0.1186702

mps.0.l2.edge_block.m.0.bias f4 [16]
00000000: a087 38bc f84d b2bd 48ea e2be f77e 953d
00000010: a23f a13d ec46 da3e a48c 163e a4ae 9dbe
00000020: bb18 35be 0756 3b3d 5a62 873d a420 093f
00000030: 172d ee3d 1900 163f 29d6 febd cfaf 1ebe
-0.011262804 -0.087062776 -0.44319367 0.07299607 0.07873465 0.42632234 0.14702088 -0.30797303
-0.17685215 0.04573634 0.06610556 0.5356543 0.11629694 0.585939 -0.124431916 -0.15496753

mps.0.l2.edge_block.m.2.weight f4 [1, 16]
00000000: e300 903d 1e18 0fbe a989 81be 11bc 9a3c
00000010: dc90 9f3e d564 8bbe ae8f 5c3f 7814 bfbd
00000020: 730a 24bd 6115 2cbd 3d25 bfbe 8122 053f
00000030: 85f6 143e 69d0 373e fab3 33bd 175e 0e3d
0.07031419 -0.13974044 -0.2530034 0.018888505 0.31165206 -0.27225366 0.8615674 -0.09330076
-0.040049028 -0.042012576 -0.37333098 0.52005774 0.14547165 0.17950596 -0.04387281 0.0347577

mps.0.l2.node_block.m.0.weight f4 [16, 9]
00000000: ebd7 66be 3bf3 ddbc 2cd5 93bd c401 d0bd
00000010: c44b 5ebe c83c 0a3e 4fb0 783b 782b 5a3d
00000020: be6c cb3e 2f91 f7bc 5add 0e3e c71d d9bb
00000030: 4150 913c ec93 16bc d516 82be 81ff 863d
00000040: 9ac1 e6bd 3cad 8b3d 3afc a23e fbe7 99bc
00000050: 6116 c6bd 762d e13d 56aa 75bd f715 f5bd
00000060: b77c 523e 1713 a1bd 3edc a1bc df0b 1e3e
00000070: 91b7 123c 67cb b3bc 01f3 e33b 3a53 bf3d
00000080: a32b f9bc 8e1b 343d 30c0 8a3d 4792 87be
00000090: 8fa6 d2bd bc76 c3bd 4902 fabd 3b91 7eba
000000a0: b51c f1bd 4c3e 4cbe e41e 3bbe 2243 3c3d
000000b0: 35f6 1dbe fa8a 94bd 5ef6 173e d86d 763e
000000c0: fa7f b43e 6be4 29bd 603a 49be 4f39 683e
000000d0: 589e 053e df68 373d c6e3 7abe ef29 ad3b
000000e0: aedb 17be 5380 1cbd 488e a6bd 0e73 023e
000000f0: 7e68 a8bd a675 1abe 3168 413e 42f8 68bd
00000100: 9dd4 c33d 57fd 8f3d 7798 65bd 630e 04be
00000110: adc5 d53d 9865 653d 8463 493d 81e7 d2bd
00000120: 5bce 883e 2f32 a73e ea86 543d 5a01 fabc
00000130: 33a9 213e f13d 0e3e 2b2c a7bd bfe6 eabd
00000140: 70be 99bd 5dca 643e 1046 313e e8ee 383d
00000150: 9e2d ae3c ecc2 403e 2e3d 17be 8fcd babd
00000160: 4923 2b3e 41bd b4bc 662e ec3c eac7 083e
00000170: 4beb aebd b196 c9bd 24f0 ae3d f181 66be
00000180: f7bc 16be 9748 093e ac80 893e dc0d 4cbe
00000190: ad43 64bd ba45 35bd 9c6b 87bd 0f21 efbd
000001a0: 7244 803d f2eb acbc 80bf f9bd bebf 9bbe
000001b0: f141 4d3e ea6d a53c 7aa7 db3a f95d 093e
000001c0: 1dca 5f3e 79c4 b6bc 1956 acbc fe9f 0c3d
000001d0: e0c8 aebe 343c 1b3c dc56 c13e cb74 423c
000001e0: ca70 803e 31d9 ed3d cde5 03be 1f08 c03d
000001f0: 479f ecb9 c492 f0bd 1349 a43d 84be 36bc
00000200: a6b2 cbbd 32fd 4f3e f9bb 76bc 0d2e 82be
00000210: 3ada b23d a7f8 e7bd 2b62 53bc a19f 533e
00000220: c3f9 ce3d b4f4 c53d 52a7 983c 57da fa3c
00000230: aa57 07bd c4ca 1a3e 1b25 3b3b b738 91bc
-0.22543304 -0.02709352 -0.07218394 -0.10156587 -0.2170859 0.13499749 0.0037946885 0.05326411
0.397314 -0.030220596 0.13951626 -0.006625864 0.017738463 -0.009190541 -0.25408044 0.06591702
-0.11267395 0.06820151 0.3183306 -0.018787375 -0.09672237 0.10994999 -0.059976898 -0.1196708
0.20555387 -0.07864969 -0.01975834 0.15434216 0.008954898 -0.021947576 0.0069564586 0.09342046
-0.030416315 0.04397159 0.06774938 -0.26478788 -0.10285675 -0.09544131 -0.12207467 -0.0009710972
-0.117730536 -0.1994564 -0.18273503 0.04596246 -0.15425952 -0.0725307 0.14840075 0.2406534
0.35253888 -0.041477602 -0.19651175 0.22678111 0.13048685 0.044777747 -0.24500951 0.00528454
-0.14829895 -0.038208317 -0.08132607 0.12739202 -0.08223055 -0.15083942 0.18887402 -0.056877382
0.09562037 0.070307426 -0.056053605 -0.12896113 0.10438094 0.05600509 0.04916717 -0.10298062
0.26719937 0.32655475 0.051886477 -0.030518223 0.157872 0.13890816 -0.08162721 -0.114697926
-0.07507026 0.2234282 0.17311883 0.045149714 0.021261986 0.18824357 -0.14769432 -0.091212384
0.16712679 -0.0220629 0.028830718 0.13357511 -0.08540972 -0.09843195 0.08541897 -0.22510506
-0.14720522 0.13406597 0.2685598 -0.19927162 -0.055728603 -0.04425595 -0.06612322 -0.11676227
0.06263055 -0.021108601 -0.12194729 -0.30419725 0.20044686 0.020194013 0.0016758286 0.13414754
0.21854444 -0.022310482 -0.021037148 0.034332268 -0.3413763 0.009474803 0.3776158 0.011868666
0.2508605 0.116136916 -0.12880631 0.09376549 -0.000451321 -0.11746743 0.0802175 -0.011153821
-0.09946184 0.2031143 -0.015059465 -0.2542576 0.0873303 -0.113267235 -0.012901823 0.20666362
0.10106232 0.09665814 0.018634472 0.03062169 -0.033042587 0.15116411 0.0028556052 -0.017727239

mps.0.l2.node_block.m.0.bias f4 [16]
00000000: 7f16 383f e59e 1cbe 73fb 6fbe ebad 03bf
00000010: 87d4 263f b00f cc3d 745a 843f c81f de3e
00000020: bd7f 77bc ef80 b2be 7d99 2abe 850d 7d3f
00000030: 2a9c 4abe fc76 833d 55c8 80be 8c2d 37be
0.71909326 -0.15294988 -0.23435764 -0.5143725 0.6516804 0.0996393 1.0340104 0.43383622
-0.015106139 -0.34863994 -0.16660114 0.98848754 -0.19786134 0.06419179 -0.2515284 -0.17888469

mps.0.l2.node_block.m.2.weight f4 [8, 16]
00000000: 2724 46be e802 8fbc 62cf fa3c d91e 403e
00000010: 9c68 6e3e 025b d23d f163 80bd 891f 063e
00000020: bb63 a7bc a71e 273d 3bdc 29be 79d6 d73d
00000030: 02a0 903e 5a22 3fbd dbe9 18bd cb5c 90bb
00000040: 477c 44be 44fe 3abe c571 a33b edba 363e
00000050: 3615 973d 0771 4b3c 8daa 76be 9544 e4bd
00000060: 2526 383c 8f1e 1e3e 1282 7ebe 1568 7b3d
00000070: 0561 613e 2b2a b83d d6dd 04be d324 143e
00000080: a6a9 213c f0d7 ffbc 476f 90bd ac5b 883b
00000090: 4cee 50be 8ace 483c b108 e5bb dfc3 a43d
000000a0: 3a00 c93c a7bb dc3d 106d 96be 0513 e83d
000000b0: 9690 b4bd 2397 3dbe 77d7 9cbd 1c5b 8b3d
000000c0: 5fe8 f13d ba2d 273e b73e 543d 1e20 4dbb
000000d0: aeb1 c93d 3064 2ebd 4410 8abd 05a7 08be
000000e0: 3a10 bd3d 9cef cbbd 8e26 233e 61cd 79be
000000f0: b2f2 b0bd 1acf 2d3e 5c92 103e 0bbf 833c
00000100: 85db 3cbe c0cc 833d 17e2 f4bd 5a85 ebbd
00000110: 622c 573e f8ab dbbd 3437 0fbe df18 0e3e
00000120: 5a26 91bd ce71 5ebd 4105 ab3d 2df4 9abd
00000130: bfc1 393e eb12 b93d 3289 253d 868d febc
00000140: 7890 343d b30c 9abd acbd 2d3d 88f7 bd3d
00000150: 0316 2c3e 1603 623e a038 dd3d 7e84 4f3d
00000160: 0d67 6ebd 9c79 8a3d 5b72 293e 9cb9 123e
00000170: bda4 0bbd 0ce2 2f3c 2c4e 723d a167 473d
00000180: 516a 323d a054 b13d c8b4 1dbd 245f 143e
00000190: 2954 88be 8699 90bc dd98 d3bd 1236 e0bc
000001a0: adac 32bd e08b 143d b7ee 0c3c 4297 863c
000001b0: 8e96 813d 6c72 093e ed59 b03d f592 65bd
000001c0: c395 233d 29c3 a83c 6e3e 2cbd ed97 523d
000001d0: f5b2 86be 202d 75bc 1578 41bc f7b5 43bd
000001e0: e6a1 3cbb 9a42 9bbc 197a 88bc 639e 4f3e
000001f0: 6b03 b73c 1088 b03d f9aa 983d 6862 98bd
-0.19349729 -0.01745744 0.030616466 0.18761767 0.23282093 0.102712646 -0.06269062 0.13097967
-0.020433297 0.040800717 -0.16587918 0.10538954 0.28247076 -0.04666362 -0.037332397 -0.004405593
-0.19188033 -0.18261057 0.0049879276 0.17844744 0.073770925 0.012417085 -0.24088497 -0.111458935
0.011239563 0.15441345 -0.24854305 0.061378557 0.22009666 0.08992418 -0.12975249 0.14467172
0.0098671075 -0.031230897 -0.070524745 0.0041613188 -0.20403403 0.012256274 -0.0069895615 0.08045172
0.02453624 0.10777979 -0.29380083 0.11331753 -0.0881664 -0.18514685 -0.07658284 0.06804487
0.118118994 0.16326037 0.051817622 -0.003129966 0.09848343 -0.042576015 -0.06741384 -0.13344963
0.092316106 -0.09957811 0.15932676 -0.24394752 -0.086400405 0.16973534 0.14118332 0.016082307
-0.18443115 0.06435537 -0.11957186 -0.11500044 0.21013024 -0.1072616 -0.13985902 0.13876675
-0.07087393 -0.05430775 0.083506115 -0.07566104 0.18140315 0.090368114 0.040414043 -0.031073343
0.04408309 -0.075219534 0.042417213 0.092757285 0.16805272 0.2207149 0.10801816 0.050663464
-0.058203746 0.067614764 0.1654753 0.14328617 -0.034092654 0.010735046 0.05915658 0.048682813
0.043558422 0.08658719 -0.038502485 0.14489418 -0.2662671 -0.01765133 -0.10331891 -0.027369533
-0.043621708 0.036266208 0.008601836 0.016429547 0.06327544 0.13422555 0.08610902 -0.056048352
0.039937746 0.020600872 -0.042051725 0.05141442 -0.26308408 -0.014964372 -0.011808415 -0.047780957
-0.0028783022 -0.018952657 -0.016659783 0.20275263 0.022340497 0.08619702 0.074544854 -0.074406445

mps.0.l2.node_block.m.2.bias f4 [8]
00000000: a845 c43e 0196 51bf 4956 3d3e 03c0 cebe
00000010: 2ed7 23bf 2968 c83e b3a1 05bf a97a f33e
0.38334394 -0.8186951 0.18489946 -0.40380868 -0.64000213 0.39141968 -0.5219986 0.4755452

mps.1.l1.edge_block.m.0.weight f4 [16, 18]
00000000: 2942 33be 7a7a 903e 636e 55bb 2b7c 093e
00000010: 6d75 d23c 0759 01be 08f5 3c3e f692 acbd
00000020: 3af9 343d 9a5a 1b3d 026c bb3d 3092 ab3e
00000030: 3875 7abd 1112 163d a960 1d3e fece 7dbe
00000040: a959 4abc c43e 90be 2425 54be f488 353e
00000050: 875b 423d 7fe3 4cbd b8bb 513e 5862 8cbd
00000060: 763f 893d 9bb5 5f3d 8958 cfbd 1064 99bb
00000070: 1e99 c43d 1872 5f3d 4214 033e ab98 0d3d
00000080: 43d7 e53d 0393 49be 9587 d23c 8874 803f
00000090: 241e c5bd b78b 3d3e e3ff 44bd 3869 84bb
000000a0: 514e f73d dd2d b0bd fa3d 1b3e bcad 2cbd
000000b0: 40dc 2bbe e1bc 4d3d 84d4 393d c2c3 91bd
000000c0: 66f4 ac3d 137b 13be 1cf2 9c3c a4aa 5cbd
000000d0: 5585 9c3b e1ec 863f 8d5f 86bd 5267 31be
000000e0: 255f 503e 60b3 77be 9e1a 82bd 583f 003e
000000f0: b8d6 8fbd 4c14 06be b879 913e e20e a3bc
00000100: 3ac0 9dbd 8866 173d 81f3 813d 18b5 fc3a
00000110: 7b82 1abe 12b0 ec3c 7971 073e 4b47 4fbf
00000120: 32f8 95bd bc18 ac3e 4849 903d 3416 623e
00000130: 4b7a 713e 4a3f 8b3d bc91 86bd 0ab2 57be
00000140: 638d 55bd 57b5 3bbd f2e3 183e 0837 653d
00000150: 204f e83d 23df 78be 861c 853e a530 3c3e
00000160: efbb 813e 61a5 99be e8c8 d23c c7e8 7e3d
00000170: 0dbd 203e 0ce6 283e bd4a ecbd ee4e cebd
00000180: d71c f3bc 5587 28bc 0192 48be 0142 283e
00000190: 06cf 613d 8f2a 883d c1e4 b7bc 3572 163d
000001a0: 8110 bb3d f2d1 6dbe 7d4e 533c e074 643f
000001b0: 3a53 d93c 9626 473d 062a 683d 765a 8cbd
000001c0: bc34 1a3e 46ba 3fbe 3710 adbc 7c22 603d
000001d0: 627d a4be 6898 eb3d 9fc2 8bbd ce9e ad3d
000001e0: 13b0 d0bd b9c0 85be fa67 5e3d 8adb 93bd
000001f0: 7cd6 e5bc 5c45 4f3f b811 8fbe 3aa8 5a3e
00000200: 4641 19be 9d7f cc3d a40d 333e f651 8d3d
00000210: d179 9fbd 9418 9dbb 9890 b4bc c02b 7e3d
00000220: bf6d 163e f277 79bd 72ca 9b3b 0992 a4bd
00000230: 0cd6 77ba 454d 88bc 514b 3c3c a296 42bf
00000240: cb1b 7abc 84c8 c83c 8fea 3ebd f0fd 6c3c
00000250: 53b0 593d 1025 68be 6393 333e 4909 6e3e
00000260: f6f8 afbd bcb0 70be e446 03be 7d9a 4e3e
00000270: bb38 61be ef49 81be 4407 6e3d 0d4d 303d
00000280: 4189 e9be f655 c8bd 0141 f13d f79c 853d
00000290: 1a0a 96be 1495 083e 211e c13e 4bc1 5c3d
000002a0: 2470 f63b fd6b 18be db8f 92be c417 5dbd
000002b0: 521b 293e 969f 3c3e 89fa 953c 7262 6dbe
000002c0: 30aa c93e 9bb8 683e f1c4 40be b5a0 f93e
000002d0: 30a6 243e 44f9 1bbe 1e2f 883d 18b4 893c
000002e0: 2136 aabd 5c2c 143e 5b5c 0bbe d1ad 81bc
000002f0: fb38 81be 50ae 29be 1ca9 69bd ef3a 333d
00000300: 7dc7 1bbe 2ba4 373c 338c 943c 70b7 5e3d
00000310: dfaf 19bf 4043 903f 1fca 28bd 14f9 f2bd
00000320: b1d8 8cbe bf26 a33d 20af c93d 602d bebc
00000330: fde9 b2bd ca8c c1bd 5cf8 d9bd ab8d 5e3e
00000340: 85dc 713e d6bc e93c e928 573e 5da8 33be
00000350: 6852 813c 8a8b 5f3c c9d0 a3be 4c1f e43e
00000360: 58c7 b9bd d56d 343e 8996 d6bb a66a 403e
00000370: ad59 473d 9fcd 23be c454 9b3d 2e95 78be
00000380: b623 c5bd fe67 a43d 3459 50bd b750 28bd
00000390: 9a1d 153e 5c3c 4a3d 64f8 893d addd 253d
000003a0: ea41 4dbc 9fc9 403f 0508 0e3e e24e 283e
000003b0: 15dc 99be 4067 9a3e 833e c9bb ae90 14be
000003c0: c73b 493e f60f 1fbd e444 52be e349 5a3c
000003d0: 3ca0 b9bb e44e b73e 8553 e2bd 2737 88be
000003e0: 438d 8b3e 68f3 97bd 9cd1 9ebe 06e7 4e3e
000003f0: f7bc c8bd 74b5 3fbc 9275 173d 58af a43d
-0.17505707 0.28218442 -0.0032567016 0.13426273 0.025690759 -0.12631617 0.18452847 -0.08426468
0.044182993 0.0379282 0.0915146 0.3350997 -0.061146945 0.036638323 0.15368904 -0.24785993
-0.012350478 -0.28172886 -0.20717293 0.17728025 0.04745057 -0.050021645 0.20481765 -0.06854695
0.06701557 0.05461655 -0.101243086 -0.004681118 0.09599517 0.054552168 0.12800696 0.034569424
0.112226985 -0.19684987 0.025699416 1.0035563 -0.096248895 0.18510328 -0.048095595 -0.0040408634
0.120754845 -0.08602498 0.15160361 -0.042157874 -0.16783237 0.050228957 0.045368686 -0.07117416
0.08445053 -0.14402418 0.019158415 -0.053873673 0.0047766366 1.054104 -0.065611936 -0.1732457
0.20348795 -0.2418952 -0.06352733 0.12524164 -0.07023376 -0.1309368 0.28413177 -0.019904558
-0.0770268 0.036963016 0.06345273 0.0019280044 -0.15088837 0.02889255 0.1322688 -0.8096816
-0.0732273 0.3361262 0.07045227 0.22078782 0.23581807 0.06799181 -0.065707654 -0.2106401
-0.05213679 -0.045827236 0.14930704 0.055960685 0.11343217 -0.2430387 0.25998324 0.18377931
0.25338694 -0.30008987 0.025730565 0.062233713 0.15697117 0.16494006 -0.11537693 -0.100736484
-0.029676838 -0.010286172 -0.19586946 0.16431428 0.055129074 0.066487424 -0.022447946 0.03673001
0.09134007 -0.23224619 0.012897131 0.8924084 0.026528943 0.048620783 0.0566807 -0.068531916
0.15059179 -0.18723401 -0.021125896 0.054720387 -0.3212691 0.115036786 -0.068242304 0.08477555
-0.101898335 -0.26123598 0.05429838 -0.07219608 -0.028056376 0.8096521 -0.27943206 0.21353236
-0.14966306 0.09985278 0.17485672 0.069003984 -0.077869065 -0.0047941897 -0.022041604 0.062053442
0.14690302 -0.060905404 0.004754358 -0.080356665 -0.0009454198 -0.016638407 0.011492566 -0.760111
-0.015265415 0.024509676 -0.04661041 0.01446484 0.05314667 -0.22670388 0.17536692 0.2324573
-0.085924074 -0.23504919 -0.12820011 0.2017612 -0.21994297 -0.2525172 0.058112398 0.04304223
-0.4561253 -0.09782021 0.11779977 0.06524079 -0.29304582 0.13338119 0.377183 0.053895276
0.0075206924 -0.14884944 -0.28625378 -0.053977743 0.16514328 0.18420252 0.018307941 -0.23182085
0.39387655 0.22726671 -0.18825127 0.48755422 0.1607902 -0.15231806 0.06649612 0.016809508
-0.083111055 0.14470047 -0.1360945 -0.015829952 -0.25238785 -0.16570401 -0.05704604 0.043757375
-0.15212817 0.011208574 0.018133258 0.05437416 -0.60033983 1.1270523 -0.041208383 -0.11863914
-0.27509072 0.079663746 0.098478556 -0.023214996 -0.08736036 -0.094506815 -0.10643074 0.2173373
0.23619278 0.028532427 0.210117 -0.17544694 0.015786365 0.013644109 -0.31995228 0.44555128
-0.09071225 0.17620023 -0.006548707 0.18790683 0.048669506 -0.15996407 0.07584527 -0.24275658
-0.09625952 0.080276474 -0.05086632 -0.0410926 0.14562073 0.04937397 0.0673683 0.04049461
-0.012527922 0.7530765 0.13870247 0.16436341 -0.30050722 0.30156898 -0.006141485 -0.14508316
0.1965171 -0.03883358 -0.20534092 0.01332328 -0.0056648534 0.35802376 -0.11051086 -0.26604578
0.27256212 -0.07419473 -0.31019294 0.20205316 -0.09801667 -0.011700977 0.03697736 0.08041257

mps.1.l1.edge_block.m.0.bias f4 [16]
00000000: bbad 7b3d 7191 ed3d b167 e93d 35b3 c43d
00000010: fc20 9abd 6639 8c3d aeb4 08be d780 463e
00000020: 0fa5 223e 2c91 9a3e 2c5e 233f 5b01 afbc
00000030: 6469 583d 03b1 34be 9621 8e3e 6d3f d13c
0.06144498 0.11600006 0.11396731 0.096044935 -0.075258225 0.068468854 -0.13350174 0.19385086
0.15883277 0.30188882 0.6381557 -0.021362951 0.052834883 -0.1764565 0.2776 0.02554294

mps.1.l1.edge_block.m.2.weight f4 [1, 16]
00000000: 5db1 273c 27be 523e e68a d03e 6184 9abd
00000010: f048 dbbb 7e23 a83e 68ac 183f 70b7 203e
00000020: 7dc4 b7be 328f 3a3f b354 3a3f 15bd 5b3e
00000030: e7d5 073e b09d 08bf 545f 753e b0ad 113f
0.010235158 0.2058035 0.4073097 -0.075447805 -0.0066920444 0.32839578 0.5963807 0.15694976
-0.35892096 0.7287475 0.7278549 0.21458848 0.13265191 -0.5336561 0.23962146 0.5690565

mps.1.l1.node_block.m.0.weight f4 [16, 9]
00000000: 1428 153e 958d 0ebd 2a2c 973d c415 1abd
00000010: 551a 293d d7c9 5a3d dc82 41bd d070 013d
00000020: 7af4 033f b3f9 2abe d2ed 933d 79aa 2cbd
00000030: 938f a1bd 8de4 a33d ded3 03be dd34 5bbd
00000040: 7cfd 97bd d873 1fbe 7a46 d53d 72e7 0cbd
00000050: ea28 8e3e 5ed5 41be 569c 88be 33f4 ad3c
00000060: 6c7f 0a3e 49c4 3a3e 0163 80be ca7f 10be
00000070: abab 4b3a 2e71 d33d de98 0e3d 3a47 e73d
00000080: f6a1 6cbc 169d 72bc c5aa d3bd 4650 33be
00000090: d510 7abe 9a30 513e 8e43 363e 8ddf 3a3e
000000a0: 23e1 613d 8093 dabd fcd6 763e 27fc 4b3e
000000b0: 93f9 0e3e 1acf 163d 6052 3e3d efab 6bbc
000000c0: 12e5 4e3d 40f5 7bbc 7698 11be 6123 e03b
000000d0: 9e08 7dbd 504e 24be 6c8b 753c 01bf 843d
000000e0: 984f 9bbe dbe4 853e 579f 973e e64e 4bbe
000000f0: fa70 9a3d 898f 26be eac5 153f 71fb 37bc
00000100: 9748 9c3d 4cfc 23be c90e c33e 19ff 043e
00000110: a3d4 0a3c 1ab6 273d 6196 9abe 6e9d 38bd
00000120: f4e1 2bbe ab9a 2fbd c98f dabd 1591 12be
00000130: 6ded 5f3e f86d 35be 167d e93d 1c59 3bbe
00000140: 867b 07be 5ed9 f5bd 5bfc 4b3e b158 40bd
00000150: e35f a83e 2152 433d 2047 ca3d 0573 a33c
00000160: bddf af3b 6ba4 39be c36b 15be 592e 813e
00000170: 27c0 47be 527c f0ba e265 ce3c a1e2 0a3e
00000180: bb49 413e 0b0a febc 8fc4 88bd b9ee adbc
00000190: 01fa 193e 94d2 973d 34db e13d 2c4b 0e3e
000001a0: 8829 97be b767 f53d f055 6cbc 0069 5a3e
000001b0: fe25 21be 7635 56bd ccb7 343c 36ae 4ebe
000001c0: b453 c8bd 5562 afbb 6cc9 38bd 3cbd c23b
000001d0: 9d4d 013f 1add 81bb bc0b 583d 9986 f3bd
000001e0: 9f95 343d 8ddd ed3c 6120 55be 390f 9a3e
000001f0: 44b9 02be 8cb6 223c e694 87be c3b5 bf3d
00000200: abe4 41be 4885 4a3e 24ee 5fbd 2ade 8dbd
00000210: 5f55 b63d 57f9 d03e 9b20 b6be f44a 083e
00000220: fec4 45be ee56 8cbd 8e43 02be 17bc 90bc
00000230: 3239 933e 3bc5 74be 18dc 753d 1409 2fbf
0.1456607 -0.034802992 0.073814705 -0.037618414 0.041284878 0.053415146 -0.047243938 0.031601727
0.51544917 -0.16696815 0.07223095 -0.042154763 -0.07888713 0.08002577 -0.1287379 -0.05351721
-0.07421395 -0.15571535 0.10413833 -0.03440041 0.2776559 -0.1892905 -0.26681775 0.021234607
0.1352517 0.1823894 -0.25075534 -0.14111248 0.0007769416 0.10324322 0.034813754 0.11292882
-0.014442911 -0.01480796 -0.10335306 -0.1751109 -0.24420483 0.20428696 0.17799208 0.1824934
0.055146348 -0.10672665 0.24105448 0.19920407 0.13962393 0.0368186 0.046465278 -0.014384254
0.050511427 -0.015378296 -0.14218315 0.006840155 -0.061775796 -0.16045499 0.014986854 0.064817436
-0.30334163 0.26151165 0.29613754 -0.19854316 0.0754108 -0.16265692 0.5850512 -0.011229382
0.07631033 -0.16014212 0.38097218 0.12987937 0.008473548 0.04094515 -0.30192855 -0.04507201
-0.16785413 -0.042872112 -0.10671956 -0.14313157 0.21867914 -0.17717731 0.114008114 -0.18295711
-0.13230714 -0.1200435 0.19920485 -0.046959583 0.32885656 0.047685746 0.09876847 0.019952307
0.005367248 -0.18129127 -0.14591889 0.25230673 -0.19506894 -0.0018347597 0.025195066 0.13563015
0.18875782 -0.031010648 -0.066781156 -0.021231996 0.15036775 0.074132115 0.11028138 0.13895863
-0.29523873 0.11982673 -0.014424786 0.21329117 -0.15737149 -0.052297078 0.011030149 -0.20183644
-0.0978159 -0.0053522983 -0.045113966 0.0059429687 0.50509053 -0.003963125 0.052745566 -0.11890907
0.044088002 0.029036308 -0.20813133 0.3008974 -0.12765986 0.009931218 -0.26480788 0.0936084
-0.18934886 0.19777405 -0.054670468 -0.0692714 0.08903002 0.4081523 -0.3557175 0.13309842
-0.19313428 -0.06852518 -0.12721083 -0.017667813 0.28754574 -0.23903362 0.06002435 -0.6837323

mps.1.l1.node_block.m.0.bias f4 [16]
00000000: 0a2f 073f 8f07 833d ec14 09ba 25fb 5abe
00000010: 14b6 853d 61a7 14be 3d2b c93e e475 b9bd
00000020: 312d 343e d198 8ebd ac22 5cbe ebb4 ee3e
00000030: f702 853e 3094 c6bd c760 aabe a345 2d3f
0.5280615 0.06397926 -0.0005229253 -0.21384867 0.06528869 -0.14516975 0.392908 -0.09055689
0.17595364 -0.06962741 -0.21497601 0.46622404 0.25978824 -0.09696233 -0.3327696 0.6768438

mps.1.l1.node_block.m.2.weight f4 [8, 16]
00000000: 1c4b 553e f0c1 113d db14 613e e06a 82bd
00000010: 1d95 a3bd cf65 bebd 0a4e 333e 7462 98bd
00000020: 5b8c 89bd 2d13 8b3e 5e08 3f3d 2247 15be
00000030: 89c9 5d3d 13ff 93bd f07b 4dbe 37a4 c93e
00000040: 8d80 81bd 6e90 0bbe ff0b 19bd cc44 4d3e
00000050: 885c 91bd 3fed f53d 83d1 1e3e e2eb 983e
00000060: f226 843c 8ed3 053d 35b7 bd3d 84de 903d
00000070: ab81 673e 319f d43c 2c18 28be 28af 863d
00000080: 775b bbbd 6010 d9bc a035 053e a211 f03d
00000090: dfa2 273e ba04 6b3b b810 eb3e bb11 7f3c
000000a0: d9ab 24be 8cec 58be d24d e53d 4d20 693e
000000b0: 2b2f 38be 5436 af3d 43f0 663e 62ad c63d
000000c0: 2f97 a83e f6fb b73d 8a3b a83c 76b1 7abc
000000d0: f4ea 93be a897 4fbc 45a9 c33d d06f 83be
000000e0: 60fa 053e 9c3d 39be 5f7d fcbd 4887 a33d
000000f0: 8147 113e 1835 0dbe d90b 933c 1529 6c3e
00000100: 67d6 3d3e e573 083d ede4 4bbe e3ed c23d
00000110: 2cbe 343d 05b7 34bd d1a8 0abe 7c84 813d
00000120: 1262 e9bc 6523 363d a61e 8bbd 9177 d23d
00000130: d81b c73d f63c 733b 6ed6 bfbd 0b7d 02bf
00000140: f477 0dbd 462d 02be 5d7d 8b3b c5e3 953d
00000150: 3e9b 243e d781 803d d588 0d3e 4eba c8bd
00000160: e532 02be 60d6 6bbd 0dc3 3dbc 019a 233e
00000170: d452 22bd b9c0 59bb 6b3e 553e 194b ec3c
00000180: e8c7 e2bb ab3c 063d 6b60 c03d 4a79 d7bd
00000190: 1cd7 493d fe6d 323d 9516 7d3e 6065 c5bc
000001a0: 4233 f53c 82c7 563a 0838 9f3d 04b7 343d
000001b0: 7688 efbd 3ada 38bd ef4a 093e 71e9 1abd
000001c0: c986 a53b 1189 cabc 20c5 5abd 9e53 1e3e
000001d0: ba8c 4ebe 3214 79bd 1cbd aebe 957c 043e
000001e0: 36cb 1a3a 9806 193e 797e 3e3d 8a2f 11be
000001f0: 163a b63c 8cbc 3c3e b6db 35be 9585 553a
0.20829433 0.035585344 0.21980612 -0.06368041 -0.079874255 -0.09296762 0.17510238 -0.074406534
-0.06716224 0.27163067 0.04663884 -0.14577916 0.054147277 -0.07226386 -0.2006681 0.39383098
-0.06323347 -0.13629314 -0.037364956 0.20045775 -0.07097727 0.12008142 0.1550961 0.29867464
0.016131852 0.032672457 0.092634596 0.070736915 0.22608058 0.025954815 -0.16415471 0.06576377
-0.09148305 -0.026497066 0.13008738 0.11722113 0.16370724 0.0035860972 0.45911193 0.015568192
-0.1608118 -0.21183985 0.11196484 0.22766228 -0.17986743 0.08555284 0.2255259 0.09701039
0.32927844 0.089836046 0.020536203 -0.015301099 -0.28890193 -0.012670435 0.0955377 -0.25671244
0.13083792 -0.18089908 -0.123286 0.07984787 0.14187433 -0.13789785 0.017949985 0.23062547
0.18538819 0.03331365 -0.19911547 0.095180295 0.044126675 -0.044119854 -0.13540961 0.063240975
-0.028489146 0.04446735 -0.06792955 0.10276712 0.09722108 0.0037115193 -0.09367071 -0.5097205
-0.034538224 -0.12712583 0.004256888 0.07318834 0.16074845 0.06274765 0.13821729 -0.0980116
-0.12714727 -0.05757749 -0.011582148 0.15976717 -0.039629772 -0.0033226444 0.20824592 0.028844403
-0.0069208033 0.0327727 0.0939339 -0.10521181 0.04927741 0.043561928 0.24715646 -0.02409619
0.029931668 0.0008193181 0.07774359 0.04411985 -0.1169595 -0.045129992 0.13407491 -0.037820283
0.005051468 -0.024723561 -0.05341065 0.15461585 -0.2017087 -0.060810275 -0.34128654 0.1293815
0.00059049146 0.14943922 0.046507332 -0.14178291 0.022244494 0.184313 -0.17759594 0.00081452104

mps.1.l1.node_block.m.2.bias f4 [8]
00000000: a925 433b c78c 49bf 62c8 ab3e e20a c83e
00000010: 4bbf 133d acac 633f 1836 68bf 7424 b1be
0.0029777086 -0.78730434 0.33551317 0.39070803 0.036071103 0.8893535 -0.9070754 -0.34598124

mps.1.l2.edge_block.m.0.weight f4 [16, 17]
00000000: b43b 373d 8613 42be 235b 063e 4737 86bc
00000010: 0504 813d da15 e33d dfab c2bc c7eb 803d
00000020: 7291 67be 2dc3 a9bd 7a8b 0e3e 2ec1 223d
00000030: 9c14 813c e3fb b3bc efa8 e6bd 12bb 8a3d
00000040: e99b 85bd 6c02 253d 603c 29bd 45e3 1a3d
00000050: 1b0f 16be 8a1d 16be 15ac 313b 4aa8 603e
00000060: 4cac 523d 6e8e f6bd 1438 22bd 5fb1 12bb
00000070: d391 96bb 88f7 a03c e015 68be 535e 4c3e
00000080: 6e44 b03c 9c6d f83c bd1a be3c d013 43bc
00000090: d701 da3d 4639 00be 9e4b 33be bed5 3fbe
000000a0: d15c 2a3e 1b7f cf3d 50e4 b5bd 895a 793c
000000b0: b287 0b3e 84d9 30be c1db 863d 11ce abbc
000000c0: c55a 913d 8f84 453e a1ec d43c 22ab eb3c
000000d0: 00f7 733d a78b d23d 092a 173d 72ae 60be
000000e0: afb8 a83d d4d6 05be b732 b5bc 7753 84bb
000000f0: cf27 043c 939a e6bd 8233 f0bc 4531 f93d
00000100: bd40 653d 6096 6e3c e03a b3bd 2ea7 343e
00000110: 4806 173e 38bb e93d baa6 03bd 0ee0 4f3e
00000120: 4706 9ebe ae0a c8bd 5832 99bd 25b7 5cbc
00000130: eed9 c13d 802a 463c c9cc 613e 9e34 9b3e
00000140: f941 04bf 5c8b 0a3d e516 24be 8491 12be
00000150: 4edb 1fbf 9656 fb3e a9cc 743e e570 02bc
00000160: de45 783e 6ea6 dabe 9d52 0f3d ee3b a0be
00000170: 6f10 0cbe 6087 2dbd e939 17be 0d94 a4be
00000180: 0214 953c 316c 103e a3a8 8c3e e97a 483d
00000190: 302e 9abd 48a5 7cbf ea5a 21be a3ea c0bd
000001a0: c4ba 9dbc 562d c93d 3d4a bfbc 6ff6 4f3d
000001b0: fabc 08bd cfc7 0c3e 2dbf b73d 522f 56be
000001c0: 3f1f dbbc c3ee 03be fd9c 523d cdd9 0dbe
000001d0: dbc3 29bd a9fe 293e c115 03be 70b2 f43d
000001e0: 5261 4b3c 7939 e23d 4ae8 c5bd aedf 9c3d
000001f0: e6f3 f5bc 1e51 843d 411c be3d ef76 43be
00000200: 495e 32be 8ad4 d93d d898 efbd 6729 11be
00000210: a036 1ebc 5f4e 2b3c 188d b63c 2ae4 d5bd
00000220: 792e 603d 0d77 16be e886 8d3c 9e04 813d
00000230: 9fc9 d5bd 5645 03bd 7623 443d 9977 073c
00000240: 0988 38bd 8c5a ccbd c2d2 69bd fb38 fdbd
00000250: 2e52 093e df61 e1bd 1284 cf3d d672 7f3e
00000260: c10c f8bc 927a 47be d703 2bbe 6269 82bd
00000270: e5da 733d 8aa1 20be 203e be3d 8f81 c13c
00000280: ad0c 0bbb 3db7 7f3c 92a8 f63d 4870 9d3d
00000290: 28a1 203e 440a d03d cfeb a3bc 1114 7dbe
000002a0: b2a3 15be ad30 5e3e 647e a4bd 362b cbbd
000002b0: d86c 5c3c 6e9e 2b3d 70cc 99bd 6ed0 05be
000002c0: 0a6a a93c e7ab d73b bc38 88bb 3448 3bbe
000002d0: da70 86bd 0d3c c3bd e072 d9bd 4c18 b03d
000002e0: d712 123d 0014 993d e795 b9bd 00d1 0cbe
000002f0: 8283 b93e e570 20be 3a30 85b8 37b5 3a3e
00000300: 2586 96be d3c1 e3bd a2a5 43bc 12c9 46be
00000310: 7e49 e9be a612 823e 0b66 2cbe 981a 04bd
00000320: c56a 1b3e b824 7e3e 4b1b 7e3d 8a6b 483e
00000330: fba6 0abe 9fbd f9bc 0205 6dbc ea65 1dbe
00000340: 2189 98bd 5afe d03c 7694 f03d 701e 4f3e
00000350: 233c 773d 1e95 2fbe dc6e a5bd d764 75bd
00000360: 20f6 00be b413 66bd f963 25bd 35ea 173e
00000370: bde5 dc3c 0d67 bd3c 54ba 1cbe f3c9 2fbe
00000380: f398 a6bc 7ac0 73bd acfa 863b 1d41 623d
00000390: a6c6 a43d 2d3c 0d3e 7ff7 363e dbf4 6abe
000003a0: 6d8f 393e 1da2 493d b891 8abe 7335 40be
000003b0: 4de9 26bd 46b5 823e 24dc 2cbe ea5b 90be
000003c0: de42 4fbe d9ce 22be 5598 c33e 33f7 7c3e
000003d0: eedc 383e 3ead 1c3c 62e0 abbd 241b c23d
000003e0: df05 bebd 1215 0c3d 0bd5 a23e 11eb 353d
000003f0: 3432 6c3e 11b1 a9be d7ea 453d cb82 0ebe
0.04473467 -0.1895276 0.13120703 -0.01638378 0.06299595 0.11088152 -0.023763595 0.06294971
-0.22614077 -0.0828918 0.13920394 0.03973501 0.015756898 -0.021970695 -0.1126269 0.06773962
-0.06523878 0.040285513 -0.041317344 0.037814397 -0.146542 -0.14659706 0.0027110626 0.21939197
0.051433846 -0.12038885 -0.03960426 -0.0022383553 -0.0045950203 0.019649282 -0.22664595 0.19957857
0.021517005 0.030325703 0.02320611 -0.011906579 0.10644882 -0.12521848 -0.17509314 -0.1873388
0.16636969 0.10131665 -0.08881438 0.015219339 0.13625982 -0.17270476 0.065848835 -0.020972284
0.07097391 0.19288848 0.02599174 0.028768126 0.05956173 0.10280543 0.036905322 -0.21941546
0.082383506 -0.13070232 -0.02211891 -0.00403827 0.008066132 -0.112599514 -0.029321436 0.121676005
0.055969942 0.014562219 -0.08751464 0.17641899 0.1474849 0.11412662 -0.032141425 0.20300314
-0.30864164 -0.09767662 -0.074803054 -0.013471399 0.09465395 0.012095094 0.22050776 0.3031358
-0.51663166 0.03382431 -0.16024359 -0.14313322 -0.6244401 0.49089497 0.23906197 -0.0079614865
0.24245402 -0.427051 0.034990896 -0.31295723 -0.13678144 -0.04236543 -0.14768185 -0.32144204
0.018198017 0.14103772 0.2747241 0.04894534 -0.07528341 -0.986897 -0.15757337 -0.094197534
-0.019254096 0.098231 -0.02335083 0.050772127 -0.033383347 0.13748096 0.08972011 -0.20916489
-0.026748298 -0.12884049 0.051419247 -0.13852616 -0.041446548 0.16601051 -0.12801267 0.11948097
0.01241334 0.11046118 -0.09663446 0.07659851 -0.030023526 0.064607844 0.09282733 -0.19088338
-0.1741878 0.10636242 -0.116990745 -0.1417595 -0.009656578 0.010455697 0.022284076 -0.104439095
0.05473182 -0.14693852 0.017276242 0.06299709 -0.10438847 -0.032048546 0.04788538 0.00826826
-0.04505161 -0.09978208 -0.05708576 -0.12364384 0.13410255 -0.110049956 0.10132612 0.2494615
-0.030279519 -0.1948035 -0.16700684 -0.063677564 0.059534926 -0.15686622 0.09289193 0.023621349
-0.0021217272 0.015607652 0.12043871 0.076874316 0.15686476 0.10158208 -0.020009903 -0.24714686
-0.14613226 0.21698256 -0.080319196 -0.09920351 0.013453685 0.041899137 -0.075096965 -0.13067791
0.020680446 0.0065817717 -0.004157154 -0.18289262 -0.065644935 -0.09532938 -0.10617614 0.08598384
0.0356625 0.07474518 -0.09061795 -0.13751602 0.36233145 -0.15668066 -6.350917e-05 0.1823319
-0.2939922 -0.111209534 -0.011941345 -0.1941264 -0.45563883 0.25404853 -0.16835801 -0.032251924
0.15177448 0.24818695 0.062037747 0.19572273 -0.1354026 -0.030485926 -0.014466526 -0.15370908
-0.0744803 0.02551191 0.11747067 0.20226455 0.060360085 -0.17146727 -0.080777854 -0.05991062
-0.12593889 -0.056171134 -0.040378544 0.14835437 0.026965016 0.023120428 -0.15305454 -0.17166881
-0.020336604 -0.05950973 0.004119238 0.055237878 0.08045702 0.13792486 0.1786785 -0.22944967
0.18121119 0.04922687 -0.270643 -0.1877039 -0.040749837 0.25528926 -0.16880852 -0.28195125
-0.20240352 -0.15899219 0.38202158 0.24703674 0.18053028 0.0095627885 -0.08392407 0.09477833
-0.092784636 0.03419978 0.31803164 0.04441363 0.23066026 -0.33142903 0.048319664 -0.13917081

mps.1.l2.edge_block.m.0.bias f4 [16]
00000000: 0963 b93e 9bef f73d a486 15bc 2511 9e3e
00000010: 5e39 bd3e e99c 9f3e 9d00 acba dce4 57bd
00000020: cba9 62be cc63 073f 14b6 8dbd 09ff 663c
00000030: e0c4 16be 015e 453e 2ed1 883e 4ff9 ce3e
0.3620837 0.12106248 -0.009126339 0.30872455 0.3695783 0.311744 -0.0013122741 -0.05270849
-0.22135083 0.5288665 -0.06919494 0.014098891 -0.1472354 0.19274141 0.2672209 0.40424582

mps.1.l2.edge_block.m.2.weight f4 [1, 16]
00000000: 7434 753d 7da6 333c 9e8a 993c b8da b93d
00000010: 6e95 cabe 35f6 93bf 0cf7 853d e3db 133e
00000020: 07f4 e33b a13f 563e 0bf6 a13d eb92 a3be
00000030: 487f 8cbb 55c7 3e3e e824 10bd 220e c63d
0.059864476 0.010964987 0.018742856 0.090749204 -0.3956713 -1.1559511 0.06541261 0.14439349
0.0069565806 0.2092271 0.07908257 -0.31948027 -0.004287634 0.18630727 -0.035191447 0.09670664
