archive-july16/results/nif_sketch_pcg_w0.5_50epochs/model_epoch11.pt (torch, 44782 bytes, 56 tensors)

mps.0.l1.edge_block.m.0.weight f4 [16, 17]
0	0x3e1e8d6a	0.15483633
1	0x3f489e7e	0.7836684
2	0x3ee3cc48	0.44491792
3	0x3f529409	0.82257134
4	0x3f090f64	0.5353911
5	0x3fbef56a	1.4918644
6	0x3efce89a	0.4939621
7	0x3f3b6507	0.7320103
8	0x3e29b509	0.16572966
9	0x3ecefdb7	0.40427944
10	0x3f43c838	0.76477385
11	0x3f273e96	0.65329874
12	0x3f3d616b	0.73976773
13	0x3f5c0cb9	0.85956913
14	0x3f345777	0.7044596
15	0x3f0f9cb8	0.5609851
16	0x3f80c0ed	1.0058876
17	0x3bbcf642	0.005766661
18	0xbdd6947d	-0.10477541
19	0x3d55d299	0.052202795
20	0xbdd3eb66	-0.10347633
21	0xbcebec46	-0.028799187
22	0xbdb4ef0e	-0.088346586
23	0x3e132dc3	0.14372925
24	0xbe3036a1	-0.1720834
25	0xbddeeced	-0.10885034
26	0xbd833e2d	-0.064083435
27	0xbe088320	-0.1333127
28	0x3c8c8390	0.017152578
29	0xbe5eae6e	-0.21746227
30	0x3e488b37	0.19584356
31	0xbe3d5b29	-0.18491806
32	0x3e2b29c7	0.16715156
33	0x3d145fc6	0.03622415
34	0xbe9ee31f	-0.31032655
35	0x3f0a3618	0.5398879
36	0x3f397ed2	0.7245914
37	0x3f79f480	0.976387
38	0x3f14afc4	0.580807
39	0x3f5997c7	0.8499722
40	0x3f18e94a	0.5973097
41	0x3ee9cfbd	0.45666304
42	0x3e9e053c	0.3086337
43	0x3f3e3832	0.743045
44	0x3f591e56	0.84811914
45	0x3f32eca1	0.6989232
46	0x3f447aef	0.7675008
47	0x3f4ec36d	0.80766946
48	0x3f263502	0.64924634
49	0x3ed76898	0.42071986
50	0x3f44b3e4	0.7683699
51	0xbdb78222	-0.08960368
52	0xbe38a8ec	-0.18033189
53	0x3e2997fa	0.1656188
54	0x3d3b5aeb	0.045741003
55	0x3d9acd1f	0.07558655
56	0x3d888bfb	0.06667324
57	0xbbbb04da	-0.0057073655
58	0x3e2b317b	0.16718094
59	0xbe1f77aa	-0.15572992
60	0x3adfbacf	0.0017069223
61	0xbe22f723	-0.15914588
62	0x3d543bde	0.051814906
63	0xbdb4a8dd	-0.088212706
64	0x3d83fe36	0.06444971
65	0xbd41486f	-0.04718822
66	0x3e35c509	0.17750944
67	0xbe0296cc	-0.12752837
68	0xbe2328c5	-0.15933521
69	0xbe41552c	-0.18880147
70	0x3e0d69ab	0.1380984
71	0x3b42daf3	0.0029732555
72	0x3e14f552	0.14546707
73	0xbe43446a	-0.19069067
74	0xbe687969	-0.22702564
75	0xbe3e9bd1	-0.18614127
76	0xbe2d2a79	-0.16910733
77	0x3cf65474	0.030069567
78	0x3cb607df	0.02222055
79	0x3de5bec0	0.11218023
80	0xbe3328b3	-0.17495994
81	0xbe23a648	-0.159814
82	0x3dd467ea	0.103713825
83	0xbdd48a37	-0.10377925
84	0x3dcee7aa	0.1010278
85	0xbcf6c10f	-0.030121354
86	0xbef591aa	-0.47962695
87	0xbf0f7368	-0.5603547
88	0xbf31cf22	-0.69456685
89	0xbefc4239	-0.49269274
90	0xc01b91ca	-2.4307733
91	0xbf2174d2	-0.6306888
92	0xbee95a7a	-0.4557684
93	0x3e38c1c8	0.18042672
94	0xbf425cd4	-0.75922894
95	0xbf07461b	-0.5284135
96	0xbec50184	-0.3847772
97	0xbf2266fb	-0.63438386
98	0xc009d80e	-2.153812
99	0xbf49185e	-0.78552806
100	0xbf357085	-0.70874816
101	0xbe9fc046	-0.3120138
102	0xbd40fcb5	-0.047116
103	0x3edccf14	0.43126738
104	0x3ef8cc62	0.48593432
105	0x3eeb1d3d	0.45920745
106	0x3ec49c5f	0.38400552
107	0x3f9c8cd3	1.2230476
108	0x3ec5e472	0.38650852
109	0x3ee473e5	0.4461967
110	0x3e3d1edf	0.18468808
111	0x3f170c23	0.59002894
112	0x3f20b3ba	0.6277424
113	0x3eca2bc2	0.3948651
114	0x3ed7e8a3	0.42169675
115	0x3f2e8388	0.6816945
116	0x3f1c4fb5	0.61059123
117	0x3ec2e9a5	0.38068882
118	0x3f343ce5	0.7040542
119	0xbe052cfc	-0.13005441
120	0x3a1dd12d	0.00060202443
121	0xbda58cf8	-0.08083528
122	0xbc76a492	-0.015053885
123	0xbe16bdf8	-0.14720905
124	0xbe18b0cd	-0.14911194
125	0xbe01c78d	-0.12673779
126	0xbd984a98	-0.07436103
127	0xbe2f9412	-0.17146328
128	0x3e3a8512	0.18214825
129	0xbd3098b4	-0.04311438
130	0x3e3f65b0	0.18691134
131	0x3d8aa04d	0.06768856
132	0xbe3c5f27	-0.18395673
133	0x3e19f219	0.15033759
134	0xbd74d412	-0.05977256
135	0xbdaa8b4d	-0.08327351
136	0xbe4a2f62	-0.19744638
137	0xbe83e7bb	-0.25762734
138	0x3cb06b45	0.021535525
139	0xbdc85e08	-0.0978356
140	0x3d1e49dc	0.038644657
141	0xbe3e1497	-0.18562542
142	0x3e1d707c	0.1537494
143	0xbe2e0a9e	-0.16996238
144	0xbd4c5bda	-0.049892284
145	0x3b946bc2	0.0045294473
146	0x3d949842	0.072556034
147	0x3e00b481	0.12568857
148	0x3e1c1cd2	0.15245369
149	0xbe3810a8	-0.17975104
150	0x3d4111e7	0.047136214
151	0xbdd49f85	-0.103819884
152	0xbd2f2707	-0.04276183
153	0xbdcea175	-0.10089389
154	0x3f40f090	0.7536707
155	0x3e933c2c	0.28756845
156	0x3f33b45b	0.70197076
157	0x3f1d28d9	0.61390454
158	0x3fb1bec6	1.3886344
159	0x3eb24cd6	0.34824246
160	0x3f2f6b85	0.68523437
161	0x3dc3119d	0.09524844
162	0x3f0acdef	0.5422048
163	0x3eac5653	0.3365961
164	0x3f2a26c5	0.6646541
165	0x3f0036c8	0.5008359
166	0x3f14303c	0.578861
167	0x3f26fdf8	0.65231276
168	0x3f05cc09	0.5226446
169	0x3f0fa3fe	0.5610961
170	0xbda30e11	-0.07961667
171	0xbf27464b	-0.65341634
172	0xbea11027	-0.31457636
173	0xbf2c7e29	-0.67380005
174	0xbf38b7dc	-0.7215555
175	0xc0184921	-2.3794634
176	0xbf417dcf	-0.75582594
177	0xbf08958e	-0.533532
178	0x3e5ff23a	0.21869746
179	0xbf589c3e	-0.84613407
180	0xbecd425a	-0.40089685
181	0xbf013b67	-0.50481266
182	0xbf0f3df4	-0.5595391
183	0xc0009b55	-2.0094807
184	0xbef5d78f	-0.4801602
185	0xbefe0a7b	-0.4961737
186	0xbe1f733b	-0.155713
187	0xbd1d74bd	-0.03844141
188	0xbd78f613	-0.06078155
189	0x3ca5b27a	0.020226706
190	0xbd2e67ca	-0.04257945
191	0xbd8c3a66	-0.06847076
192	0x3e0da143	0.13831048
193	0x3e3ea541	0.18617727
194	0xbcb60253	-0.022217905
195	0xbd4852e3	-0.048907172
196	0xb8b4be9a	-8.618571e-05
197	0xbc82f291	-0.015984805
198	0x3d44b473	0.048023652
199	0x3d6a121f	0.057146188
200	0xbe4a9c02	-0.19786075
201	0xbda53f84	-0.08068755
202	0x3e3a9acb	0.18223111
203	0x3da8a279	0.08234114
204	0xbc31075a	-0.010804975
205	0xbe061e6d	-0.13097544
206	0xbe081909	-0.132908
207	0xbe47440a	-0.19459549
208	0xbd9105e3	-0.07081201
209	0x3d963edc	0.07336208
210	0x3e0dd74c	0.1385166
211	0x3dcd69b4	0.10029927
212	0xbe44a2d7	-0.19202743
213	0xbe05c653	-0.13063936
214	0xbd0c6d5e	-0.03428399
215	0x3e5730a9	0.21014656
216	0x3d00b785	0.031425018
217	0xbd667017	-0.05625924
218	0x3db81077	0.089875154
219	0xbda974da	-0.08274241
220	0xbe0ffbda	-0.14060917
221	0x3e431ce4	0.1905399
222	0x3f082f80	0.5319748
223	0x3ef6d081	0.4820595
224	0x3ede02e5	0.43361583
225	0x3f419ad2	0.7562686
226	0x3fd02dfe	1.6264036
227	0x3f302187	0.6880116
228	0x3eef35af	0.46720645
229	0xbe55abc4	-0.20866305
230	0x3ed558b8	0.4166925
231	0x3f442e45	0.766331
232	0x3f3e89b1	0.7442885
233	0x3f4a6d79	0.7907329
234	0x3f716e51	0.94308954
235	0x3f29ee46	0.663792
236	0x3f1ab415	0.60431033
237	0x3f17e47a	0.59333
238	0xbe3e979c	-0.18612522
239	0xbe501226	-0.20319423
240	0x3db62091	0.0889293
241	0xbdda6f1a	-0.10665722
242	0xbd331366	-0.04371967
243	0xbe0005fe	-0.12502286
244	0xbd2224d5	-0.039585907
245	0xbe1c9203	-0.15290074
246	0xbe115ad6	-0.14194807
247	0x3d939488	0.072060645
248	0xbd84396c	-0.06456265
249	0x3e0954b5	0.1341122
250	0xbd8ebaef	-0.069692485
251	0xbe232f78	-0.15936077
252	0xbd1cff64	-0.038329497
253	0xbdd7aa78	-0.10530561
254	0xbd881d74	-0.06646243
255	0xbd88f95f	-0.06688189

mps.0.l1.edge_block.m.0.bias f4 [16]
0	0x3f3d2a5b	0.73892754
1	0x3e25ad20	0.16179323
2	0x3f5583e3	0.8340437
3	0xbd617935	-0.055047233
4	0xbe4d0550	-0.20021558
5	0xbf07da61	-0.53067595
6	0x3f348228	0.705111
7	0xbe5d68c0	-0.2162199
8	0xbd82a580	-0.06379223
9	0x3ebc6774	0.36797678
10	0xbf1fe3d6	-0.62457025
11	0xbddd19c2	-0.107959285
12	0xbdb5dce0	-0.08880019
13	0x3f0d43f0	0.5518179
14	0xbe5365ce	-0.20644304
15	0x3f2fc171	0.68654543

mps.0.l1.edge_block.m.2.weight f4 [1, 16]
0	0x3e42a2b8	0.19007385
1	0xbcaedd19	-0.021345662
2	0x3f703834	0.9383576
3	0xbdad3110	-0.084566236
4	0xbe22c6c7	-0.1589614
5	0xbe9f576d	-0.31121388
6	0x3d9d607d	0.07684419
7	0xbdfbcaf5	-0.1229457
8	0xbde7568e	-0.11295806
9	0x3eacd2d3	0.33754596
10	0xbe60aa9e	-0.21940085
11	0xbd930652	-0.0717894
12	0x3bebc45c	0.0071950387
13	0x3e9588a5	0.29205814
14	0xbd9de69e	-0.07710002
15	0xbf7f19dc	-0.99648833

mps.0.l1.node_block.m.0.weight f4 [16, 9]
0	0x3e605580	0.21907616
1	0xbdb74d53	-0.08950295
2	0x3e95b05c	0.29236114
3	0xbd68a1a3	-0.056794774
4	0x3dcd4149	0.10022218
5	0xbed5b1cb	-0.41737208
6	0x3e538b0e	0.20658514
7	0xbe52e5de	-0.205955
8	0x3dbc81ef	0.0920447
9	0x3e7dd071	0.24786545
10	0x3f1034b1	0.563304
11	0x3f35948b	0.70929784
12	0x3f36d88b	0.7142417
13	0x3edb207f	0.4279823
14	0x3dd31684	0.10307029
15	0x3e5cac44	0.21550089
16	0x3ec25680	0.3795662
17	0x3e3e6fbb	0.1859731
18	0x3db5c4f1	0.08875454
19	0x3ea5c7ae	0.32378906
20	0x3ded4b96	0.115866825
21	0x3e821c3b	0.25412163
22	0x3e2ec1fa	0.17066184
23	0x3f55b5a6	0.834803
24	0x3ebf6903	0.37384805
25	0x3f2b90e1	0.6701794
26	0x3d05d376	0.032672368
27	0xbe688aa4	-0.22709137
28	0xbe754435	-0.239518
29	0x3e18186b	0.14853065
30	0xbe636aac	-0.22208661
31	0xbd1693a6	-0.036761902
32	0x3e12a9a7	0.1432253
33	0xbe0d7f55	-0.13818105
34	0xbd0558cc	-0.032555386
35	0xbcd4e5eb	-0.02598854
36	0xbd90a99b	-0.070636
37	0xbe1b0452	-0.15138367
38	0xbe884505	-0.26615158
39	0xbe7724f1	-0.24135186
40	0xbe23b4ef	-0.1598699
41	0x3e93a4ea	0.28836757
42	0xbe13ac6f	-0.14421247
43	0xbe4d4eee	-0.2004964
44	0x3d943759	0.07237119
45	0x3db51a05	0.088428535
46	0xbec44b97	-0.3833892
47	0xbea2c568	-0.31791234
48	0xbe9d929b	-0.30775914
49	0xbf52d689	-0.82358605
50	0x3ea22cb7	0.3167474
51	0xbe9579fa	-0.29194623
52	0xbf05f8ab	-0.5233256
53	0xbe352fac	-0.17693967
54	0x3e903910	0.28168535
55	0xbf1a10ef	-0.6018209
56	0xbf0b3a32	-0.54385674
57	0xbf29dbab	-0.6635081
58	0xbedae59d	-0.42753306
59	0xbf1b01fb	-0.60549897
60	0xbea1b234	-0.3158127
61	0xbeb71b72	-0.35763127
62	0xbe6a09a5	-0.22855242
63	0xbe52376e	-0.20528957
64	0x3e7b68f8	0.24551761
65	0x3f435ddb	0.7631509
66	0x3f442241	0.7661477
67	0x3e69d165	0.22833784
68	0x3f75d294	0.9602444
69	0x3e94a1b9	0.29029635
70	0x3e9af3ce	0.30264133
71	0x3f5171a8	0.8181405
72	0x3d6edcd3	0.058316063
73	0x3ecc65c2	0.39921385
74	0xbe20a163	-0.15686564
75	0x3ed6afd6	0.41931027
76	0xbd4b2726	-0.04959788
77	0x3fb4545c	1.4088244
78	0x3eeda785	0.4641687
79	0x3e4bc807	0.19900523
80	0x3e709cc3	0.234973
81	0xbcd39118	-0.025826022
82	0x3f018830	0.5059843
83	0x3f2564d7	0.64606994
84	0x3f03079a	0.51183474
85	0x3f04a556	0.5181478
86	0x3f71a8a4	0.9439795
87	0x3f285a7a	0.65763056
88	0x3f22e273	0.63626784
89	0x3ec6f797	0.3886077
90	0xbe2bcf6e	-0.16778347
91	0xbe782db2	-0.24236181
92	0x3d0445d1	0.032293145
93	0x3db52a1a	0.08845921
94	0xbe0d291a	-0.1378521
95	0xbdab1633	-0.083538435
96	0x3e4e7b17	0.20164143
97	0x3cc2d632	0.023783777
98	0x3c5cb4d7	0.01347085
99	0xbd2f0d84	-0.0427375
100	0x3db35287	0.08755975
101	0xbdd7a528	-0.10529548
102	0x3e49181e	0.19638106
103	0x3e27d765	0.1639076
104	0x3fb2180a	1.3913586
105	0x3e5b88a7	0.21438847
106	0x3e4da13d	0.20081039
107	0x3ec9b741	0.39397624
108	0x3d050b0a	0.03248123
109	0x3f26c8f6	0.6515039
110	0x3eb2796f	0.3485827
111	0x3e8e6329	0.27810028
112	0x3f0caa4f	0.5494737
113	0xbcfe525c	-0.031045131
114	0x3e5642d4	0.2092393
115	0x3ecc7e61	0.3994017
116	0xbe25299a	-0.16129151
117	0xbcc31d4d	-0.023817683
118	0x3f60d415	0.8782361
119	0x3f5b44b5	0.85651714
120	0x3f2f91cc	0.68581843
121	0x3f1d85a4	0.61532044
122	0x3f26f178	0.652122
123	0x3ee916a6	0.45525092
124	0x3f2d55bd	0.6770895
125	0x3ea6aa42	0.3255177
126	0xbd333335	-0.043750007
127	0x3d274b9f	0.040843602
128	0x3e4bef6d	0.19915552
129	0xbd2adaab	-0.041712444
130	0x3ea43408	0.32070947
131	0x3f49f2f7	0.7888636
132	0x3e1225de	0.14272258
133	0x3db72439	0.08942456
134	0x3e5392dc	0.20661491
135	0xbd09e5dc	-0.033666477
136	0x3f541b86	0.828545
137	0x3ee65415	0.44986024
138	0x3f4750cb	0.77857655
139	0x3f5990c7	0.8498654
140	0x3f53c0d5	0.82716113
141	0x3e9574fd	0.29190817
142	0x3f4794a1	0.77961165
143	0x3e99970a	0.29998046

mps.0.l1.node_block.m.0.bias f4 [16]
0	0xbe21e521	-0.15810062
1	0x3ecc681b	0.39923176
2	0x3e1d6557	0.1537069
3	0xbe7a461c	-0.24440807
4	0x3d6c340f	0.057666834
5	0xbec9c916	-0.3941123
6	0xbea45eb4	-0.32103503
7	0x3ef8bc89	0.4858134
8	0x3ef9b4b2	0.48770672
9	0x3f06fe01	0.5273133
10	0xbe346846	-0.17617902
11	0x3e960a4a	0.29304725
12	0x3ef39ef1	0.475822
13	0x3f31ada4	0.6940558
14	0xbd8b138e	-0.06790839
15	0x3f21a653	0.63144416

mps.0.l1.node_block.m.2.weight f4 [8, 16]
0	0xbd9b444e	-0.075813875
1	0xbe18026a	-0.14844671
2	0xbd9f4631	-0.0777706
3	0x3e5d236a	0.2159554
4	0x3e4404af	0.19142412
5	0x3e85798b	0.26069292
6	0x3e37ead4	0.17960674
7	0x3fb6f655	1.4293925
8	0x3aea4357	0.0017872852
9	0xbee02508	-0.43778253
10	0x3de52423	0.11188533
11	0xbe1f0be5	-0.15531881
12	0xbdf20fc5	-0.11819414
13	0xbed1b65b	-0.4095944
14	0x3d414853	0.047188114
15	0xbd565f55	-0.05233701
16	0xbe1da562	-0.1539512
17	0xbe51728d	-0.20453854
18	0xbd2e848f	-0.042606886
19	0xbe0727f0	-0.13198829
20	0xbe1549fb	-0.14579003
21	0x3d312421	0.043247346
22	0xbdd8a190	-0.105776906
23	0xbf33e0c9	-0.7026487
24	0x3e07c2ae	0.13257858
25	0xbe86e247	-0.2634451
26	0x3d9dd46f	0.07706534
27	0xbe913786	-0.28362674
28	0xbd8259c7	-0.0636478
29	0xbe879600	-0.26481628
30	0xbea635bd	-0.32462874
31	0xbdb7dc7a	-0.089775994
32	0x3e71d05f	0.23614644
33	0xbd103af9	-0.03521249
34	0xbd8308fa	-0.063981965
35	0xbd5e1ced	-0.054226805
36	0xbddd8f4c	-0.10818347
37	0x3dd051e9	0.10171873
38	0x3e5b0f7f	0.2139263
39	0x3f9e7dcc	1.238214
40	0x3dda4349	0.10657365
41	0xbefc531e	-0.49282163
42	0xbdf621b6	-0.120181486
43	0xbe1b5816	-0.15170321
44	0xbcf195f6	-0.029490452
45	0xbec21555	-0.379069
46	0xbe850864	-0.25982964
47	0xbe3975b0	-0.181113
48	0xbdcd3f49	-0.10021836
49	0xbd8d6924	-0.069048196
50	0xbde0ad00	-0.10970497
51	0x3e47cb2e	0.195111
52	0xbe5921a3	-0.21204238
53	0x3e8541dc	0.2602681
54	0x3d982075	0.07428066
55	0xbf37f32f	-0.71855444
56	0x3e4af047	0.19818221
57	0xbe49c330	-0.19703364
58	0x3e0fce51	0.14043547
59	0x3e2c2d5f	0.16814183
60	0xbdf559ed	-0.119800426
61	0xbe03b191	-0.12860705
62	0x3d73acef	0.059491094
63	0xbdbb594f	-0.09147894
64	0x3d4918e4	0.049096003
65	0x3d939127	0.0720542
66	0xbdc47f9f	-0.09594654
67	0xbceab1d0	-0.02864924
68	0x3e59dccc	0.21275634
69	0x3e24af71	0.1608255
70	0x3c1ea9f6	0.0096840765
71	0x3d6d5d7c	0.05795048
72	0x3b604db7	0.003422601
73	0xbe326588	-0.17421544
74	0x3e3a76d8	0.18209398
75	0xbe885c6b	-0.2663301
76	0xbbd935a6	-0.00662871
77	0xbe239279	-0.15973844
78	0xbd5faf0d	-0.0546103
79	0xbc969573	-0.01838181
80	0xbc54c728	-0.012986936
81	0x3dc398dd	0.09550641
82	0x3e0baf94	0.13641196
83	0x3e391d7d	0.18077655
84	0xbd9e60b9	-0.07733292
85	0xbdc67cd3	-0.09691777
86	0x3d9127b6	0.070876524
87	0xbfd8b983	-1.6931614
88	0x3d91585a	0.0709693
89	0x3e5d4ea0	0.21612024
90	0xbe1b85dd	-0.15187784
91	0x3dafdd15	0.0858709
92	0x3b3842f9	0.002811609
93	0x3ec5361f	0.38517854
94	0x3e722162	0.23645547
95	0x3e8dc6b4	0.2769066
96	0x3e6f40b0	0.2336452
97	0x3d090a20	0.03345692
98	0xbe2d4565	-0.16921003
99	0xbe20dbcd	-0.15708847
100	0xbe0e6f14	-0.1390956
101	0xbe1e632d	-0.1546752
102	0xbda12bcf	-0.07869684
103	0xbfe1c0f3	-1.7637008
104	0xbe4a9970	-0.19785094
105	0xbe972460	-0.2951994
106	0xbe620d0e	-0.22075292
107	0xbe8df319	-0.2772453
108	0x3dc41c37	0.09575694
109	0xbd881065	-0.06643752
110	0xbebc41c5	-0.36768928
111	0xbe9dbcb8	-0.30808043
112	0x3db81617	0.08988588
113	0xbe0e1426	-0.13874874
114	0xbe029254	-0.12751132
115	0x3e0d4777	0.13796793
116	0xbe47ca1e	-0.19510695
117	0x3cb33023	0.02187354
118	0x3e371042	0.17877296
119	0x3f280e72	0.6564704
120	0x3d0441c4	0.03228928
121	0xbe9ae235	-0.30250707
122	0xbb4a779d	-0.003089405
123	0xbb726759	-0.003698787
124	0x3cb46ffe	0.022026058
125	0xbdeeee01	-0.116664894
126	0x3dcd6e5f	0.10030817
127	0xbe7b0ab3	-0.245158

mps.0.l1.node_block.m.2.bias f4 [8]
0	0xbefa42ca	-0.4887908
1	0xbe6a8f63	-0.2290626
2	0xbf32580e	-0.6966561
3	0xbe608a8e	-0.21927854
4	0xbed12046	-0.40844935
5	0x3f047f17	0.51756424
6	0xbe4e5678	-0.20150173
7	0xbef61189	-0.48060253

mps.0.l2.edge_block.m.0.weight f4 [16, 17]
0	0x3eeba0dd	0.46021166
1	0xbe731308	-0.23737729
2	0xbc80435c	-0.01565712
3	0xbddf9451	-0.10916961
4	0xbe875b44	-0.26436818
5	0xbeaf9129	-0.34290436
6	0xbdc09e21	-0.09405161
7	0x3ec67b3a	0.3876589
8	0x3f05d5bd	0.52279264
9	0x3dc9bbbb	0.0985026
10	0xbdf11852	-0.11772217
11	0xbe5e27e4	-0.21694905
12	0x3df0a929	0.11751015
13	0xbe1ec096	-0.15503153
14	0xbd5fc86f	-0.054634508
15	0x3d22ff23	0.0397941
16	0xbe7e83c5	-0.24854954
17	0xbd948bd1	-0.0725323
18	0x3e5622de	0.20911738
19	0xbd5b74de	-0.05357825
20	0xbc328bec	-0.010897618
21	0xbe38b5c2	-0.18038085
22	0xbdf8e243	-0.12152531
23	0xbb915b7b	-0.004435954
24	0xbe0a2db0	-0.13493991
25	0xbcdcb0d4	-0.026939787
26	0x3db50f1e	0.08840774
27	0xbe59995c	-0.21249908
28	0x3d842469	0.06452257
29	0xbe131625	-0.14363916
30	0xbdd922b7	-0.106023245
31	0x3daacdcc	0.08340034
32	0x3e30e0b9	0.17273225
33	0xbd733161	-0.059373263
34	0xbe13e6d3	-0.14443521
35	0xbe42d269	-0.19025578
36	0xbdc4381e	-0.09581016
37	0xbe4137b7	-0.1886891
38	0xbd642fb1	-0.055709545
39	0x3d8158be	0.06315754
40	0xbe5d0f0f	-0.21587776
41	0x3e5aca1a	0.21366158
42	0x3da8d0f1	0.082429774
43	0xbe40d24e	-0.18830225
44	0xbdcde45d	-0.100533225
45	0x3dcef85b	0.10105964
46	0xbd62aaa2	-0.05533851
47	0xbc591546	-0.013249701
48	0xbd941bf3	-0.072318934
49	0x3e3c7f49	0.1840793
50	0xbdbb5c95	-0.09148518
51	0x3e4848ce	0.19559023
52	0x3d4a7aef	0.049433645
53	0x3d635a3d	0.05550598
54	0x3e4c40bd	0.1994657
55	0xbcf0c66d	-0.029391492
56	0xbe0cb92c	-0.13742512
57	0x3c624718	0.013810895
58	0x3e454bde	0.19267222
59	0xbdede0ef	-0.11615168
60	0x3db83f96	0.08996503
61	0xbe3c3b42	-0.1838198
62	0x3e0c8771	0.13723542
63	0x3db60601	0.08887864
64	0xbd205426	-0.03914275
65	0x3dfbdbb5	0.12297765
66	0x3cf0ef48	0.029410973
67	0x3da18c18	0.07888049
68	0xbdf51eaf	-0.11968743
69	0x3e35b36d	0.17744227
70	0xbe0aeaf9	-0.13566197
71	0x3edde460	0.433383
72	0x3e17fbbb	0.14842121
73	0xbe8b4847	-0.2720358
74	0x3e962cd2	0.2933107
75	0xbe3a9b0b	-0.18223207
76	0xbd4de451	-0.050266568
77	0xbd7f68b6	-0.06235572
78	0xbeaa4dab	-0.3326238
79	0x3e8a9c3d	0.27072325
80	0x3cfda502	0.03096247
81	0xbe3c110b	-0.18365876
82	0x3e129f7a	0.14318648
83	0xbe8261f4	-0.25465357
84	0x3e2bba78	0.16770351
85	0xbe24e119	-0.16101493
86	0xbd94a413	-0.07257857
87	0xbe5fffad	-0.21874876
88	0xbde17372	-0.110083476
89	0x3d9a1caf	0.07525002
90	0x3e43b141	0.19110586
91	0x3cf1e069	0.029525952
92	0x3e4ff8a9	0.203097
93	0x3d83e1a2	0.064395204
94	0x3ddc0c0e	0.10744487
95	0x3e3336f2	0.17501429
96	0x3e0f9ee3	0.14025454
97	0xbde1b0f7	-0.110200815
98	0x3e43e0de	0.19128749
99	0x3dd0700e	0.10177623
100	0xbdcd56ee	-0.10026346
101	0xbddad12a	-0.10684426
102	0xbe911092	-0.28332955
103	0x3c06ed06	0.008235222
104	0xbea998cd	-0.3312439
105	0x3b493c03	0.0030705936
106	0x3d0458fe	0.032311432
107	0xbdbe0638	-0.0927853
108	0x3c040320	0.008057386
109	0xbe5e6176	-0.21716866
110	0x3c299143	0.0103495745
111	0x3d4d7d77	0.05016848
112	0xbeacc2c0	-0.33742332
113	0x3d310a05	0.043222446
114	0x3ddb1cc7	0.10698848
115	0x3e29eaa2	0.16593412
116	0xbea33d0c	-0.31882513
117	0xbe66f200	-0.22553253
118	0x3d63459a	0.0554863
119	0xbda0d58d	-0.078532316
120	0x3e1fb3f4	0.1559599
121	0x3d57c937	0.052682128
122	0x3e443c1b	0.19163553
123	0xbdf4a1db	-0.11944934
124	0x3d8530cd	0.06503449
125	0x3db65555	0.089029945
126	0xbe4b1b17	-0.19834553
127	0xbe6054e4	-0.21907383
128	0xbd8c359e	-0.06846164
129	0x3dec7344	0.11545423
130	0xbe3467cf	-0.17617725
131	0xbe6d8793	-0.23196249
132	0x3dd340bc	0.103150815
133	0x3e107988	0.1410886
134	0x3e1d4240	0.15357304
135	0xbe0f135e	-0.13972232
136	0xbdffb3f4	-0.12485495
137	0x3e168aec	0.14701432
138	0x3e31b036	0.17352375
139	0x3e1e3a54	0.15451938
140	0x3c37c89a	0.011217261
141	0x3d2c731e	0.04210197
142	0x3e794a29	0.24344696
143	0xbe17a129	-0.14807571
144	0xbd7776a4	-0.06041588
145	0x3e455032	0.19268873
146	0xbe2a160e	-0.16609976
147	0xbdbd0c5e	-0.092308745
148	0x3e091e7e	0.13390538
149	0x3d10d70a	0.035361327
150	0x3de8bccf	0.113641374
151	0xbdd0117a	-0.101595834
152	0xbd1b17db	-0.037864547
153	0x3f1a3d5c	0.60249877
154	0x38bdbf2e	9.047832e-05
155	0xba41d0c5	-0.0007393475
156	0x3e1324ca	0.14369503
157	0xbe76919d	-0.24078985
158	0xbdbe086f	-0.09278952
159	0xbd3383b3	-0.04382677
160	0x3e95ce09	0.29258755
161	0x3ef96aeb	0.48714384
162	0xbce930e0	-0.028465688
163	0xbe3a80d9	-0.18213214
164	0x3e099a0a	0.13437667
165	0xbd1de072	-0.038544126
166	0xbf11b2e0	-0.56913567
167	0xbdda4181	-0.10657025
168	0x3f11b106	0.5691074
169	0xbda5a0f8	-0.08087343
170	0x3e09911b	0.1343426
171	0xbe09aa8a	-0.13443962
172	0xbd301b7c	-0.04299496
173	0xbe2481e7	-0.16065179
174	0xbd84e8ea	-0.06489737
175	0xbe80ce52	-0.2515741
176	0xbd87afd1	-0.06625331
177	0xbdae9eef	-0.08526408
178	0xbe3a54d2	-0.18196419
179	0x3d8d6996	0.069049045
180	0x3d060472	0.032719083
181	0x3d97410f	0.07385456
182	0x3e52feec	0.20605057
183	0xbdda4c3f	-0.10659074
184	0xbdfbfcd7	-0.12304085
185	0x3d9f0e62	0.07766415
186	0x3d6f5d50	0.0584386
187	0xbe3301ed	-0.17481203
188	0x3e3224de	0.17396876
189	0xbdd8dff5	-0.105895914
190	0x3dae2123	0.08502414
191	0x3e28e315	0.16492875
192	0xbdf4032f	-0.1191467
193	0x3e111269	0.14167179
194	0xbe95c715	-0.2925345
195	0xbe4e5963	-0.20151286
196	0xbdcdc120	-0.10046601
197	0xbdf436ae	-0.11924492
198	0x3dc42981	0.09578229
199	0x3b859172	0.0040761763
200	0x3e27612b	0.1634566
201	0xbe8106d3	-0.2520052
202	0x3dd6f155	0.10495249
203	0x3d2151ba	0.03938458
204	0xbe4577e1	-0.19284011
205	0x3d0cd402	0.034381874
206	0x3dd1c5a4	0.10242775
207	0x3e3953dd	0.18098398
208	0xbe0c7a78	-0.13718593
209	0xbde153b2	-0.11002292
210	0x3d4571a0	0.048204064
211	0x3d634ff2	0.055496164
212	0x3d79a46d	0.060947824
213	0x3df957f9	0.121749826
214	0xbd544e8d	-0.051832724
215	0x3dea5ad0	0.11443102
216	0x3e1fca47	0.15604506
217	0xbd74ad44	-0.05973555
218	0x3e24c793	0.16091757
219	0x3dd30952	0.10304512
220	0x3e7ad863	0.24496607
221	0xbe222f1f	-0.15838288
222	0xbe0329c7	-0.12808906
223	0xbd59dae0	-0.05318725
224	0xbaf21ad1	-0.0018471127
225	0x3e3f45e8	0.18679011
226	0xbdbc632c	-0.09198603
227	0x3dfbc8ef	0.122941844
228	0xbdfb47db	-0.12269565
229	0x3df53d9a	0.1197464
230	0xbd0f4bd9	-0.034984443
231	0xbe46c680	-0.19411659
232	0xbe206527	-0.15663587
233	0xbe0ffd46	-0.1406146
234	0x3df3c0d8	0.119020164
235	0xbe335f81	-0.175169
236	0xbd5be2ea	-0.0536832
237	0x3db3baa7	0.087758355
238	0xbda65f8d	-0.081236936
239	0x3e412794	0.18862754
240	0xbeba5330	-0.36391592
241	0x3d0cc854	0.034370735
242	0xbe872475	-0.26395002
243	0xbe0fa34e	-0.1402714
244	0x3c0ad9a1	0.008474738
245	0xbd643912	-0.05571849
246	0xbcca7e20	-0.024718344
247	0x3e37ed77	0.1796168
248	0x3d8bbbc6	0.06822924
249	0x3e3672d1	0.17817236
250	0xbe1fc99f	-0.15604256
251	0xbe7e121a	-0.24811593
252	0x3e106915	0.14102586
253	0xbe3f943f	-0.18708895
254	0x3db10881	0.086442
255	0x3e066355	0.1312383

mps.0.l2.edge_block.m.0.bias f4 [16]
0	0x3d8bb7ac	0.06822142
1	0xbd38c550	-0.045110047
2	0xbf0d506b	-0.55200833
3	0x3e02f4eb	0.12788741
4	0x3de896c0	0.11356878
5	0x3ef3a52e	0.4758696
6	0x3e56a570	0.20961547
7	0xbe5b5604	-0.21419531
8	0xbdbcd747	-0.092207484
9	0x3d1b9530	0.037984073
10	0x3dbabc62	0.091179624
11	0x3f273c17	0.65326065
12	0x3e3f7167	0.18695603
13	0x3f2b62ed	0.66947824
14	0xbd55fc55	-0.052242596
15	0xbe3d7357	-0.1850103

mps.0.l2.edge_block.m.2.weight f4 [1, 16]
0	0x3e8d52c9	0.27602223
1	0xbb0016c9	-0.001954483
2	0xbd92de3e	-0.071712956
3	0xbd3fa73d	-0.04679035
4	0x3e9f3e79	0.3110235
5	0x3dc081b0	0.09399736
6	0x3e4226e5	0.1896015
7	0xbbab6207	-0.0052301916
8	0xbd86cce3	-0.06582048
9	0x3ea07743	0.3134099
10	0xbe275892	-0.1634238
11	0x3e88f1f8	0.26747108
12	0x3dcf5167	0.10122948
13	0x3e59148d	0.21199246
14	0x3e5dd08d	0.21661587
15	0xbd0bcbb7	-0.034129824

mps.0.l2.node_block.m.0.weight f4 [16, 9]
0	0xbe89823f	-0.26857182
1	0x3dc02d78	0.093836725
2	0xbda8d3a5	-0.08243493
3	0xbdf3bb58	-0.11900967
4	0xbe7873c8	-0.24262917
5	0x3e6b8a4a	0.23001972
6	0x3ea18399	0.31545714
7	0x3da1287d	0.07869051
8	0x3e84ba44	0.2592336
9	0xbdd755bf	-0.10514402
10	0xbcd2105f	-0.025642572
11	0x3dfa761d	0.122295596
12	0xbca225eb	-0.019793471
13	0xbd3fd083	-0.04682971
14	0xbe86de18	-0.2634132
15	0x3de1b592	0.1102096
16	0xbe29aa37	-0.16568838
17	0xbb634025	-0.0034675684
18	0x3e9c15ad	0.30485287
19	0xbd9b2d93	-0.07577052
20	0xbde2de03	-0.110775016
21	0x3e26f92d	0.1630599
22	0xbe02236c	-0.12708825
23	0xbd2fd87d	-0.04293107
24	0x3e9735a4	0.29533112
25	0xbe0d5620	-0.13802385
26	0xbe4ab3cd	-0.19795151
27	0xbe07634e	-0.13221475
28	0xbc6bd0c7	-0.014393038
29	0xbe55fa9b	-0.2089638
30	0xbe124ff1	-0.14288308
31	0x3d020267	0.031740572
32	0xbbddf06c	-0.0067730453
33	0xbdb1c6c8	-0.08680493
34	0xbe880a03	-0.26570138
35	0xbe32bbda	-0.17454472
36	0xbde6ee82	-0.112759605
37	0xbe068d87	-0.13139926
38	0xbe69f7f3	-0.22848491
39	0xbddae60c	-0.10688409
40	0xbe6f64f9	-0.23378362
41	0xbe9c4da9	-0.30528
42	0xbeb3b16e	-0.35096306
43	0x3d497348	0.049182206
44	0xbc3ed592	-0.011647599
45	0xbe1455e9	-0.14485897
46	0x3e891f2c	0.26781595
47	0x3e0e3e70	0.13891006
48	0x3e4d50d3	0.20050363
49	0xbe8cbb98	-0.27486873
50	0xbe401d03	-0.18761067
51	0xbd961270	-0.073277354
52	0x3e752ed0	0.23943639
53	0x3ce2f22e	0.02770337
54	0xbe52c5ba	-0.20583239
55	0x3cb6dab6	0.022321086
56	0xbe85e49a	-0.26150972
57	0xbe0beb56	-0.13663992
58	0xbe11241d	-0.14173932
59	0x3e6833b6	0.22675976
60	0x3cf78316	0.030213874
61	0xbdb54279	-0.08850569
62	0x3db08019	0.08618183
63	0xbce40548	-0.02783455
64	0x3e2376c6	0.15963277
65	0x3d797944	0.060906664
66	0xbca8374b	-0.020534178
67	0xbe58a77f	-0.21157645
68	0x3e45e817	0.19326816
69	0xbd4d70fa	-0.05015657
70	0xbe1a12b4	-0.15046197
71	0x3e897fd1	0.2685533
72	0x3e6680e6	0.22510108
73	0x3ea9390c	0.33051336
74	0x3d85acec	0.06527123
75	0xbd96bbe4	-0.07360056
76	0x3e1c64de	0.15272853
77	0x3e7aef3e	0.24505326
78	0xbe74a8b2	-0.23892477
79	0xbd86f284	-0.06589225
80	0xbe7df1bf	-0.2479925
81	0x3dc7540f	0.0973283
82	0x3e3b3fff	0.18286131
83	0xbde95458	-0.113930404
84	0xbd2dfc72	-0.04247708
85	0x3daf4609	0.0855828
86	0xbdc974ca	-0.09836729
87	0xbe4e0c3e	-0.20121858
88	0x3e3a608f	0.18200897
89	0xbdcc36c1	-0.09971381
90	0x3ba026eb	0.004887452
91	0x3da8728d	0.08224974
92	0xbd25f9f2	-0.04052157
93	0xbe857e90	-0.26073122
94	0x3e0542e9	0.13013805
95	0xbe21992a	-0.15781084
96	0xbe035e6c	-0.12828988
97	0x3d352336	0.044223033
98	0xbd8b9136	-0.06814806
99	0xbe1810cc	-0.14850157
100	0xbdc8a0ab	-0.0979627
101	0xbe0508dd	-0.12991662
102	0xbe07e075	-0.13269217
103	0xbda265bf	-0.07929563
104	0x3d91a015	0.07110611
105	0xbe5da0d9	-0.2164339
106	0xbe7b014a	-0.2451221
107	0xbc367de4	-0.011138413
108	0x3d478657	0.0487121
109	0x3e60f284	0.21967512
110	0xbe7daef8	-0.24773777
111	0x3e076caa	0.13225046
112	0x3e0af2f2	0.13569239
113	0x3e04077a	0.12893477
114	0xbe481c8b	-0.19542138
115	0xbe1d30d5	-0.15350659
116	0xbeb4875b	-0.35259518
117	0xbe23af34	-0.15984803
118	0x3e382158	0.1798147
119	0xbd6b0ea3	-0.057387006
120	0x3e107b93	0.1410964
121	0xbe2d3d20	-0.16917849
122	0x3cd6ec62	0.026235763
123	0xbe2a316f	-0.1662042
124	0x3e0a9f96	0.1353744
125	0xbdbe3953	-0.092882775
126	0x3cf0d30b	0.029397508
127	0xbe036bc2	-0.12834075
128	0xbe007a77	-0.12546717
129	0x3e7fd77e	0.24984547
130	0x3c721070	0.014774427
131	0xbe9163d8	-0.28396487
132	0x3e0340ca	0.12817684
133	0xbe25c88d	-0.16189785
134	0xbe2bd21e	-0.16779372
135	0x3e6e6a9c	0.23282856
136	0x3d8fab26	0.07015066
137	0x3c449fe9	0.012001016
138	0xbdf4bf17	-0.1195051
139	0xbe4010ad	-0.18756361
140	0x3abda39b	0.0014468314
141	0x3e1477f0	0.14498878
142	0x3c9f2d5f	0.019430814
143	0xbd836ec4	-0.06417611

mps.0.l2.node_block.m.0.bias f4 [16]
0	0x3f2a9013	0.6662609
1	0xbd808e79	-0.062771745
2	0xbe41ca1a	-0.18924752
3	0xbd1564f9	-0.03647325
4	0x3ee71bed	0.45138493
5	0xbb14fca9	-0.0022733605
6	0x3e94dfc5	0.29076973
7	0x3e14cc1f	0.14530991
8	0x3decb556	0.115580246
9	0xbebe212b	-0.3713468
10	0xbee0b5cd	-0.43888703
11	0x3f2a3dc0	0.66500473
12	0x3df11285	0.117711104
13	0x3e9bba08	0.30415368
14	0xbe87a6dc	-0.2649449
15	0xbdd58765	-0.10426215

mps.0.l2.node_block.m.2.weight f4 [8, 16]
0	0xbe15c6ab	-0.14626567
1	0x3e2a4347	0.16627227
2	0x3e146f5a	0.14495602
3	0x3e7f8feb	0.24957244
4	0x3eab2b5d	0.3343152
5	0x3e0e71f6	0.1391066
6	0xbbfe5004	-0.0077610034
7	0x3dd9b388	0.10629946
8	0xbd3c2c65	-0.045940775
9	0x3d9313a5	0.07181481
10	0xbcf25707	-0.029582513
11	0x3d7037a0	0.058646798
12	0xbd7c61a8	-0.06161657
13	0xbcf4d35a	-0.029885937
14	0xbe0d570c	-0.13802737
15	0xbc995832	-0.018718813
16	0xbe5e18cb	-0.21689145
17	0xbe81498b	-0.2525142
18	0x3b35b7a7	0.0027727874
19	0x3e80bedb	0.2514561
20	0x3dbd006a	0.092285946
21	0x3e048e17	0.12944828
22	0xbe26e63c	-0.16298765
23	0xbe8b19d3	-0.2716814
24	0x3dd619d7	0.10454147
25	0x3dd06e0b	0.10177239
26	0xbe3c779a	-0.18405
27	0x3ddeca67	0.10878449
28	0x3e65303d	0.22381683
29	0x3b5410a5	0.0032358554
30	0xbe1570ec	-0.14593858
31	0x3e116c56	0.14201483
32	0x3dc44afc	0.09584615
33	0x3e0e592c	0.13901204
34	0xbe0c904c	-0.1372692
35	0x3cda7ad4	0.026669897
36	0xbe8ea97c	-0.2786368
37	0x3e6323b6	0.22181591
38	0xbd6ecb09	-0.0582991
39	0x3e06dfc2	0.13171294
40	0x3d5d945c	0.054096565
41	0x3d86c2ad	0.065801
42	0xbcfa671a	-0.03056674
43	0x3d2c41c7	0.042054918
44	0x3d56413d	0.05230831
45	0xbe270dc9	-0.16313852
46	0xbd948da3	-0.072535776
47	0x3de89208	0.11355978
48	0xbd6dbf0f	-0.058043536
49	0x3d2009e5	0.039071936
50	0xbd8c5abb	-0.06853243
51	0x3e431144	0.19049555
52	0x3deeda19	0.116626926
53	0x3d9ffe21	0.07812143
54	0xbe1b78e4	-0.15182835
55	0xbe4bb07f	-0.19891547
56	0x3c4ea5d3	0.012612778
57	0xbe12fc29	-0.14354004
58	0x3df6d596	0.12052457
59	0xbe56011b	-0.20898859
60	0x3d5dce32	0.05415172
61	0x3e5eb796	0.2174972
62	0x3e7ab5b7	0.24483381
63	0x3d6960b6	0.056976996
64	0xbe7cc01a	-0.24682656
65	0x3e33234e	0.17493936
66	0xbd4fba67	-0.050714877
67	0xbe527225	-0.20551355
68	0x3ec25d58	0.3796184
69	0xbdbced08	-0.092248976
70	0xbde122d1	-0.10992969
71	0x3e3f4ac9	0.18680872
72	0xbde8bdbd	-0.11364315
73	0xbdee1699	-0.11625404
74	0x3cfc25fb	0.03077983
75	0xbcf12dca	-0.02944078
76	0x3dde6c8b	0.10860547
77	0xbe270221	-0.16309406
78	0x3d74b1d6	0.05973991
79	0xbd608844	-0.054817453
80	0xbd934503	-0.07190897
81	0xbe691099	-0.22760238
82	0x3ddef883	0.108872436
83	0x3d5e7516	0.05431088
84	0x3e5d673e	0.21621415
85	0x3e355fa2	0.17712262
86	0x3d7a14f4	0.06105514
87	0x3d7d0c6b	0.06177942
88	0xbe0c255a	-0.13686123
89	0x3b431024	0.002976426
90	0x3e42aee7	0.19012032
91	0x3e5999c3	0.21250062
92	0xbe6c312e	-0.23065636
93	0x3e3c309d	0.1837792
94	0x3c8e20f7	0.017349703
95	0x3dcb82f6	0.09937088
96	0x3dfcc67f	0.123425476
97	0x3e2c5399	0.16828765
98	0xbe2bfb35	-0.16795047
99	0x3e4ef1b1	0.20209385
100	0xbec829e0	-0.39094448
101	0x3c83bbc3	0.016080743
102	0xbe1b18ee	-0.15146229
103	0xbdbd7c8d	-0.09252272
104	0xbcd73dfe	-0.026274677
105	0xbd64a1d7	-0.055818405
106	0xbce22819	-0.02760701
107	0xbcb802af	-0.022462217
108	0x3e93c62d	0.28862134
109	0x3e149ad6	0.1451219
110	0x3e36cdc6	0.17851934
111	0x3b1d79a6	0.0024028807
112	0x3e1c05c6	0.15236577
113	0x3d0e7d55	0.034787495
114	0x3be61a79	0.0070221988
115	0x3dd51fa2	0.10406424
116	0xbe81b28d	-0.25331536
117	0xbe38219b	-0.1798157
118	0x3cdde6a8	0.027087525
119	0xbda9c6be	-0.0828986
120	0x3c2455e9	0.010030248
121	0xbd57199c	-0.052514657
122	0x3d8ebd99	0.06969757
123	0x3e334f60	0.17510748
124	0xbd5a24d9	-0.053257797
125	0x3e375190	0.17902207
126	0x3dcaf67c	0.099102944
127	0xbe04df1b	-0.12975733

mps.0.l2.node_block.m.2.bias f4 [8]
0	0x3ec9edd3	0.39439258
1	0xbecd36a1	-0.4008074
2	0x3e288ef1	0.16460778
3	0xbee08958	-0.43854785
4	0xbebd5e33	-0.3698593
5	0xbf046842	-0.51721585
6	0x3e7f5e86	0.24938402
7	0x3f0ca776	0.54943025

mps.1.l1.edge_block.m.0.weight f4 [16, 18]
0	0xbd2be277	-0.04196402
1	0x3e824f90	0.25451326
2	0xbe00228c	-0.12513179
3	0xbdc9085d	-0.09816048
4	0x3e1d4aef	0.15360616
5	0x3dba3fa0	0.09094167
6	0x3dc62a94	0.0967609
7	0x3d20b1e5	0.039232153
8	0x3e37c46a	0.1794602
9	0xbe313277	-0.17304407
10	0x3df11ce3	0.11773088
11	0x3e4fab02	0.20280078
12	0xbd820d10	-0.06350148
13	0x3e7c67c5	0.2464896
14	0x3de1e033	0.11029091
15	0xbd982dba	-0.07430597
16	0x3e2bd6e8	0.16781199
17	0xbf00a70a	-0.5025488
18	0xbe61b4fc	-0.22041696
19	0x3dc4db08	0.096120894
20	0x3ced94b3	0.02900157
21	0xbdca836e	-0.098883495
22	0x3e08b653	0.13350801
23	0xbda1502b	-0.07876619
24	0x3dc1e28a	0.09467037
25	0x3dbf0222	0.09326579
26	0xbcf31ae8	-0.029675916
27	0xbe2c04ef	-0.16798757
28	0x3df5f494	0.1200954
29	0x3cf9d854	0.030498661
30	0x3d369d31	0.044583503
31	0x3dc8b6fc	0.098005265
32	0x3dc890cb	0.09793242
33	0xbe3289a2	-0.17435315
34	0x3d5cc564	0.053899184
35	0x3f8f98a4	1.1218457
36	0xbddd3f12	-0.10803045
37	0x3e383791	0.17989947
38	0xbdf9a52b	-0.121897064
39	0xbade12b2	-0.0016942827
40	0x3d1024d2	0.035191365
41	0xbc2a57d6	-0.010396918
42	0x3dd589a2	0.10426642
43	0xbd2914c3	-0.041279566
44	0xbe825171	-0.2545276
45	0xbde73534	-0.112894446
46	0xbd8f98fe	-0.07011603
47	0xbd3d72d3	-0.046252083
48	0xbd203033	-0.039108466
49	0xbda30c74	-0.079613596
50	0xbe1756f1	-0.1477926
51	0xbd65cdbe	-0.056104414
52	0x3d3bd5b2	0.045858093
53	0x3fa96e97	1.3236874
54	0xbe1276b2	-0.14303091
55	0xbe134320	-0.14381075
56	0x3e084064	0.13305813
57	0xbe820205	-0.25392166
58	0x3d5fa1d2	0.054597683
59	0x3e65225a	0.22376385
60	0xbe023685	-0.1271611
61	0xbd9b0f03	-0.07571223
62	0x3e4169dd	0.1888804
63	0x3db2b663	0.08726194
64	0xbe77c6f9	-0.24196996
65	0x3e3751cf	0.17902301
66	0x3de6397a	0.112414315
67	0xbdfd3798	-0.12364119
68	0xbd5a8c07	-0.053356197
69	0x3c9e7655	0.019343534
70	0xbe4929e2	-0.19644883
71	0xbf0f8469	-0.56061417
72	0x3cab7d83	0.020933872
73	0x3ea0b5a5	0.31388584
74	0x3e6baf21	0.23016025
75	0x3e1154f9	0.14192571
76	0x3e989784	0.29803097
77	0x3e7ed977	0.24887644
78	0xbe7544fa	-0.23952094
79	0xbd836cf1	-0.06417263
80	0x3d65ccf0	0.056103647
81	0xbe3b605e	-0.1829848
82	0x3d9051d9	0.07046861
83	0x3b81c76a	0.0039605396
84	0x3e435bd7	0.19078003
85	0xbe3cb4da	-0.18428364
86	0x3e5c4bdf	0.21513318
87	0x3e7d8251	0.24756743
88	0x3ec8f543	0.3924962
89	0x3f281726	0.6566032
90	0x3e407192	0.18793324
91	0xbd13fb20	-0.036128163
92	0x3e17d201	0.14826204
93	0x3e2af981	0.1669674
94	0xbe39ff5a	-0.18163815
95	0xbd77755c	-0.060414657
96	0xbcd2c439	-0.025728332
97	0x3d32fa3f	0.043695685
98	0xbe05698e	-0.13028547
99	0x3d517690	0.05113846
100	0x3a5b5c97	0.0008367984
101	0x3d5e5e90	0.0542894
102	0xbdb71718	-0.08939952
103	0x3e444280	0.19165993
104	0x3da45308	0.080236495
105	0xbe5f873c	-0.21828932
106	0x3c9a0102	0.018799309
107	0x3f876f72	1.0580885
108	0x3c9fe79e	0.019519623
109	0x3d0a369d	0.03374349
110	0x3dd08f7a	0.10183616
111	0xbe096f57	-0.13421379
112	0x3d8f87ae	0.07008301
113	0xbe726be5	-0.23673971
114	0xbd21c8f9	-0.039498303
115	0x3d3ca4e0	0.046055675
116	0xbea18dd6	-0.31553525
117	0xbd75009b	-0.05981503
118	0xbe250952	-0.16116837
119	0x3c0aae23	0.008464369
120	0xbdfdcc64	-0.123925
121	0xbe475236	-0.19464955
122	0xbddc4bcf	-0.10756647
123	0xbe304e34	-0.17217332
124	0x3b407131	0.0029364342
125	0x3f855088	1.0415201
126	0xbe96ec22	-0.2947703
127	0x3e2d5ed4	0.16930705
128	0xbe5d3d54	-0.21605426
129	0x3ddf71ff	0.10910415
130	0x3e51d96a	0.20493093
131	0x3df84931	0.12123335
132	0xbe3d3042	-0.1847544
133	0x3d027371	0.031848375
134	0x3cd67d9b	0.02618294
135	0xbd4526c5	-0.048132677
136	0x3e3834cb	0.17988889
137	0xbd9bc57c	-0.076060265
138	0xbd0e2a4d	-0.03470831
139	0xbe0c2758	-0.13686883
140	0xbd45ee11	-0.04832274
141	0xbc6df121	-0.014522822
142	0x3d25bea1	0.040465
143	0xbf8cb247	-1.0991906
144	0xbe612cb8	-0.21989715
145	0xbd0541d7	-0.032533493
146	0xbe8cf27d	-0.27528754
147	0x3d5c961c	0.053854093
148	0x3d4eb384	0.05046417
149	0xbdd3f6f5	-0.10349838
150	0x3dba2d94	0.090907246
151	0x3d2e6792	0.04257924
152	0xbd2cbb8f	-0.042171057
153	0xbe51a83c	-0.20474333
154	0xbdafab65	-0.08577613
155	0x3e0f6f7b	0.1400737
156	0xbba41592	-0.005007454
157	0xbe2312ab	-0.1592509
158	0xbcd14d22	-0.025549475
159	0x3e1d5ae9	0.1536671
160	0xbe5f13d1	-0.21784903
161	0xbf517b9a	-0.81829226
162	0x3e0e63d2	0.13905266
163	0xbe01a863	-0.1266189
164	0xbe3de590	-0.18544602
165	0xbdc4cddf	-0.09609579
166	0x3e806020	0.25073338
167	0x3e58b801	0.21163942
168	0xbd6b763a	-0.057485797
169	0x3dd25dab	0.10271772
170	0xbe01db6e	-0.12681362
171	0xbe7cba81	-0.2468052
172	0x3dbe111d	0.09280608
173	0x3d930815	0.07179276
174	0x3e4ea08b	0.2017843
175	0xbd811583	-0.06302931
176	0x3e1cb6a6	0.1530405
177	0x3daded52	0.08492531
178	0x3e27821e	0.1635823
179	0xbf2f6bc2	-0.685238
180	0x3e5d8add	0.21635003
181	0xbdc1c5be	-0.094615445
182	0x3e14a593	0.14516287
183	0x3d18b68d	0.03728347
184	0xbe10ac10	-0.14128137
185	0x3df3a714	0.11897102
186	0xbddc4328	-0.107549965
187	0xbe9683fe	-0.29397577
188	0xbdf91c49	-0.12163598
189	0xbb74c9b0	-0.003735166
190	0x3e44f85c	0.19235367
191	0xbda8ea37	-0.08247798
192	0x3dba17fe	0.090866074
193	0x3c186f6f	0.009303912
194	0xbb0b35c7	-0.002124177
195	0xbc151245	-0.009098594
196	0xbdb00c16	-0.08596055
197	0x3f693b92	0.9110652
198	0xbd2266e8	-0.03964892
199	0xbe255ecb	-0.16149442
200	0xbdb07790	-0.08616555
201	0xbc281bdf	-0.010260551
202	0xbe22f3b8	-0.15913284
203	0xbdaabb2e	-0.08336483
204	0xbd961b4d	-0.07329426
205	0xbd88be82	-0.066769615
206	0xbdf21133	-0.11819687
207	0x3cf30bb2	0.029668663
208	0x3c2873dd	0.01028153
209	0x3cca9a1f	0.024731694
210	0xbd2043d2	-0.03912718
211	0xbe09a25f	-0.13440846
212	0xbda6b60f	-0.08140194
213	0xbd00dd98	-0.03146133
214	0xbdd041ec	-0.101688236
215	0x3f8a381f	1.0798377
216	0x3b9ab3eb	0.004721155
217	0x3cfc743d	0.030817145
218	0x3d26ff49	0.040770803
219	0x3ddaf6f9	0.106916375
220	0x3ce7586b	0.028240403
221	0xbe3b5505	-0.18294151
222	0x3d88ecf1	0.06685818
223	0xbe5328a7	-0.20620976
224	0xba4c9efd	-0.00078056735
225	0xbe013a33	-0.12619857
226	0xbd1cf215	-0.038316805
227	0xbe1f5694	-0.1556037
228	0x3e41b4bf	0.18916605
229	0x3dcfffde	0.10156225
230	0x3cad7694	0.021174707
231	0x3e1281d8	0.14307344
232	0xbe2dfed5	-0.16991742
233	0x3f675261	0.90360075
234	0x3e3f80af	0.18701433
235	0x3e507a89	0.20359243
236	0xbe8393f8	-0.2569883
237	0x3e36bb5b	0.17844908
238	0xbbf47fdc	-0.007461531
239	0x3db66a2f	0.08906972
240	0xbe0e4b65	-0.13895948
241	0xbe883a62	-0.26607043
242	0xbe39f309	-0.18159117
243	0xbd86f35e	-0.06589387
244	0x3d656245	0.05600192
245	0x3e21704e	0.15765497
246	0xbdc4ebb6	-0.09615271
247	0xbd0904fc	-0.03345202
248	0xbd0e64fd	-0.03476428
249	0xbe5a8273	-0.21338825
250	0x3e2fdf0a	0.17174926
251	0x3e767458	0.24067819
252	0xbda9d0d7	-0.08291786
253	0xbe085c0b	-0.13316362
254	0x3ce82303	0.028337007
255	0x3ded0881	0.115738876

mps.1.l1.edge_block.m.0.bias f4 [16]
0	0x3edc7a47	0.4306204
1	0x3ea86cb7	0.32895443
2	0x3eb1a911	0.346993
3	0xbeadca0a	-0.33943206
4	0xbe0ddf91	-0.13854815
5	0x3e999492	0.29996163
6	0xbd9a13dc	-0.07523319
7	0x3ebf1888	0.37323403
8	0xbdb6f5b0	-0.0893358
9	0x3f2e4771	0.6807776
10	0x3f3cb81e	0.7371844
11	0x3ec5fd07	0.38669607
12	0x3eb8b79b	0.3607758
13	0xbeb4468a	-0.35210067
14	0x3ef5c148	0.47999024
15	0x3e0c0b54	0.13676196

mps.1.l1.edge_block.m.2.weight f4 [1, 16]
0	0x3e0aeffd	0.13568111
1	0x3e42bed2	0.19018105
2	0x3eeff3b1	0.4686561
3	0xbde39310	-0.11112034
4	0xbe7f0839	-0.2490548
5	0x3edee79a	0.43536073
6	0x3f2e1c62	0.6801206
7	0x3eca74f7	0.39542362
8	0xbe07fd15	-0.13280137
9	0x3e1fda02	0.15610507
10	0x3e296095	0.1654075
11	0x3de602d5	0.11231009
12	0x3e7325d1	0.23744895
13	0x3ca32374	0.019914366
14	0x3e99f98c	0.30073202
15	0x3f23b5c7	0.63949245

mps.1.l1.node_block.m.0.weight f4 [16, 9]
0	0x3e94017f	0.2890739
1	0x3d4cf81e	0.05004131
2	0xbda4023d	-0.080082394
3	0xbd706357	-0.058688488
4	0x3da05d19	0.07830257
5	0x3d0fa4ca	0.035069264
6	0xbd84a73e	-0.064772114
7	0x3e6e8092	0.23291233
8	0x3eba1b68	0.36349034
9	0xbe8a0f14	-0.2696463
10	0x3cb15ee0	0.021651685
11	0xbda94ee2	-0.08266999
12	0xbdfba721	-0.12287737
13	0x3d756316	0.05990895
14	0xbd99f72d	-0.07517848
15	0xbe01ada4	-0.12663895
16	0xbde5f4ac	-0.11228308
17	0xbe057b10	-0.13035226
18	0x3e6faaf2	0.23405054
19	0xbd25b1a5	-0.04045262
20	0x3eb73905	0.3578569
21	0x3a203786	0.0006111789
22	0xbd08f79d	-0.033439267
23	0xbc885be5	-0.016645381
24	0x3e33207f	0.17492865
25	0xbd9d3136	-0.07675402
26	0xbde7e148	-0.11322266
27	0xbe54d462	-0.20784143
28	0xbc1d474e	-0.00959952
29	0x3e019bc9	0.12657084
30	0x3d8165eb	0.063182674
31	0x3e1c9faa	0.15295282
32	0xbc23fb83	-0.010008696
33	0xbcd5c282	-0.026093725
34	0xbe1679bf	-0.1469488
35	0xbe5d50c4	-0.21612841
36	0xbe11d607	-0.14241801
37	0x3da309df	0.07960867
38	0x3e210cd2	0.15727547
39	0x3e7b93b3	0.24568062
40	0xbdb47378	-0.088110864
41	0xbc067e5e	-0.008208839
42	0xbde61286	-0.11234002
43	0xbd1354ba	-0.035969473
44	0x3e4fc5a5	0.20290239
45	0xbb843eef	-0.0040358226
46	0x3bcb09bc	0.006196229
47	0x3cb03ac0	0.02151239
48	0x3dd0cf33	0.1019577
49	0xbd9cdd17	-0.07659357
50	0xbe1e31e6	-0.15448722
51	0x3d3b4728	0.045722157
52	0xbd30ca76	-0.04316183
53	0xbe3b7798	-0.1830734
54	0x3e12953a	0.14314738
55	0x3d518b89	0.05115846
56	0xbdd752e8	-0.1051386
57	0xbd9201b2	-0.071292296
58	0x3d540ff7	0.051773038
59	0xbe816504	-0.2527238
60	0x3d26dbb3	0.040736865
61	0xbd7d521a	-0.061845876
62	0x3e9b3fed	0.3032221
63	0xbdb1bc60	-0.08678508
64	0xbc031cbc	-0.008002456
65	0x3cfbca67	0.030736161
66	0x3e8591f3	0.26087913
67	0xbdc94c30	-0.09828985
68	0x3ddaea1e	0.106891856
69	0x3dcfa18c	0.101382345
70	0xbe3a8c86	-0.18217668
71	0x3c22ffb2	0.009948658
72	0xbe7c5452	-0.2464154
73	0xbdd78646	-0.105236575
74	0xbe2b174f	-0.1670811
75	0xbe3e7f5b	-0.1860327
76	0x3e97d387	0.2965357
77	0xbe62a22e	-0.22132179
78	0x3e0ed1c8	0.13947213
79	0xbe891ed9	-0.26781347
80	0xbe05417a	-0.13013259
81	0xbd609867	-0.054832842
82	0x3e9332c4	0.2874967
83	0xbe5034c7	-0.20332633
84	0x3ebb9a1c	0.36641014
85	0x3e1f33f0	0.15547156
86	0x3e87f1c7	0.2655165
87	0xbc02ee86	-0.007991439
88	0x3cff3c9b	0.031156829
89	0xbe5c50f9	-0.21515264
90	0xbe1a74ef	-0.15083669
91	0x3e79f70c	0.24410647
92	0xbe969140	-0.29407692
93	0x3bf5d876	0.007502611
94	0x3c1b58b2	0.009481596
95	0x3e9c6bd7	0.30551025
96	0xbd73c7c2	-0.059516676
97	0xbe213d0b	-0.15745942
98	0xbdb0737a	-0.086157754
99	0x3e332d9b	0.17497866
100	0x3e27c562	0.1638389
101	0x3e5bf92e	0.21481773
102	0xbd12fdd1	-0.03588659
103	0x3e0f4c3d	0.13993926
104	0xbe90ecc2	-0.28305632
105	0x3d9daff9	0.0769958
106	0x3dad6171	0.08465851
107	0x3e8e4a53	0.2779108
108	0xbe22f086	-0.15912065
109	0xbe1b0c65	-0.15141447
110	0x3dd78d90	0.10525048
111	0xbe891852	-0.26776367
112	0xbe7f33d4	-0.24922115
113	0xbe2932e8	-0.16523325
114	0xbd18097d	-0.037118424
115	0x3e41281d	0.18862958
116	0x3d79248a	0.060825862
117	0xbd04b190	-0.0323959
118	0x3c5391e7	0.012913204
119	0xbe6d1ea1	-0.23156215
120	0x3dc0f180	0.094210625
121	0xbc381301	-0.011235
122	0xbe0e71b3	-0.1391056
123	0x3e8213fb	0.2540587
124	0xbe684339	-0.22681893
125	0x3c683c3f	0.01417452
126	0xbe94d8cd	-0.29071656
127	0x3b43064b	0.002975839
128	0xbe134876	-0.1438311
129	0x3ddd611b	0.10809537
130	0xbe2b3ca1	-0.16722347
131	0x3db560a1	0.08856321
132	0xbe6fd28d	-0.23420162
133	0x3e1e8f3b	0.15484326
134	0xbe5e0db5	-0.21684916
135	0x3e7b05e4	0.24513966
136	0xbe28fb63	-0.16502146
137	0xbd08c0dc	-0.03338705
138	0xbd8c317b	-0.06845375
139	0x3ebd7314	0.3700186
140	0x3ea148e7	0.31500933
141	0xbe99dbc7	-0.3005049
142	0xbc0b3d31	-0.008498476
143	0xbe7946cd	-0.24343415

mps.1.l1.node_block.m.0.bias f4 [16]
0	0x3f51e190	0.81984806
1	0x3e392824	0.18081719
2	0xbed1278f	-0.40850493
3	0xbe8ef15a	-0.27918512
4	0x3ec961e6	0.39332503
5	0xbe28c7dc	-0.1648249
6	0x3f344ca2	0.7042943
7	0x3ce13d74	0.027495123
8	0x3e8b43da	0.27200204
9	0x3cdb3683	0.026759392
10	0xbec99e5e	-0.39378637
11	0x3f40e930	0.75355816
12	0x3ec03dbc	0.375471
13	0xbe187bab	-0.14890926
14	0xbe2f39de	-0.17111918
15	0x3e2e051f	0.16994141

mps.1.l1.node_block.m.2.weight f4 [8, 16]
0	0x3e0523db	0.13001959
1	0x3d9af3b5	0.07566015
2	0x3e262b8b	0.16227548
3	0xbdb17ec6	-0.08666758
4	0x3ba6239b	0.0050701625
5	0xbe29f058	-0.1659559
6	0x3d0f8026	0.03503432
7	0xbe18d1ff	-0.14923857
8	0xbde0fb28	-0.10985404
9	0x3ef26e6a	0.47349864
10	0x3e6599d5	0.22421964
11	0xbe28f967	-0.1650139
12	0xbdfbd845	-0.122971095
13	0x3d7de4bc	0.061985716
14	0x3df27feb	0.11840805
15	0x3dfd5063	0.12368848
16	0xbe0d29db	-0.13785498
17	0xbe39df85	-0.18151672
18	0x3ddc1f31	0.10748137
19	0x3e9d52d0	0.30727243
20	0xbe0d3430	-0.13789439
21	0x3e077e8b	0.13231866
22	0x3d81e905	0.06343273
23	0x3e1447bb	0.14480488
24	0x3ce8aac9	0.02840175
25	0x3d540aef	0.05176824
26	0x3e3739d6	0.17893156
27	0x3dd76662	0.10517575
28	0x3e5e66ab	0.21718852
29	0x3cddc895	0.027073184
30	0x3cd34d2b	0.025793632
31	0x3e88da64	0.2672912
32	0x3d49ee07	0.049299266
33	0x3c9def6a	0.0192792
34	0x3bd3652c	0.0064512696
35	0x3e10fc87	0.14158832
36	0xbb8d855c	-0.004318876
37	0xbcf6e816	-0.030139964
38	0x3e85e30a	0.2614978
39	0xbe3a9118	-0.18219411
40	0xbe4b9c62	-0.19883874
41	0xbd99695c	-0.07490799
42	0x3e0f7c04	0.14012152
43	0x3e9705f4	0.2949673
44	0xbe485892	-0.19565037
45	0xbcf03564	-0.029322334
46	0xbdce8cf3	-0.10085478
47	0x3e081937	0.13290869
48	0x3ed20b3f	0.41024205
49	0x3dd845f2	0.10560216
50	0xbe1feca0	-0.15617609
51	0xbd64501b	-0.055740457
52	0x3e8400a4	0.2578174
53	0x3c8f6ab0	0.017506927
54	0x3dee863c	0.11646697
55	0xbe191881	-0.14950754
56	0x3e582678	0.21108425
57	0xbe3c42ad	-0.1838481
58	0xbd31d655	-0.043417294
59	0x3dc176d3	0.09446492
60	0x3e090142	0.13379386
61	0x3c941439	0.01807605
62	0x3dedfd68	0.11620599
63	0x3e87abc9	0.2649825
64	0x3e94c0af	0.29053256
65	0xbcea1cc8	-0.028578177
66	0x3dab6a5b	0.08369895
67	0x3e306447	0.17225753
68	0x3e69a511	0.22816874
69	0xbdc36e02	-0.09542467
70	0x3e702c57	0.23454414
71	0x3d40ca2e	0.047067814
72	0xbcbd2839	-0.023090469
73	0xbcbf8c12	-0.02338222
74	0xbd8a808d	-0.067628
75	0x3e2a8a29	0.16654266
76	0x3e706932	0.23477629
77	0xbe3bff74	-0.18359166
78	0xbdcf2cc7	-0.101159625
79	0xbe8e758e	-0.27824062
80	0x3cb84985	0.022495994
81	0xbe46042b	-0.19337527
82	0xbd3ada8d	-0.045618583
83	0x3dbba44d	0.09162197
84	0x3e37b4ba	0.17940035
85	0x3df906e1	0.12159515
86	0x3e03d8f8	0.12875736
87	0x3dfe9c22	0.12432124
88	0xbe37b46d	-0.1793992
89	0x3cfa4772	0.030551646
90	0x3cbe10f2	0.02320144
91	0x3e5b7abd	0.2143354
92	0xbd4a1993	-0.049340796
93	0xbda55869	-0.080735035
94	0xbda37e13	-0.07983031
95	0xbde5b307	-0.112157874
96	0xbe454cc3	-0.19267564
97	0x3de4c25e	0.11169885
98	0x3d27b96d	0.04094832
99	0xbe0b479a	-0.13601533
100	0x3d51cc1a	0.051220037
101	0x3cef62e4	0.02922196
102	0xbc19419b	-0.0093540205
103	0x3d1d52d7	0.03840908
104	0x3d23e65c	0.04001461
105	0xbe6270e1	-0.22113372
106	0xbe24459b	-0.16042177
107	0xbbe000da	-0.006836039
108	0xbe55c836	-0.20877156
109	0xbddcfd0e	-0.10790454
110	0x3e10995e	0.14121005
111	0xbd849f31	-0.06475676
112	0xbe706241	-0.23474981
113	0xbd5ac6ef	-0.053412374
114	0xbe0980c2	-0.13428023
115	0x3e579add	0.2105517
116	0xbe54a78b	-0.20767038
117	0xbdf439e0	-0.11925101
118	0xbe857bee	-0.26071113
119	0x3d622555	0.055211384
120	0xbcba4257	-0.022736711
121	0x3e2c353b	0.16817181
122	0xbe0247be	-0.1272268
123	0xbe3c0dad	-0.18364592
124	0x3cbcb2cc	0.023034476
125	0x3e5e46ae	0.2170665
126	0xbe23512f	-0.15948938
127	0xbdaee13e	-0.08539055

mps.1.l1.node_block.m.2.bias f4 [8]
0	0xbf16a613	-0.5884716
1	0xbf1ab3f0	-0.6043081
2	0x3f523524	0.82112336
3	0x3f1e6236	0.6186861
4	0x3f2e9c8f	0.6820764
5	0x3f094fce	0.536374
6	0xbf367166	-0.7126678
7	0xbf1bca58	-0.6085563
