archive-july16/results/nif_sketch_pcg_w0.5_50epochs/model_epoch29.pt (torch, 44782 bytes, 56 tensors)

mps.0.l1.edge_block.m.0.weight f4 [16, 17]
000000 67 18 41 3e 24 42 09 3f fc 94 18 3f b9 5b a2 3f
       0.18856965 0.5361655 0.5960233 1.2684242
000010 b2 1b 2a 3f b6 cd 0b 40 dc a6 93 3f da 8c 87 3f
       0.6644851 2.1844306 1.1535296 1.058986
000020 71 e7 8c 3d 2b e1 27 3f 22 b9 9f 3f 02 0c 9a 3f
       0.068800814 0.65577954 1.2478373 1.2034914
000030 f0 96 8d 3f e7 1b f4 3f 5a 28 aa 3f 36 cb 88 3f
       1.1061687 1.9071015 1.3293564 1.0687015
000040 65 09 7b 3f 61 cb 9d 3b 10 30 b3 bd 74 8e 32 3d
       0.9806121 0.0048155044 -0.087494016 0.043592885
000050 86 f7 b0 bd cd 02 c5 bc 97 17 97 bd 71 cf f5 3d
       -0.08640961 -0.024049187 -0.07377546 0.12002457
000060 39 26 13 be 69 28 ba bd 75 31 5b bd d3 fe e3 bd
       -0.1437005 -0.09089739 -0.053513963 -0.11132588
000070 84 ad 6a 3c 32 f4 39 be dc 77 27 3e 01 20 1e be
       0.014323596 -0.1815956 0.16354316 -0.15441896
000080 df ee 0e 3e 58 ce f7 3c ac 86 93 be 28 50 0e bd
       0.1395831 0.03024976 -0.28813684 -0.03474441
000090 4e 1a 5a 3e 42 14 52 3f aa e0 63 3e f3 d0 f5 3f
       0.21299097 0.8206216 0.22253671 1.9204391
0000a0 98 b2 1d 3f 9a c2 a1 3e be 4d 84 3e 27 ca 94 3e
       0.6160064 0.31593782 0.25840563 0.2906048
0000b0 58 5d c0 3e 91 ff 25 3f 27 6b ec 3e 8e 86 ef 3f
       0.37571216 0.6484309 0.461755 1.8712938
0000c0 46 cb 28 3f db 40 af 3e 7c 25 ab 3f c8 3d 99 bd
       0.6593517 0.34229168 1.3370814 -0.07482487
0000d0 0b 34 1a be 66 9f 0d 3e 11 74 1c 3d 3a 45 81 3d
       -0.15058915 0.13830337 0.038196627 0.06312032
0000e0 98 0d 64 3d 08 2c 9c bb 5a f5 0e 3e 64 2a 05 be
       0.055677027 -0.004765991 0.13960782 -0.13004452
0000f0 13 d4 ba 3a 1c 16 08 be ac 3a 31 3d 32 dd 96 bd
       0.0014253877 -0.13289684 0.043268844 -0.073664084
000100 8c 72 5c 3d 82 67 21 bd 08 ca 17 3e 33 1a da bd
       0.053820178 -0.039405353 0.14823163 -0.10649528
000110 65 3f 08 be 23 72 21 be d4 2d ec 3d 8d b7 22 3b
       -0.13305433 -0.15766196 0.115321785 0.0024828643
000120 f2 c7 f8 3d b6 0f 23 be 9f 21 42 be 69 2b 1f be
       0.121475115 -0.15923962 -0.18958138 -0.15543903
000130 1d 9b 10 be c9 b3 cd 3c 36 02 98 3c 47 da bf 3d
       -0.14121671 0.025110142 0.018555742 0.09367805
000140 50 9c 15 be 95 a8 08 be 6e 5f b1 3d 0f 7c b1 bd
       -0.1461041 -0.13345559 0.0866078 -0.086662404
000150 5a c7 ac 3d f4 81 a5 bd a8 9b 8e be 40 2a 4e bf
       0.08436461 -0.08081427 -0.2785313 -0.8053322
000160 6d c0 6a bf 1f 03 17 bf ea d6 13 c0 d6 89 6a bf
       -0.9169987 -0.5898914 -2.3099923 -0.9161657
000170 cc ee 1b bf 1e 77 4e 3e 40 60 60 bf 8a fc 29 bf
       -0.6091125 0.20162627 -0.87646866 -0.6640097
000180 c0 06 30 bf 29 b7 4c bf f1 2d 5e c0 8b d1 85 bf
       -0.687603 -0.7996698 -3.471554 -1.0454572
000190 fe d6 6e bf 3e 1a ee bc 00 43 8d bd 54 7a 4e 3e
       -0.932968 -0.029065248 -0.06897545 0.20163852
0001a0 d6 3a a2 3f c9 dd 5b 3f ad 88 12 3f 99 73 6b 3f
       1.2674205 0.8588529 0.572398 0.91973263
0001b0 63 4c 5e 3f e8 1c 2c 3f 55 8b 91 3d df 4a 24 3f
       0.86835307 0.6723161 0.071066536 0.64176744
0001c0 c4 e2 91 3f 59 ee 54 3f b4 7f 3c 3f 18 77 36 3f
       1.1397328 0.8317619 0.7363236 0.7127547
0001d0 cf 19 87 3f f7 41 3d 3f aa 0b 4b 3f 6b 6c de bd
       1.0554751 0.7392878 0.7931467 -0.10860523
0001e0 7e c9 03 3a 04 3f 8a bd 8d f6 4d bc 7b c2 fb bd
       0.0005027278 -0.067503005 -0.012570989 -0.122929536
0001f0 9f 03 ff bd c7 bf d8 bd f1 58 7e bd a5 9e 12 be
       -0.124518625 -0.105834536 -0.06209654 -0.1431833
000200 d1 c1 1b 3e 3c 78 13 bd 89 d4 1f 3e 3d 86 67 3d
       0.15210654 -0.036003336 0.1560842 0.056524504
000210 ab 4d 1d be d3 8d 00 3e c3 72 4c bd 0d 6a 8e bd
       -0.15361659 0.12554102 -0.049914133 -0.06953821
000220 9c d6 28 be 15 4d 5c be 3d 52 93 3c 2f 52 a7 bd
       -0.16488117 -0.2151378 0.01798355 -0.08169972
000230 63 2e 04 3d e8 ba 1e be fa 78 03 3e e3 55 11 be
       0.0322708 -0.15500987 0.12839118 -0.1419292
000240 41 a7 2a bd 80 e2 77 3b 29 2d 78 3d 34 f5 d6 3d
       -0.041663412 0.0037824214 0.060589943 0.104959875
000250 36 5d 02 3e f1 b4 19 be fe 39 21 3d d3 8d b1 bd
       0.1273087 -0.1501043 0.039361946 -0.08669629
000260 9f 43 12 bd d6 34 d6 bc 35 bc fa 3e 14 ca 91 3e
       -0.03570902 -0.026148241 0.48971716 0.28474486
000270 d3 cc 88 3f c4 52 2a 3f 1c e1 0e 40 05 5e 71 3f
       1.0687507 0.6653254 2.2324896 0.9428409
000280 63 c3 71 3f 5e a8 11 3d 02 bd 1e 3f 21 d9 30 3f
       0.9443876 0.035560958 0.62007153 0.6908131
000290 a2 ee 8e 3f 25 03 46 3f 94 27 c4 3f 58 30 99 3f
       1.1166575 0.7734855 1.5324578 1.1967878
0002a0 1b fa 6d 3f 34 3c 9a 3f 46 d5 d4 bd 54 43 22 be
       0.92959756 1.2049623 -0.10392241 -0.15845996
0002b0 8c 19 ab be 57 52 2d bf c7 7e 06 bf 0b 76 12 c0
       -0.33417928 -0.67703766 -0.52537197 -2.2884548
0002c0 9a 31 50 bf aa c4 e2 be 60 ca 7e 3e 61 61 41 bf
       -0.81325686 -0.44290668 0.24881887 -0.75539213
0002d0 0f 30 c9 be 08 2d 14 bf b0 c7 0b bf a1 e4 40 c0
       -0.39294478 -0.5788121 -0.54601574 -3.0139544
0002e0 47 43 15 bf 32 4c 0d bf 01 09 d5 3d 86 7c 03 bd
       -0.5830578 -0.5519439 0.10402108 -0.032101177
0002f0 10 e6 4f bd 55 5e 8a 3c d8 a3 11 bd 0d 33 6a bd
       -0.050756514 0.016890684 -0.035556644 -0.057177592
000300 7b 8a ec 3d 44 33 1f 3e 8d fd 97 bc d3 48 27 bd
       0.115498506 0.155469 -0.01855352 -0.040840935
000310 46 ef 96 b8 db b2 5a bc f2 42 24 3d 02 77 43 3d
       -7.1971255e-05 -0.0133483065 0.040102907 0.047720917
000320 43 31 29 be 2e fe 89 bd f9 d3 1b 3e 15 d2 8c 3d
       -0.16522698 -0.06737934 0.1521758 0.068760075
000330 c4 d4 13 bc 19 ff df bd 85 4d e3 bd 77 66 26 be
       -0.009022895 -0.10937328 -0.1109877 -0.16250025
000340 5b 35 72 bd 9d ee 7a 3d 88 e4 ec 3d 4f 88 ab 3d
       -0.059132915 0.061262716 0.115670264 0.08375608
000350 34 34 24 be ec 6b df bd 5c 88 ea bc c2 b2 33 3e
       -0.16035539 -0.10909256 -0.028629474 0.1754866
000360 45 fa d6 3c 40 6e 40 bd cb b4 99 3d f8 81 8d bd
       0.026242385 -0.046980143 0.07505187 -0.06909555
000370 b8 79 f0 bd 4a 56 7b 3e c6 d7 97 3e a6 24 36 3f
       -0.11741966 0.24544635 0.2965681 0.7114967
000380 78 d5 82 3f a5 c7 60 3f 19 9b 14 40 77 22 b5 3f
       1.0221395 0.87804633 2.3219664 1.4151143
000390 f1 e4 63 3f 89 0b 6c be 8f 43 34 3f e9 eb ac 3f
       0.8902121 -0.23051275 0.70415586 1.3509494
0003a0 51 09 af 3f 8b ab 9b 3f 6b eb 04 40 cd 8a b2 3f
       1.3674718 1.2161726 2.0768688 1.3948609
0003b0 30 76 97 3f 82 6f 2a 3f e8 27 1f be 0a c1 2d be
       1.1832943 0.665764 -0.15542567 -0.1696817
0003c0 e8 16 98 3d 2e 68 b6 bd 9e 8a 15 bd c9 d0 d5 bd
       0.07426244 -0.089065894 -0.03650915 -0.10440213
0003d0 e6 66 07 bd 3a bf 02 be 86 c3 f2 bd a2 7a 76 3d
       -0.033057116 -0.1276826 -0.118536994 0.060175546
0003e0 3e d5 5c bd 2e 5c e5 3d 1a 61 6e bd f7 44 08 be
       -0.0539143 0.111992225 -0.058198072 -0.13307558
0003f0 8c 1a 03 bd a0 18 b4 bd ea 54 63 bd ba c1 81 bc
       -0.03200774 -0.08793759 -0.055500902 -0.015839446

mps.0.l1.edge_block.m.0.bias f4 [16]
000000 e1 00 ae 3f db 59 0a 3e b6 50 50 3f c1 48 3c bd
       1.3594018 0.1351084 0.81373155 -0.04596782
000010 c9 34 2b be 4c 3d 55 bf b8 11 91 3f 23 e4 38 be
       -0.16719355 -0.83296657 1.1333532 -0.18055777
000020 ab 32 5a bd c2 d0 75 3f a4 11 34 bf 34 a2 b8 bd
       -0.053270977 0.96021664 -0.7033942 -0.09015313
000030 10 de 97 bd 07 a6 a6 3f 09 88 30 be e9 35 0e 3f
       -0.07415402 1.3019418 -0.17239393 0.5555101

mps.0.l1.edge_block.m.2.weight f4 [1, 16]
000000 95 50 3b 3e e9 05 92 bc 2b 6e 0b 3f 9a a0 90 bd
       0.18292458 -0.017825084 0.5446498 -0.07061882
000010 e4 ed 07 be 47 3c 9a be f3 17 6d bc 93 43 d2 bd
       -0.13274342 -0.30124113 -0.014471042 -0.10266795
000020 bd 2e c1 bd a5 24 0e 3d d7 18 7d be e2 8d 75 bd
       -0.09432743 0.034702916 -0.24716507 -0.059949763
000030 97 e1 c4 3b 3a 0e e7 3f 5e db 83 bd c4 cb 53 bf
       0.0060083377 1.8051217 -0.06438325 -0.82732797

mps.0.l1.node_block.m.0.weight f4 [16, 9]
000000 6d df ea 3c 50 ff 31 3e 5d f7 df be 00 d8 1d bf
       0.02867099 0.1738255 -0.4374341 -0.61657715
000010 2b f5 ea bd 52 18 81 3c 93 6a ec be c0 b4 04 bf
       -0.11472543 0.015758667 -0.4617506 -0.518383
000020 46 f7 f2 bd f2 eb 84 3d 1b 6a 5d 3e 18 c8 c3 3f
       -0.1186357 0.064903155 0.21622507 1.5295439
000030 ea 53 76 3f df 29 08 3f e3 d1 95 bf b2 28 18 3f
       0.9622179 0.5318889 -1.1704677 0.59437096
000040 34 52 02 3f 92 b2 24 be 91 df 94 3c 24 55 f6 3d
       0.5090668 -0.16083744 0.018173011 0.12027958
000050 1c 5f 92 3f e9 a8 7b 3f 93 21 0a 3f 28 85 bb bd
       1.1435275 0.9830461 0.5395748 -0.09156257
000060 f0 8f 96 3f f3 2d 8c 3f f2 08 6e 3e ee 2f 42 be
       1.1762676 1.0951523 0.232456 -0.18963596
000070 15 d0 4c be 25 05 fe 3d 51 e8 3d be f0 7b fb bc
       -0.20001252 0.12403325 -0.18545653 -0.030698746
000080 75 f2 f4 3d eb 51 ec bd df b5 de bc a8 c8 b1 bc
       0.119603075 -0.11539062 -0.027186332 -0.021702126
000090 e8 9a 71 bd 00 07 17 be 1d 2b 79 be 3a 4b 66 be
       -0.05898562 -0.14748764 -0.24332853 -0.22489634
0000a0 aa ea 1f be 9f 0a 6f 3e 7d 34 03 be c0 26 35 be
       -0.15616861 0.23343895 -0.12812991 -0.17690563
0000b0 35 7d 9b 3c bd 19 31 3c 69 36 0f bf 88 22 90 bf
       0.018980602 0.010809359 -0.559424 -1.1260538
0000c0 e6 d9 28 bf e3 be 8e bf c9 ae 8f 40 fc 43 29 bf
       -0.65957487 -1.1152004 4.490086 -0.6611936
0000d0 01 fc 4b bf 35 f5 23 be c1 5c 87 3d 2a ff 9d be
       -0.796814 -0.16011508 0.06609488 -0.30858737
0000e0 0a 83 bd bf 62 e0 7b bf 2a 61 17 bf a2 87 4c 3f
       -1.4805615 -0.98389256 -0.59132636 0.7989446
0000f0 60 58 37 bf f8 c8 0a bf e7 92 37 bc a8 24 80 be
       -0.71619225 -0.54212904 -0.011204458 -0.25027966
000100 0c 53 52 be 4b 26 4c 3e b5 d9 2c 3f 8b 29 4c bd
       -0.20539492 0.19936483 0.67519695 -0.049844306
000110 9d 39 26 40 17 0d c2 3e 40 e7 45 3e 1a 30 09 3f
       2.5972664 0.37900612 0.19326496 0.5358902
000120 a0 80 7e bc 75 71 ba 3e f4 31 34 be 60 df 60 3f
       -0.015533596 0.36414686 -0.1759718 0.87840843
000130 25 11 e6 3d b0 b5 2f 40 ea a5 74 3f 3f f2 0f 3f
       0.11233739 2.7454643 0.95565665 0.56229013
000140 0d 36 25 3f 6b c0 6d 3b 58 b2 c3 3e 1a b5 ce 3f
       0.645356 0.003627802 0.38222003 1.6149018
000150 74 d0 a7 3f 9e 5b 6e 3f a6 1d 81 3c c2 57 c4 3f
       1.311049 0.93108547 0.015761208 1.5339282
000160 cf ed 97 3f 41 7a 12 3f 91 92 2e be 63 54 6b be
       1.1869448 0.57217795 -0.17048098 -0.2298141
000170 b0 38 ff 3a 9d 05 3f 3d 1a 13 10 be 99 a9 b1 bd
       0.001947185 0.046636213 -0.14069787 -0.08674926
000180 7b 7c 1d 3e df 56 de 3a 94 67 37 bc 98 9e eb b9
       0.15379517 0.0016963145 -0.011194129 -0.00044940854
000190 d0 57 39 3d 4e 85 2a 3f 09 72 85 3f d1 ac 13 3f
       0.04524976 0.66609657 1.0425426 0.5768557
0001a0 dc 83 8e 3f b6 72 94 3f 6c 98 53 3f 8f 9c 32 3f
       1.113399 1.1597507 0.8265445 0.6977014
0001b0 df 71 2c bb 75 0d 08 3f 24 34 68 3f e2 94 3c 3f
       -0.002631299 0.53145534 0.9070456 0.7366468
0001c0 97 7a 40 3f 53 84 88 be a9 0f 42 3f 5b 91 37 3f
       0.7518706 -0.26663455 0.75805146 0.7170617
0001d0 e6 95 5b be 90 8b 74 3b 90 c5 45 3f 00 5c e9 3f
       -0.214439 0.003731463 0.7725458 1.8231201
0001e0 0c 89 ad 3f 40 b6 82 3f c0 56 3a bf e5 6b 9f 3f
       1.3557448 1.0211868 -0.7278862 1.2454802
0001f0 6d 1d 95 3f 82 3f 04 3f d1 54 bd bd b6 f9 73 bd
       1.1649605 0.51659405 -0.09244693 -0.059564315
000200 5a 87 d8 bd b4 cd c0 3e ed 5c b6 3e ec 0a 4f 40
       -0.10572691 0.3765694 0.35617772 3.2350416
000210 57 d8 30 3f 2d 68 cd 3e 98 d9 a3 3e 8c 82 e8 b9
       0.6908011 0.40118542 0.32001948 -0.00044347753
000220 d2 b1 30 3f 99 8f b9 3f 29 c0 cb 3f a3 7a 9f 3f
       0.6902133 1.4496948 1.5918018 1.2459301
000230 99 7a 80 3d f7 b6 a4 3f 4b 42 ae 3f 3c 6e 09 3f
       0.06273384 1.2868336 1.3613981 0.5368383

mps.0.l1.node_block.m.0.bias f4 [16]
000000 fa a8 44 bf fa b7 3f 3f 59 95 7e 3f d3 fe 50 be
       -0.7682034 0.748901 0.99446636 -0.20409708
000010 9a bb 12 3d b0 61 3f bf d9 d1 38 bf 85 db 0a 3f
       0.035823442 -0.74758434 -0.721952 0.5424121
000020 fa 5c 7a 3f e0 83 b6 3f 56 53 2a be e5 02 9d 3f
       0.9779812 1.4258995 -0.16633353 1.2266508
000030 81 f2 7a 3f 84 09 b9 3f 79 16 04 3f 6c 26 c9 3f
       0.9802628 1.4456029 0.5159679 1.571485

mps.0.l1.node_block.m.2.weight f4 [8, 16]
000000 48 ab e2 bd 96 79 1f be e7 e0 87 bd 44 aa 38 3e
       -0.110678256 -0.15573725 -0.066346936 0.18033701
000010 66 bb 23 3e 58 e8 98 3d a7 3a d3 3d 58 0e 75 3f
       0.15989456 0.07466191 0.103139214 0.9572501
000020 ba 9d df bd a0 fb 91 be 5f be c6 3d 9c 86 d9 3d
       -0.10918756 -0.28512287 0.09704279 0.10621378
000030 67 29 c7 bd a3 0b 93 be c1 ae a2 3e 1e dc de 3c
       -0.09724694 -0.28719816 0.31773952 0.02720457
000040 42 e7 43 bd d9 d1 49 bd 72 0e c9 3d dd ba e1 bd
       -0.047827967 -0.049272392 0.09817208 -0.110219695
000050 1d 3d f9 bd ca e5 7f 3d 88 fb 23 3c 6b b1 c9 be
       -0.121698596 0.062475003 0.0100087 -0.39393172
000060 b1 f5 6c 3d 9a 78 cb bd 62 5d 86 3d 39 e1 16 be
       0.057851497 -0.09935112 0.0656078 -0.14734353
000070 10 c3 15 3d 93 4a a4 bd 6c 5e 47 be 68 9f 84 3c
       0.03656298 -0.080220364 -0.19469613 0.016189292
000080 6d 8d de 3d 26 1a c2 bd a4 3b b6 bd 9c 7a 39 bd
       0.108668186 -0.09477644 -0.08898094 -0.045282945
000090 0f b8 b8 bd 51 05 06 bd f2 c0 fa 3d dc ca 93 3f
       -0.090194814 -0.032719914 0.12243833 1.1546283
0000a0 2a 7a 03 3c 41 92 ee be 80 15 c6 bd 47 da 5c bd
       0.008024732 -0.46595958 -0.096720695 -0.053919103
0000b0 79 ad be bd b6 fd d4 be a5 d5 c6 be 53 14 5b be
       -0.09310431 -0.41599816 -0.38834873 -0.21394472
0000c0 ae b7 a9 bd bb 98 96 bc da 27 ab bc ea d6 26 3e
       -0.08286987 -0.018383374 -0.020893026 0.1629292
0000d0 72 40 35 be a0 12 48 3e 46 0d ba 3d 63 c1 09 bf
       -0.17700365 0.19538355 0.09084563 -0.5381071
0000e0 e5 04 58 3e 3e 32 aa be b6 b5 ef 3d 3d fc 51 3d
       0.21095617 -0.33241457 0.117045805 0.051265944
0000f0 c5 1c 3a bd 6a 91 88 be 65 26 a0 bd c3 11 89 be
       -0.045437593 -0.26673442 -0.07819823 -0.26771364
000100 fa 74 ff ba d5 0f a9 3c 07 16 bd bd 19 fc c3 bc
       -0.0019489818 0.020637432 -0.09232717 -0.02392392
000110 9e 08 36 3e 43 79 f3 3c 46 c5 61 bc 9b 52 14 3d
       0.17776725 0.029720908 -0.013779944 0.03621159
000120 e9 17 7d be df f5 06 bf a3 2b 1c 3e 8a 56 e1 be
       -0.24716152 -0.5271892 0.15251021 -0.44011337
000130 e5 1b 15 3d 04 1e f7 be 16 ae 84 be 08 15 ce be
       0.036403555 -0.48265088 -0.25914067 -0.4025042
000140 be d7 7d bd f1 66 c6 3c 7c 24 22 3d 5a 95 1a 3e
       -0.061973326 0.024219008 0.039585575 0.15096036
000150 b3 14 84 bd bf 94 0d be df 13 dd 3b e2 a3 ab bf
       -0.064492606 -0.13826273 0.0067467536 -1.3409388
000160 2d f1 5b 3e d8 40 40 3e 3f 97 fa bd 86 19 0a 3d
       0.2147872 0.18774736 -0.12235879 0.033715747
000170 33 3e bd bc 33 22 a6 3e d3 8b b1 be 96 d3 7c 3e
       -0.023100948 0.32447967 -0.3467699 0.24690089
000180 56 3c 2e 3e ff a3 43 3d 99 ce cb bd 2e 54 06 be
       0.17015204 0.04776382 -0.09951515 -0.1311805
000190 fc 9d ed bd 85 13 2f be 46 22 3a bd 08 8d ab bf
       -0.11602399 -0.1709729 -0.045442842 -1.3402414
0001a0 b6 4d 28 3d 4b 10 88 be 42 78 3b be 58 34 8b be
       0.041089736 -0.2657493 -0.18307593 -0.27188373
0001b0 74 59 5e 3d 60 96 b6 bd 35 7c 1e bf ec 85 8b be
       0.054284528 -0.089154005 -0.61908275 -0.27250612
0001c0 ab 9a 37 3d 19 8c 05 be 85 f9 a4 bd d0 f4 eb 3d
       0.044825237 -0.13041724 -0.080554046 0.11521304
0001d0 f2 cc 26 be b8 7a 97 bc f6 25 06 3e 22 ec e2 3e
       -0.16289118 -0.018491134 0.13100418 0.4432078
0001e0 0d 6a 28 3e 67 b6 1c be dc eb fe ba cb 72 6e 3e
       0.16446705 -0.15303956 -0.0019448954 0.23285978
0001f0 65 a3 e0 bc 1e 84 2b bd c1 05 fb 3e 9e 3d bc bd
       -0.027421663 -0.041874044 0.49027827 -0.0919144

mps.0.l1.node_block.m.2.bias f4 [8]
000000 23 9f 7d bf b4 31 8a be 27 e4 b1 bf da 9e 72 bf
       -0.9907095 -0.26991045 -1.3897752 -0.9477364
000010 95 61 99 bf fb a8 1c 3f 3c c1 1e bf 85 75 5e bf
       -1.1982905 0.61195344 -0.620136 -0.8689807

mps.0.l2.edge_block.m.0.weight f4 [16, 17]
000000 25 04 d8 3e 19 be d0 bd 00 62 b7 3d 7f 88 9b 3c
       0.42190662 -0.10192508 0.08954239 0.018985985
000010 be ca ac bd 98 a6 c6 be 3b ac 93 3c 76 6a 9c 3e
       -0.084371075 -0.38798976 0.018026462 0.30549973
000020 1b dc 9e 3e ce f7 2b 3e 04 59 7d be 3e fc cc bd
       0.31027302 0.16793749 -0.24740988 -0.10009049
000030 33 93 0e 3e cc 4f ad 3b 82 0e 42 3d db 14 a0 bd
       0.1392334 0.0052890535 0.047377117 -0.07816478
000040 4b 1c 91 be c0 5b fb bc e0 31 4d 3e 3b 3e 27 3d
       -0.28341898 -0.030683398 0.20038557 0.040830832
000050 53 d2 8e 3d 02 93 d9 bd 3b a4 13 be 79 09 83 3d
       0.0697371 -0.10623743 -0.14418118 0.06398291
000060 b9 ad d6 3c 32 0d c4 3a 9e bd c7 3d 41 b5 c8 bd
       0.026205884 0.0014957546 0.097529635 -0.098001964
000070 76 7a 04 3e 2e e0 a6 bd a2 d0 fb bd df d8 0e 3e
       0.1293734 -0.08148228 -0.12295653 0.13949917
000080 82 ae 8a 3e 38 b7 c8 bd 99 db 38 be 4b 7e 23 be
       0.27086264 -0.09800571 -0.1805252 -0.15966146
000090 88 29 30 be ec 9d a4 be 12 df 6a be 7a 68 f9 3d
       -0.17203343 -0.32151735 -0.22936657 0.121781304
0000a0 3c 21 a7 be 12 57 b2 3c 94 11 b0 3d d2 81 b6 bd
       -0.32642543 0.021770034 0.08597103 -0.0891148
0000b0 ba 2a 28 be f6 99 91 3d ff ea e6 bd d7 c6 0a bd
       -0.16422549 0.07109444 -0.11275291 -0.033881035
0000c0 7c f7 8b bd 27 64 09 3e 9e 94 31 bf 49 8f c0 3d
       -0.06834313 0.13417111 -0.69367397 0.094023295
0000d0 63 77 12 3d 4e 3c b0 3d 2e 93 81 3e d8 59 73 bd
       0.035758387 0.08605252 0.25307602 -0.059411854
0000e0 73 af 63 bd 53 04 d5 3d 14 49 18 3e b9 96 17 be
       -0.055587243 0.104012154 0.14871627 -0.1480359
0000f0 33 80 83 3d a3 df b2 bd da e8 4c 3e e6 41 38 3d
       0.064209364 -0.087340616 0.20010701 0.04498472
000100 a8 05 ce bb b0 c3 3b 3e ad 10 33 3d 84 d3 b7 3d
       -0.0062872954 0.18336368 0.043717075 0.0897589
000110 e1 1c 97 bd d5 81 34 3e c4 ee b0 bd bc 52 c8 3e
       -0.07378555 0.17627652 -0.08639291 0.3912562
000120 0a f5 1a 3e 74 dc 82 be a1 88 8b 3e 30 a1 fe bd
       0.15132537 -0.25558817 0.27252677 -0.12433088
000130 57 38 82 bc 17 97 c4 bc db 20 80 be ab 34 83 3e
       -0.015896006 -0.023997827 -0.25025067 0.2562612
000140 87 d4 5a 3d 84 5d 3a be 3b 50 18 3e ac 32 3d be
       0.053425338 -0.18199736 0.14874355 -0.18476361
000150 8f 42 fe 3d be 31 8a be 86 dd 7a bd e9 2b 92 be
       0.12415039 -0.26991075 -0.061246417 -0.28549126
000160 5f a8 25 be e3 98 01 be 8f 52 5f 3e 82 a7 be bd
       -0.1617751 -0.12655978 0.21808837 -0.09309293
000170 0a b6 76 3d b5 63 42 3d e7 73 f4 3d 27 d7 d3 3d
       0.0602322 0.04745837 0.11936169 0.103437714
000180 04 7f c2 3d 7b 8c 1f be cd 91 ff 3d f7 c1 79 3c
       0.094968826 -0.15580933 0.12478981 0.015243999
000190 d1 28 97 bd 86 14 00 bf e3 fe 1b be 1f 19 1a 3d
       -0.07380832 -0.50031316 -0.1523395 0.037621614
0001a0 5a 87 eb 3c c8 d0 b0 3d 90 37 ad 3e 79 d9 ca bd
       0.028751064 0.08633572 0.33831453 -0.09904761
0001b0 c4 a6 87 3e c2 26 b3 3d 04 5c 5e 3d 09 f4 36 3c
       0.2649442 0.08747627 0.05428697 0.011166581
0001c0 f6 34 86 bd c7 74 b0 bc f1 e1 dc 3d 84 9c e6 3d
       -0.0655307 -0.021540059 0.107852824 0.11260322
0001d0 aa 3a 26 be 72 c8 a0 bd 98 a0 48 3f ee 72 c5 3d
       -0.16233316 -0.07850732 0.78370047 0.09641062
0001e0 4b a9 87 3e 21 ce 88 3d 06 0e 83 3e c2 e4 41 bc
       0.26496348 0.06679941 0.25596637 -0.011834325
0001f0 a0 9a a3 bd e4 20 44 3e 3f 01 53 be 23 82 27 bd
       -0.07988477 0.19153172 -0.20605944 -0.040895592
000200 92 3e a6 3d 98 5e d8 3d 58 12 60 bd ac ee f2 bd
       0.08117403 0.10564917 -0.054704994 -0.11861929
000210 41 97 31 bd d5 90 6c 3e c3 b4 a0 3d 09 b2 29 be
       -0.043357138 0.23102124 0.078469776 -0.16571821
000220 b0 60 29 bd b3 b0 2d 3e 58 7d 1a 3e ea a7 0f 3e
       -0.041351974 0.16961937 0.15086877 0.14028898
000230 72 f8 85 3d b4 7c b1 bc aa 98 62 3e f3 8c f2 bd
       0.06541528 -0.021665908 0.22128549 -0.1184329
000240 da 49 40 3c 02 19 54 3e aa 91 0d be 46 44 90 bd
       0.011736358 0.20712665 -0.13825098 -0.07044272
000250 0f b5 2a 3e 33 8c d3 bc 98 5c dd 3d ef aa b2 bd
       0.16670631 -0.025823688 0.108086765 -0.08724009
000260 96 ea 53 bd 93 e3 f0 3d ef 00 ce 3d 6e a0 11 bc
       -0.05173739 0.11762156 0.10058772 -0.008888347
000270 b0 84 46 3e 70 f8 1b be aa 0f 75 3d b2 ed 7a 3d
       0.19386554 -0.1523149 0.05982939 0.06126184
000280 bf 9e d3 3d 1b f4 fa 3e cd 78 44 3d a8 ab 8a bd
       0.10333013 0.49014363 0.047966767 -0.06771022
000290 a4 cb 1a 3e 79 77 e9 3c c5 4e 27 bf 18 32 4a bd
       0.15116745 0.028499352 -0.6535457 -0.04936418
0002a0 94 3d d7 3e e6 4a ee bd 81 24 b6 3b 65 dd 2a be
       0.42039168 -0.116353795 0.005558551 -0.16686018
0002b0 8f c4 00 be e1 44 90 be b9 aa b7 be f1 0a 04 be
       -0.12574981 -0.2817755 -0.3587244 -0.12894799
0002c0 45 34 71 be 42 0f 3d be 9d e2 7b be 5f d2 ba 3d
       -0.23555095 -0.18462852 -0.24598165 0.09122156
0002d0 ff a4 24 3d 08 5b 9d 3d 1c c4 10 3e 1a 97 9a 3d
       0.040196415 0.076833785 0.1413731 0.075483516
0002e0 f5 19 cc bd 6c 4a b2 3d 90 62 e6 be f9 94 da bd
       -0.099658884 0.08705601 -0.44997072 -0.106729455
0002f0 9e ac f7 3d c1 4e 4e 3c 2e 79 a8 3d 31 56 86 3e
       0.12093471 0.012592019 0.08226238 0.26237634
000300 9c fb 06 be 34 f4 3e 3e ef 1a 2f be df 3b 57 be
       -0.13181919 0.18647844 -0.17100118 -0.21018933
000310 91 08 3e be ad 87 a9 bd 8b 25 80 bc 21 6a 94 bd
       -0.18557955 -0.08277831 -0.015642902 -0.07246805
000320 bb 44 38 3e 38 11 88 be b9 c4 07 3d 0c 26 2e 3f
       0.17994969 -0.26575637 0.033146594 0.68026805
000330 3a 08 d6 bd 89 5a 58 3d 9f 4e df 3d e5 b2 6f 3e
       -0.10450788 0.052820716 0.10903668 0.23408087
000340 6c f5 27 bd 56 f2 20 be 42 e2 84 3d 11 4c e0 3d
       -0.041005537 -0.15717444 0.06488468 0.109520085
000350 51 c9 df 3d 93 ab 00 3e 67 9b b9 bc 5d 4b 39 3e
       0.1092707 0.1256545 -0.02265711 0.18095155
000360 c0 63 52 3e 23 6f ec bd 78 d5 23 3e d0 5b 1a 3e
       0.20545864 -0.11544635 0.159994 0.15074086
000370 d3 65 08 3e ac 19 52 bd a1 fb 0e bd b0 90 f8 3a
       0.13320093 -0.051294014 -0.03490794 0.0018964019
000380 62 49 5e 3e f5 fb bd 3e f7 7f 1e be 88 8f 97 3e
       0.21707681 0.3710629 -0.15478502 0.29601693
000390 4b 04 09 3e 6b d9 43 3e 36 c1 ca bc 1a 91 d1 bd
       0.13380544 0.19125907 -0.024750333 -0.10232754
0003a0 bb 58 b3 bd fc ed ec bb 02 80 a1 3c 2e 4e f2 bd
       -0.08757158 -0.0072305184 0.01971436 -0.11831318
0003b0 6a 49 f8 3d c0 fb 64 3e 29 42 36 bd 39 80 35 3e
       0.121233776 0.2236166 -0.04449669 0.17724694
0003c0 15 ea 8c be 5c eb 71 3d e5 4b 3f be 23 83 17 be
       -0.2752234 0.059062347 -0.18681295 -0.14796118
0003d0 e1 8d 0f 3d bf bb df bc d4 d2 57 bc 65 b2 2b 3e
       0.035047416 -0.027311204 -0.013172824 0.16767271
0003e0 52 4d 8a 3d f3 f0 29 3e a4 bc e0 bd ab 4a 5b be
       0.06753029 0.16595821 -0.1097348 -0.21415202
0003f0 29 e7 14 3e ec 22 32 be 03 bb 33 3d ac 18 e4 3d
       0.14541306 -0.17396134 0.04387952 0.11137518

mps.0.l2.edge_block.m.0.bias f4 [16]
000000 41 2c 04 bb 24 0a 79 bd 2d 1a 18 bf 52 5a 03 3e
       -0.002016798 -0.060800686 -0.5941494 0.12827423
000010 18 bd 98 3d c2 df d7 3e 45 18 2a 3e e6 fc ad be
       0.07457942 0.421629 0.1661082 -0.3398201
000020 d9 b6 12 be 7d 49 28 bc 89 b1 fd bb 58 a9 2e 3f
       -0.14327563 -0.010271427 -0.007742111 0.6822715
000030 05 87 d5 3d af 33 2f 3f a4 38 8c bd 29 40 28 be
       0.104261436 0.6843824 -0.06846741 -0.16430725

mps.0.l2.edge_block.m.2.weight f4 [1, 16]
000000 57 c4 a9 3d c3 e2 a1 3a 85 bc 89 be 62 04 93 bc
       0.08289402 0.0012350905 -0.2690164 -0.017946426
000010 db ac a0 3e 8a b6 9d be d4 7f 2d 3f b7 3b 7e 3c
       0.31381878 -0.3080333 0.67773175 0.015517167
000020 5c ae 07 bd 06 1a ae bc c7 f3 d1 be 6a ae 06 3f
       -0.033125266 -0.021252643 -0.410063 0.52609885
000030 30 5c d5 bc c3 ac 54 3e 09 df 67 3d 82 29 33 3c
       -0.026044935 0.20769028 0.056609187 0.010935189

mps.0.l2.node_block.m.0.weight f4 [16, 9]
000000 9b 42 59 be a4 33 ce 3c ff ca 50 bd c9 b7 77 bd
       -0.21216814 0.025171109 -0.050974842 -0.060478006
000010 85 18 5d be 2b 1f 27 3e 09 70 b0 3d 48 8d 28 3d
       -0.21591385 0.16320483 0.08615119 0.04115036
000020 8c eb ea 3e 8e 90 d7 bc 50 69 9c 3d bd 72 7f 3d
       0.45882833 -0.026314046 0.07637274 0.062365282
000030 28 28 3b 3d fe dd ef bb 34 01 a3 be 79 eb c6 3d
       0.045692593 -0.0073201647 -0.31836855 0.097128816
000040 2a f6 f3 bd 23 26 c9 bc 6e 9d ab 3e 92 17 0f 3c
       -0.119121864 -0.024554318 0.33518547 0.008733647
000050 16 62 16 be 28 8e 25 3e 8d 3b 15 bd 65 01 d6 bd
       -0.14685854 0.1616751 -0.036433745 -0.10449485
000060 76 08 8c 3e 76 17 01 be 3b 6d 6c bd 33 35 c3 3d
       0.27350205 -0.12606606 -0.057721358 0.09531631
000070 b9 b9 8f 3d e9 b2 a2 bc 18 66 e2 bc 60 56 df 3d
       0.07017846 -0.019860702 -0.027636573 0.109051466
000080 46 a3 a4 bd 44 ed de 3c a9 fa 58 bd f3 eb 9a be
       -0.080389544 0.027212746 -0.052973423 -0.3025814
000090 a2 b7 ce bd 99 bc 0f be d7 04 29 be 4a 90 07 ba
       -0.10093619 -0.14036788 -0.16505753 -0.0005171342
0000a0 fe fc 0f be 92 07 69 be 0d 50 61 be 98 11 9a bb
       -0.14061353 -0.22756794 -0.22003193 -0.0047018044
0000b0 48 61 31 be 25 93 c1 bd 09 fd 92 3e 93 4d 44 3e
       -0.17322266 -0.09451894 0.28708676 0.19170217
0000c0 26 e2 a0 3e ed e3 16 be 42 b4 2b be bc 16 ea 3d
       0.31422538 -0.14735384 -0.16767982 0.114301175
0000d0 ed c1 f7 3d f6 f2 18 bb 79 91 20 be 11 45 d1 bc
       0.12097535 -0.0023338175 -0.15680493 -0.025545629
0000e0 1f cb 23 be f4 71 0b bd 40 ee a5 bd 9e 80 16 3e
       -0.15995453 -0.03404422 -0.08102083 0.14697501
0000f0 5a 3b c8 bd e7 01 74 bd 63 32 81 3e a6 ed 36 bd
       -0.097769454 -0.059572127 0.25233755 -0.044660233
000100 01 13 09 3e 33 e3 a4 3d 2d f2 91 bd 2c ce 07 be
       0.13386156 0.08051147 -0.071262695 -0.13262242
000110 1a e0 b3 3d be 0a 3b 3d 57 40 19 bb 7c d7 36 be
       0.08782978 0.04566454 -0.0023384297 -0.17855638
000120 b0 39 92 3e 36 f8 a7 3e a6 8a 14 3d cf 53 81 bd
       0.28559637 0.32806557 0.036265038 -0.06314813
000130 e5 cd 25 3e eb 95 2e 3e f8 54 ee bd a0 18 c7 bd
       0.16191824 0.17049377 -0.116373 -0.09721494
000140 72 a9 06 be c7 10 3a 3e 11 54 69 3e f2 e4 04 3d
       -0.13150576 0.18170463 0.22785975 0.0324449
000150 b1 0c d6 3c 33 a7 4b 3e c6 c8 fe bd 24 05 cf bd
       0.026129099 0.19888 -0.12440638 -0.10108402
000160 51 72 2c 3e ea 74 8b bd d8 83 57 3d ae e9 de 3d
       0.16840483 -0.06809409 0.05261597 0.108844146
000170 3f 5b 2d be 22 bf 48 be 84 95 07 3d bb 39 34 be
       -0.16929339 -0.19604161 0.033101574 -0.17600147
000180 c5 b1 4c be 7b e5 d8 3d f4 52 13 3e 84 ab 19 be
       -0.19989689 0.10590645 0.14387113 -0.15006834
000190 5c 85 90 bd 07 67 8e bd 32 71 03 be 88 23 0a be
       -0.07056686 -0.06953245 -0.1283615 -0.13490117
0001a0 37 a8 d8 3c f0 d8 eb bd 56 4b 34 bd 0c 2b b7 be
       0.026447399 -0.11515987 -0.04401716 -0.3577503
0001b0 45 fb eb 3d 83 40 60 3e 72 03 72 bd ab f4 46 3e
       0.11522535 0.2189961 -0.059085317 0.19429271
0001c0 d5 60 59 3e 7e f0 13 3d d9 73 0f bd 04 15 1d bc
       0.21228345 0.036118023 -0.03502259 -0.00958753
0001d0 7c 61 ae be 68 1f 82 3d 68 2e 9c 3e a4 44 5c bd
       -0.3405875 0.063536465 0.30504155 -0.0537764
0001e0 94 b1 17 3e 54 3c 95 3d c3 2d 29 be ba eb 2c bd
       0.14813834 0.07286897 -0.16521363 -0.042216994
0001f0 f8 98 8e 3d 48 2a 50 bd 18 07 ad 3d 7b ca 26 bd
       0.0696277 -0.050821573 0.08448619 -0.040720444
000200 fd 17 f8 bd 4a 09 33 3e 37 72 8c bd 49 12 93 be
       -0.121139504 0.17484012 -0.06857722 -0.28724888
000210 bc ae a1 3d db d2 0b be 76 6c 18 bc d6 aa 89 3e
       0.07894656 -0.13654654 -0.009303203 0.2688815
000220 a8 b5 90 3d d3 f1 8a 3d 7b 6d a3 bc 02 42 79 bc
       0.07065898 0.067844056 -0.019949665 -0.015213491
000230 a9 46 97 bd 4f 7a 19 3e 5d ea e9 3c 76 cd a5 bd
       -0.07386524 0.14988063 0.028554136 -0.08095829

mps.0.l2.node_block.m.0.bias f4 [16]
000000 45 9a 2f 3f 11 19 29 be b0 86 79 be 23 4b 5f be
       0.6859477 -0.16513468 -0.24367785 -0.21806006
000010 4f 00 37 3f 3f 59 33 bd 14 7f 4a 3f 7f 15 ad 3e
       0.71484846 -0.043786284 0.79100156 0.33805463
000020 f2 7f 1a 3c 11 0f c2 be a6 09 5d be 9d 1e 79 3f
       0.009429919 -0.3790212 -0.21585712 0.9731234
000030 e8 03 aa bc 4c 15 75 3d 89 3a 8a be 7e 96 27 be
       -0.020753816 0.059834763 -0.26997784 -0.16366002

mps.0.l2.node_block.m.2.weight f4 [8, 16]
000000 31 14 39 be 2a 9d 96 3d 4e 30 8f 3d 4d b2 a9 3e
       -0.18074109 0.073541954 0.06991635 0.33143845
000010 52 b7 91 3e 9c d2 2c 3e 03 34 fa bc 35 1f fb 3d
       0.28460175 0.16877216 -0.03054238 0.12261812
000020 72 37 75 bd fa 62 bc 3d 75 26 9f bd ea 76 b0 3d
       -0.05986733 0.09198566 -0.07771007 0.08616431
000030 78 84 25 3e f3 c1 1a bd bc 64 bb bd 3a 3d cf bc
       0.16163814 -0.03778262 -0.09150073 -0.02529775
000040 ae b4 34 be 5c 44 49 be d9 eb 1e 3d 28 83 8c 3e
       -0.17647049 -0.19654983 0.03879914 0.27443814
000050 de ff df 3d f9 f0 8a 3d 68 00 73 be be 8c f0 bd
       0.10937475 0.06784243 -0.23730624 -0.117455944
000060 84 86 ca 3d 7f 46 fc 3d 10 2a 3d be aa be 8b 3d
       0.09888938 0.123181336 -0.18473077 0.06823476
000070 48 c1 fc 3d 68 e7 a5 3c ea af fd bd 6c aa 1d 3e
       0.12341553 0.020251945 -0.123870686 0.15397042
000080 ed 0c cd 3c e4 dc 66 3d 5f c1 44 bd d7 ae a3 bd
       0.025030578 0.056363 -0.048035976 -0.079923324
000090 93 9e 72 be 27 7f 3a 3e 5d 13 71 3c 9c 8b 98 3d
       -0.23693304 0.18212567 0.014714089 0.074485034
0000a0 48 79 3c 3d d6 af d5 3d 8b 0a 54 be f1 9a 13 3e
       0.0460141 0.10433929 -0.20707147 0.14414574
0000b0 16 aa dc bd 54 2d 04 be 69 7a 78 bd 84 75 02 3e
       -0.10774629 -0.12907916 -0.060663614 0.12740141
0000c0 a5 91 de 3d 02 f3 29 3e fd b5 d4 3c 57 a9 05 3d
       0.10867623 0.16596606 0.025965685 0.0326322
0000d0 d4 48 dd 3d 53 33 ef bc e4 3a cc bd 41 a6 23 be
       0.108049065 -0.029199278 -0.0997217 -0.1598139
0000e0 8f c0 a5 3d a4 f0 f3 bd 23 38 39 3e 65 ee 87 be
       0.08093368 -0.11911133 0.1808782 -0.26549068
0000f0 85 57 f8 bd 52 33 24 3e 50 be 35 3e 67 ac 1e 3d
       -0.12126068 0.16035202 0.1774838 0.038738634
000100 8f 55 3a be 6b 46 f8 3d 38 19 d8 bd 8e 6a cc bd
       -0.181967 0.12122806 -0.10551685 -0.09981261
000110 6b 51 83 3e d1 ff 82 bd 1b f3 06 be 8e c7 2b 3e
       0.25648054 -0.06396449 -0.13178675 0.16775343
000120 ce f8 b9 bd c8 4c dc bc c4 03 14 3e f4 f6 ce bd
       -0.09080659 -0.02689208 0.14454561 -0.10105696
000130 09 ba 11 3e 4b 72 d0 bd ad af 33 3d ac 4a 40 bd
       0.14231123 -0.1017805 0.04386871 -0.046946213
000140 2e 8e b5 3c b7 f4 49 be d0 7a aa 3d 0b f5 10 3d
       0.022162523 -0.19722258 0.08324206 0.03538994
000150 18 59 18 3e b8 5b 07 3e c1 09 be 3d c7 7e db 3c
       0.14877737 0.13218582 0.09279204 0.02679385
000160 4e 57 31 bd bd 7e c2 3d a7 ee f7 3d fe fc 11 3e
       -0.04329615 0.0949683 0.12106066 0.14256665
000170 16 67 36 bd cb 77 1c 3e 35 64 14 3d 4c 60 d0 3d
       -0.044531904 0.15280072 0.036228377 0.10174617
000180 0b ae 3d 3d 32 b9 26 3e 2c 44 9e bd da 60 2f 3e
       0.04630856 0.16281584 -0.077278465 0.1712679
000190 eb aa 92 be c6 db a1 3c 0d f0 f4 bd 24 95 43 bd
       -0.28646025 0.019758116 -0.119598486 -0.047749653
0001a0 98 2d c0 3c 7a 51 3e bd a4 93 a1 bb 4c 8c 9c 3b
       0.02345924 -0.04646442 -0.00493093 0.004777467
0001b0 8f 68 63 bd 0f 73 6b 3d 52 bf f8 3d 2f 78 f1 bc
       -0.055519637 0.057482775 0.121458665 -0.029476253
0001c0 d8 96 2a 3d a7 46 20 3b 84 dd 77 bc b6 96 e7 3d
       0.041647762 0.0024456175 -0.015128497 0.11308043
0001d0 2b f2 90 be 22 9d b5 bd 00 53 8b bc 70 44 8f bd
       -0.2830976 -0.08867861 -0.01700735 -0.06995475
0001e0 a7 eb 1c bc 20 28 fb 3b 22 81 0d bd 7d cb 5a 3e
       -0.009577668 0.0076646954 -0.03454698 0.21366687
0001f0 ff 08 a5 bc 4b e7 13 3e cc 8f 51 3d 85 fe e0 bd
       -0.020145891 0.144437 0.051162526 -0.10986046

mps.0.l2.node_block.m.2.bias f4 [8]
000000 59 c2 c2 3e 89 71 15 bf d0 36 f0 3d e6 11 b9 be
       0.380389 -0.58376366 0.11729205 -0.36146468
000010 46 77 13 bf 12 b6 72 be c9 99 97 3b ef cc dd 3e
       -0.5760387 -0.23702267 0.004626487 0.43320414

mps.1.l1.edge_block.m.0.weight f4 [16, 18]
000000 8d b7 fa bd d4 c0 c7 3e 88 a2 f2 bd 8c 07 b9 3d
       -0.12242041 0.39014304 -0.118474066 0.090346426
000010 70 cf 0a 3e d4 17 49 bd bc b9 42 3e c8 bf 5a bd
       0.13555694 -0.04909499 0.19016165 -0.053405553
000020 8e 14 f7 3d d4 70 a9 3d 0a b4 4c bc 55 67 aa 3e
       0.12064467 0.082734734 -0.0124940965 0.3328196
000030 86 42 c0 3c 02 c6 08 3e 38 56 1d 3e e2 8b 84 be
       0.02346922 0.13356784 0.15364921 -0.25887972
000040 92 80 0f be 80 03 a1 be 3f 21 70 be 4e 3b 36 3e
       -0.1401389 -0.31447983 -0.23450182 0.1779606
000050 fa 65 b9 3b 5c 33 67 bd b0 3c 5d 3e fc 15 2f bd
       0.0056579085 -0.056445464 0.21605182 -0.042745575
000060 90 4b 54 3d d0 c0 04 3d 20 0d a9 bd bb 5e a8 bc
       0.051829875 0.032410443 -0.082544565 -0.020552984
000070 4f 5f 96 3d a9 22 89 3d d3 dd 14 3e be 4c a1 3d
       0.073423974 0.06696064 0.14537744 0.078759655
000080 4d c7 cc 3d 60 cc 4d be f5 01 c5 3c 31 50 8f 3f
       0.09998951 -0.20097494 0.024048785 1.1196347
000090 24 4a 0f be 1c 5c 3f 3e dc b1 ba bd 46 a6 ed 3c
       -0.13993126 0.1868748 -0.09115955 0.02900995
0000a0 77 58 df 3d 94 52 90 bd 8e 9f 12 3e 4a 53 71 bd
       0.10905545 -0.070470005 0.14318678 -0.05891732
0000b0 8f db 67 be 35 c3 e3 3c 88 4f 8f 3c 86 2b 46 bd
       -0.22642349 0.027803043 0.017493978 -0.04838135
0000c0 01 0a 85 3d d3 32 0d be 6b 1b 17 bc 56 0e 94 bd
       0.06496049 -0.13788919 -0.009222846 -0.07229297
0000d0 73 d8 bd bc bd df 9f 3f 0a 51 c2 bd a3 63 40 be
       -0.0231745 1.2490155 -0.09488113 -0.18788008
0000e0 c7 21 8b 3e b8 93 88 be c8 04 58 bd e4 15 d3 3d
       0.27174208 -0.266752 -0.052738935 0.1030691
0000f0 a4 86 65 bd 8a a1 1e bc d7 f1 a4 3e a4 2f 30 3c
       -0.056036606 -0.009682069 0.3221576 0.010753546
000100 82 77 5f be 68 58 b7 3d 8f 18 00 3e 5b fe 39 bd
       -0.21822932 0.08952409 0.12509368 -0.045408588
000110 36 9b 15 be b6 75 ba 3b 8c 13 05 3e 0d 3f 70 bf
       -0.1460999 0.005690302 0.12995738 -0.9384621
000120 a5 da 2f bd 65 4f b0 3e fe 43 6a 3e 4e 3a 42 3e
       -0.042933125 0.34435573 0.228775 0.18967554
000130 aa f5 7f 3e 1f f7 e7 3d 0b 93 f5 bd bf 05 2c bd
       0.24996057 0.113264315 -0.11990937 -0.041997667
000140 b1 47 82 bd ad 81 d9 bd c8 a9 96 3d 58 86 82 3d
       -0.0636133 -0.10620437 0.07356602 0.0637328
000150 87 0b bc 3d ab 0e 88 be aa 8e 8f 3e 68 0d 69 3e
       0.09181886 -0.2657369 0.28038532 0.2275902
000160 4c 09 af 3e 29 3a 05 3f d2 e3 b3 3d bd f0 ae 3d
       0.3418678 0.5204187 0.08783688 0.08542011
000170 84 5f d1 3d 1b 25 09 3e 94 31 a0 bd 8c 07 61 bd
       0.10223296 0.13393061 -0.07821956 -0.054938838
000180 0c 2e ac bc f5 74 07 bc 05 42 4d be bc d8 45 3e
       -0.02101805 -0.008267631 -0.20044716 0.19320959
000190 5d 91 8f bc 76 bc a0 3d e7 6c 89 3c ad 29 d6 3d
       -0.01752537 0.07848446 0.016775561 0.10457168
0001a0 f4 ae fa 3d e3 4a 83 be 2d 30 d9 3b a2 3b 83 3f
       0.12240401 -0.25643072 0.0066280575 1.0252573
0001b0 08 ce 83 3d e3 b0 17 3d 7d 35 3d 3c 0f 5f ea bd
       0.06435782 0.037033927 0.011548397 -0.11443912
0001c0 7f eb 4b 3e cf 25 10 be 5e 56 ae bd 73 93 f8 3c
       0.19914053 -0.14076923 -0.08512567 0.030343747
0001d0 69 db 95 be 72 6b c1 3d 5d aa f0 bd 00 4c 8a 3d
       -0.2926896 0.09444322 -0.11751244 0.06752777
0001e0 fa 6a 5e bd 58 26 6a be 4e 77 fa bb 34 f0 09 be
       -0.05430124 -0.2286619 -0.0076436168 -0.13470536
0001f0 d2 17 94 bd 88 ff 7c 3f 50 5f a6 be e5 6b 70 3e
       -0.07231106 0.9882741 -0.32494593 0.23478658
000200 93 30 45 be fb 9f 01 3e 92 45 53 3e 22 e7 c4 3d
       -0.19256811 0.12658684 0.20632008 0.096143976
000210 55 70 d2 bd 81 d4 82 bc 1c 03 e4 bc 23 42 71 3d
       -0.10275332 -0.01597047 -0.027833514 0.058900964
000220 46 4c 1c 3e 07 35 77 bd 94 d8 ef 3b 8a 57 a0 bd
       0.15263471 -0.060353305 0.0073195193 -0.07829197
000230 95 29 4a bc 5f 74 ec bc 53 2b 01 3c af fb 62 bf
       -0.0123390155 -0.028864084 0.007883864 -0.8866529
000240 e1 31 b4 bd da 40 9f bd 36 a4 5f be 67 be a1 3d
       -0.08798576 -0.07776041 -0.21839985 0.078976445
000250 2e 04 b7 bb f3 a9 72 be a5 70 14 3e dc 3a 47 3d
       -0.005585215 -0.23697643 0.14496095 0.048640117
000260 24 d4 62 3d 56 0d 88 be d5 aa 23 be ca ef 14 3e
       0.055378094 -0.26572675 -0.15983136 0.14544597
000270 4a 93 18 be a0 c4 68 be f3 c6 08 bd 2a 61 08 3e
       -0.14899936 -0.22731256 -0.033392858 0.13318315
000280 ae d6 f0 be af ea d1 be b5 5e bb 3d 8d 96 dc ba
       -0.47038788 -0.40999362 0.09148923 -0.0016829536
000290 80 89 46 be 9d 6b d5 bc ce 44 95 3e d6 be 19 3e
       -0.1938839 -0.02605229 0.29154056 0.15014204
0002a0 9b ca aa bb 48 71 fb 3d 39 a0 86 be 25 f4 57 bd
       -0.0052121407 0.12277466 -0.26294115 -0.05272307
0002b0 4b c5 17 3e 73 93 28 3e 42 14 a2 3d 87 7c 40 be
       0.14821355 0.16462497 0.0791402 -0.18797503
0002c0 52 c8 a0 3e 2c b4 25 3e 09 00 0d be 2e d6 d8 be
       0.31402832 0.16182011 -0.13769545 -0.42350906
0002d0 1e 29 3c 3e 1d 83 13 be 80 ff 16 3d f7 26 e6 3c
       0.1837506 -0.14405484 0.036864758 0.028094752
0002e0 70 41 09 be 2e a0 2c 3e 8e cd 13 be 61 d9 da bd
       -0.13403869 0.16857979 -0.14433882 -0.10685993
0002f0 fa 70 7c be b8 bf a4 bd 6c ef 1e bd e6 b9 f9 3c
       -0.24652472 -0.0804438 -0.03880255 0.030484151
000300 f5 34 f6 bd 25 f6 74 bc 05 0b 46 3d 62 d6 b1 bc
       -0.120218195 -0.014951264 0.048350353 -0.021708671
000310 04 c7 11 bf e4 85 ab 3f 67 90 31 bc 4c 2a 40 be
       -0.569443 1.3400235 -0.010837651 -0.18766135
000320 14 e2 47 be 19 da 69 bc f6 c4 5f 3d f3 c9 60 3d
       -0.19519836 -0.01427319 0.054631196 0.054880094
000330 4c dd 24 be 09 20 c2 bd b0 f0 3c be e4 5d f1 3d
       -0.16100043 -0.094787665 -0.1845119 0.11785486
000340 2c bf 1b 3e 4c 0e fb 3c 17 47 0a 3d 95 30 0f be
       0.15209645 0.030646466 0.033759203 -0.13983376
000350 ff 4a da 3b dc 89 8f bc c6 5a ae be 32 89 63 3f
       0.0066617723 -0.017521791 -0.3405363 0.8888122
000360 a8 47 d2 bd de 04 43 3e 1f 98 d5 bc ae 4b 64 3e
       -0.102675736 0.19044825 -0.026073514 0.22294495
000370 e3 f2 87 3d 3e 8d 32 be 8d 58 a0 3d 50 d8 95 be
       0.06638124 -0.17436692 0.0782939 -0.29266596
000380 6c ad df bd c2 c5 a1 3d d7 81 9e bd 27 2b 31 bd
       -0.109217495 0.078990474 -0.07739609 -0.043254044
000390 dd a9 36 3e e7 b0 8c 3d 11 5f 8c 3d d2 45 16 3d
       0.17838235 0.06869679 0.0685407 0.03668768
0003a0 0d 2e fa bc 14 37 66 3f b4 f1 92 3e 05 7e 23 3e
       -0.030539537 0.8992779 0.2870003 0.15966041
0003b0 90 8d 8a be bd e7 4f 3e 26 bb 5f bd 0c ec 93 bd
       -0.2706113 0.20303245 -0.054621838 -0.07222757
0003c0 b6 c2 a7 3c 49 c6 85 be ec ce 9c bd c3 f4 6a bc
       0.020478588 -0.26127842 -0.07656655 -0.014340582
0003d0 4e 7f 8c 3d 5f 17 4e 3e 7b 16 30 be e7 1f 46 be
       0.06860219 0.20126103 -0.17196076 -0.19348107
0003e0 a4 71 02 3e 3e 60 ff bd 31 51 65 be 4b 67 15 3f
       0.12738663 -0.124695286 -0.22394253 0.5836074
0003f0 ef 73 ca bd a3 6b 90 bc d6 60 ca 3c 9e 6d c5 3d
       -0.09885394 -0.01762945 0.024704378 0.096400484

mps.1.l1.edge_block.m.0.bias f4 [16]
000000 8c d4 2e 3e c9 b2 31 3e 3e b1 24 3e 1a 42 b1 bc
       0.17073268 0.17353357 0.16083238 -0.021637965
000010 24 71 de bd b3 a5 1a 3e a3 39 bc bd 1e 20 69 3e
       -0.108614236 0.15102272 -0.09190681 0.22766158
000020 fb 54 fa 3d 0c ae cc 3e e8 7a 1d 3f 66 6f 07 3e
       0.1222324 0.39976537 0.61515665 0.13226089
000030 ea 81 93 3d 3b d6 2b bd 46 d9 ac 3e df e2 38 3d
       0.072025135 -0.041952353 0.33759516 0.045138236

mps.1.l1.edge_block.m.2.weight f4 [1, 16]
000000 03 52 cc 3c 63 8b 8a 3e 96 0e fd 3e 1c a8 97 bd
       0.02494145 0.2705947 0.4942519 -0.07405111
000010 47 04 83 bc 46 08 ee 3e cf 8e 30 3f e0 f1 3a 3e
       -0.01599325 0.46490687 0.6896791 0.1825633
000020 d4 b9 9f be e3 70 8e 3e b1 47 43 3f da 3d 7c 3e
       -0.31196463 0.278205 0.7628127 0.2463297
000030 0c 4f 1f 3e 5c 03 7e be 83 d7 9c 3e ab 22 30 3f
       0.15557498 -0.24805969 0.30633172 0.688029

mps.1.l1.node_block.m.0.weight f4 [16, 9]
000000 77 64 1f 3e 89 05 d9 bb 82 03 1b 3c b0 4c 95 bc
       0.15565668 -0.0066229743 0.009461286 -0.018225044
000010 25 83 a6 3c 1c fc 0e 3d d6 60 ce bc 3a b3 c3 3d
       0.020326206 0.0349084 -0.02519266 0.09555669
000020 c9 94 09 3f 0c 4e 68 be 63 40 52 3d 83 96 a8 bd
       0.53742653 -0.22686023 0.051330935 -0.08231833
000030 e4 36 6f bd 94 21 76 3d c2 46 ee bd 4d 0d c4 bd
       -0.058401957 0.060090616 -0.1163459 -0.095728494
000040 f1 c3 f1 bd d2 0e 17 be 3f 5d 42 3d 15 9e 8b bd
       -0.11804951 -0.14751747 0.047452208 -0.06817261
000050 ae 2a c6 3e b7 f1 13 be e3 92 a0 be 5b a8 fc 3b
       0.38704437 -0.14447676 -0.31362066 0.007710499
000060 71 7b 2f 3e a0 7d 0f 3e 74 25 6c be 05 eb 27 be
       0.17136933 0.14012766 -0.23061162 -0.16398247
000070 0b ae 6c 3a f2 b5 f5 3d 79 b5 25 3d 6b 61 06 3e
       0.000902862 0.11997594 0.04045627 0.131231
000080 d8 7d 89 bc 0c f7 8c bc a7 f8 f5 bd 17 60 50 be
       -0.01678364 -0.017207645 -0.12010317 -0.20349155
000090 c9 c7 9f be 11 93 15 3e 10 6b 2c 3e ba 21 6a 3e
       -0.3120711 0.14606883 0.16837716 0.22864428
0000a0 5c ff fb bc 8c a0 bd 3c d4 d2 af bb b1 6d 8e 3d
       -0.030761413 0.023147844 -0.005365709 0.06954516
0000b0 83 17 66 3e 23 40 2f 3d d1 2a 5d 3d ff ee 88 bc
       0.22469907 0.042785775 0.05399591 -0.016715525
0000c0 29 6d 70 3d 82 65 92 bc ab 31 29 be f4 3a 02 3c
       0.058697853 -0.017870668 -0.16522853 0.007948626
0000d0 f5 04 93 bd 44 ef 3e be 82 e0 6a 3d 2b 10 6e 3d
       -0.0717868 -0.1864596 0.057343014 0.058120888
0000e0 f5 e5 af be de 9d 6e 3e 94 92 87 3e 1a c1 5f be
       -0.3435513 0.23302409 0.26479018 -0.21851006
0000f0 0e 9c 50 3d ce 3f 86 be 82 1b 14 3f be f4 04 bd
       0.050930075 -0.26220554 0.57854474 -0.032459967
000100 bc ad b4 3d c3 81 a7 bd 53 9f c2 3e 68 3f 5a 3d
       0.088222 -0.08179047 0.3801218 0.053283125
000110 54 90 89 bc fb fb 05 3e 16 f9 6f be fc 82 2d bd
       -0.016792454 0.13084404 -0.23434862 -0.042361245
000120 34 91 5e be 65 a3 9c bd 0e 35 16 be a5 cf 14 be
       -0.21735078 -0.076483525 -0.14668676 -0.14532335
000130 06 82 72 3e bb d4 3d be 89 cf f9 3d d6 66 62 be
       0.23682413 -0.18538181 0.12197787 -0.22109541
000140 fb 77 07 be 16 eb cd bd 7c 86 7c 3e 70 5b e5 bd
       -0.13229363 -0.10054605 0.24660677 -0.11199081
000150 19 15 ba 3e 03 16 c7 3d 72 a5 2a 3e 5b ff 43 3d
       0.3634422 0.09720995 0.16664675 0.047850948
000160 2e e8 db 3c 47 14 1d be 6b e4 5d be 53 98 6b 3e
       0.02684411 -0.15339766 -0.21669166 0.23007326
000170 60 96 10 be ce 53 29 3d 4f 7c 24 bc 63 ed 29 3e
       -0.14119864 0.041339688 -0.010039403 0.16594462
000180 30 33 e3 3c f8 21 cc bd 83 d6 81 bd 64 7f c9 3b
       0.027734369 -0.099674165 -0.06339743 0.0061492193
000190 9e 3f 28 3e 6f 83 59 3d 84 cc db 3d ea b1 46 3e
       0.16430518 0.05310386 0.10732368 0.19403806
0001a0 7c 2a 9e be 5f 96 d8 3d ed 6f 46 bd 80 70 8f 3e
       -0.30891788 0.10575556 -0.048446584 0.28015518
0001b0 56 84 3e be 53 57 d8 bd 6d 1e 14 3d d6 c0 90 be
       -0.1860517 -0.10563531 0.03616183 -0.28272122
0001c0 fd a3 35 be ee 15 04 3c 0d 4e 9b bd 05 60 dd 3d
       -0.17738338 0.008061869 -0.075832464 0.1080933
0001d0 93 a1 12 3f 6b 95 a1 bc ba a4 23 3d 23 32 38 be
       0.5727779 -0.019724568 0.039952017 -0.17987876
0001e0 04 88 9f 3d e0 38 a0 3c 41 1b 5a be 0c 6f 8c 3e
       0.07789615 0.01955837 -0.21299459 0.27428472
0001f0 46 e0 18 be 42 a9 1f 3d 25 1f 94 be fd 7a 9f 3d
       -0.14929304 0.038979776 -0.2893001 0.0778713
000200 b6 36 58 be fd ae 61 3e 3f 4a c2 bd ef 65 f5 3a
       -0.2111462 0.22039409 -0.094868176 0.0018722395
000210 05 2f 27 be fb 05 84 3d 8d 41 9d be 0c 34 b6 3d
       -0.1632653 0.06446453 -0.30714074 0.08896646
000220 68 3e 52 be ff e5 ff bc 25 a1 96 bd f4 34 06 3d
       -0.20531619 -0.0312376 -0.07354955 0.032765344
000230 ef 92 8f 3e 1b 5d 7c be 23 46 38 3d 09 6c 45 bf
       0.2804179 -0.24644892 0.044988763 -0.77117974

mps.1.l1.node_block.m.0.bias f4 [16]
000000 27 45 1a 3f f8 2a ce 3d cb 1a dd bd d0 78 7e be
       0.6026177 0.100667894 -0.10796126 -0.24850774
000010 8a 42 72 3e 36 bf 2c be 48 78 fd 3e d8 06 de bd
       0.23658195 -0.16869816 0.4950583 -0.10841149
000020 2b 26 53 3e 91 71 da bc 60 59 69 be 5b 93 0d 3f
       0.20620029 -0.02666548 -0.22788 0.5530297
000030 7e 9d 7b 3e af 5f 9d bd 03 ca 5a be ef 71 0a 3f
       0.24571797 -0.07684266 -0.21366124 0.540801

mps.1.l1.node_block.m.2.weight f4 [8, 16]
000000 c5 4d 43 3e 9f 6c c7 3c ac 3c 33 3e df 8d 97 bd
       0.19072635 0.024343787 0.17503613 -0.07400107
000010 89 2b 9c bd 5c 41 dd bd a1 27 70 3e 90 52 1a be
       -0.07625491 -0.10803482 0.23452617 -0.15070558
000020 eb ea a0 bd 6e 33 b4 3e 07 28 5e 3e 3c 9a 39 be
       -0.07857307 0.35195488 0.21694957 -0.18125242
000030 a3 4d da bb 98 3c fa bb 50 8e 15 3c 1d 58 ac 3e
       -0.006662087 -0.007636618 0.009128168 0.33660975
000040 a0 bd 89 bd 92 32 43 be a5 b0 e9 bb 48 89 6e 3e
       -0.06725621 -0.1906226 -0.0071316534 0.23294556
000050 04 9f df bd 53 e4 0e 3e fc 08 5b 3d bc e6 0a 3e
       -0.10919002 0.13954286 0.053475365 0.1356458
000060 d1 94 9a 3c 20 ff 97 3d f4 3a 28 3e 01 06 88 3d
       0.01886979 0.07421708 0.16428739 0.0664177
000070 c4 c9 7f 3e 06 42 23 3c 41 45 a6 3c 1e 01 0b 3e
       0.24979311 0.009964472 0.020296695 0.13574645
000080 0a 32 c6 bd 16 8e 31 ba bc b2 1f 3e b4 7c 0b 3e
       -0.09677513 -0.00067731866 0.15595526 0.13621789
000090 6f 13 0b 3e 82 8d 88 3b 31 06 d8 3e 04 c9 da bd
       0.13581632 0.0041672597 0.42192224 -0.10682872
0000a0 6e 69 3f be 3e 1f 57 be 04 df 29 3e 6c fe 87 3e
       -0.18692562 -0.21008012 0.1658898 0.26561296
0000b0 d4 f0 6c be 94 fe e0 3c 55 91 c4 3d 06 14 07 3e
       -0.23138744 0.027465142 0.095980324 0.13191232
0000c0 7c d3 99 3e 46 7b 92 3d 57 f5 f0 bc 21 a9 91 bc
       0.30044162 0.07152419 -0.029413862 -0.017780842
0000d0 45 ec 03 3e a7 3c 71 bc 38 f6 ff 3d 64 4e b0 be
       0.12883098 -0.014723933 0.124981344 -0.34434807
0000e0 5c 5b 1c 3e 20 2a 32 be 46 b9 97 bc 6f fd b1 3d
       0.15269226 -0.17398882 -0.018520962 0.08690917
0000f0 c2 4d dd 3d 47 87 0b be ab 5e 21 3e ba 2b 54 3e
       0.10805847 -0.13625823 0.15758769 0.20719805
000100 81 61 82 3e 09 fe e6 3b 66 c4 60 be 5c 85 e2 3d
       0.25465015 0.0070493263 -0.2194992 0.110605925
000110 62 e6 c5 3d 23 01 52 bd 0b 2b 09 be d3 11 9f 3c
       0.09663083 -0.051270615 -0.13395326 0.019417679
000120 76 c4 04 bd 28 19 7c 3c 67 b2 2a be 84 30 fd 3d
       -0.032413922 0.015386857 -0.16669618 0.12362769
000130 cf fc c4 3d 6a 65 89 bd d0 4a ac be c8 17 fb be
       0.09618532 -0.06708796 -0.33650827 -0.4904158
000140 b2 07 c6 bc ae 58 00 be 4e 01 68 3c cd 2e ae 3d
       -0.024173591 -0.12533829 0.014160467 0.0850502
000150 c8 ae 74 3d d5 55 95 3d b6 d2 3d 3e df 4c 88 3d
       0.059736997 0.07291762 0.18537411 0.06655287
000160 97 60 17 be a5 5a fc bc 70 13 ce 3c 40 9e 35 3e
       -0.1478294 -0.030804941 0.025155753 0.17736149
000170 97 d0 8c bd 7d 06 34 3b ec fa 97 bd 7c 8a 44 3d
       -0.06875723 0.0027469688 -0.074209064 0.04798363
000180 ed 4c 5e bd 23 0b 86 3d d4 f9 94 3d 73 65 fa bd
       -0.05427258 0.06545093 0.072742134 -0.12226381
000190 d1 24 f0 3d 0a 59 4f 3d 3a b0 b5 3d 9d 03 1c bd
       0.11725772 0.050622024 0.08871503 -0.038089383
0001a0 d3 14 10 3d 3c 97 10 bd 37 42 dc bd db 56 82 3d
       0.03517611 -0.03530048 -0.10754817 0.063642226
0001b0 32 76 1e be ea ce 3b bd 09 33 1b 3e e7 df bc bd
       -0.15474775 -0.045851626 0.15156187 -0.092223935
0001c0 09 53 19 bd 1e 0b 84 b9 ac 24 18 be 7a fc 37 3e
       -0.037432704 -0.00025185285 -0.14857739 0.17967406
0001d0 88 a6 85 be 55 b9 90 bd b9 00 b4 be 40 88 19 3e
       -0.26103616 -0.07066599 -0.351568 0.14993382
0001e0 54 78 18 3a 91 c6 0c 3e 07 cd ab bd a9 2f 25 be
       0.000581627 0.13747622 -0.08388715 -0.16131462
0001f0 f3 85 a1 3d ce a6 77 3e 64 d2 41 bd 1c ca df bc
       0.07886877 0.24184725 -0.047319785 -0.027318053

mps.1.l1.node_block.m.2.bias f4 [8]
000000 3e 99 96 be 89 de 5e bf 85 7a 07 3f 9d 6d cb 3e
       -0.2941379 -0.8705831 0.52921325 0.39732066
000010 31 69 9a 3e 69 6e 5a 3f b5 96 4c bf e7 fe b8 be
       0.3015838 0.8532472 -0.7991746 -0.36131975
