archive-july16/results/nif_sketch_pcg_reg0.1_50epochs/model_epoch33.pt (torch, 44782 bytes, 56 tensors)

mps.0.l1.edge_block.m.0.weight f4 [16, 17]
000000 a8 b1 3e 3e a8 3b 28 3f 14 0a 29 3f 38 2f 81 3f
       0.18622458 0.6571603 0.66031003 1.0092535
000010 68 5c 36 3f da 3f 9f 3f c8 b6 65 3f fa 97 69 3f
       0.7123475 1.2441361 0.8973203 0.9124752
000020 53 27 fb 3c 28 13 27 3e 8c 0b 1e 3f d1 ce f3 3e
       0.0306584 0.16315901 0.6173637 0.47618726
000030 46 b4 07 3f 43 e1 8e 3f a2 79 88 3f 0e 1d 26 3f
       0.5300945 1.1162494 1.0662119 0.64888084
000040 66 21 bc 3e 25 87 96 3b 41 2a ac bd 0f 86 2b 3d
       0.3674423 0.004593747 -0.08406497 0.041875895
000050 5a 07 aa bd 51 52 bd bc f8 28 91 bd 5e 28 ec 3d
       -0.083021834 -0.02311054 -0.07087892 0.11531137
000060 c9 5f 0d be c2 da b2 bd 14 9b 52 bd 3a 0d db bd
       -0.1380607 -0.08733131 -0.051417425 -0.10695882
000070 e6 5e 61 3c 33 a8 32 be 02 e4 20 3e d3 ea 17 be
       0.013755536 -0.17446975 0.15711978 -0.14835672
000080 ff 51 09 3e 60 13 ee 3c b8 c7 82 be d1 94 45 3e
       0.13410185 0.029061973 -0.25542998 0.1929505
000090 f9 0c cc 3e 3b f0 21 3f c0 b3 bb 3e 00 7c 1d 3f
       0.39853647 0.6325719 0.36660576 0.61517334
0000a0 4b 03 0b 3f 37 b4 9b 3e ea fc 08 3e 50 c4 b7 3e
       0.543019 0.3041093 0.13377729 0.35891962
0000b0 c1 db 11 3f 7e c9 ce 3e 61 6b 03 3f a6 0e 20 3f
       0.5697594 0.403881 0.5133572 0.6252235
0000c0 29 ae 15 3f 7b 47 8d 3e 9e 0d 00 40 b0 58 93 bd
       0.5846887 0.27593598 2.0008311 -0.0719465
0000d0 3f 4f 14 be 06 fb 07 3e d3 89 15 3d 1d d8 77 3d
       -0.14483355 0.13279352 0.036508393 0.060508836
0000e0 f1 f4 5a 3d ac 84 96 bb ce 51 09 3e 08 c9 ff bd
       0.05345625 -0.0045934524 0.13410112 -0.124895155
0000f0 af d2 ac 3a 2c d8 02 be e8 ea 29 3d 96 26 91 bd
       0.0013185347 -0.12777776 0.04148379 -0.07087438
000100 07 ca 53 3d 4b 20 1b bd 6e d0 11 3e 7f 4b d1 bd
       0.05170634 -0.037872594 0.14239666 -0.10219478
000110 26 fa 02 be 1c 37 1a be 03 c7 e4 3d 61 37 61 3b
       -0.12790737 -0.15060085 0.11170771 0.0034365284
000120 39 2c f1 3d dd 6f 1c be 52 41 3a be 7b 99 18 be
       0.11776013 -0.15277047 -0.1818898 -0.14902298
000130 c8 e2 0a be 98 1d cd 3c cc 99 99 3c 7e 8d ba 3d
       -0.13563073 0.025038525 0.018750094 0.09109019
000140 94 a3 0e be ac 0d 03 be be ea aa 3d 94 dc a9 bd
       -0.13929588 -0.12798184 0.08345555 -0.08294025
000150 6f 3d a8 3d b5 9e 90 bd 18 4a ca 3e 8b 7c 1d be
       0.082148425 -0.07061521 0.39509654 -0.1537954
000160 6a 29 8b 3d 76 e8 69 3e fd 44 27 3f 99 ff d8 3d
       0.067950085 0.22842583 0.6533964 0.105956264
000170 9f ae 9a 3e 16 a0 4f 3e e0 9e 37 3a 9a bc 79 bd
       0.3021135 0.20275912 0.000700457 -0.06097088
000180 cf 73 ac 3e ef 66 fa 3d 31 91 8a bf 13 2d 95 bc
       0.33682105 0.12226664 -1.0825559 -0.01820997
000190 0e d9 63 3d 8e f2 25 3e d7 07 1b be eb f9 e4 3e
       0.05562692 0.16205809 -0.1513971 0.44721922
0001a0 38 05 04 3f f9 9f 06 3f 21 5a df 3e 8c 43 c4 3f
       0.51570463 0.5258785 0.4362345 1.5333114
0001b0 92 15 f3 3e aa 35 00 3f 9e eb ba 3d 2b ea 07 3f
       0.47477394 0.50081885 0.09126972 0.53091687
0001c0 11 27 67 3f f0 19 0c 3f e3 90 fe 3e b9 e2 df 3e
       0.90293986 0.5472708 0.49719915 0.43727663
0001d0 b4 90 27 3f 19 f2 e6 3e ff d4 61 3e b6 b0 d5 bd
       0.65455174 0.4510658 0.22053908 -0.104340956
0001e0 c0 3a fd 39 97 d1 84 bd 61 e0 45 bc f1 df f1 bd
       0.00048299693 -0.064852886 -0.012077422 -0.118102916
0001f0 7f 00 f5 bd 17 3d d0 bd 47 5c 74 bd a2 dc 0c be
       -0.11962985 -0.10167902 -0.059658315 -0.1375604
000200 48 a4 15 3e 18 ae 0d bd fa 8d 19 3e 22 6f 5e 3d
       0.1461345 -0.034589857 0.14995566 0.054305203
000210 9f 20 17 be f7 03 f7 3d d5 6b 44 bd f4 d2 88 bd
       -0.14758538 0.12061303 -0.0479544 -0.06680861
000220 6e 52 22 be d7 7e 52 be f9 41 97 3c af f1 9d bd
       -0.15851757 -0.20556198 0.018464075 -0.07712113
000230 af 8d 04 3d a0 3b 18 be 14 35 fd 3d 03 41 0b be
       0.032361683 -0.14866495 0.123636395 -0.13599019
000240 33 6a 24 bd dc 3d 9d 3b 74 72 73 3d 31 65 d1 3d
       -0.040140342 0.004798634 0.059435323 0.10224379
000250 74 51 fd 3d 2c 68 13 be 2e 11 1c 3d 7b d4 a9 bd
       0.123690516 -0.14395207 0.03810232 -0.082924806
000260 f0 d2 08 bd d7 5f ff bc e0 3c cc 3e fe fe a4 3e
       -0.03340429 -0.03117363 0.39890194 0.32225794
000270 de 1c 24 3f 70 b9 d2 3e 92 e0 a2 3f 31 e7 c9 3e
       0.6410655 0.41157103 1.2724783 0.39434198
000280 98 50 10 3f c1 08 a4 3d 18 64 3d 3e 81 8a dd 3e
       0.56372976 0.08009482 0.18495214 0.43269733
000290 d1 8c 3b 3f 1d 5b d2 3e 42 8a f9 3e a0 68 23 3f
       0.73261744 0.4108514 0.48738295 0.6383152
0002a0 91 44 df 3e 98 51 de 3e 0d a3 f5 bd 1b 34 24 be
       0.43607 0.43421626 -0.1199399 -0.16035502
0002b0 20 eb 56 be be d9 a3 be 29 2c a8 be e9 4a 51 bf
       -0.2098813 -0.32002062 -0.32846192 -0.8175493
0002c0 a0 d1 c9 be ee bd 2a be 26 69 52 3e fe 98 e4 be
       -0.39417744 -0.16674015 0.20547923 -0.44647974
0002d0 21 5a 43 bd 8b 55 49 be 08 f5 01 be 49 a0 ee bf
       -0.047693375 -0.19661538 -0.12691128 -1.8642665
0002e0 c4 25 31 be 70 5e 38 be 21 b6 b0 3e c1 a9 fc bc
       -0.17299563 -0.18004775 0.34513953 -0.030842664
0002f0 ce a7 47 bd c0 1c 85 3c b4 d1 0b bd d0 e6 60 bd
       -0.048744015 0.01624906 -0.034135535 -0.05490762
000300 d8 42 e3 3d 59 f4 18 3e 70 fa 91 bc d7 b8 20 bd
       0.11096734 0.14936961 -0.017819613 -0.039238777
000310 d6 ed 4e b8 7b c2 51 bc 1f ea 1d 3d 38 e4 3b 3d
       -4.933573e-05 -0.012802715 0.038553353 0.045871943
000320 81 8b 22 be 6a 91 84 bd 2c b7 15 3e 01 52 87 3d
       -0.15873529 -0.06473048 0.14620656 0.06607438
000330 cf 06 0e bc 96 33 d7 bd bf 60 da bd 00 de 1f be
       -0.0086686155 -0.10507886 -0.10662984 -0.1561203
000340 c0 b2 68 bd 80 14 71 3d 8d 97 e3 3d 7a cc a4 3d
       -0.056811094 0.05885744 0.111128904 0.08046813
000350 72 c1 1d be 6b a6 d6 bd 00 53 e1 bc 6f a4 2c 3e
       -0.15405825 -0.104809605 -0.027505398 0.16859601
000360 2f 89 ce 3c 09 e0 38 bd e3 ab 93 3d 98 f3 87 bd
       0.025211899 -0.04513553 0.07210519 -0.06638259
000370 7e 08 e7 bd 77 d1 81 3e 94 32 e8 3e c4 e4 34 3f
       -0.11280917 0.25355121 0.45351088 0.7066157
000380 97 a0 38 3f 43 db 66 3f 79 05 a8 3f 3a c0 8a 3f
       0.7212004 0.90178317 1.312667 1.0839913
000390 29 28 38 3f 27 2f 73 be 3a 3c 17 3e eb 90 19 3f
       0.7193628 -0.23748456 0.14769068 0.5998675
0003a0 05 3c 0f 3f 99 2b 0e 3f 55 4c a2 3f 70 45 88 3f
       0.5595096 0.55535275 1.2679545 1.0646191
0003b0 34 ce 30 3f 3f 2a 63 3d 55 e8 18 be 3f ee 26 be
       0.6906464 0.05546021 -0.14932378 -0.16301821
0003c0 46 1e 92 3d e8 3e af bd 6d ab 0f bd c2 6b cd bd
       0.071346804 -0.0855692 -0.035075594 -0.10030319
0003d0 b2 15 02 bd 49 3a fb bd 8d 3b e9 bd 15 cd 6c 3d
       -0.03175897 -0.122669764 -0.113883115 0.05781277
0003e0 88 29 54 bd e9 5a dc 3d 36 05 65 bd ad eb 02 be
       -0.05179742 0.10759527 -0.055913173 -0.12785216
0003f0 7e e9 fb bc 26 06 ad bd d8 67 5a bd e9 24 2c bf
       -0.030750986 -0.08448438 -0.05332169 -0.6724382

mps.0.l1.edge_block.m.0.bias f4 [16]
000000 3b 4e 8c 3f e4 ea 04 3e d1 57 36 3f 7c 03 35 bd
       1.0961374 0.12980229 0.7122775 -0.044192776
000010 f8 05 24 be a1 f5 3e 3e 43 7b 3c 3f 9f a1 31 be
       -0.16017902 0.18648387 0.7362558 -0.1734681
000020 16 72 4f bd 33 80 d0 3e a2 a1 93 be 0e 5e b1 bd
       -0.05064591 0.40722808 -0.28834254 -0.08660518
000030 b5 e7 91 bd a5 c1 79 3f 91 99 29 be d5 24 ee 39
       -0.07124273 0.97561103 -0.16562487 0.0004542234

mps.0.l1.edge_block.m.2.weight f4 [1, 16]
000000 b6 53 17 3e 65 4f 8c bc 3c 75 6e 3f 48 c9 8a bd
       0.14778027 -0.017127702 0.93147635 -0.067766726
000010 16 b2 02 be ea c3 97 be fe 16 ac bd e4 01 ca bd
       -0.12763247 -0.29641658 -0.08402823 -0.09863642
000020 fb fe ba bd 03 9a fe bc 6c 84 52 be f8 f3 6b bd
       -0.09130665 -0.031079298 -0.20558327 -0.057605714
000030 bb 26 bd 3b 28 c3 ce 3f fc 5c 7d bd 4e 01 84 bf
       0.0057724393 1.6153307 -0.061856255 -1.0312898

mps.0.l1.node_block.m.0.weight f4 [16, 9]
000000 7f b6 02 bc 32 10 3b 3e 13 eb fa 3d d8 33 2b be
       -0.007978081 0.18267897 0.12251868 -0.16718996
000010 56 14 df 3d a2 7d 80 bf 7f 50 c6 bd 4a ab 73 be
       0.10892551 -1.003834 -0.09683322 -0.2379581
000020 34 38 42 3f 6f ca 5e bd d3 47 0d 3f 32 33 39 3f
       0.7586701 -0.054392274 0.5518772 0.7234374
000030 3f 14 41 3f 8c d9 df 3e 8e b6 6a 3f 7f 79 75 3e
       0.7542152 0.43720663 0.91684806 0.23972128
000040 0d 4e cf 3e 31 41 a7 3d b2 20 52 3c de 28 59 3f
       0.40489236 0.08166731 0.012825178 0.84827983
000050 6e 2e 23 3f 47 5e 41 3f bc fa 2b 3f 3d e0 21 3f
       0.6374272 0.7553448 0.67179465 0.63232785
000060 73 16 1a 3f 71 dc 7c 3f 2f 2c 60 3e 18 90 3a be
       0.60190505 0.98773867 0.21891855 -0.1821903
000070 ac c5 44 be ff 0b f4 3d 9c 73 36 be f8 9b f1 bc
       -0.19216031 0.119163506 -0.17817539 -0.029493317
000080 44 54 eb 3d 9d 0a e3 bd 26 f7 d5 bc e2 cd aa bc
       0.11490682 -0.11086009 -0.026118826 -0.020850126
000090 92 1e 68 bd 43 0c 05 be fa 54 63 be 25 c9 50 be
       -0.05666978 -0.12992959 -0.22200385 -0.2038923
0000a0 c4 46 0d be 45 0e 6b 3e c0 db f0 bd 7b 42 27 be
       -0.13796526 0.22954662 -0.11760664 -0.16333954
0000b0 d2 18 00 3d 38 5a 8a 3c d1 32 dd be 10 05 c7 bc
       0.03127367 0.016888723 -0.43202832 -0.024294406
0000c0 b5 8c 76 bd d8 ef 13 bf 45 9b 5c bf 9c f4 92 bc
       -0.060192782 -0.5778785 -0.8617442 -0.017938904
0000d0 45 d5 9f be 37 29 98 bf 26 ce 59 3c 81 70 9d 3e
       -0.312174 -1.1887578 0.0132937785 0.30749896
0000e0 3f d9 f7 3d a6 a7 cc 3d 70 bf 9b 3e b6 6c 54 bf
       0.12101983 0.09992914 0.30419493 -0.8297838
0000f0 43 9c bd 3d 55 47 89 3e 7c 8c 36 bd f8 dc 6f be
       0.0925832 0.26812235 -0.04456757 -0.23424137
000100 8d ad 4d bd 35 97 28 3e 01 9b 9b 3d b3 d4 4b be
       -0.05021434 0.16463931 0.07597924 -0.19905357
000110 6a 56 3a bd 21 9d 43 be ea c9 09 be ac c1 a2 bc
       -0.045492567 -0.19102909 -0.1345593 -0.01986774
000120 eb 4a 88 3c cb d6 c2 3f ae 6d 73 3f 36 f6 e8 3f
       0.016637286 1.52218 0.9508923 1.8200138
000130 4a ee a1 3f 56 eb 13 bf 39 2a b5 3f dd 86 ae 3f
       1.2650845 -0.5778097 1.415351 1.3634907
000140 80 e8 89 be 66 d3 a6 bd fa 00 a3 bd aa 3c 26 3f
       -0.26935196 -0.0814579 -0.07959171 0.64936316
000150 7b ee 98 3e af b9 9a 3e 37 b7 23 be f9 f5 2b 3f
       0.29869446 0.3021979 -0.1598786 0.671722
000160 3e c8 c8 3e d2 8d d1 3e b7 d6 09 be a5 1b 47 be
       0.39215273 0.40928513 -0.13460813 -0.1944414
000170 56 3d d4 3c fd 57 91 3d 76 80 e2 bd 8f 42 89 bd
       0.025908154 0.070968606 -0.11059658 -0.06702148
000180 f0 a7 25 3e fc 4f 9c 3c 72 11 31 3c 1e 0c b1 39
       0.16177344 0.019081108 0.010807382 0.000337691
000190 bb 56 5a be 18 55 01 be 9c ac 15 be 5d 75 94 bd
       -0.21322148 -0.12630117 -0.14616627 -0.07248948
0001a0 fd 41 bb be ce 2b 2c bd 7d de be bd 0c 52 99 3f
       -0.36573783 -0.042033963 -0.0931978 1.1978164
0001b0 86 5b d5 bc 20 e3 25 3f 0c e0 18 3d 21 74 80 3e
       -0.026044618 0.6479969 0.037323043 0.250886
0001c0 69 d2 bf 3e 53 c6 b3 3f db e7 3d 3d 0b 58 99 3e
       0.37465218 1.4044899 0.046363693 0.29949984
0001d0 2e 5c 0e be ee 44 32 bd e4 22 f1 3e eb 0f 41 3f
       -0.13902351 -0.043522768 0.47096932 0.75414914
0001e0 56 91 05 3f e4 6a e6 3e f6 da 24 be 56 12 db 3e
       0.5217489 0.45003426 -0.16099152 0.42787427
0001f0 6a a2 fb 3e 3d 0c 74 3e 7d 1d 3b be d4 cb 99 be
       0.4914735 0.23832794 -0.18272968 -0.3003832
000200 19 13 a5 3e 38 01 a2 3d 57 9e bc 3e ab f3 6f 3f
       0.32241133 0.07910389 0.36839554 0.9373118
000210 2b e4 32 3f bd 44 99 3e bc f7 3c 3e 74 4c a6 3a
       0.69879407 0.29935256 0.18453878 0.001268758
000220 03 d4 6a 3f b8 8c 1f 3f 1e 17 3c 3f 99 81 63 3f
       0.91729754 0.62324095 0.73472774 0.88869625
000230 cd 43 ba 3e a6 c5 92 3e c3 ae 40 3f 10 6d ad 3f
       0.36379853 0.2866642 0.75266665 1.3548908

mps.0.l1.node_block.m.0.bias f4 [16]
000000 60 f9 c7 be 28 dc c6 3e 67 49 da 3e 1d ca 48 be
       -0.39057446 0.3883984 0.42634127 -0.1960835
000010 67 e8 2e 3d 2f 74 cc bd 8f 0f b8 3d a8 19 ba bd
       0.042702105 -0.09983098 0.089873426 -0.09086925
000020 5b c2 b7 3f f6 4f 11 3f f5 bc 10 be 22 ad aa 3c
       1.4356188 0.56762636 -0.14134581 0.02083451
000030 94 91 85 3e fa c2 1e 3f f4 e8 07 3f 64 52 0f 3f
       0.2608763 0.6201626 0.53089833 0.55985093

mps.0.l1.node_block.m.2.weight f4 [8, 16]
000000 15 c9 a1 bd c9 41 22 be c5 4f a6 bb e9 69 31 3e
       -0.078996815 -0.15845408 -0.0050754272 0.17325558
000010 2a 0a 1d 3e af 04 03 3d 02 ed d8 3d 2c 6f fb 3d
       0.15335909 0.03198689 0.10592081 0.12277064
000020 7b 8c 11 3c 65 03 7e be ca d5 b7 3d e1 2e 5b be
       0.008883591 -0.24805982 0.08976324 -0.21404602
000030 a7 dd 44 bd d1 a4 6c be f4 39 81 3d 06 1b a6 bd
       -0.048062947 -0.23109747 0.06309882 -0.08110623
000040 c7 b1 aa bd a2 8d 22 be 11 2b 85 bd e2 dd d8 bd
       -0.083346896 -0.15874341 -0.06502355 -0.10589196
000050 a7 45 ef bd a8 fa ac 3d 92 73 d7 bd 0d e0 26 3e
       -0.11683207 0.084462464 -0.1052009 0.16296406
000060 58 f6 3a bd 9f f9 0e 3e f4 3f 7d 3d 41 45 53 3c
       -0.045645088 0.1396241 0.06182857 0.012894929
000070 c6 f4 43 bd 15 db fa bd fb 37 10 3f bf c5 81 bc
       -0.047840856 -0.12248818 0.5633542 -0.015841363
000080 09 a0 20 3e 68 8c 99 bd 1c a5 cc bd 70 32 32 bd
       0.15686049 -0.074974835 -0.099924296 -0.043505132
000090 09 b3 b2 bd 27 fa 89 3d 4d 93 d6 3d f1 7d 09 3e
       -0.087255545 0.06737166 0.10477314 0.13426949
0000a0 e8 f7 b0 3d 4d 54 3a bf 5e 77 c5 bd d6 f3 8c 3c
       0.08641034 -0.7278488 -0.09641908 0.017206114
0000b0 75 20 4a bd bb 79 4d be d3 9a 9f be f7 3f 0e 3e
       -0.04934736 -0.20065968 -0.3117281 0.13891588
0000c0 bd fa e5 bd e2 d3 c2 bd b8 45 3d bd 53 4a 20 3e
       -0.11229465 -0.0951307 -0.046209067 0.15653352
0000d0 ec 11 2e be 13 52 f0 3d 72 7b 86 3d 13 f4 fa bc
       -0.16999024 0.117344044 0.06566514 -0.030633962
0000e0 7c 28 17 3e ae 04 7c 3d 0c bf e6 3d 01 66 37 bd
       0.14761537 0.0615279 0.11266908 -0.044775013
0000f0 f9 3e f9 bc f5 1a 98 be a7 19 14 3f cf b0 c8 be
       -0.030425536 -0.29708067 0.5785164 -0.39197394
000100 25 2a 6b bc db de 2b 3d 23 90 52 bd 20 4a bc bc
       -0.01435331 0.04196058 -0.05140699 -0.022984564
000110 df ac 2e 3e b4 32 ef 3d 02 3d 0e bd aa 74 2d be
       0.17058133 0.11679593 -0.03472615 -0.16939035
000120 08 5b 57 bd 01 33 02 bf dc 98 15 3e 09 35 da be
       -0.05257705 -0.50859076 0.14609092 -0.42618588
000130 7e f7 94 bc 8c af 7e be 54 d3 ef be 47 99 03 bf
       -0.01818442 -0.24871653 -0.46840918 -0.5140576
000140 17 47 d7 3b eb d3 14 bb c2 b9 bf 3d 8c 83 14 3e
       0.006569754 -0.002270932 0.09361602 0.14503306
000150 67 d6 7e bd 60 c7 61 3c a1 da 60 3d a6 bc 14 bd
       -0.06221619 0.013780445 0.054896 -0.03631272
000160 f1 ff 27 3e ba e0 a7 bd cc 8b f9 bd 30 9b 1b be
       0.16406228 -0.0819716 -0.12184867 -0.15195918
000170 62 1b 82 3d e4 dc 3a 3e cf 23 d5 bd 2b dc 3e 3d
       0.06352879 0.18248326 -0.104072206 0.046596687
000180 fa fc 24 3e 5d da 69 3d aa 38 5d be db 0d 01 be
       0.16112128 0.057093013 -0.21603647 -0.12602942
000190 0e fd e3 bd 03 41 52 be 1a 2d c0 bd a1 b5 2b be
       -0.11132251 -0.20532613 -0.093836024 -0.16768505
0001a0 c1 a6 9d be 59 f1 4b 3e 4d 5b 35 be 37 ef 36 3e
       -0.30791286 0.19916286 -0.1771061 0.1786469
0001b0 c5 64 8e bd e9 85 1f 3e cc 73 05 3f a9 81 be 3d
       -0.06952814 0.15578426 0.52129817 0.093020745
0001c0 2a f3 e8 3d d0 70 bf bd 9e 45 96 3c 1d b1 e2 3d
       0.11374505 -0.09347689 0.018343743 0.11068938
0001d0 fa ae 20 be 4f 89 4b bd c4 76 2a 3e 5f 53 f2 3c
       -0.15691748 -0.049691495 0.16646868 0.02958077
0001e0 69 5c c7 3d ff eb a0 be 35 6f 22 bb c8 cc a0 bc
       0.09734423 -0.3143005 -0.0024785523 -0.019628897
0001f0 4e 40 41 3d a4 d8 5c 3d 44 af 42 be 72 57 1e be
       0.047180466 0.053917542 -0.19012171 -0.15463045

mps.0.l1.node_block.m.2.bias f4 [8]
000000 4a 3b bb be b6 7e 55 3f 8f 0a d7 be d1 36 a3 bd
       -0.3656867 0.8339647 -0.42000243 -0.0796944
000010 d8 b3 06 bf 3f d2 b4 3f 09 3e 71 3d f9 83 6e bf
       -0.5261817 1.4126662 0.058897052 -0.93170124

mps.0.l2.edge_block.m.0.weight f4 [16, 17]
000000 24 29 c2 3d e6 94 03 be 35 a3 df bd f0 be 49 bd
       0.09480503 -0.12849769 -0.10919801 -0.049254358
000010 e8 6e 17 be f9 56 1a be 3e db 67 3c 44 85 bb 3d
       -0.14788401 -0.1507224 0.0141513925 0.09156278
000020 93 a6 31 3e 25 6f 17 3e b8 cf 15 be c0 04 02 be
       0.173487 0.14788492 -0.1463002 -0.12697124
000030 b0 bf 1d 3e da 91 ae 3c 71 f7 3f 3d 09 92 86 bc
       0.15405154 0.021309782 0.046866838 -0.016427057
000040 b8 7c 07 be 7c 80 dd 3c a4 6c a5 3f 7a 42 f8 be
       -0.1323117 0.027038805 1.292378 -0.48488218
000050 02 e5 4a 3f b7 f5 f4 bd 78 ff b7 be 31 8e 0a 3f
       0.7925569 -0.11960929 -0.35937095 0.54123217
000060 fe 2b 52 be 15 49 f4 bc b3 91 b4 3c 5e 95 fa be
       -0.20524594 -0.029820004 0.022042131 -0.48942083
000070 d3 f2 97 3d 46 5a e6 bd f2 12 27 be bb 8c 60 3e
       0.07419362 -0.11247687 -0.16315821 0.21928684
000080 ed 0c 25 bd f0 c8 46 be 00 b0 7d be 90 bc 79 be
       -0.04029553 -0.19412589 -0.2477417 -0.24388337
000090 22 72 1e 3d 78 38 61 be 73 b1 92 be 07 97 2d 3e
       0.038683064 -0.21994197 -0.28651008 0.16952144
0000a0 75 61 96 be 93 46 5c 3e 07 ec 44 be 38 65 42 be
       -0.2937123 0.21511297 -0.19230662 -0.18983924
0000b0 25 a4 b0 ba bf 17 44 be 67 93 ef be 1c a1 9a 3c
       -0.0013476653 -0.19149683 -0.46792147 0.018875651
0000c0 1e c3 75 bd a0 cd 3d 3d 96 f6 1b bf 0e 90 25 3e
       -0.06000053 0.046338677 -0.60923135 0.16168234
0000d0 e8 bc a3 3c c6 83 bf 3c 91 a5 00 3e 0c f7 d3 3d
       0.019987538 0.023378264 0.12563159 0.10349855
0000e0 07 c9 1e be ee b1 dd 3b 87 ab 08 3e 57 5c 79 bd
       -0.15506373 0.0067655956 0.13346682 -0.060879078
0000f0 76 41 72 3d e8 1b 42 be 04 69 07 3e ea a1 7c 3e
       0.05914446 -0.18955958 0.13223654 0.2467114
000100 dc f6 5c bd f9 ab cc 3d ce 7b ff 3b 7d 54 99 bd
       -0.05394636 0.09993739 0.007796741 -0.07486818
000110 ff a0 50 bd df 2b 79 3e 76 cd 63 bd 26 b7 c9 3e
       -0.050934788 0.24333142 -0.055615865 0.39397544
000120 9d ec 25 3e d0 32 91 be e6 a0 b9 3e 6a ab fd bd
       0.16203542 -0.2835908 0.36255568 -0.1238621
000130 ec c7 bd ba 8b 07 2a 3d f2 99 6a be 94 bd 94 3e
       -0.0014479137 0.0415111 -0.22910288 0.29050887
000140 38 59 5d 3d 77 ae 58 be d8 10 a0 3e 32 e0 5e be
       0.054040164 -0.21160303 0.3126285 -0.21765211
000150 81 41 d3 3b f5 64 09 be d5 1b 80 bd f6 e9 2d be
       0.0064470177 -0.13417418 -0.062553085 -0.1698378
000160 00 9b 1a be a6 21 c1 3d 1e 61 1a 3e d5 b5 49 3d
       -0.1509819 0.09430246 0.1507611 0.049245674
000170 a1 5d 0c 3e 16 11 15 3e bc 3d 80 3c b7 c5 46 3e
       0.13707592 0.14557299 0.015654437 0.1941136
000180 11 46 49 3e ad a8 94 3d 75 31 75 3e b4 4c 40 bc
       0.19655634 0.07258735 0.23944648 -0.011737037
000190 e0 6a a9 3c f1 9d 26 3f 99 14 e6 bd 37 b7 67 3e
       0.020680845 0.6508475 -0.112343974 0.22628485
0001a0 2f 94 52 bf 4f bd 69 3e 13 e3 28 bc 4e ad 7f be
       -0.8225736 0.22826122 -0.010308045 -0.24968454
0001b0 dc 42 bf 3e 82 15 88 be 89 95 3b 3c 74 82 88 3c
       0.37355697 -0.2657891 0.011449226 0.016663767
0001c0 4d 22 f7 be c6 50 41 3e 41 95 83 bb a9 fa 79 3e
       -0.48268357 0.18878469 -0.004015595 0.24412026
0001d0 36 11 b1 be 1b fe 8e bd 76 4b 89 3e 18 22 ca bd
       -0.34583443 -0.069820605 0.26815385 -0.09869784
0001e0 67 ef ea bb 2c d7 46 3e f4 1c 30 3e 7e ac 9e be
       -0.0071696523 0.19418019 0.17198545 -0.30990976
0001f0 4d 55 60 3e 43 c3 da bd 29 b8 43 bd 25 0c 9f be
       0.2190754 -0.106817745 -0.04778305 -0.31063953
000200 7e 6d 00 be 81 57 4e 3e 53 d6 8c be 15 57 0a bf
       -0.12541768 0.20150568 -0.27507266 -0.54039127
000210 7c 70 28 3e 35 7c 6b 3d b6 0c d8 3d 38 b4 26 bf
       0.1644916 0.0574915 0.105492994 -0.6511874
000220 6e 88 a1 bd 35 5a 04 3e 38 c8 20 3e 83 9c 00 3e
       -0.0788735 0.12925036 0.15701377 0.12559704
000230 a8 5f 68 3d fa 1f c6 3c ec 5c 3a 3e d8 2f c5 bd
       0.05673185 0.02418517 0.1819951 -0.09628266
000240 d3 9d d5 bc ab 8c 2f 3e 85 de ee bd b5 47 91 bd
       -0.026076233 0.17143504 -0.11663536 -0.07093755
000250 db 20 20 3e 22 02 94 3c db be a4 3d 4c 2c 77 bd
       0.15637533 0.018067423 0.08044215 -0.06034498
000260 47 23 3a bd 77 e2 97 3d 54 35 1c be 74 ae 90 3d
       -0.0454438 0.074162416 -0.15254718 0.07064524
000270 41 36 39 3d 82 cf 02 bf a8 da 86 3e b8 27 2a be
       0.045217756 -0.5109788 0.26338696 -0.16616714
000280 50 15 fe bc f8 96 71 be 28 aa e1 bd 33 79 0a be
       -0.031016022 -0.23592746 -0.11018783 -0.13522796
000290 08 2a c7 bd d3 e5 fe be bf 94 15 be 38 51 a1 bd
       -0.09724814 -0.49784717 -0.14607523 -0.07876819
0002a0 a7 0b 86 3d 18 41 d7 be 26 62 cf 3d 9d 7e 49 bd
       0.06545191 -0.4204185 0.10126142 -0.049193013
0002b0 27 96 db bd a5 4f 66 bd 3d 39 13 bd f0 ac 38 be
       -0.10721999 -0.0562283 -0.03594326 -0.1803472
0002c0 85 1d 5a 3d 33 9e 10 bc 35 4a 15 bd 50 f1 a2 3d
       0.05325081 -0.00882678 -0.036447722 0.07956183
0002d0 48 98 cc bd 00 cc 81 3c ed 81 80 3d c1 5c 1c be
       -0.09989983 0.015844345 0.062747814 -0.15269758
0002e0 f4 5d 09 be f6 03 86 3d fe c7 f0 bc f3 5c 1a be
       -0.13414747 0.06543724 -0.029392239 -0.1507452
0002f0 ba 73 fe 3d 58 56 a3 bd 00 86 71 bd 45 00 b5 3d
       0.12424417 -0.07975453 -0.058965683 0.08837942
000300 b1 ac e3 bd 23 53 f2 3d be e1 41 be bf 77 94 bd
       -0.11116923 0.11832263 -0.1893377 -0.07249402
000310 22 b0 39 be c5 55 6d bc a0 6c 0a 3e 96 e8 03 3e
       -0.18133596 -0.014485781 0.13518 0.12881693
000320 c6 dd 69 3e 08 21 a4 be 3f 35 88 3e 81 50 52 3f
       0.22838506 -0.3205645 0.26603124 0.8215409
000330 7d d6 fa bd f7 f6 86 3d 9e 6a 91 3d 36 f5 0d 3e
       -0.12247942 0.065900736 0.07100414 0.13863072
000340 64 09 bd bd 81 08 0c be 8e 4c 3f 3d cf 29 40 3d
       -0.09230307 -0.13675119 0.046703868 0.04691487
000350 c6 98 a1 3d 1e 2e 0e 3e 40 c3 67 bd bd 96 b2 3d
       0.07890467 0.1388478 -0.05658269 0.08720157
000360 26 8f 14 3e 3d 87 c7 bd fe 79 0c 3e 2b d4 ad 3d
       0.14507732 -0.097425915 0.13718411 0.084877335
000370 f8 dc af 3d b8 d8 fe bd 38 68 05 be 55 87 72 bc
       0.08587068 -0.124436796 -0.13028038 -0.0148027735
000380 a7 da 5e bd d4 2e 2a 3e 95 b4 68 bd b0 f9 9e 3d
       -0.054407742 0.16619426 -0.05681284 0.07762468
000390 75 e0 90 bd 83 a4 38 3e 0e 1d 05 be 01 7b 73 bd
       -0.07074062 0.18031506 -0.12999365 -0.059443478
0003a0 f7 d7 47 bc 41 79 ad 3d 28 f5 5e 3e 43 01 87 be
       -0.012197486 0.08470393 0.21773207 -0.2636815
0003b0 ed 49 f4 3d 42 c6 56 3f e5 4a 6a bd bd 14 07 3d
       0.11928163 0.8389627 -0.05720033 0.032978762
0003c0 13 5f a3 be d4 33 c0 bd bf 92 82 bd 6a c4 bc bc
       -0.31908473 -0.093848854 -0.06375646 -0.023042876
0003d0 c2 2a 8a bd 1a 62 11 3d 77 be 9a 3d 4d 5f 5c bd
       -0.06746437 0.035493948 0.075558595 -0.053801823
0003e0 33 7b 39 3e 58 4f 7f 3e b5 c7 0e 3e a5 79 60 bc
       0.18113403 0.24932611 0.1394337 -0.013700877
0003f0 0f 59 ea bd 5c a6 21 3e 85 e6 55 3f f0 56 c2 3d
       -0.11442768 0.15786117 0.8355487 0.09489238

mps.0.l2.edge_block.m.0.bias f4 [16]
000000 e5 6e 06 bd 71 61 76 3e 81 f4 cd be b2 d6 8c 3d
       -0.0328206 0.24060608 -0.40225604 0.068768874
000010 3b f2 48 3d 25 6d 2c 3f e9 f6 a6 3e 89 43 3d be
       0.049059134 0.6735404 0.32610252 -0.18482794
000020 30 7c 32 be f2 59 33 3e 7f 34 94 3d 1b 77 3b 3f
       -0.17430186 0.1751478 0.07236575 0.73228616
000030 d5 12 e1 3d b6 75 4f 3f 47 ea bb 3e 6f c0 24 be
       0.1098992 0.8103899 0.36702177 -0.16089033

mps.0.l2.edge_block.m.2.weight f4 [1, 16]
000000 63 6e 7a 3c 53 b6 4f 3f c1 5e 8f be f2 95 fb 3c
       0.015285107 0.8113758 -0.2800198 0.030711148
000010 1c 81 8c 3e 7c ec 9e 3e e5 e2 13 3f 78 c0 a3 be
       0.27442253 0.31039798 0.5776809 -0.3198278
000020 2b b8 3b bd 6e cf 8d be 94 36 15 bc 1f 7f 5c 3f
       -0.045829933 -0.2769732 -0.009107251 0.8613147
000030 f4 cf 28 3d c4 50 17 3f 6e 2e ad 3e 36 88 e9 3b
       0.041213945 0.59107614 0.33824486 0.0071268333

mps.0.l2.node_block.m.0.weight f4 [16, 9]
000000 0f 1a c9 bd ab 64 5f 3d 24 bd 6c 3c 1d a2 11 bd
       -0.098194234 0.054539364 0.0144493915 -0.035554994
000010 8d 28 14 3c 84 5e 64 3d e8 34 48 3e 8f ef ec 3c
       0.009042871 0.0557542 0.19551432 0.028922824
000020 86 5c f3 3c 02 68 b6 bc fe dd a3 3d 85 bf ce bd
       0.029707205 -0.022266392 0.08001326 -0.10095123
000030 bf 11 74 3e 8b 8f e8 bc a2 79 7d be 8d e1 71 3d
       0.23834895 -0.02838876 -0.2475343 0.059052993
000040 53 44 b5 bd d6 da 0d bc 6a b9 7e 3d 1a e1 5f bd
       -0.088509224 -0.008658132 0.062188543 -0.054658033
000050 e7 e3 14 be 18 45 0a 3e d0 8a 60 3c e6 5b 05 bd
       -0.14540063 0.1350292 0.0137049705 -0.032558344
000060 60 f6 2c 3e 0e d0 ae 3c 67 aa 8f be 3e 8e 89 bc
       0.1689086 0.021339443 -0.28059694 -0.01679146
000070 a7 22 57 3d a5 18 48 be 81 66 97 bd 1f d2 46 3e
       0.05252328 -0.19540651 -0.07392598 0.19416092
000080 ec 4b 99 bd ca 55 22 bc af 6a 6b be f2 ef 26 bd
       -0.07485184 -0.009908149 -0.22989915 -0.040756173
000090 83 0b ef 3c 81 ff fc 3d 1d 52 d0 be 96 20 bd 3d
       0.029180294 0.12353421 -0.40687647 0.09234731
0000a0 d8 e0 42 bd 3e 7b cf be bc 9a 78 bd 45 fc a1 3c
       -0.04757771 -0.40523714 -0.06069444 0.019773612
0000b0 1f 14 4d bd 06 91 e9 bc b4 38 bb 3e 42 4a 44 3d
       -0.050068017 -0.028511535 0.365667 0.04792238
0000c0 7e 51 43 3e 9c 80 b1 bd 48 0b b7 be 02 51 1c 3d
       0.19074056 -0.086671084 -0.35750794 0.038163193
0000d0 2b df 1c 3e 81 c6 60 bb c3 25 3e be 17 f1 e3 3d
       0.15319507 -0.0034298005 -0.18569092 0.111299686
0000e0 1f b3 64 bf e4 dd 0e 3b 3f 94 61 bd bd 13 42 3d
       -0.8933582 0.0021799738 -0.05507302 0.047382105
0000f0 de 8e 4f 3e f1 8a 54 be d6 e0 22 bd bf 78 a7 ba
       0.20269343 -0.20756127 -0.0397652 -0.0012777074
000100 61 07 19 3d cc f5 88 3d 8e 53 0b bd 53 22 71 bd
       0.037360553 0.06687507 -0.03401523 -0.058870625
000110 f2 09 d7 3d 69 0d 00 bd ce 83 30 bd fd 5c 74 3e
       0.10499944 -0.03126279 -0.04309445 0.23863597
000120 88 be bd 3d 49 99 cc 3e d9 38 c9 bd 41 9f 47 be
       0.092648566 0.39960697 -0.09825296 -0.19494344
000130 6b f2 0f 3e 37 8b 2a 3d f4 9c 44 bd 09 bc 59 be
       0.14057319 0.041636672 -0.048001245 -0.21263136
000140 ba c9 43 bd b1 1f 23 bd b7 c7 52 3e cd 00 3e be
       -0.047799803 -0.039825145 0.20583998 -0.18554993
000150 5f 31 b4 bc 7c 07 97 3e f8 57 26 be 29 2d 91 bd
       -0.021996198 0.29497898 -0.16244495 -0.07088692
000160 fd aa c2 3d 6f 30 c4 bd 83 85 00 3d 6a b8 e3 3d
       0.0950527 -0.095795505 0.031377327 0.111191586
000170 3d 81 fa bd df b8 14 be cb 2a 92 3e 90 41 40 be
       -0.122316815 -0.14523648 0.28548273 -0.1877501
000180 12 73 64 bd 9a 7b 98 bc 71 70 b8 bd b7 d5 26 bc
       -0.055773802 -0.018613625 -0.090058215 -0.0101827895
000190 51 e4 5f 3d 79 56 63 be e9 05 18 bd 59 7a c1 3d
       0.0546611 -0.22200955 -0.03711501 0.09447164
0001a0 d5 07 c8 bd c7 4b a7 bc 8c 9d 64 be eb 11 ee bc
       -0.09767119 -0.020421876 -0.22325724 -0.029061278
0001b0 65 5f 10 3d 0b d1 94 3e c9 8d 9c be a3 9e 2c 3d
       0.035247225 0.29065737 -0.30576923 0.042143475
0001c0 0c 75 0b 3e 6f 71 52 bc 5b c8 8d bd aa 93 70 be
       0.13618869 -0.0128444275 -0.069229804 -0.2349383
0001d0 86 42 b6 bc f3 b4 60 bd a0 66 9b 3e 0c 8b 62 be
       -0.022248518 -0.054860067 0.30351734 -0.22123355
0001e0 0d 44 25 3e 47 05 06 3d 2b cb fc bd 5a 7f c7 3c
       0.1613924 0.032719877 -0.12343439 0.024352718
0001f0 c5 b0 38 bd d4 9c 43 bd 84 6b 8b 3c 13 3a ae bd
       -0.045090456 -0.047756985 0.01701904 -0.085071705
000200 c2 36 f5 bd 57 01 76 3e d2 70 8d 3d 4e 29 7d be
       -0.11973335 0.24023949 0.069062844 -0.24722788
000210 2e 97 00 3e f6 ff 17 be 1f 92 92 bd df 5b a1 3e
       0.1255767 -0.14843735 -0.07156777 0.31515405
000220 98 de 01 3e e7 d0 51 bd 33 2a a6 bc 4b 79 92 bb
       0.12682569 -0.051224615 -0.020283794 -0.0044700257
000230 68 0f 98 bd 91 b5 16 3e 3b 14 27 3c 4a 39 18 bd
       -0.074248135 0.147177 0.010197694 -0.03716401

mps.0.l2.node_block.m.0.bias f4 [16]
000000 e8 a3 36 3f 3f 43 bb 3d 10 05 1a be 5f 9e 13 bd
       0.7134385 0.091436855 -0.15040994 -0.036039706
000010 77 94 9b 3d 1e 5a 32 be d1 5c 0d bd df ca bb 3f
       0.07596677 -0.1741719 -0.034512345 1.4671286
000020 2a f3 5d 3c 10 21 44 be 97 13 10 bf 1a 62 eb 3e
       0.013546744 -0.19153237 -0.5627989 0.45973283
000030 56 b4 a1 3d e2 71 87 3d ce c9 86 be 76 dd 5d be
       0.078957245 0.06613518 -0.2632584 -0.21666512

mps.0.l2.node_block.m.2.weight f4 [8, 16]
000000 11 b1 0d bd bf 95 7a 3d ea 1e 20 be 7b 1a b1 3d
       -0.03459269 0.061177965 -0.15636793 0.08647629
000010 1c 9c 1b bc ed 73 e8 3d 9b d4 3c 3c 31 d7 0c 3e
       -0.009497669 0.11350236 0.0115252985 0.13753964
000020 96 49 7d bc 58 66 e9 3d 58 3e fc bc 38 e1 39 bc
       -0.015459439 0.11396474 -0.030791447 -0.0113452
000030 cb 3c 97 3c 99 70 15 bb 31 ac eb bc 21 4d 5d 3d
       0.018461606 -0.002280271 -0.02876863 0.054028634
000040 46 9c 18 bd af e8 93 be ab ee e8 3d a7 6a c9 3d
       -0.03725841 -0.2888846 0.11373647 0.098347954
000050 3e 6c 2a 3e ee b5 9a bc 88 0d bc 3b 8b d1 05 be
       0.16642854 -0.018885579 0.0057389177 -0.13068216
000060 04 c7 80 3d 08 20 5b 3c cd ab 3d be 72 2a 77 3d
       0.06287959 0.013374336 -0.18522568 0.060343213
000070 6d 1c ae 3d bf 22 dd bd f6 a4 ec bd 63 51 82 3d
       0.085015155 -0.10797643 -0.11554901 0.063631795
000080 45 cf 0a be b5 76 aa bb cb 3a b4 bc fd 99 6a 3d
       -0.1355563 -0.0052021393 -0.02200069 0.05727576
000090 e8 91 a6 bd 96 7c a1 3d 8f 1a 52 3d 85 d7 e3 bb
       -0.08133298 0.07885091 0.05129486 -0.006953182
0000a0 22 6c 0a bc c8 2c df 3b 8c 45 2d bc 80 2a 5f 3c
       -0.008448632 0.0068107583 -0.010575663 0.013620973
0000b0 3e c0 47 3d f9 af fd bd 93 0a ab bd fb 93 25 bb
       0.04876732 -0.1238708 -0.08351626 -0.0025265205
0000c0 af a0 a1 3c e9 27 ab bd 89 c2 2d 3e b1 59 25 3e
       0.01972994 -0.08357222 0.1696874 0.16147496
0000d0 94 39 05 3e 53 ea 06 bd 1f 45 06 be a7 6e c1 bd
       0.13010246 -0.032938313 -0.13112305 -0.094449334
0000e0 44 a9 ee 3c b4 8d 0a bd c2 eb 10 3e ef 31 16 be
       0.029133447 -0.033826545 0.14152434 -0.14667486
0000f0 d4 a9 e3 3d 13 8d 73 3e 98 7e a0 3d 14 b5 58 3d
       0.111163765 0.23784284 0.07836646 0.052907065
000100 1d 2b 16 3c 63 de a7 3e ef 9d fb bd f7 e6 9f bd
       0.009165552 0.32786855 -0.12285983 -0.07807725
000110 92 c6 f4 3d 49 16 8f 3b 41 56 a8 bd 6d 67 3e 3e
       0.11951937 0.0043666703 -0.082195766 0.18594141
000120 ed 4e be bd 79 ef 40 be 9c d8 da bd 6e 38 56 bc
       -0.09292398 -0.18841352 -0.10685846 -0.013074977
000130 f4 21 eb 3d ae 07 26 be 29 2f 4d bb 2d 38 2d bd
       0.114810854 -0.16213867 -0.0031308627 -0.0422899
000140 ab 3f fa bc 1f 0d b4 be 5b 0e cb 3b 3b 26 99 3c
       -0.030547937 -0.3516626 0.0061967797 0.018694988
000150 51 d9 87 bd 02 ff 25 3c fe 2d 68 3d 0d 0b 16 bd
       -0.06633247 0.010131599 0.056684487 -0.036631633
000160 c7 24 8a bd ea 60 d6 bc 18 49 0a 3e 03 d1 4a 3d
       -0.06745296 -0.02616926 0.13504446 0.049515735
000170 70 10 ab bd ed 39 37 3e 18 75 53 3d f0 77 40 3d
       -0.083527446 0.1789319 0.05162534 0.04698938
000180 78 8d 87 3d 96 70 bf 3e 24 58 72 bd 6b 15 f3 3d
       0.0661878 0.37390584 -0.05916609 0.118693195
000190 b3 ca 34 be f8 ee dc 3d a7 b2 9c 3e 6b 26 6b bb
       -0.17655449 0.10787767 0.3060505 -0.0035881053
0001a0 b7 58 a9 bd 09 c1 90 3d ed c0 1e 3d 73 1b 15 bc
       -0.08268874 0.070680685 0.038758207 -0.009100783
0001b0 e8 84 fb 3d 7f 14 13 3e c1 2a 0e 3e 0b d0 f9 3c
       0.12281209 0.14363287 0.13883497 0.03049471
0001c0 10 c1 96 3c 1d 7f 8b 3e 15 33 3d 3d c4 06 b0 3d
       0.018402606 0.27245417 0.046191294 0.085950404
0001d0 c6 ce 0b be f1 eb 81 bd 98 4b 52 3e 92 b7 8a bc
       -0.13653097 -0.063438304 0.20536649 -0.016933236
0001e0 2d 42 e5 bc 14 b9 dc 3d 83 4a 13 3e 58 f7 c5 3d
       -0.027985657 0.10777488 0.14383893 0.09666318
0001f0 8a c0 80 bd 6c 41 b8 3d bd 82 52 3d 3c dd d1 bd
       -0.06286724 0.08996853 0.051394213 -0.10247275

mps.0.l2.node_block.m.2.bias f4 [8]
000000 0f 8b ce bc 43 57 67 bf 4d 66 44 bf 6d 49 94 bf
       -0.025212793 -0.90367526 -0.767186 -1.1584908
000010 a5 fc 18 3f 18 5f c7 bf 86 a8 82 3f 85 bf e0 3e
       0.59760505 -1.5575895 1.0207679 0.43896118

mps.1.l1.edge_block.m.0.weight f4 [16, 18]
000000 80 aa b5 bc ca c5 d3 3d d5 ce ff bd 61 37 41 be
       -0.022176027 0.1034046 -0.12490622 -0.18868782
000010 67 be fd 3d c0 d1 32 be b9 09 93 3e 6a 98 b4 3d
       0.12389832 -0.17462826 0.28718355 0.08818133
000020 02 8f 67 3e 8f 69 14 be 59 ef a9 3c 64 45 02 3e
       0.22613147 -0.14493392 0.020744013 0.12721783
000030 9e 6b 17 bd 26 f2 2b 3d 97 db 8a 3e 1a 9f 77 bd
       -0.036967866 0.041978978 0.2712066 -0.060454465
000040 d3 a3 be 3d 18 c2 d2 be 55 60 9f bd f6 75 96 bd
       0.09308591 -0.41163707 -0.07782046 -0.07346718
000050 3f a9 7b bc b0 0d 54 be a8 24 70 3e 1c 27 d0 be
       -0.015360176 -0.20708346 0.23451483 -0.40654838
000060 a1 0f 3e 3e c0 64 6a 3d 60 6c ed 3d d6 50 27 be
       0.1856065 0.05722499 0.115929365 -0.1633943
000070 50 42 48 3d 24 dd 56 bc 55 b9 37 3e 92 ac 3d be
       0.048891366 -0.0131142475 0.17941792 -0.18522862
000080 9f 41 1a 3e a6 68 2c be 8f d3 00 be 46 42 ef 3e
       0.15064095 -0.16836795 -0.12580703 0.4673025
000090 af f2 58 3e 7f 51 8e 3e 99 27 4a 3e 26 4a 1d 3d
       0.21186326 0.27796552 0.19741668 0.03840079
0000a0 ac d2 87 3c 02 42 33 3e 0c 16 de 3d f0 e0 12 be
       0.016579948 0.17505649 0.10844049 -0.1434362
0000b0 a9 7d 06 3c a0 72 30 3e 5b 63 67 3e b6 6f 94 3d
       0.008208671 0.17231226 0.22596495 0.0724787
0000c0 f7 de b2 bd 7a 04 50 3e c8 fc df bd 99 5b 56 be
       -0.087339334 0.20314208 -0.10936886 -0.20933379
0000d0 6e d3 95 3b eb 12 10 3d 1c 6a 1c be c3 50 59 3e
       0.0045723235 0.03517429 -0.15274853 0.21222214
0000e0 f4 a8 81 3e 38 47 ca bd 14 f5 8f 3c 53 22 b8 3e
       0.25324214 -0.09876865 0.017572917 0.35963687
0000f0 73 af 6c bd cd 62 3e be c7 ee d7 3d 9f 45 85 3e
       -0.05778451 -0.18592377 0.1054359 0.2602968
000100 33 0c ed 3d 9e 92 70 3e 73 cb 0d bd 6e 77 6f 3d
       0.115745924 0.2349343 -0.034617852 0.058463506
000110 2f 48 f9 3d 00 1c c8 bd 95 a2 99 3c 3c d3 77 bd
       0.12171971 -0.097709656 0.018754283 -0.060504183
000120 fb ef ab be 6c e0 06 3f 5b e0 8c 3e cd 6b a1 3e
       -0.33581528 0.5268619 0.2751492 0.31527558
000130 d9 eb fc be be da 0f 3f 54 a0 b2 be da 6d d5 3d
       -0.49398687 0.5619315 -0.34887946 0.10421343
000140 1e 7e 1d bf ab 28 f0 bd 86 aa 31 3e 73 6c 18 3c
       -0.61520565 -0.11726507 0.17350206 0.0093032
000150 ff 64 b9 3e 4e 2d 4f be 87 31 3b 3e d4 27 cc 3e
       0.36209866 -0.20232126 0.18280612 0.39874136
000160 55 6c 31 3f 42 87 32 c0 09 29 c4 3d fc 1e 65 3d
       0.69305927 -2.7895055 0.09578139 0.055937752
000170 98 6a d1 3e 2d d7 16 3e a8 44 d6 bd 37 db a7 3e
       0.40901637 0.1473052 -0.10462314 0.32784435
000180 7d c5 19 3d 72 91 e5 bd d8 9b 35 be 27 33 5b 3e
       0.037541855 -0.11209382 -0.17735231 0.21406232
000190 49 17 9a 3e ed 0d 14 3e dc 9c 09 be 80 50 1b 3f
       0.3009589 0.14458437 -0.13438743 0.6066971
0001a0 34 eb e1 3d 84 7a 8a be b8 3f 61 bc b1 92 ac 3d
       0.110311896 -0.27046597 -0.013748102 0.08426417
0001b0 e4 54 7e bd 64 cf 8b 3e 20 16 99 3e c0 37 4b 3d
       -0.062092677 0.27306664 0.29899693 0.049613714
0001c0 23 07 fc 3d d1 6c ee 3e 71 75 d8 bc 91 e2 03 be
       0.12306049 0.46567395 -0.026423188 -0.12879397
0001d0 fa 26 92 be aa db 36 3e 72 46 04 3e fd d9 26 3e
       -0.28545362 0.17857233 0.12917498 0.16294093
0001e0 62 c4 9d bd 66 b7 18 3f 0c 96 fa bd c8 94 8d be
       -0.07703473 0.59654844 -0.122356504 -0.27652574
0001f0 64 f1 fa 3c ce 6f 9b 3b 4f 12 b1 be 1c 4f 51 3e
       0.030632682 0.0047435528 -0.3458428 0.20440334
000200 3d 81 d4 3d f3 4f 2c 3e d7 ca 24 3e 3a c6 fa 3e
       0.10376213 0.16827373 0.16093002 0.4897936
000210 68 36 d8 bd 1c 58 17 3c af 63 b2 bd 95 8c 62 3e
       -0.10557252 0.0092373155 -0.087104194 0.2212394
000220 75 c4 00 3f 7a 72 af 3d 26 bc 59 bd 19 10 3a 3e
       0.5029977 0.085667565 -0.053157948 0.18170203
000230 10 f6 5a 3e 70 48 64 bd d9 0c f4 3c 37 b1 54 be
       0.21382928 -0.055733144 0.029791282 -0.20770727
000240 0d af 7b 3d 23 12 36 be 52 07 70 be be ab 7c be
       0.06144624 -0.17780356 -0.23440292 -0.2467489
000250 8f da 09 3f 2d 0a 25 bf 84 57 09 3f 31 36 4c 3e
       0.5384912 -0.6446865 0.53649163 0.19942547
000260 99 89 87 bd 97 0f 4b 3b 28 df 6c be c7 71 aa 3d
       -0.066180415 0.0030984634 -0.23132002 0.083224826
000270 41 e5 c9 3c a6 af 62 be 90 96 9b bd 94 ae a2 3a
       0.02464545 -0.22137317 -0.07597077 0.0012411647
000280 f7 b0 26 be 2e f4 cd 3f c1 03 cd 3d 2a 46 7b be
       -0.16278444 1.6090143 0.100104816 -0.24538484
000290 d1 8a 58 be 98 4a 40 be 84 1f 96 3e e4 ae 9d bd
       -0.21146704 -0.18778455 0.2932092 -0.07699373
0002a0 07 60 60 3d 9f db 09 3c 3e 4c 7b bd a1 31 16 be
       0.05477908 0.008414178 -0.061352007 -0.1466737
0002b0 eb 7f dd ba ee 9c be 3d 4d ae 6c 3e 01 55 f3 bd
       -0.0016899084 0.09307276 0.23113365 -0.118814476
0002c0 37 be c6 3d d5 ca 21 bc cf 1b 17 be d1 c6 3a 3e
       0.09704249 -0.009875019 -0.14756702 0.18239905
0002d0 74 38 33 3e ec 82 be be 15 b8 00 3d 0a c7 24 be
       0.17502004 -0.3720926 0.031425554 -0.16091552
0002e0 82 9c 1c 3d 95 06 61 be 24 17 f4 3d 89 a6 9f be
       0.038235195 -0.21975167 0.11918476 -0.31181744
0002f0 ab 60 55 bd 30 28 1f be 67 e8 35 3d 50 35 07 be
       -0.052094143 -0.15542674 0.04441109 -0.13203931
000300 2c f7 85 3e 52 d0 79 be 2c fa 26 3e 98 21 98 bd
       0.2616514 -0.24395874 0.1630637 -0.074282825
000310 26 6a 27 be 2f b5 5f 3d 6c 98 4a be 65 87 4f be
       -0.16349086 0.05461615 -0.19784707 -0.20266493
000320 e8 47 b7 3d c5 64 57 bd cb ee 0a be a8 b6 d8 bd
       0.08949262 -0.052586336 -0.13567655 -0.10581714
000330 8b 9e 73 3d e7 72 e6 bd f7 88 69 be 0c 46 b1 3c
       0.05947737 -0.11252385 -0.22806154 0.021639846
000340 d6 fd 33 3e 88 6b 2e 3d d4 89 2f bd f1 52 95 bd
       0.175773 0.04258302 -0.042856053 -0.072912104
000350 c9 e1 e2 3d 41 60 91 bd db 9a fb 3b fb be 44 3e
       0.11078221 -0.07098437 0.0076783723 0.19213478
000360 88 06 98 bd b1 1b 06 3b 86 0e cf 3c 46 2f 2b 3d
       -0.07423121 0.0020463283 0.02527548 0.04179313
000370 dd 3d 9e 3d 77 e3 61 be 40 2c 11 bd 30 f9 78 be
       0.07726643 -0.22059427 -0.03544259 -0.24313807
000380 41 ec 7a bd 7f 93 22 bc 13 0e a3 bd ad 6e 49 bd
       -0.061260466 -0.009922861 -0.07961669 -0.049177814
000390 fe 2b 4a 3e 45 8e ae 3d 70 9f 9b bd 1e cf 8f 3c
       0.19743344 0.085232295 -0.0759877 0.017554816
0003a0 09 43 70 be 1f bc 46 3e 7a d3 1e be c3 19 cb 3e
       -0.23463072 0.194077 -0.1551036 0.39668092
0003b0 8b 85 21 3e 94 cb 62 3e a4 68 bb be 31 04 1e 3d
       0.15773599 0.22147971 -0.36603272 0.038578216
0003c0 b8 0d 05 3e fb b0 14 3e 55 49 b7 be 5b 38 ee 3d
       0.12993515 0.14520638 -0.35798135 0.11631843
0003d0 ed 17 9d 3e 68 77 52 3e 28 01 b2 be 26 55 93 bd
       0.30682316 0.20553362 -0.34766507 -0.07193975
0003e0 20 c1 ba 3d 3f 0e 21 3c a8 b7 54 3d 02 ea 0c bf
       0.09118867 0.009830057 0.05193296 -0.5504457
0003f0 14 0b ac bd d0 e1 40 be 95 7a 65 bd 6f 69 04 3d
       -0.084005505 -0.1883614 -0.056025106 0.03232711

mps.1.l1.edge_block.m.0.bias f4 [16]
000000 d6 3c 4e 3e 1d 4e 43 3f 92 72 a8 be 79 8f e1 bd
       0.20140395 0.76291066 -0.3289991 -0.11013693
000010 5b 08 4a 3e 9c fa 4e be 6c dd 06 bf 1d e3 25 be
       0.1972975 -0.20212787 -0.5268161 -0.16199918
000020 1e bc 59 3f af ce 10 3f f5 db 6a 3f d0 a9 74 3e
       0.8505267 0.56565374 0.9174188 0.23892903
000030 c5 f9 b3 3e 51 d0 84 bd 95 fc 5d 3f 02 a4 3c 3d
       0.35151497 -0.06485046 0.86713535 0.046054848

mps.1.l1.edge_block.m.2.weight f4 [1, 16]
000000 6d 87 28 bd af d6 0c 3e ee 47 50 bb 88 54 80 bb
       -0.041144777 0.1375377 -0.0031781155 -0.003916327
000010 f6 b5 91 bf a0 a5 a1 3c 7b af bf bc 76 65 5c bc
       -1.1383655 0.019732296 -0.023399105 -0.013451925
000020 75 37 48 3f 54 f8 01 3e f7 be 88 3e 9b 38 39 bb
       0.7820962 0.12692386 0.26708195 -0.00282625
000030 bd f0 6e 3e 87 ff d2 bd 82 af 82 3e 5e 93 d1 3c
       0.23334022 -0.10302644 0.25524527 0.025582965

mps.1.l1.node_block.m.0.weight f4 [16, 9]
000000 e8 e4 a5 3d 6f ef 43 3e 70 76 54 3d 76 72 4e 3d
       0.08100301 0.19134305 0.051870763 0.050402127
000010 de f4 86 bd f1 d3 55 3e b9 2d 38 be 8c f7 13 3e
       -0.065896735 0.2088163 -0.17986192 0.144499
000020 e0 a1 b7 3e 81 c9 fb bd 53 b9 26 bc 88 5a 47 3d
       0.35865688 -0.12294293 -0.010176021 0.04867032
000030 ff b3 15 be 47 44 25 bd 92 9d cd bd ac 7f 48 bd
       -0.14619444 -0.040348317 -0.1003982 -0.048949882
000040 a0 1a e9 3c 3b b5 8f be 07 30 26 3e 6a cc f0 3d
       0.028455079 -0.28067955 0.16229258 0.11757739
000050 51 05 16 3e d3 0a fa 3d b0 1b ac 3d 4e 63 3d 3e
       0.14650466 0.12209096 0.084037185 0.18494913
000060 0b b3 83 be dc d1 26 be 6b ba bf bd 48 32 53 be
       -0.25722536 -0.16290992 -0.09361728 -0.2062465
000070 fa fd d2 bc a2 28 fb 3d f1 be 58 3d d2 2d 28 3e
       -0.025755871 0.122636095 0.05291647 0.16423729
000080 d8 eb fa bc 04 ef d0 bc 94 f2 06 be 53 14 d0 be
       -0.030630037 -0.025504597 -0.13178474 -0.40640506
000090 96 2a 26 be 36 0b 39 3e 16 6b f3 3d f2 2d 2f 3e
       -0.16227183 0.18070683 0.118856594 0.1710737
0000a0 35 d1 01 be 0d 01 db 3d eb 92 0c be 08 21 e4 3c
       -0.12677462 0.1069356 -0.1372792 0.027847782
0000b0 6b 9b 06 3e 51 db aa 3c 0b 00 b8 bc 01 16 b2 bd
       0.13145225 0.020856531 -0.022460958 -0.08695603
0000c0 34 19 be 3d 62 c0 36 bd 04 73 18 be da f5 99 3d
       0.09282151 -0.044617064 -0.14887625 0.075175956
0000d0 05 75 e6 3c 07 44 8e be 6e e0 e7 3d c0 4c 5f bd
       0.028131971 -0.27786276 0.113221034 -0.054516554
0000e0 a2 bb aa bd 37 4a 65 be ac ec 72 3d ff 49 21 be
       -0.08336569 -0.22391592 0.05930774 -0.15750884
0000f0 02 f0 d0 3b 82 52 9b bd cb 06 4a 3e 87 d1 5b bd
       0.0063762674 -0.075840965 0.19729154 -0.053666618
000100 00 70 1f bc a2 34 ca 3d a1 32 7c 3d da d9 b2 bc
       -0.009731293 0.0987332 0.06157172 -0.021832395
000110 23 8c 15 3e 4d 2a a5 3d 94 1c 17 be 10 e3 e1 ba
       0.14604239 0.08064709 -0.14756995 -0.0017233808
000120 d9 c8 ff bd d3 59 b0 bd 38 72 bc bd 27 27 2d be
       -0.124894805 -0.086108826 -0.09201473 -0.16909467
000130 bd 88 f9 3d 4e f9 8c be 0d 28 72 3e 4d 67 eb bd
       0.12184284 -0.27533954 0.2364809 -0.114943124
000140 7d dd 57 be e2 8c af 3c 22 74 90 3d 4b 6b ac bd
       -0.21080585 0.021429483 0.070534006 -0.08418902
000150 5c d1 22 bd c8 3f c2 3d fe ba 69 bc a0 c2 43 3d
       -0.039750442 0.094848216 -0.014265774 0.04779303
000160 a9 d7 e0 3d f2 68 d8 be 06 d8 aa be f2 be 94 3e
       0.10978634 -0.42267567 -0.33367938 0.2905193
000170 df 7d ee bd b4 0d 1a 3e 47 cd bf bd 1d 6b 97 3e
       -0.11645102 0.1504429 -0.093653254 0.29573908
000180 1b 17 a7 be 7f 0f 5f be 98 99 50 be 12 71 de 3c
       -0.32634816 -0.21783255 -0.20371091 0.027153526
000190 d0 a1 f7 3d fd 12 16 3e f7 fc 35 3b a8 af ae 3d
       0.1209141 0.14655681 0.0027769187 0.085295975
0001a0 df 90 68 bd 90 e5 93 bb 40 14 3d bb e2 a3 ce 3e
       -0.056778785 -0.00451345 -0.0028851181 0.40359408
0001b0 c3 7d 35 be 94 f8 a9 3c e6 d4 78 3e 9b fd b7 bd
       -0.17723756 0.020748414 0.24299964 -0.08983918
0001c0 26 e0 7c be 94 cc d9 bd f3 0b 09 be bd da bd 3d
       -0.24694881 -0.10634723 -0.13383465 0.09270237
0001d0 89 2e 81 3d d8 bd 5b be 02 13 5d 3e 1b 64 06 be
       0.06307704 -0.21459138 0.21589282 -0.13124125
0001e0 ac 77 75 3d e6 75 14 be 40 96 1e be 89 0b d1 3d
       0.05992858 -0.144981 -0.15487003 0.10207278
0001f0 0c 20 c3 3d ae e8 02 3e d4 b9 98 bd ad ad a3 3c
       0.09527597 0.12784073 -0.07457319 0.019980276
000200 e5 ab 12 3e 8c 51 1c 3d 1a e9 8d bd 66 b6 88 3e
       0.14323385 0.038163707 -0.06929226 0.2670166
000210 0a 2a ff be 24 2e ce 3d 56 ba 3a be cd c2 83 3d
       -0.4983676 0.100673944 -0.18235144 0.0643364
000220 99 82 99 bd 4e 5e 88 bd 36 d1 d0 bc 2c 54 45 3e
       -0.07495613 -0.06658612 -0.025490385 0.1927039
000230 c1 ec 82 bc 1c 8c 0b bd 64 56 1c 3d 65 34 c3 be
       -0.015982034 -0.034069166 0.038168326 -0.3812591

mps.1.l1.node_block.m.0.bias f4 [16]
000000 a6 d1 d6 3e 45 86 e4 3e 13 98 4a bf e1 29 1b 3e
       0.41956824 0.4463369 -0.79138297 0.15152694
000010 08 2b 24 3e 8c a9 a0 be 4c b3 03 3f cf 31 ac be
       0.1603204 -0.31379354 0.5144546 -0.3363175
000020 64 ca 1e 3f de 3c ab 3e 75 f6 c2 be 57 cb 8b 3e
       0.62027574 0.33444875 -0.38078657 0.27303573
000030 9c d8 ba 3e f2 2e 21 bc 00 ee b1 be 7b d7 7f 3e
       0.36493385 -0.009837853 -0.34751892 0.24984543

mps.1.l1.node_block.m.2.weight f4 [8, 16]
000000 50 2f 8e 3e 4f b1 81 bd 56 b1 b5 3d fe 3d 89 be
       0.27770472 -0.06332647 0.08871715 -0.2680511
000010 a3 26 80 3d ab 72 82 be 8c e8 b4 3d 0a b4 8f bd
       0.06257369 -0.2547811 0.08833417 -0.070167616
000020 1b de 28 be 76 0c a7 be dc 05 73 3e 9e 2e 89 bc
       -0.16490977 -0.32626694 0.23732704 -0.016745862
000030 10 6e bb 3c a0 e7 a4 bd 11 6b 09 3a 60 3d 58 be
       0.02287963 -0.080519915 0.00052420894 -0.21117163
000040 1f 8b a7 3c 6e 3a 4b be 74 4e 85 3e ca 98 84 3e
       0.02045208 -0.19846508 0.26036417 0.2589782
000050 49 c8 30 bd 71 97 58 3e 4c 9d 4b 3e 80 48 04 3e
       -0.043159757 0.2115152 0.19884223 0.12918282
000060 36 e9 a5 bd 20 e3 15 bd ca bc 4e bc d8 aa 82 3e
       -0.08101122 -0.036593556 -0.012618253 0.25520968
000070 9f fc 7f 3e 67 a6 13 bd 01 aa 45 3d fd 6a 93 3d
       0.24998711 -0.036047366 0.04825783 0.07198141
000080 47 0a 5d be d6 31 85 3b 00 3a cd bd 66 cb cd bd
       -0.21585952 0.004064779 -0.10020828 -0.10048561
000090 df 99 c6 bc 38 2e 2d 3c 78 b1 c3 3d ed a6 b3 bd
       -0.024243293 0.010570101 0.09555334 -0.08772073
0000a0 8c 7d 01 be 4b d9 a8 be 36 cf 4c 3e 48 54 4f 3d
       -0.12645549 -0.3297828 0.2000092 0.050617486
0000b0 aa 97 b4 bd 90 81 2e 3b 35 e1 51 bd 92 8e 00 be
       -0.0881799 0.0026627518 -0.051240165 -0.12554386
0000c0 6b e6 c4 3c 94 ec 23 3e 36 0b ce 3c 25 25 c8 3d
       0.024035653 0.16008216 0.02515183 0.0977271
0000d0 65 87 3f 3e 7f 3d 3e 3d 6a f3 85 bd 82 cd 85 bd
       0.18703993 0.046445366 -0.06540568 -0.06533338
0000e0 c2 4f 2c 3e c9 6d 89 bb 0b 0c 0d 3e 55 86 b7 bc
       0.168273 -0.0041939956 0.13774125 -0.022402922
0000f0 1f 37 5d bb ac 6e 24 3e 0c 8b d9 3d 7b 59 8e 3d
       -0.0033754779 0.16057843 0.10622224 0.06950661
000100 c9 33 30 3e 02 63 0a 3d c3 f7 bc bd db d8 14 3e
       0.17207254 0.033785827 -0.09226944 0.14535849
000110 f2 90 4a 3e e1 d7 63 be 44 94 4c 3e 44 2d 93 3d
       0.19781855 -0.2225032 0.19978434 0.07186368
000120 4a ee 7a bd 50 53 eb 3d 81 6a 83 be b6 83 4a 3e
       -0.061262406 0.114905 -0.25667194 0.19776806
000130 8d 14 89 3e ec f6 c4 3d 0c c0 29 be 93 79 0c be
       0.26773492 0.09617409 -0.16577166 -0.13718252
000140 7d 70 ec 3d 19 6a 8b be b8 d1 a7 bd 4e 9d 94 3c
       0.11544893 -0.27229384 -0.081942976 0.018141415
000150 61 02 09 3e 79 ca f3 bc 93 be d6 3d d6 fb cd 3d
       0.13379814 -0.029759632 0.10485568 0.100577995
000160 0f cc bd bd 99 b2 2a be a0 b5 8f bd d5 06 4d 3e
       -0.09267437 -0.16669692 -0.07017064 0.20022137
000170 e1 7d 46 3d 12 4b be bd f1 1c 13 be 44 24 cd bd
       0.04845989 -0.09291662 -0.14366509 -0.10016683
000180 2d 2a 5d 3c 6f 2a e7 3c b5 2c af 3d f7 dc b9 be
       0.013498825 0.028218476 0.08553449 -0.36301395
000190 84 11 48 be 68 93 24 be dc 8b ba bc 88 3d a0 bb
       -0.19537932 -0.16071856 -0.022771768 -0.0048901476
0001a0 23 ae 30 bd 77 5b 8e be f1 a1 20 3e dc 10 32 3e
       -0.04313482 -0.27804157 0.15686776 0.17389244
0001b0 35 34 76 bc 99 3e c2 be 71 8a 2a 3e ad 6c 91 be
       -0.015027096 -0.37938383 0.16654374 -0.28403226
0001c0 f0 0f a3 be 9a 59 b0 3c 29 1b c1 bb 86 dc c8 3e
       -0.31848097 0.0215271 -0.0058931303 0.39230746
0001d0 52 ed df bd f0 d1 ba 3d 49 a1 5e be bd de df 3d
       -0.10933937 0.09122074 -0.21741213 0.10931156
0001e0 d0 76 5a bd 1a b9 8b 3e e7 63 10 3e 4b 4f a4 bd
       -0.053335965 0.2728966 0.1410061 -0.080229364
0001f0 a6 b6 97 bd e6 cf 61 bd 95 a1 04 3d 3f 19 3a 3d
       -0.07407884 -0.055129908 0.03238066 0.045434233

mps.1.l1.node_block.m.2.bias f4 [8]
000000 a6 98 20 bf 9d b4 7b bf 22 a5 3d 3e 20 05 09 3f
       -0.62732923 -0.9832247 0.18520024 0.53523445
000010 7c 40 74 3f 34 7a 87 3e a7 7b f2 be c2 d4 08 bf
       0.95410895 0.2646042 -0.47359964 -0.5344964
