archive-july16/results/nif_sketched_50epochs/model_epoch43.pt (torch, 44782 bytes, 56 tensors)

mps.0.l1.edge_block.m.0.weight f4 [16, 17]
0	0x3e17f23b	0.14838497
1	0x3f828117	1.0195645
2	0x3ef37554	0.47550452
3	0x3fa39932	1.2781126
4	0x3f8dedda	1.1088212
5	0x3fbc82b3	1.4727386
6	0x3fcc23a8	1.5948381
7	0x3fb31938	1.3992071
8	0x3d08989b	0.03334866
9	0x3fe360ed	1.7763954
10	0x3f0d9331	0.5530272
11	0x3f6c4195	0.9228757
12	0x3fc7651c	1.5577731
13	0x3fe27a11	1.7693502
14	0x3fdfb194	1.7476068
15	0x3fd0453a	1.6271126
16	0x3ec5d9b5	0.3864266
17	0x3b8c4dc2	0.0042817304
18	0xbd9cb004	-0.0765076
19	0x3d1955a0	0.037435174
20	0xbd9abc90	-0.07555497
21	0xbcaef84c	-0.021358632
22	0xbd835689	-0.0641299
23	0x3dd584d3	0.10425725
24	0xbe0002bc	-0.12501043
25	0xbda2afcd	-0.079436876
26	0xbd402839	-0.04691336
27	0xbdc6faeb	-0.097158276
28	0x3c447af7	0.011992208
29	0xbe220cc5	-0.15825184
30	0x3e117f8d	0.14208813
31	0xbe0982a6	-0.13428745
32	0x3df8452f	0.12122571
33	0x3cd773c6	0.026300322
34	0xbd7c1e82	-0.061552532
35	0x3cfeb557	0.031092329
36	0xbd279862	-0.040916808
37	0x3d74e377	0.05978724
38	0xbd499db7	-0.049222674
39	0xbd74b5f0	-0.05974382
40	0xbb165812	-0.0022940678
41	0xbdc09a47	-0.09404426
42	0x3d678514	0.056523398
43	0x3d9a0685	0.07520775
44	0x3cd2e718	0.02574496
45	0xbe0b233b	-0.13587658
46	0x3ccbaeff	0.024863718
47	0x3c935e9b	0.017989447
48	0x3d110fa4	0.035415307
49	0xbe16be3e	-0.14721009
50	0xbe47f35e	-0.19526431
51	0xbd85e9c0	-0.06538725
52	0xbe060fc4	-0.13091952
53	0x3df632e6	0.12021427
54	0x3d086b31	0.03330535
55	0x3d610833	0.05493946
56	0x3d46131f	0.04835808
57	0xbb88b1bb	-0.0041715777
58	0x3df8696d	0.12129483
59	0xbde7a856	-0.113114044
60	0x3aa75e00	0.0012769103
61	0xbdec8794	-0.11549297
62	0x3d1aaa96	0.03776034
63	0xbd82eef7	-0.06393235
64	0x3d3f7764	0.04674472
65	0xbd0c68ea	-0.03427974
66	0x3e03e4ad	0.12880202
67	0xbdbcac50	-0.092125535
68	0xbded497b	-0.11586281
69	0xbe0bb5c5	-0.13643558
70	0x3dce293a	0.10066457
71	0x3b6839d7	0.0035434866
72	0x3dda13f6	0.106483385
73	0xbe0e17c1	-0.13876249
74	0xbe292e03	-0.16521458
75	0xbe0ae767	-0.13564835
76	0xbdfb8c2d	-0.12282596
77	0x3cb6aaa3	0.022298163
78	0x3c8742e4	0.016511388
79	0x3da95298	0.08267707
80	0xbe012f3a	-0.12615672
81	0xbdee7a9f	-0.11644482
82	0x3d994968	0.07484704
83	0xbd9b60a9	-0.07586796
84	0x3d9807bb	0.074233495
85	0xbc62f914	-0.01385333
86	0xbef50505	-0.47855392
87	0xbf2a0d68	-0.66426706
88	0xbf04facd	-0.5194519
89	0xbf06d6bc	-0.5267141
90	0xbf100332	-0.56254876
91	0xbf036da5	-0.5133918
92	0xbeceb1a8	-0.40369916
93	0x3e1c7dff	0.15282439
94	0xbf838863	-1.0275997
95	0xbeeee65f	-0.46660134
96	0xbe66adf5	-0.22527297
97	0xbf2333ec	-0.637511
98	0xbfeef00d	-1.8667008
99	0xbf203005	-0.6257327
100	0xbf2e2019	-0.6801773
101	0xbe45cdd3	-0.19316797
102	0xbdb01ee1	-0.0859964
103	0x3f3b8177	0.7324442
104	0x3eb1e0ae	0.3474173
105	0x3f607efa	0.8769375
106	0x3f3c89b3	0.7364761
107	0x40318e88	2.7743244
108	0x3f82fdb4	1.0233674
109	0x3f6e5c30	0.93109417
110	0x3d509e64	0.050932303
111	0x3f8f71be	1.1206586
112	0x3f28d7b8	0.6595416
113	0x3f4fac26	0.8112205
114	0x3f6a7110	0.9157877
115	0x3fbfd44a	1.498666
116	0x3f97d118	1.1860685
117	0x3f77b50e	0.9676064
118	0x3d9edfd1	0.07757533
119	0xbdc15437	-0.09439891
120	0x39e51997	0.0004369735
121	0xbd705383	-0.058673393
122	0xbc33053b	-0.01092654
123	0xbddad3c3	-0.106849216
124	0xbddda7eb	-0.108230434
125	0xbdbc6579	-0.09199042
126	0xbd5d13bb	-0.053973895
127	0xbdfee1ef	-0.12445437
128	0x3e076221	0.13221027
129	0xbd002e19	-0.031293962
130	0x3e0aec63	0.13566737
131	0x3d493d4d	0.049130727
132	0xbe08ba19	-0.1335224
133	0x3ddf7a5f	0.10912012
134	0xbd31b450	-0.04338485
135	0xbd7792c6	-0.06044271
136	0xbe13e15d	-0.14441438
137	0xbe3ef04a	-0.1864635
138	0x3c840787	0.01611687
139	0xbd8f5dd1	-0.07000316
140	0x3ced2aa6	0.028951
141	0xbe09eb00	-0.13468552
142	0x3de493be	0.11160992
143	0xbdfcabee	-0.123374805
144	0xbd18babe	-0.037287466
145	0x3b7936b5	0.0038026993
146	0x3d598efb	0.053114872
147	0x3dbcdff2	0.09222402
148	0x3de47262	0.11154629
149	0xbe058bcb	-0.13041608
150	0x3d0c303e	0.034225695
151	0xbd9a5a2d	-0.07536731
152	0xbcfa136f	-0.030526845
153	0xbd0f29aa	-0.034951843
154	0x3eaa6dd0	0.33286905
155	0xbdb7bddf	-0.08971762
156	0x3f05280f	0.5201425
157	0x3eb515b8	0.35368133
158	0x3fe639fd	1.7986447
159	0x3efe4d48	0.49668336
160	0x3f11e190	0.56984806
161	0xbf8b8d48	-1.0902491
162	0x3da1b433	0.078956984
163	0xbf7609d1	-0.9610873
164	0x3ea3832a	0.31936008
165	0x3d9e6097	0.07733267
166	0x4028cc47	2.637468
167	0x3f37a640	0.7173805
168	0x3ecad4e7	0.39615557
169	0x3ef4f40a	0.47842437
170	0xbd955a5a	-0.07292624
171	0xbf1d1451	-0.61359125
172	0xbed54877	-0.4165685
173	0xbf0b6951	-0.54457575
174	0xbf325657	-0.69662994
175	0xbf448294	-0.76761746
176	0xbf252c9e	-0.64521205
177	0xbefc623d	-0.492937
178	0x3e2585b2	0.16164282
179	0xbf827bce	-1.0194032
180	0xbde24234	-0.110477835
181	0xbeb48174	-0.35255015
182	0xbf00564f	-0.50131696
183	0xc00668b4	-2.1001406
184	0xbee3e840	-0.4451313
185	0xbf08489a	-0.5323578
186	0x3d3e84af	0.046513256
187	0xbce55434	-0.027994253
188	0xbd34eb50	-0.044169724
189	0x3c6fea76	0.014643302
190	0xbcfd8936	-0.030949216
191	0xbd4ba987	-0.04972222
192	0x3dcd9638	0.100384176
193	0x3e0a5f90	0.13513017
194	0xbc842eb4	-0.016135551
195	0xbd11c72b	-0.035590332
196	0xb8f13dfe	-0.000115033225
197	0xbc3eb69e	-0.011640219
198	0x3d0e98c8	0.034813672
199	0x3d29cc08	0.041454345
200	0xbe1310ca	-0.14361873
201	0xbd6fe6c8	-0.0585697
202	0x3e076f9c	0.1322617
203	0x3d7490b6	0.05970832
204	0xbc007e3c	-0.007842597
205	0xbdc2b22b	-0.09506639
206	0xbdc591cc	-0.09646949
207	0xbe10a264	-0.14124447
208	0xbd52869a	-0.051397897
209	0x3d5a1bd9	0.053249214
210	0x3dcde806	0.100540206
211	0x3d95188e	0.07280074
212	0xbe0eb97d	-0.13937946
213	0xbdc23230	-0.09482229
214	0xbccbda9e	-0.024884518
215	0x3e1c30db	0.15253012
216	0x3cbadb38	0.02280961
217	0xbd274273	-0.040834855
218	0x3d85998f	0.065234296
219	0xbd75feaa	-0.06005732
220	0xbdd10507	-0.10206037
221	0x3e5a4ffb	0.21319573
222	0x3f61e834	0.8824494
223	0x3f025b09	0.5092016
224	0x3f886fb6	1.0659091
225	0x3fa9327a	1.3218529
226	0x3fd060f1	1.6279584
227	0x3fe9c922	1.8264506
228	0x3fa3b64b	1.2790006
229	0xbe4f72f1	-0.2025869
230	0x3fed388d	1.8532883
231	0x3f0a2a3b	0.5397069
232	0x3f869fee	1.0517557
233	0x3fd2c71c	1.6467013
234	0x3ffc0806	1.9689949
235	0x3fe78b7f	1.8089446
236	0x3fde971c	1.7389865
237	0x3ddf8fa8	0.10916072
238	0xbe0a569a	-0.13509598
239	0xbe1706a5	-0.14748628
240	0x3d8431ef	0.064548366
241	0xbd9e8c29	-0.07741577
242	0xbd01fae0	-0.031733394
243	0xbdb9d8fb	-0.09074589
244	0xbceb615e	-0.028732952
245	0xbde34a10	-0.11098111
246	0xbdd301fe	-0.10303114
247	0x3d563cc0	0.05230403
248	0xbd3ff253	-0.046861958
249	0x3dc75bee	0.09734331
250	0xbd4f32d1	-0.05058557
251	0xbdece40a	-0.115669325
252	0xbce3e874	-0.027820803
253	0xbd9c89c6	-0.07643466
254	0xbd459841	-0.048240904
255	0xbe72900d	-0.23687764

mps.0.l1.edge_block.m.0.bias f4 [16]
0	0x3fe37d0e	1.7772539
1	0x3df03ea9	0.117307015
2	0x3dc209e4	0.09474543
3	0xbd23d3ee	-0.039997034
4	0xbe156894	-0.14590675
5	0xbee1a57d	-0.4407157
6	0x3fa17395	1.2613398
7	0xbe20b490	-0.15693879
8	0xbd3d4f24	-0.046218053
9	0x3f0037ae	0.5008496
10	0xbf0c985a	-0.5491997
11	0xbda07e7b	-0.07836624
12	0xbd84007b	-0.06445404
13	0x3fdd5171	1.7290479
14	0xbe197082	-0.14984325
15	0x3f7983f7	0.9746699

mps.0.l1.edge_block.m.2.weight f4 [1, 16]
0	0x3e00239d	0.12513585
1	0xbc7adb87	-0.015311128
2	0xbbac670d	-0.005261308
3	0xbd79e8f9	-0.061013196
4	0xbdecf7b2	-0.11570682
5	0xbe2ded36	-0.1698502
6	0x3bd3f1f2	0.006468051
7	0xbdb6c294	-0.089238316
8	0xbdac6e4d	-0.08419476
9	0x3f96bf7c	1.1777186
10	0xbddfd52f	-0.109293334
11	0xbd55c816	-0.05219277
12	0x3bab20a6	0.005222398
13	0x3fbf7463	1.4957393
14	0xbd653888	-0.055962116
15	0x3f8ed0e9	1.1157504

mps.0.l1.node_block.m.0.weight f4 [16, 9]
0	0xbd6d23d1	-0.057895485
1	0x3fc5e660	1.546093
2	0x3f3d67ec	0.739867
3	0x3dbe5012	0.09292616
4	0x3f811070	1.0083141
5	0x3ea3a3c9	0.31960896
6	0x3e9c14a5	0.304845
7	0x3f1e252f	0.6177549
8	0x3cff192c	0.031139933
9	0x3c4ec365	0.012619828
10	0x401fe404	2.498292
11	0x3f657428	0.89630365
12	0x3f7ba09f	0.98291963
13	0x3fc1be84	1.5136266
14	0x3fab424e	1.337961
15	0x3f6321c3	0.8872339
16	0x3fc800b4	1.5625215
17	0xbe1bf5bc	-0.15230459
18	0xbd7d48ee	-0.06183713
19	0x3ea06ef1	0.31334642
20	0x3e84915c	0.2589215
21	0x3f460c55	0.7736257
22	0x3ed23d04	0.41062176
23	0x3fc7da1c	1.5613437
24	0x3f7038c0	0.93836594
25	0x3f745128	0.95436335
26	0x3e47943d	0.19490142
27	0xbe28c974	-0.16483098
28	0xbe3205ca	-0.17385021
29	0x3ddccaf6	0.10780899
30	0xbe251101	-0.16119768
31	0xbcda9654	-0.02668301
32	0x3dd4e7fc	0.1039581
33	0xbdcd6855	-0.100296654
34	0xbcc1941e	-0.023630198
35	0xbc9a872b	-0.018863281
36	0xbd5b77db	-0.0535811
37	0xbdec387a	-0.115342095
38	0xbe49eda2	-0.19719556
39	0xbe3a1e43	-0.18175606
40	0xbdf835c9	-0.12119634
41	0x3e55535d	0.20832582
42	0xbdd7bb4f	-0.10533773
43	0xbe1613f1	-0.14656045
44	0x3c5212cc	0.012821864
45	0xbc0a91b7	-0.008457593
46	0xbf58adfa	-0.8464047
47	0xbed8c81e	-0.42340177
48	0xbeb9128d	-0.36146966
49	0xbf66f485	-0.9021686
50	0xbf95c07d	-1.1699368
51	0xbec97a2b	-0.3935102
52	0xbf2d609c	-0.6772554
53	0x3d5ec5f5	0.054388005
54	0x3ddeedb3	0.10885181
55	0xc0200492	-2.500279
56	0xbf038e5f	-0.51389116
57	0xbedfc601	-0.43705752
58	0xbfb624b8	-1.4229956
59	0xbf81470c	-1.0099807
60	0xbf83256e	-1.0245798
61	0xbfdcb14b	-1.7241606
62	0x3ea524b8	0.32254577
63	0xbe62e236	-0.22156605
64	0xbd20c849	-0.039253507
65	0x3e22b97d	0.1589107
66	0x3da00d7b	0.07815071
67	0xbe2d5c15	-0.16929658
68	0xbd2bc239	-0.041933272
69	0xbe304ee7	-0.17217599
70	0xbdf81890	-0.1211406
71	0xbc2d8fad	-0.010593337
72	0x3c801bc0	0.015638232
73	0xc02473f9	-2.5695784
74	0xbf383064	-0.7194884
75	0xbe779220	-0.24176836
76	0xbfe7fd42	-1.8124163
77	0xbf913209	-1.1343395
78	0xbf5d56ee	-0.8646077
79	0xbff65fe2	-1.9248011
80	0x3f41983f	0.75622934
81	0x3c873bc9	0.016508
82	0x400122f1	2.0177577
83	0x3f5d4d8a	0.8644644
84	0x3f2bcd68	0.671103
85	0x3fb48534	1.410315
86	0x3f8e256f	1.1105174
87	0x3f8c435d	1.0958058
88	0x3fcb5ad9	1.58871
89	0x3dbd048b	0.09229382
90	0xbdf96995	-0.12178341
91	0xbe345e89	-0.17614187
92	0x3cbe2812	0.023212466
93	0x3d82e08c	0.06390485
94	0xbdcd7c90	-0.10033524
95	0xbd788293	-0.0606714
96	0x3e15d505	0.14632042
97	0x3c8d003e	0.01721203
98	0x3bbba455	0.005726377
99	0x3ba49b11	0.005023368
100	0x3f7082ab	0.93949383
101	0x3f1a9023	0.60376185
102	0x3f4e6a1d	0.80630666
103	0x3f782ef8	0.9694667
104	0x3f42833d	0.75981504
105	0x3f77e40a	0.96832335
106	0x3f76a584	0.96346307
107	0x3f593042	0.8483926
108	0x3d18cbd5	0.037303764
109	0x3fc95fa3	1.5732311
110	0x3ec849d4	0.39118826
111	0x3f0db211	0.5534983
112	0x3f7e7454	0.9939625
113	0x3fa5fb5a	1.2967331
114	0x3f25d981	0.6478501
115	0x3f76eaf1	0.9645224
116	0xbe87c082	-0.2651406
117	0x3ba837ac	0.0051335897
118	0x4038de69	2.8885748
119	0x3f708701	0.93956
120	0x3f7b8214	0.9824536
121	0x3fe15663	1.7604488
122	0x3fad9723	1.3561748
123	0x3fa0ebfb	1.2572016
124	0x40064e69	2.0985358
125	0x3de2a0c1	0.110658176
126	0xbe47aa6e	-0.19498608
127	0xbdbf0e8e	-0.09328948
128	0xbd89b9a8	-0.06724864
129	0xbdccd24c	-0.100010484
130	0x3e365914	0.17807418
131	0x3f39464e	0.723729
132	0x3d78d9dc	0.060754642
133	0xbc733026	-0.014843022
134	0x3eb4b31d	0.35292903
135	0xbd1e2f37	-0.038619246
136	0x400be567	2.1858766
137	0x3f2a9af0	0.66642666
138	0x3f6071c4	0.8767359
139	0x3fcce0b8	1.6006079
140	0x3fa27d61	1.2694513
141	0x3f7e68a0	0.99378395
142	0x3fdf40af	1.7441615
143	0xbd2f3c7c	-0.04278229

mps.0.l1.node_block.m.0.bias f4 [16]
0	0x3d112c58	0.03544268
1	0x3f83e116	1.0303066
2	0x3f4ac92b	0.7921321
3	0xbe35a845	-0.17739971
4	0x3d2611d4	0.040544346
5	0xbeefbb1c	-0.4682244
6	0xbf85889e	-1.0432317
7	0xbda3693b	-0.079790555
8	0xbf5bd428	-0.858706
9	0x3f80a8c2	1.0051501
10	0xbe030663	-0.12795405
11	0x3f843089	1.0327312
12	0x3f584ca4	0.84491944
13	0x3fb78a39	1.4339057
14	0xbd8523e7	-0.065009885
15	0x3f9f4efd	1.244598

mps.0.l1.node_block.m.2.weight f4 [8, 16]
0	0xbe8640d3	-0.26221332
1	0xbe02b0d4	-0.12762767
2	0x3c5e11f2	0.013554083
3	0x3e208259	0.15674724
4	0x3e0e43cc	0.1389305
5	0x3e08029a	0.13282242
6	0x3e050826	0.1299139
7	0x3de22ca7	0.11043673
8	0x3d844db6	0.06460135
9	0xbe879240	-0.26478767
10	0x3da65192	0.08121027
11	0xbdf4f3aa	-0.11960538
12	0xbdbbd8f6	-0.091722414
13	0xbee33d81	-0.4438286
14	0xbe01f083	-0.12689404
15	0xbe097c43	-0.13426308
16	0x3d0ebae2	0.034846194
17	0xbd58e35f	-0.052951213
18	0x3d3ba063	0.045807254
19	0xbdc433e5	-0.095802106
20	0xbdd73c9e	-0.10509609
21	0x3d2e57d4	0.04256423
22	0xbd84289c	-0.06453058
23	0x3e15ad97	0.14617
24	0x3dc0da44	0.09416631
25	0x3d38e356	0.04513868
26	0x3d651e4a	0.05593709
27	0x3ee5ad8b	0.44858965
28	0x3d8a74f6	0.0676059
29	0x3d97e6ff	0.07417106
30	0x3f731f4b	0.94969624
31	0x3c01ce52	0.007922726
32	0xbe3855ec	-0.18001527
33	0xbdc3f656	-0.09568469
34	0xbd2fd575	-0.042928178
35	0xbd2137a0	-0.03935969
36	0xbda1f29a	-0.07907601
37	0x3c99bb26	0.018765997
38	0x3dcbe5ff	0.09955978
39	0x3df92339	0.12164921
40	0x3e351062	0.17682031
41	0xbdd72c85	-0.10506538
42	0xbdb2a6e6	-0.087232396
43	0xbed1e198	-0.40992427
44	0xbe019047	-0.12652694
45	0xbe95293d	-0.29133025
46	0xbede7864	-0.43451226
47	0xbc97f921	-0.018551411
48	0xbdac774b	-0.08421191
49	0xbda16b2f	-0.07881772
50	0xbd71b312	-0.059008665
51	0x3e110467	0.14161836
52	0xbe1c9ed1	-0.15294959
53	0x3e2c3431	0.16816784
54	0x3da97cec	0.0827578
55	0xbce8fb30	-0.028440088
56	0x3e90bee1	0.2827063
57	0xbc92f85a	-0.017940689
58	0x3dd0c2aa	0.10193379
59	0x3ebb0b30	0.36531973
60	0xbe18c87b	-0.14920227
61	0xbdc72628	-0.097240746
62	0x3f680bfa	0.90643275
63	0xbdbb79f5	-0.09154121
64	0x3be1f2dd	0.0068954066
65	0x3d19662b	0.03745095
66	0x3d830441	0.06397296
67	0xbcaa5963	-0.020794576
68	0x3e1e2ffd	0.15447994
69	0x3db13243	0.08652165
70	0x3d37d0b5	0.044876773
71	0xbe1ee32d	-0.15516348
72	0x3d0badc0	0.034101248
73	0xbeb709a4	-0.35749543
74	0x3e0757bc	0.13217062
75	0xbe1b221c	-0.1514973
76	0x3d362a16	0.04447373
77	0xbf07fad4	-0.5311711
78	0x3e9765fc	0.29569995
79	0xbe25ea2a	-0.16202608
80	0xbe0b4904	-0.13602072
81	0x3d873de9	0.06603605
82	0x3d804cc9	0.062646456
83	0x3e065d35	0.13121493
84	0xbd69098e	-0.056893878
85	0xbc35537b	-0.011067267
86	0x3e2f1dc7	0.17101203
87	0xbd0098e9	-0.031395826
88	0x3e9049b5	0.28181234
89	0x3e218038	0.15771568
90	0xbde1c4a9	-0.11023838
91	0x3e271806	0.16317758
92	0xbd960268	-0.07324678
93	0xbb95b958	-0.004569214
94	0xbf3c53b7	-0.7356524
95	0x3db31cfc	0.08745763
96	0x3eb825fa	0.35966474
97	0x3d71505b	0.058914524
98	0xbe2eec3d	-0.17082305
99	0xbde983ff	-0.114021294
100	0xbdcd9b09	-0.10039336
101	0xbe0b7d24	-0.13621956
102	0xbe2cf222	-0.16889241
103	0xbe1a7134	-0.15082246
104	0xbee2a555	-0.44266763
105	0xbdb5335e	-0.08847688
106	0xbe241347	-0.16022979
107	0xbe7a79f6	-0.24460587
108	0x3e5b202b	0.2139899
109	0x3ee01c8d	0.43771783
110	0x3db675ae	0.08909164
111	0x3d313c99	0.04327068
112	0xbe2588b7	-0.16165434
113	0xbe3b3a0b	-0.1828386
114	0x3c23e225	0.0100026475
115	0x3dcd173e	0.10014199
116	0xbe11eb1b	-0.14249842
117	0x3ce90353	0.028443968
118	0x3e02e1ff	0.12781523
119	0x3cee86be	0.029116984
120	0x3dc2bef9	0.095090814
121	0x3c271e41	0.010200084
122	0xbb12f8b3	-0.0022426068
123	0xbe8fe082	-0.28100973
124	0xbd6290b7	-0.055313792
125	0xbe8f9b38	-0.2804811
126	0xbe42db82	-0.19029048
127	0xbe234f77	-0.15948282

mps.0.l1.node_block.m.2.bias f4 [8]
0	0xbf6a9b05	-0.9164279
1	0xbe4bcc0e	-0.1990206
2	0xbffa841d	-1.9571568
3	0xbdb59fba	-0.08868356
4	0xbeeb8ae4	-0.46004403
5	0x3ef0d1a7	0.47034952
6	0x3faf4bbf	1.3694991
7	0xbfc74271	-1.5567151

mps.0.l2.edge_block.m.0.weight f4 [16, 17]
0	0x3d993d0e	0.074823484
1	0xbdc7541a	-0.09732838
2	0xbde77c11	-0.11302961
3	0xbd19c3f2	-0.037540384
4	0xbe10d01a	-0.14141884
5	0xbe1c2536	-0.1524857
6	0x3cd77b8f	0.026304035
7	0x3d8a3374	0.06748095
8	0x3e142828	0.14468443
9	0x3e1be207	0.15222941
10	0xbe15b4b2	-0.14619711
11	0xbde13c69	-0.109978504
12	0x3e054bf6	0.13017258
13	0x3b68f184	0.0035544345
14	0x3d6650bf	0.05622935
15	0xbcfc7e94	-0.030822076
16	0xbe36f388	-0.17866337
17	0xbd6b0467	-0.057377245
18	0x3d5fe211	0.054658953
19	0xbec95eeb	-0.3933023
20	0xbe03a2b8	-0.12855041
21	0xbd790270	-0.06079334
22	0xbcf3b434	-0.029749013
23	0x3e6b826b	0.2299897
24	0xbe80e592	-0.25175148
25	0xbb1883ab	-0.002327184
26	0xbe469ef6	-0.19396576
27	0xbe16e477	-0.1473559
28	0x3d42dd77	0.047574487
29	0x3dc8bd3c	0.098017186
30	0x3e348905	0.17630394
31	0xbd1aa683	-0.037756454
32	0x3e870a9e	0.26375288
33	0x3f46fcd8	0.7772956
34	0xbe939429	-0.28823975
35	0xbe9ee520	-0.31034184
36	0xbda78ee6	-0.081815526
37	0xbe064da5	-0.13115557
38	0xbdf8e6ed	-0.121534206
39	0x3e6d6580	0.2318325
40	0xbe38c399	-0.18043365
41	0x3e267d28	0.16258681
42	0xbe8da28b	-0.27663073
43	0xbe6b8b8d	-0.23002453
44	0xbeb56751	-0.35430387
45	0xbe127a42	-0.1430445
46	0xbe9600a5	-0.29297367
47	0x3d753e21	0.059873704
48	0x3e7b3f42	0.2453585
49	0xbdb93baf	-0.09044587
50	0xbf0e493e	-0.5558051
51	0x3da14a38	0.07875484
52	0x3e485edd	0.19567437
53	0xbe3730fa	-0.17889777
54	0x3d956c11	0.07296003
55	0xbe0da594	-0.13832694
56	0xbe435ed9	-0.1907915
57	0x3d395221	0.04524434
58	0xbcd07c3a	-0.02544986
59	0xbe073cac	-0.13206738
60	0x3e47dbb5	0.19517405
61	0xbe92ef08	-0.2869799
62	0x3d0726c6	0.03299596
63	0x3c9cbf31	0.019134136
64	0xbdcd8bc6	-0.10036425
65	0x3dff8f6d	0.12478528
66	0xbde8e827	-0.113724045
67	0x3df04705	0.11732296
68	0xbdb06c90	-0.08614457
69	0xbc0c6d7d	-0.008571026
70	0xbe983f4e	-0.29735798
71	0xbdd3521f	-0.10318398
72	0xbd0a1e0b	-0.033720057
73	0xbe2feace	-0.17179415
74	0x3ece1750	0.4025216
75	0xbe709f1e	-0.23498198
76	0x3e09d0e8	0.13458598
77	0xbe9649f6	-0.29353303
78	0x3dcda22f	0.100407
79	0x3dc6fc6a	0.09716113
80	0x3df0cfd8	0.11758393
81	0x3d4f4cab	0.050610226
82	0xbdfa1efb	-0.1221294
83	0x3dd711e3	0.105014585
84	0x3faac582	1.3341525
85	0x3d22e450	0.039768517
86	0x3e24aadd	0.16080804
87	0xbe1f7059	-0.15570201
88	0xbea6b654	-0.3256098
89	0x3e82cf01	0.25548556
90	0xbe3f288e	-0.18667814
91	0x3e9941cc	0.29933012
92	0x3d219192	0.039445467
93	0x3e8068f1	0.25080064
94	0x3e6b0c0a	0.22953811
95	0x3e606f45	0.21917446
96	0xb987d6a7	-0.00025909135
97	0x3e2bf606	0.16793069
98	0xbde22864	-0.1104286
99	0x3e470b70	0.19437957
100	0xbd8338d9	-0.06407327
101	0x3e75f5cf	0.2401955
102	0xbe5fe5cc	-0.21865004
103	0x3d48c04a	0.049011506
104	0xbe939473	-0.28824195
105	0xbe6069a0	-0.21915293
106	0xbdc21d1d	-0.09478209
107	0xbe54c79e	-0.20779273
108	0x3eb7c864	0.35895073
109	0xbe66889c	-0.2251305
110	0x3e17caa1	0.1482339
111	0xbd41ef46	-0.04734733
112	0x3e21e035	0.15808184
113	0x3d9e7d19	0.07738704
114	0x3e824454	0.25442755
115	0x3e2c8e89	0.16851248
116	0xbe9844b6	-0.29739922
117	0x3e0ec4ac	0.13942212
118	0x3f818754	1.0119424
119	0xbe8f7986	-0.28022403
120	0xbe02d87d	-0.12777896
121	0x3dfd0314	0.12354103
122	0x3e3c5583	0.18391995
123	0xbe0a5700	-0.1350975
124	0x3e823a09	0.25434902
125	0xbd112e51	-0.03544456
126	0xbd46cee4	-0.04853715
127	0xbef06e4b	-0.46959147
128	0xbe55675f	-0.20840214
129	0xbd32c5b6	-0.043645583
130	0xbea80940	-0.32819557
131	0xbeabc4de	-0.33548635
132	0x3e20bd52	0.1569722
133	0x3eb07369	0.3446305
134	0x39f46b82	0.00046619406
135	0xbf286116	-0.6577314
136	0xbe3dec5f	-0.185472
137	0x3ee8cd71	0.4546924
138	0xbec295be	-0.3800487
139	0x3eeb2ed4	0.45934165
140	0xbe80b0be	-0.25134844
141	0x3c10539c	0.0088089965
142	0xbd86c615	-0.0658075
143	0xbec2a430	-0.3801589
144	0x3a764a29	0.0009395206
145	0x3f028236	0.50979936
146	0xbea70b72	-0.3262592
147	0x3e7e07cf	0.24807666
148	0x3d3adcd3	0.04562075
149	0xbcee93d4	-0.029123224
150	0xbde3e8bd	-0.11128376
151	0xbe31c90f	-0.17361854
152	0xbd9aa9cf	-0.0755192
153	0xbda8ed8b	-0.08248433
154	0xbe99759b	-0.29972538
155	0x3d3c003b	0.045898657
156	0x3d2d3db6	0.04229518
157	0xbe6665e1	-0.22499801
158	0x3ea828c1	0.32843593
159	0xbd72a4d3	-0.05923922
160	0x3c9eed12	0.019400153
161	0xbebb64b7	-0.36600277
162	0xbe4d3243	-0.20038705
163	0xbec46f03	-0.38365945
164	0xbd86d996	-0.0658447
165	0xbe8891d3	-0.26673755
166	0xbdf7ee91	-0.1210605
167	0x3e8160b5	0.25269094
168	0xbcd1330c	-0.025537036
169	0xbeef2841	-0.467104
170	0x3d8ffb12	0.0703031
171	0xbd9cc7bf	-0.07655286
172	0xbd726c40	-0.059185266
173	0xbd747beb	-0.05968849
174	0xbbf2f6a9	-0.007414658
175	0xbe0366a7	-0.12832128
176	0x3cce7f5e	0.025207218
177	0x3c56fa84	0.013121251
178	0xbc7ec37a	-0.015549535
179	0x3d222838	0.039589137
180	0xbd5f4a49	-0.054514203
181	0x3bb76d19	0.0055977223
182	0x3d9e01cd	0.07715187
183	0xbdd39f6c	-0.10333142
184	0xbe12ff83	-0.14355282
185	0x3da11732	0.07865752
186	0x3ca62ea3	0.02028591
187	0xbe2e3bf1	-0.17015053
188	0x3df3232c	0.11871943
189	0xbe91aecd	-0.28453675
190	0xbe31e017	-0.1737064
191	0xbc8af43d	-0.016962165
192	0xbe2d494e	-0.16922495
193	0x3eea4a60	0.4575987
194	0xbeb6508d	-0.3560833
195	0x3bc28fc4	0.0059375484
196	0xbe44000f	-0.19140647
197	0x3e1a6841	0.15078832
198	0x3de6cf8f	0.112700574
199	0x3e227875	0.15866263
200	0x3e354b5a	0.17704526
201	0xbe8e8261	-0.27833846
202	0x3e9a15ce	0.3009476
203	0x3f7242a9	0.94632965
204	0xbe6b8a0b	-0.23001878
205	0x3d3ae5a9	0.045629177
206	0xbd52d9b1	-0.051477138
207	0xbdfa2b6b	-0.122153126
208	0xbe542a8a	-0.20719352
209	0xbe1e327e	-0.15448949
210	0x3e4ed82e	0.20199654
211	0xbd8b7e90	-0.06811249
212	0x3d8af7cc	0.06785545
213	0x3cebd99b	0.028790286
214	0x3e1fb1c8	0.15595162
215	0x3df19c59	0.11797399
216	0x3e2a2b13	0.16617994
217	0xbb725f50	-0.003698308
218	0xbd472223	-0.04861654
219	0x3e6a674b	0.22890966
220	0x3f840a3a	1.0315621
221	0x3e248e6a	0.16069952
222	0x3d0e64d7	0.034764137
223	0x3d1fdf2c	0.039031193
224	0xbefb170c	-0.4904102
225	0x3e699547	0.22810851
226	0xbeedf011	-0.4647222
227	0x3f07bf6d	0.5302647
228	0xbe167695	-0.14693673
229	0x3e9ad6d6	0.30242032
230	0x3e462790	0.1935103
231	0xbd18f4d7	-0.037342872
232	0xbebcdd0b	-0.36887392
233	0x3d2ea6b3	0.042639446
234	0xbe4c5f67	-0.19958268
235	0x3ea490f1	0.32141832
236	0xbd7387bf	-0.05945563
237	0x3ef4f02b	0.47839484
238	0xbda68c72	-0.081322566
239	0x3d10da25	0.03536429
240	0xbe592be9	-0.21208157
241	0xbe524f0d	-0.20537968
242	0xbe4601e3	-0.19336657
243	0xbd56a751	-0.05240566
244	0x3e0f7a40	0.14011478
245	0xbcdd6546	-0.02702583
246	0xbc5133b7	-0.012768677
247	0xbd7a44fe	-0.061100952
248	0x3ecff61e	0.4061746
249	0x3dcc3c97	0.09972494
250	0xbca767ab	-0.020435175
251	0x3c221ba0	0.009894282
252	0xbdb9c2fc	-0.090703934
253	0x3e1d21b5	0.1534489
254	0x3f31a35d	0.693899
255	0xbd935783	-0.07194426

mps.0.l2.edge_block.m.0.bias f4 [16]
0	0xbbd2a013	-0.0064277737
1	0x3fc2f1e5	1.523007
2	0xbf8b5b6b	-1.0887274
3	0x3e15064f	0.14553188
4	0x3fe89f21	1.8173562
5	0x3ed1afd6	0.40954465
6	0x3fca248e	1.5792406
7	0xbf8b2bd1	-1.0872747
8	0x3f4cf285	0.80057555
9	0xbf6a4c16	-0.9152235
10	0x3dba68d0	0.09102023
11	0x3fd8b84f	1.6931247
12	0x3fbd5319	1.4790984
13	0x3f211d48	0.62935305
14	0x3fabc660	1.3419914
15	0xbb5fad36	-0.0034130341

mps.0.l2.edge_block.m.2.weight f4 [1, 16]
0	0xbca7bf3c	-0.02047693
1	0x3ea7d639	0.32780626
2	0xbe9bc89d	-0.30426493
3	0x3df3fa6d	0.11912999
4	0x3f74d3da	0.9563576
5	0x3e7793e1	0.24177505
6	0x3f6eb3f1	0.9324332
7	0xbecd63a6	-0.40115088
8	0x3ebc3765	0.36761013
9	0xbeed4258	-0.4633968
10	0xbceeb969	-0.029141145
11	0x3f82f34a	1.0230496
12	0x3f7fd171	0.9992896
13	0x3e98e438	0.29861617
14	0x3ea4ca19	0.32185438
15	0x3e858d90	0.26084566

mps.0.l2.node_block.m.0.weight f4 [16, 9]
0	0xbd501dfe	-0.050809853
1	0xbd24a977	-0.040200677
2	0x3d0df36e	0.03465598
3	0x3d0f9489	0.035053764
4	0xbd5fa917	-0.054604616
5	0x3e42516e	0.18976375
6	0xbd805fab	-0.06268247
7	0x3e1a346b	0.15059058
8	0x3e0f12b1	0.13971974
9	0xbd2a57da	-0.041587688
10	0xbd94e76d	-0.072707035
11	0x3c83a0e3	0.016067928
12	0xbda6a1da	-0.081363395
13	0xbd21120e	-0.03932386
14	0xbe5aa97d	-0.21353717
15	0x3dd74a04	0.10512164
16	0xbdc11213	-0.094272755
17	0x3d8fc262	0.070194975
18	0x3e77e4c6	0.24208364
19	0xbd1e575f	-0.038657542
20	0xbdddde6e	-0.10833441
21	0x3e0b1b5b	0.13584654
22	0xbcb739ed	-0.022366488
23	0xbd13a493	-0.036045622
24	0x3e650a73	0.22367267
25	0xbdfe059d	-0.124034144
26	0xbe1170aa	-0.14203134
27	0xbd5ec970	-0.054391325
28	0x3caca920	0.021076739
29	0xbd9695bf	-0.073527806
30	0xbe184375	-0.14869483
31	0x3e599986	0.21249971
32	0xbd9056c2	-0.07047798
33	0xbd43a511	-0.04776484
34	0xbe539928	-0.20663893
35	0xbda5a1ca	-0.080874994
36	0xbca05e98	-0.019576356
37	0x3c035c48	0.008017607
38	0xbe479ca6	-0.1949335
39	0x3e0321fe	0.12805936
40	0xbd0536cb	-0.032522958
41	0xbe7f7b9e	-0.249495
42	0xbe1d97fd	-0.1539001
43	0x3d326720	0.04355538
44	0xbd966cc6	-0.07344966
45	0xbd434d75	-0.04768129
46	0x3e5f8471	0.21827866
47	0x3dcf9f36	0.10137789
48	0x3dcac607	0.09901052
49	0xbe5513ac	-0.20808285
50	0xbe7df21b	-0.24799387
51	0xbd58a20b	-0.05288891
52	0x3e1cde06	0.1531907
53	0xbd90fe39	-0.07079739
54	0xbd5e16f4	-0.05422111
55	0x3c8cfe34	0.017211057
56	0xbe9742ac	-0.29543054
57	0xbd59d20d	-0.053178836
58	0xbd5bcb96	-0.05366095
59	0x3d9a370a	0.07530029
60	0x3c039350	0.0080307275
61	0xbd22f54d	-0.03978472
62	0x3d334b7f	0.04377317
63	0x3d67fee1	0.056639556
64	0x3d91ffeb	0.071288906
65	0xbc8a6c72	-0.016897414
66	0x3d11f12b	0.035630386
67	0x3caec8e9	0.021336036
68	0x3db994c1	0.09061576
69	0xbd4673f5	-0.04845043
70	0xbc9b3b47	-0.018949164
71	0x3e673ac6	0.22581014
72	0x3dc7f52b	0.09763559
73	0x3dfa90f3	0.12234678
74	0xbcdbeff6	-0.02684782
75	0x3ddffae3	0.10936525
76	0x3cde6948	0.027149811
77	0x3e5b8bc2	0.21440032
78	0xbe6952ee	-0.22785541
79	0xbced8d31	-0.02899799
80	0xbdb1573a	-0.08659215
81	0x3d6a42af	0.0571925
82	0x3e205fa1	0.1566148
83	0xbdd08188	-0.10180956
84	0xbdf11cc7	-0.11773067
85	0x3d9eb76a	0.07749827
86	0xbdd0b1e9	-0.10190184
87	0xbddb1317	-0.106970005
88	0x3de598f8	0.11210817
89	0xbdc326d3	-0.095288895
90	0x3d210955	0.03931554
91	0x3d3a35e5	0.045461554
92	0xbc46e9dd	-0.012140718
93	0xbe56a48d	-0.20961209
94	0x3dc1c8eb	0.0946215
95	0xbdeb683a	-0.11494489
96	0xbdc4bed2	-0.096067086
97	0x3d697222	0.05699361
98	0xbe01ad56	-0.12663779
99	0xbcfabf57	-0.030608816
100	0x3c82498e	0.015904214
101	0xbdce7a60	-0.10081935
102	0xbe2954a9	-0.16536202
103	0x3d42fa9f	0.047602292
104	0xbd5793b1	-0.052631084
105	0xbd25ccc1	-0.04047847
106	0xbe420c37	-0.18949972
107	0xbcd5a037	-0.026077373
108	0x3dd42c9b	0.1036007
109	0x3e648415	0.2231601
110	0xbe5b995e	-0.21445224
111	0xbd314ab7	-0.043284144
112	0x3da049b8	0.07826561
113	0x3cc9f6eb	0.024653872
114	0xbdda05db	-0.10645648
115	0xbe0c16e8	-0.13680613
116	0xbd8df75c	-0.06931946
117	0xbe115d39	-0.14195718
118	0x3e2eead5	0.17081769
119	0xbcfd782a	-0.030941088
120	0xbd4e099f	-0.050302144
121	0xbd261767	-0.040549662
122	0xbd3ab888	-0.04558614
123	0xbd96e0fd	-0.07367132
124	0x3df0ac5d	0.11751626
125	0xbe57472f	-0.21023248
126	0xbcdc5e82	-0.026900534
127	0xbe616b23	-0.22013526
128	0x3d80f5f3	0.06296911
129	0x3de0f7b6	0.10984747
130	0x3d76ac82	0.06022311
131	0xbd9490bd	-0.07254169
132	0x3bac5559	0.0052591977
133	0x3cfe2f34	0.031028368
134	0xbead5bd0	-0.3385911
135	0x3e0350b9	0.12823762
136	0x3d677c9f	0.056515332
137	0x3b9ea2bf	0.004841178
138	0xbddc5fbd	-0.10760448
139	0xbde7e3d7	-0.11322754
140	0xbb9c1487	-0.0047631892
141	0x3e11b5ef	0.14229558
142	0x3b1f38ed	0.0024295405
143	0xbc3bc341	-0.011460126

mps.0.l2.node_block.m.0.bias f4 [16]
0	0x3fa2c09e	1.2715032
1	0x3f20e46c	0.62848544
2	0xbe329352	-0.1743901
3	0x3dfa3595	0.12217251
4	0x3dfe50df	0.12417769
5	0xbce9b234	-0.028527357
6	0x3edd240c	0.43191564
7	0x3f09a786	0.53771245
8	0x3b8dd9e9	0.0043289554
9	0xbe73badd	-0.23801751
10	0xbe78c669	-0.24294437
11	0x3ea06216	0.31324834
12	0x3e0cb25d	0.13739915
13	0x3dc6fc75	0.09716121
14	0xbda9ec08	-0.082969725
15	0xbdfb02ac	-0.12256369

mps.0.l2.node_block.m.2.weight f4 [8, 16]
0	0xbdf0577b	-0.117354356
1	0x3def5e70	0.116879344
2	0x3d9d552a	0.076822594
3	0x3dfadbad	0.12248931
4	0x3decc7f3	0.11561575
5	0x3d91b1ff	0.07114028
6	0xbc91d1bc	-0.017800204
7	0x3d54c055	0.051941235
8	0x3d1694ce	0.036763005
9	0x3e25ee30	0.16204143
10	0xbd66a738	-0.056311816
11	0xbcc275e7	-0.02373786
12	0xbd342e72	-0.043989606
13	0xb826a212	-3.9728424e-05
14	0x3bc86d0f	0.0061165164
15	0xbd83de9b	-0.06438943
16	0xbe3dde76	-0.18541893
17	0xbeb58615	-0.3545386
18	0xbd0504ab	-0.032475155
19	0x3c8950d0	0.016762167
20	0x3e17e600	0.14833832
21	0x3cd81da1	0.026381316
22	0xbdb2a305	-0.087225
23	0xbe91c04a	-0.28467017
24	0x3dd74575	0.10511295
25	0x3cc18700	0.023623943
26	0xbe251353	-0.16120653
27	0x3daeab41	0.08528758
28	0x3d8aea32	0.067829505
29	0xbdad2e47	-0.08456092
30	0xbe5e27f9	-0.21694936
31	0x3dfcb3fa	0.12339015
32	0x3cac2a3d	0.021016235
33	0x3d6f9cc4	0.058499113
34	0xbdcb4ecd	-0.099271394
35	0x3ca43eae	0.02004942
36	0xbde9d931	-0.11418379
37	0x3e186178	0.14880931
38	0xbe04ba3c	-0.12961668
39	0xbb48ad3f	-0.003062084
40	0x3c17e744	0.009271447
41	0x3e09a0b9	0.13440217
42	0xbd5c0eee	-0.053725176
43	0x3c6af08f	0.01433958
44	0xbdced90a	-0.10099991
45	0xbe801cf6	-0.25022095
46	0xbe24a46b	-0.16078345
47	0x3cefc428	0.02926834
48	0xbd8353c3	-0.06412461
49	0x3db53368	0.088476956
50	0xbde47946	-0.111559436
51	0x3d44ca19	0.048044298
52	0x3d8be367	0.06830483
53	0xbcdfc818	-0.027317092
54	0xbcaa5791	-0.020793708
55	0xbe194cbd	-0.1497068
56	0x3d54ea86	0.05198147
57	0xbd5ac9cc	-0.053415105
58	0x3dcdf566	0.10056572
59	0xbdd11194	-0.10208431
60	0x3d97557e	0.07389353
61	0x3da53a2b	0.08067735
62	0xbb8235a4	-0.0039736796
63	0x3d2bb541	0.041920904
64	0xbe31445e	-0.17311236
65	0x3d0026de	0.031287067
66	0xb9b5b717	-0.00034659423
67	0xbd3b631c	-0.045748815
68	0x3e115f56	0.14196524
69	0x3bc806e3	0.0061043366
70	0xbdb3f43e	-0.0878682
71	0x3e13288c	0.14370936
72	0xbd350897	-0.044197645
73	0xbd3b2ad8	-0.045695156
74	0x3c7536bc	0.014966663
75	0xbd40c809	-0.04706577
76	0x3dc9d9a2	0.09855963
77	0x3d5cb851	0.053886715
78	0x3da2ecc4	0.07955316
79	0x3d975c2b	0.073906265
80	0xbda1c996	-0.078997776
81	0xbe17328e	-0.14765379
82	0x3da50f12	0.08059515
83	0x3d255fc3	0.04037453
84	0xbe36f9c2	-0.17868713
85	0x3da8dcec	0.082452625
86	0x3dc16c44	0.09444478
87	0x3d865148	0.06558472
88	0xbe54df36	-0.20788273
89	0x3c8af5da	0.016962934
90	0x3e1757d9	0.14779605
91	0x3da6e263	0.081486486
92	0xbd89961a	-0.06718083
93	0x3d2283c4	0.039676443
94	0xbd601c2f	-0.054714378
95	0x3e0894fe	0.13338086
96	0x3db6ab09	0.08919341
97	0x3e2333ff	0.15937804
98	0xbd811ee0	-0.06304717
99	0x3e38b630	0.18038249
100	0xbdb4775e	-0.0881183
101	0x3d57a731	0.05264968
102	0xbe244e2a	-0.16045442
103	0xbd85321c	-0.06503698
104	0x3de0de46	0.10979895
105	0xbc4620cb	-0.012092779
106	0xbc7c41ea	-0.0153965745
107	0xbc3b0876	-0.011415591
108	0x3e1b2e76	0.15154442
109	0x3dd0115d	0.10159562
110	0x3d949049	0.07254083
111	0xbc5a848f	-0.0133372685
112	0x3dc96c88	0.09835154
113	0x3d709c81	0.058743004
114	0x3d85717b	0.06515785
115	0x3db63628	0.08897048
116	0xbe00c984	-0.12576872
117	0xbd6ca36b	-0.057773035
118	0xbb8a43e1	-0.0042195176
119	0xbda02338	-0.078192174
120	0x3cc94f51	0.024573954
121	0xbdb164ba	-0.0866179
122	0x3cff77a0	0.031184971
123	0x3d3db141	0.04631162
124	0xbdb44112	-0.08801474
125	0x3e091172	0.13385561
126	0x3e42c4ad	0.19020338
127	0xbe27e63b	-0.1639642

mps.0.l2.node_block.m.2.bias f4 [8]
0	0xbf485230	-0.7825041
1	0xbf6ddc28	-0.92914057
2	0xbe3b5580	-0.18294334
3	0xbf8542c3	-1.0410999
4	0xbd7ab77b	-0.061210137
5	0xbf4d14a5	-0.80109626
6	0xbd87f95f	-0.06639361
7	0x3f331e65	0.69968253

mps.1.l1.edge_block.m.0.weight f4 [16, 18]
0	0xbc9fcdc0	-0.019507289
1	0x3e8d820d	0.27638283
2	0xbd94418d	-0.07239065
3	0xbd852d20	-0.065027475
4	0x3d2b4cea	0.041821398
5	0x3dc6a812	0.097000256
6	0x3d18a112	0.037262984
7	0x3cd8ca00	0.026463509
8	0x3e31987a	0.17343321
9	0x3c47aeb6	0.01218765
10	0x3d962748	0.07331711
11	0x3e40f661	0.18843986
12	0xbdd71437	-0.105019026
13	0x3e77ef88	0.24212468
14	0x3cde393d	0.027126903
15	0xbd95030a	-0.0727597
16	0x3a3df8b3	0.0007246837
17	0x3e7c9a20	0.24668169
18	0xbe402765	-0.18765028
19	0x3d5c7726	0.053824566
20	0x3daa7097	0.08322256
21	0xbd8dab1f	-0.069174044
22	0x3d4297fa	0.047508217
23	0xbd65392f	-0.055962738
24	0x3d61b7f9	0.05510709
25	0x3d700772	0.05860085
26	0xbd35b038	-0.04435751
27	0xbcf5fe26	-0.030028414
28	0x3da8fd72	0.08251466
29	0x3dbf1ae1	0.093312986
30	0xbc3e26b1	-0.011605904
31	0x3e2db89b	0.16964953
32	0x3c09b50a	0.0084049795
33	0xbe404f68	-0.18780291
34	0xbe53e33b	-0.2069215
35	0x3e922bc4	0.28549016
36	0x3dcb1ed8	0.09917992
37	0x3e3921b5	0.18079264
38	0x3c99878a	0.018741388
39	0xbd2de6ff	-0.042456623
40	0x3daa0fa2	0.08303763
41	0xbcd31c13	-0.025770223
42	0x3d243146	0.040086053
43	0xbd535aff	-0.051600453
44	0xbd8f8d82	-0.07009412
45	0x3d6ad4fb	0.05733202
46	0x3c93538b	0.017984172
47	0xbc2fd164	-0.010731075
48	0x3d3527e8	0.04422751
49	0xbde3d566	-0.11124687
50	0xbdf0b3dd	-0.11753056
51	0xbdc3489c	-0.095353335
52	0xbd2c4312	-0.04205615
53	0x3e9a7394	0.30166304
54	0x3c76ae29	0.015056171
55	0x3d4f0a96	0.050547205
56	0xbcbfcaa9	-0.023412066
57	0xbda6e465	-0.081490315
58	0x3dbec282	0.09314443
59	0x3c0e6024	0.008689914
60	0xbe144bed	-0.14482088
61	0xbd9e6658	-0.07734364
62	0x3e1ea6f9	0.15493383
63	0x3d544d92	0.05183179
64	0xbe0eec5d	-0.13957353
65	0x3e0911d6	0.1338571
66	0x3d141316	0.036151014
67	0xbe8dbe08	-0.27684045
68	0xbc970ab3	-0.018437719
69	0x3d947265	0.072483815
70	0xbd38615d	-0.045014728
71	0x3dc5be04	0.09655383
72	0xbe880696	-0.26567525
73	0x3ea168df	0.31525323
74	0xbcf6b766	-0.030116748
75	0x3e822ca5	0.25424686
76	0xbe8e8cc2	-0.27841765
77	0x3e879b88	0.26485848
78	0xbe579a5b	-0.21054976
79	0xbd9acc1a	-0.075584605
80	0x3e07b64d	0.13253136
81	0xbe5b4472	-0.21412829
82	0x3c9d65c6	0.019213568
83	0xbd547927	-0.051873352
84	0x3ead8e67	0.33897707
85	0xbe731e44	-0.23742014
86	0x3e43c223	0.19117026
87	0x3e5f5058	0.21807992
88	0x3eb50aff	0.35359952
89	0xbec59f43	-0.3859807
90	0x3e1072f0	0.14106345
91	0xbd1a8de6	-0.03773298
92	0x3d91754d	0.071024515
93	0x3e30f797	0.17281948
94	0xbe2877e1	-0.1645198
95	0xbdb141cd	-0.08655129
96	0x3bf0ba39	0.007346418
97	0x3d992504	0.07477763
98	0xbd9b615c	-0.07586929
99	0x3d288c5f	0.041149493
100	0xbd2fddf9	-0.0429363
101	0x3dcd2119	0.100160785
102	0xbdd99b1a	-0.106252864
103	0x3e06d45c	0.13166946
104	0x3d968265	0.073490895
105	0xbdfe1326	-0.12405996
106	0xbda11c0f	-0.0786668
107	0x3e987181	0.29774097
108	0x3d2afc49	0.041744504
109	0x3e3c1eb9	0.18371095
110	0x3d500e87	0.050795104
111	0x3c485e78	0.012229554
112	0x3e1bfb90	0.15232682
113	0xbd7cf30c	-0.061755225
114	0xbda2e42c	-0.079536766
115	0xbcbf0fb0	-0.02332291
116	0xbe2e98e6	-0.17050514
117	0x3dd89052	0.10574402
118	0xbdbe0ac0	-0.09279394
119	0x3dc8ca7a	0.09804244
120	0xbd1f14d2	-0.038838215
121	0x3c67698c	0.014124285
122	0xbe40c707	-0.18825923
123	0xbe2d58d2	-0.16928414
124	0x3c721319	0.014775061
125	0x3e37e9b9	0.17960252
126	0xbe2609bd	-0.16214652
127	0x3e13ca52	0.14432648
128	0xbdccdb30	-0.10002744
129	0x3baabb84	0.005210342
130	0x3e0fa976	0.14029488
131	0x3de15b06	0.110036895
132	0xbe37c5a6	-0.1794649
133	0x3be55bd9	0.0069994745
134	0x3dab70c1	0.083711155
135	0x3d62d798	0.055381387
136	0x3e289d8d	0.16466351
137	0xbd29ead1	-0.041483704
138	0xbc192a08	-0.0093484
139	0xbd4d6e86	-0.05015423
140	0xbcf45e7f	-0.029830215
141	0xbd35db01	-0.04439831
142	0xbc17672b	-0.009240906
143	0xbed13eab	-0.40868124
144	0xbc9d238e	-0.019181993
145	0x3ddcc3fb	0.10779568
146	0xbd165778	-0.03670451
147	0xbd5de6b5	-0.054175097
148	0x3d12ba2a	0.03582207
149	0xbdef505e	-0.11685251
150	0xbd98abef	-0.07454669
151	0xbe082478	-0.13295162
152	0x3e26aea2	0.16277555
153	0x3d1dc7ef	0.03852075
154	0xba4d21b5	-0.0007825152
155	0x3da0636e	0.07831465
156	0x3d7656f4	0.06014152
157	0xbdc70d75	-0.097193636
158	0xbe6b6d2b	-0.22990863
159	0xbdd9e1b3	-0.10638752
160	0xbd8d42fd	-0.068975426
161	0x3cd801e4	0.026368089
162	0x3d8544b0	0.06507242
163	0xbe7f925c	-0.24958175
164	0xbdb4f87c	-0.08836457
165	0xbe50244d	-0.20326348
166	0x3e58a59d	0.21156926
167	0x3e22f7e8	0.15914881
168	0xbc1a6fae	-0.009426041
169	0x3dfe617e	0.12420939
170	0xbe134e63	-0.14385371
171	0xbdecadda	-0.11556597
172	0xbbcabd5e	-0.006187125
173	0x3dbb66ec	0.0915049
174	0x3dd55ad3	0.10417714
175	0x3db12f7b	0.08651634
176	0x3dc100d4	0.09423986
177	0x3dcfdddc	0.10149738
178	0xbdf02803	-0.11726382
179	0x3f22d9a9	0.63613373
180	0x3de42756	0.11140315
181	0xbe9c8e74	-0.30577433
182	0x3e4413cb	0.19148175
183	0xbe177ef7	-0.14794527
184	0xbc21ae40	-0.009868205
185	0x3d2987ac	0.041389152
186	0xbd12b12a	-0.035813488
187	0xbe0fbabf	-0.14036082
188	0xbe0464b2	-0.12929037
189	0xbd0d6941	-0.034524206
190	0x3dbb4c29	0.09145386
191	0xbd8e7a25	-0.06956891
192	0x3dcdd930	0.10051191
193	0x3d9bd382	0.07608701
194	0xbb9d8359	-0.0048069176
195	0x3d8c3130	0.06845319
196	0xbe3c1f98	-0.18371427
197	0x3f11d425	0.5696433
198	0xbd9ad6db	-0.07560512
199	0xbeb349e4	-0.35017312
200	0xbdb910a8	-0.0903638
201	0xbe281d9a	-0.16417542
202	0x3c7cb6b2	0.015424417
203	0xbd1dca0c	-0.038522765
204	0xbc8798dd	-0.016552383
205	0x3d801774	0.06254473
206	0xbdc355f1	-0.095378764
207	0xbe006a15	-0.12540467
208	0xbd69ffb4	-0.057128623
209	0xbd53dbb1	-0.051723186
210	0x3d726efe	0.05918788
211	0xbdd1396c	-0.102160305
212	0x3d2a55a7	0.04158559
213	0x3db06032	0.08612098
214	0xbe3803db	-0.1797022
215	0x3f2aecdf	0.66767687
216	0xbddce225	-0.10785321
217	0x3ce5b775	0.02804158
218	0xbd9d3483	-0.076760314
219	0x3dce95dc	0.10087177
220	0xbdac0e8e	-0.084012136
221	0xbc1eb092	-0.009685652
222	0xbdf823f3	-0.12116232
223	0xbe04e125	-0.12976511
224	0xbe096186	-0.13416108
225	0xbd806bfa	-0.06270595
226	0xbe31c622	-0.17360738
227	0xbd5fb920	-0.05461991
228	0x3d258f78	0.040420026
229	0x3e4d1f7c	0.20031542
230	0xbe254844	-0.16140848
231	0x3df44f64	0.11929205
232	0xbeb11626	-0.3458721
233	0x3e95aca7	0.29233286
234	0x3e28f3e5	0.16499288
235	0x3f3ac2e0	0.72953606
236	0xbddaa564	-0.10676077
237	0x3f25a927	0.6471123
238	0xbf0bb9c9	-0.5458036
239	0x3e0a5b93	0.13511495
240	0xbe82da45	-0.2555715
241	0xbe83715e	-0.2567243
242	0x3d8b0150	0.0678736
243	0x3ddc8a13	0.10768523
244	0x3d3e081f	0.046394464
245	0x3e99d2ab	0.3004354
246	0xbe587b5a	-0.21140805
247	0xbe0bad61	-0.13640358
248	0x3e35d790	0.17758012
249	0x3e05ae11	0.13054682
250	0x3eddfd60	0.43357372
251	0xc00283d1	-2.0392954
252	0xbd714a18	-0.058908552
253	0xbe7a50f4	-0.24444944
254	0x3bec73a6	0.007215935
255	0xbd53459e	-0.051580064

mps.1.l1.edge_block.m.0.bias f4 [16]
0	0x3e4cf9ce	0.20017168
1	0x3e406a07	0.18790446
2	0x3dfd185c	0.12358162
3	0xbdeb6921	-0.11494661
4	0xbec5887a	-0.38580686
5	0x3e3ccf8a	0.18438545
6	0xbdf20983	-0.118182205
7	0x3e595a58	0.2122587
8	0xbc68e1d0	-0.014213994
9	0x3f7805cf	0.96883863
10	0x3f89448c	1.0724044
11	0x3f79271c	0.973253
12	0x3ed52227	0.4162762
13	0xbf05a97e	-0.5221175
14	0x3f6a8602	0.9161073
15	0x3dada3ac	0.084784836

mps.1.l1.edge_block.m.2.weight f4 [1, 16]
0	0x3db075f9	0.086162515
1	0x3d8b631e	0.068060145
2	0x3c7c10a9	0.0153848315
3	0x3d5c9285	0.05385067
4	0xbf6964f8	-0.9116969
5	0x3ddb728a	0.10715206
6	0x3dce2dd5	0.100673355
7	0x3df005f5	0.11719886
8	0xbc73b194	-0.014873881
9	0x3e23d650	0.15999722
10	0x3e9e2e8f	0.30894896
11	0x3ead2845	0.33819786
12	0x3e7f4d2a	0.2493178
13	0xbfeb3dc9	-1.837823
14	0x3e42fa48	0.19040787
15	0x3d4e5407	0.050373103

mps.1.l1.node_block.m.0.weight f4 [16, 9]
0	0x3d1f6033	0.038910102
1	0x3c51f965	0.012815808
2	0xbe313b04	-0.17307669
3	0x3d9fbb2e	0.077993736
4	0xbdf1d877	-0.118088655
5	0xbba49954	-0.005023161
6	0x3d6bb421	0.05754483
7	0x3e853386	0.26015872
8	0x3d9b1fdb	0.07574435
9	0xbd1eb7e6	-0.038749598
10	0xbcd6ca24	-0.026219435
11	0x3b19707e	0.0023412998
12	0xbe127e83	-0.14306073
13	0xbcaa3969	-0.020779328
14	0xbc2c81af	-0.010528966
15	0x3bd9a281	0.0066416864
16	0x3c46c95b	0.012132968
17	0xbf1f9447	-0.6233563
18	0x3ea6176d	0.32439747
19	0x3ebc70b2	0.3680473
20	0xbd4a4683	-0.04938365
21	0x3e8e9698	0.2784927
22	0x3d8e8fa5	0.06960992
23	0x3e0721ec	0.13196534
24	0xbe390541	-0.1806841
25	0xbe6de966	-0.23233566
26	0xbe919461	-0.28433517
27	0xbdeb6503	-0.11493876
28	0x3ed8cf98	0.4234588
29	0x3e1dc844	0.15408427
30	0x3ee1f1b4	0.44129717
31	0xbe21f1f0	-0.15814948
32	0xbe5c8929	-0.21536697
33	0x3de1549d	0.11002467
34	0xbd8f95ab	-0.07010969
35	0xbe24f6c5	-0.1610976
36	0xbd981bb4	-0.07427159
37	0x3db3636f	0.087592
38	0x3df30fa6	0.11868219
39	0x3e2f94e7	0.17146645
40	0xbc80631d	-0.01567226
41	0xbd2fb991	-0.04290158
42	0xbdfa845a	-0.12232275
43	0xbd03a0c8	-0.032135755
44	0x3d5f7193	0.054551672
45	0x3a1417cc	0.0005649298
46	0x3dac0142	0.083986774
47	0xbbadb82d	-0.0053014965
48	0x3e14b2b7	0.145213
49	0xbda42c48	-0.080162585
50	0xbd1f14f8	-0.038838357
51	0x3c35e48f	0.011101856
52	0x3c76de67	0.015067673
53	0xbf2b16c9	-0.6683164
54	0xbd1a0652	-0.037603684
55	0xbcc08873	-0.023502564
56	0x3b47b5d0	0.003047336
57	0xbdfaf9ac	-0.122546524
58	0xbc802744	-0.015643723
59	0xbc35f977	-0.01110684
60	0x3c095bfd	0.008383748
61	0x3c65ac39	0.014018112
62	0x3f43b131	0.7644225
63	0x3d831bdd	0.06401799
64	0x3df4a3c8	0.11945301
65	0x3c8fa761	0.017535867
66	0x3e5448a8	0.20730841
67	0xbde9fca0	-0.114251375
68	0x3d21f266	0.03953781
69	0x3cce405c	0.025177173
70	0xbdd029a9	-0.10164196
71	0x3d6a490e	0.057198577
72	0xbdec0f22	-0.11526324
73	0x3de3581d	0.11100791
74	0xbe18346d	-0.14863749
75	0xbd1849e3	-0.03717984
76	0x3da829a1	0.08211065
77	0xbe54b6e7	-0.20772897
78	0x3c39cb1b	0.011339928
79	0xbe7a1fbd	-0.2442617
80	0x3b8957b3	0.0041913628
81	0x3e557599	0.20845641
82	0x3ed51600	0.41618347
83	0xbe8c03c7	-0.27346632
84	0x3e74cd3d	0.23906417
85	0x3e41e201	0.1893387
86	0xbcfa19f4	-0.030529954
87	0xbe29a3dd	-0.16566415
88	0xbe0a8906	-0.13528833
89	0xbe69ee31	-0.22844769
90	0xbe28fd23	-0.16502814
91	0x3e305a53	0.17221956
92	0xbdf5afb2	-0.11996402
93	0xbd8e96f3	-0.06962385
94	0x39371ed7	0.00017463729
95	0x3e28b0b2	0.16473654
96	0xbd90e897	-0.07075613
97	0xbe3165d9	-0.17324008
98	0x3c66a9cc	0.014078569
99	0x3ca07f88	0.019592062
100	0x3dfb80ee	0.12280451
101	0x3e136de8	0.14397395
102	0xbc7b5164	-0.015339229
103	0x3d870281	0.065922745
104	0xbdb9ce49	-0.09072549
105	0x3d245d2b	0.040127914
106	0x3d572c5d	0.052532542
107	0x3e93d070	0.28869963
108	0xbe10064c	-0.14064902
109	0x3e17d06c	0.148256
110	0x3c707326	0.014675891
111	0x3d66146a	0.056171812
112	0xbeb3c47d	-0.35110846
113	0xbd32a1f5	-0.043611486
114	0x3d851de5	0.064998426
115	0x3cc2c25e	0.023774322
116	0xbcba3eec	-0.022735082
117	0xbd6da24f	-0.058016118
118	0x3daa799b	0.08323976
119	0xbbeb76e5	-0.007185804
120	0x3dadeb23	0.084921144
121	0xbdaeeb9b	-0.08541032
122	0x3cc28f8f	0.023750095
123	0xbc7f86a3	-0.015596065
124	0xba88ccb4	-0.0010436983
125	0xbebebefa	-0.3725508
126	0xbe1e4677	-0.15456568
127	0x3e376f19	0.17913474
128	0xbd3f13ac	-0.04664962
129	0x3e6db78d	0.2321455
130	0xbe634aa7	-0.22196446
131	0x3e3a85c1	0.18215086
132	0xbd606345	-0.05478217
133	0xbcd2d212	-0.025734935
134	0xbdd7b994	-0.10533443
135	0x3db5434f	0.08850729
136	0x3dd9f5b4	0.10642567
137	0xbda44010	-0.080200315
138	0x3d7ce60d	0.06174283
139	0x3d510111	0.051026408
140	0x3e53b7aa	0.20675531
141	0xbe98d33a	-0.29848653
142	0xbcdbcf33	-0.026832199
143	0x3c64cb3b	0.01396447

mps.1.l1.node_block.m.0.bias f4 [16]
0	0x3eec34ed	0.4613413
1	0x3eb9a77d	0.36260596
2	0xbf552924	-0.832659
3	0xbefc20dd	-0.49243823
4	0x3da2fb40	0.079580784
5	0x3f235871	0.63806826
6	0x3e5a7976	0.21335396
7	0x3d4a8459	0.049442623
8	0x3d8a5979	0.06755347
9	0xbf114f52	-0.5676166
10	0xbe74d280	-0.23908424
11	0x3ef39c9a	0.47580415
12	0xbda00a27	-0.078144364
13	0xbe8c1fee	-0.2736811
14	0xbe055b92	-0.13023213
15	0x3dbfd7e3	0.09367349

mps.1.l1.node_block.m.2.weight f4 [8, 16]
0	0x3e29dac8	0.16587365
1	0xbd431266	-0.047624968
2	0x3e9b4cc7	0.30332014
3	0x3efea94b	0.49738535
4	0x3ccc91a3	0.024971789
5	0xbe87dfa3	-0.2653781
6	0x3e112c13	0.14176969
7	0xbdfc69e0	-0.123248816
8	0xbdbf1b71	-0.09331406
9	0x3f066c78	0.5250926
10	0x3def6c9a	0.11690636
11	0xbdc4cad0	-0.09608996
12	0x3e3fc264	0.18726498
13	0xbe536e3b	-0.20647518
14	0x3e0fed1a	0.14055291
15	0xbd6883dd	-0.05676638
16	0x3d0ffc9f	0.035153028
17	0xbd7c5130	-0.061600864
18	0xbe0f2945	-0.13980587
19	0x3e4a0220	0.19727373
20	0xbc9c1997	-0.019055171
21	0x3f12e991	0.57387644
22	0x3e62b09d	0.22137685
23	0x3de6b43c	0.11264846
24	0xbd8951b6	-0.06705038
25	0xbcca1aac	-0.024670921
26	0x3e084ece	0.13311312
27	0x3e362869	0.17788853
28	0x3e74618a	0.23865333
29	0x3e38c797	0.18044887
30	0x3cfa7c70	0.030576915
31	0x3daa2115	0.08307091
32	0xbdfa253a	-0.12214132
33	0xbd85d852	-0.065354005
34	0xbe221eab	-0.15832011
35	0x3f2c8cce	0.6740235
36	0xbdc8be75	-0.09801952
37	0xbc5aa9ff	-0.013346194
38	0x3e663e46	0.22484693
39	0xbe0f3769	-0.13985981
40	0xbde3ec20	-0.11129022
41	0x3e9c6d94	0.3055235
42	0x3de062ff	0.10956382
43	0x3dafa71f	0.08576798
44	0xbc53e7d7	-0.012933693
45	0xbe2bcb91	-0.16776873
46	0xbdd8341e	-0.105568156
47	0xbdb03cfc	-0.08605382
48	0x3e41822f	0.18897317
49	0x3de88f47	0.11355453
50	0xbf00c847	-0.503056
51	0xbeace988	-0.3377192
52	0x3d2648b3	0.040596675
53	0x3da80791	0.08204568
54	0xbdda7247	-0.10666328
55	0xbcae12c7	-0.021249188
56	0x3e0e738c	0.13911265
57	0xbe7de109	-0.24792875
58	0x3db586b8	0.08863586
59	0xbd60c864	-0.054878607
60	0xbc9532dd	-0.01821273
61	0x3ee88720	0.45415592
62	0xbd97abb9	-0.074058
63	0x3da163c1	0.07880355
64	0xbcda7f26	-0.026671957
65	0xbe1e65bc	-0.15468496
66	0xbe06b768	-0.13155901
67	0x3ecf8470	0.4053073
68	0x3dda8ce0	0.10671401
69	0x3ea1baca	0.3158782
70	0x3ce61d98	0.028090283
71	0x3d8a2ec0	0.06747198
72	0xbc1695cb	-0.009190987
73	0x3ebc3a1d	0.36763087
74	0xbdc82a1b	-0.09773656
75	0x3d931917	0.0718252
76	0x3d50111a	0.05079756
77	0xbea5d5a6	-0.32389563
78	0xbc0997c2	-0.008397998
79	0xbe211221	-0.15729572
80	0xbe19c55c	-0.15016693
81	0xbe77def4	-0.24206144
82	0x3def24b0	0.116769195
83	0x3e8cab8a	0.27474624
84	0x3d0c6882	0.034279354
85	0x3de8b5ff	0.11362838
86	0x3e29ad6e	0.16570064
87	0x3d23045a	0.03979907
88	0xbdef380d	-0.11680613
89	0xbcc079cd	-0.02349558
90	0xbd2394c6	-0.039936803
91	0x3e00b5dd	0.12569375
92	0x3d6cb20d	0.05778699
93	0xbea0c1b9	-0.313978
94	0xbda427fc	-0.08015439
95	0xbd6aad02	-0.0572939
96	0xbb891cf5	-0.00418436
97	0x3e957a5e	0.2919492
98	0x3f8a1ed9	1.0790664
99	0x3e7673da	0.24067631
100	0x3d6e9806	0.05825045
101	0xbdde3b4d	-0.108511545
102	0xbb946b22	-0.004529373
103	0x3d5d6800	0.05405426
104	0x3e220ad3	0.15824442
105	0x3ef12850	0.47101068
106	0xbdbbbcb1	-0.091668494
107	0xbd22d1a7	-0.03975072
108	0xbd08efc5	-0.033431787
109	0xbe0c7ece	-0.13720247
110	0x3ea0a5ca	0.31376487
111	0x3c054960	0.00813517
112	0xbde2751f	-0.11057495
113	0x3d3e9761	0.046531085
114	0x3c91bd1a	0.017790366
115	0x3efdf3ef	0.4960017
116	0xb98f634f	-0.00027349076
117	0xbebb245a	-0.36551172
118	0xbe6a09cf	-0.22855304
119	0x3df2d56b	0.118571125
120	0xbdd012f3	-0.10159864
121	0x3e3d3a80	0.18479347
122	0x3c95c2c0	0.01828134
123	0xbd0e784e	-0.0347827
124	0x3d8a7478	0.06760496
125	0x3eb45c44	0.35226643
126	0xbdbd86f8	-0.09254259
127	0xbb8c062f	-0.004273198

mps.1.l1.node_block.m.2.bias f4 [8]
0	0xbf475d76	-0.77876985
1	0xbf669b08	-0.9008031
2	0x3e525445	0.20539959
3	0x3f52559d	0.82161885
4	0xbc3260a9	-0.010887303
5	0xbe2dd808	-0.1697694
6	0x3cfc99d6	0.030835073
7	0x3e4432a7	0.19159947
