archive-july16/results/nif_sketched_50epochs/model_epoch6.pt (torch, 44714 bytes, 56 tensors)

mps.0.l1.edge_block.m.0.weight f4 [16, 17]
0	0x3e3b8a28	0.18314421
1	0x3f81803a	1.0117257
2	0x3f05c9f3	0.52261275
3	0x3f882d39	1.0638801
4	0x3f3d416a	0.7392794
5	0x4013d4fc	2.3098745
6	0x3f3edff8	0.745605
7	0x3f7af66e	0.9803227
8	0x3e31829c	0.1733498
9	0x3f2010af	0.6252546
10	0x3f58039f	0.84380525
11	0x3f65e9b0	0.89809704
12	0x3f7406a4	0.9532263
13	0x400a1d30	2.1580315
14	0x3f778854	0.96692395
15	0x3f4dd15e	0.80397594
16	0x3f820a38	1.0159369
17	0x3bcb392a	0.006201883
18	0xbde2f4af	-0.11081826
19	0x3d5e1990	0.054223597
20	0xbde021b8	-0.10943931
21	0xbcfd6fce	-0.030937102
22	0xbdbe3cdc	-0.09288952
23	0x3e1aa285	0.15101059
24	0xbe396ace	-0.18107149
25	0xbdeba521	-0.11506105
26	0xbd8b2a40	-0.06795168
27	0xbe101b42	-0.14072898
28	0x3c8e4baf	0.017370073
29	0xbe6ab952	-0.22922257
30	0x3e52c014	0.20581084
31	0xbe472d96	-0.19450983
32	0x3e33cde8	0.17559016
33	0x3d1c0941	0.038094763
34	0xbdb6979d	-0.08915637
35	0x3d38778b	0.04503588
36	0xbd72c12a	-0.059266247
37	0x3db15abd	0.08659885
38	0xbd920432	-0.071297064
39	0xbdb139f3	-0.08653631
40	0xbb59c4ae	-0.0033228802
41	0xbe0b7cc5	-0.13621815
42	0x3da7ac5d	0.081871726
43	0x3ddf1945	0.10893492
44	0x3d18bdf9	0.037290547
45	0xbe498921	-0.19681217
46	0x3d138383	0.03601409
47	0x3cd575a2	0.026057068
48	0x3d521d80	0.051297665
49	0xbe5a5843	-0.21322732
50	0xbe90cf72	-0.28283268
51	0xbdc1f78c	-0.09471044
52	0xbe422e69	-0.18963017
53	0x3e324e01	0.17412569
54	0x3d45994a	0.04824189
55	0x3da2f998	0.079577625
56	0x3d8f738b	0.0700446
57	0xbbc5ff30	-0.0060423836
58	0x3e33e824	0.17569023
59	0xbe27c5dc	-0.16384071
60	0x3af26cc5	0.0018495551
61	0xbe2b4cec	-0.16728562
62	0x3d6007d1	0.054694954
63	0xbdbda670	-0.09260261
64	0x3d8aaa85	0.06770805
65	0xbd4b606e	-0.04965251
66	0x3e3f0b19	0.18656577
67	0xbe08a44f	-0.13343929
68	0xbe2bd993	-0.16782217
69	0xbe4a5d70	-0.19762206
70	0x3e154ee6	0.14580879
71	0x3ba82f29	0.005132575
72	0x3e1deffa	0.15423575
73	0xbe4dd0ea	-0.20099226
74	0xbe750cc5	-0.23930652
75	0xbe49325b	-0.19648115
76	0xbe362d30	-0.17790675
77	0x3d044ad5	0.032297928
78	0x3cc3eb75	0.023915986
79	0x3df541d7	0.119754486
80	0xbe3b1e52	-0.18273285
81	0xbe2cb69e	-0.16866538
82	0x3dde07e5	0.108413495
83	0xbde10ebb	-0.10989138
84	0x3ddc3577	0.10752385
85	0xbd7282ed	-0.05920689
86	0xbf38e76b	-0.72228116
87	0xbf3b9070	-0.7326727
88	0xbf6d23e7	-0.9263291
89	0xbf373abd	-0.71574
90	0xc00fa81a	-2.244635
91	0xbf5c96e8	-0.86167765
92	0xbf2f4f74	-0.6848061
93	0x3e3a2da0	0.18181467
94	0xbf744e85	-0.9543231
95	0xbf3d32fb	-0.73905915
96	0xbf1a1635	-0.60190135
97	0xbf568cd5	-0.8380864
98	0xc01c2984	-2.440034
99	0xbf83209f	-1.024433
100	0xbf6e3e69	-0.9306398
101	0xbf43d338	-0.7649417
102	0xbd07f5fa	-0.033193566
103	0x3f21e2ac	0.632365
104	0x3f11932b	0.56865185
105	0x3f2bf751	0.6717425
106	0x3f129bd0	0.57269
107	0x3fff94a6	1.9967239
108	0x3f1e74c7	0.6189694
109	0x3f2b0344	0.6680186
110	0x3e426496	0.18983683
111	0x3f500a6c	0.812659
112	0x3f330b3f	0.69939035
113	0x3f1daf6b	0.6159579
114	0x3f1c8adc	0.6114938
115	0x3ff49ea3	1.9110912
116	0x3f5ac554	0.8545735
117	0x3f1a57e8	0.60290384
118	0x3f339b89	0.701592
119	0xbe0c03b7	-0.13673292
120	0x3a25ebcd	0.00063293875
121	0xbdae0d0d	-0.08498583
122	0xbc81a72c	-0.015826784
123	0xbe1e7b44	-0.1547671
124	0xbe20878e	-0.1567671
125	0xbe0870e7	-0.13324319
126	0xbda01c3d	-0.07817886
127	0xbe3897da	-0.18026677
128	0x3e4418bd	0.19150062
129	0xbd39a9cc	-0.045327947
130	0x3e493997	0.19650875
131	0x3d91be13	0.07116332
132	0xbe460b46	-0.19340238
133	0x3e21d969	0.15805592
134	0xbd80b297	-0.06284063
135	0xbdb34caf	-0.087548606
136	0xbe56328e	-0.20917723
137	0xbe8a4885	-0.27008453
138	0x3cbf3d2e	0.023344602
139	0xbdcfa8f3	-0.101396464
140	0x3d2bc33f	0.041934248
141	0xbe47c56a	-0.19508901
142	0x3e258a88	0.16166127
143	0xbe36fdef	-0.17870305
144	0xbd5d3904	-0.054009452
145	0x3bb47cae	0.005508027
146	0x3d9d8fa6	0.076934144
147	0x3e08c9cd	0.13358231
148	0x3e257249	0.16156878
149	0xbe416ff3	-0.18890361
150	0x3d4b0e80	0.049574375
151	0xbddf92c9	-0.10916669
152	0xbd351ca3	-0.044216763
153	0xbe122769	-0.14272846
154	0x3eccd3a6	0.40005225
155	0x3dd3aa94	0.103352696
156	0x3ed099c3	0.4074231
157	0x3ea47fae	0.32128662
158	0x3f203546	0.6258129
159	0x3df9eb35	0.12203065
160	0x3edbd1cb	0.42933497
161	0x3d94e807	0.07270818
162	0x3e870687	0.26372167
163	0x3db99b3e	0.09062813
164	0x3ecad357	0.39614365
165	0x3e6cda95	0.23130257
166	0x3eaa2bf0	0.33236647
167	0x3ee2239e	0.441678
168	0x3e93bea8	0.28856397
169	0x3f084b34	0.5323975
170	0xbde21ddc	-0.110408515
171	0xbf77ff57	-0.9687399
172	0xbf07587e	-0.52869403
173	0xbf7a275b	-0.977163
174	0xbf82f7da	-1.0231888
175	0xc00d0bbc	-2.2038412
176	0xbf88af80	-1.0678558
177	0xbf56aa0e	-0.8385323
178	0x3e5b30d7	0.2140535
179	0xbf8e4e8d	-1.1117722
180	0xbf2b9d76	-0.6703714
181	0xbf4d002b	-0.8007838
182	0xbf5412a5	-0.8284095
183	0xc0117d40	-2.2732697
184	0xbf472cd8	-0.778028
185	0xbf4783d0	-0.77935505
186	0xbf29dad9	-0.6634956
187	0xbd261665	-0.0405487
188	0xbd830707	-0.06397825
189	0x3cadc12b	0.021210274
190	0xbd379de8	-0.044828326
191	0xbd937f90	-0.07202065
192	0x3e14e42d	0.14540167
193	0x3e486d50	0.1957295
194	0xbcbf75ec	-0.02337166
195	0xbd532751	-0.051551167
196	0xb92eb6c4	-0.00016662019
197	0xbc8a1e86	-0.016860258
198	0x3d4e8bdd	0.050426353
199	0x3d75f1fb	0.060045224
200	0xbe550555	-0.20802815
201	0xbdadbe7f	-0.084836
202	0x3e442c48	0.19157517
203	0x3db11f1f	0.08648514
204	0xbc3a1e2b	-0.011359732
205	0xbe0d00c2	-0.1376982
206	0xbe0f160a	-0.13973251
207	0xbe517ede	-0.20458552
208	0xbd98780e	-0.074447736
209	0x3d9df5bc	0.07712886
210	0x3e151f90	0.14562821
211	0x3dd7f586	0.10544877
212	0xbe4ebb30	-0.20188594
213	0xbe0ca481	-0.13734628
214	0xbd13a319	-0.036044214
215	0x3e623cd2	0.22093514
216	0x3d0753c1	0.03303886
217	0xbd7244f5	-0.059147794
218	0x3dc183cf	0.094489686
219	0xbdb2282d	-0.08699069
220	0xbe176098	-0.14782941
221	0x3e640c9a	0.22270432
222	0x3f496d7e	0.78682697
223	0x3f0ecca9	0.55781037
224	0x3f34d780	0.70641327
225	0x3f80e909	1.0071117
226	0x40228c05	2.539796
227	0x3f801b10	1.0008259
228	0x3f3fea54	0.7496693
229	0xbe5dde0c	-0.21666735
230	0x3f2c47e9	0.67297226
231	0x3f5b113a	0.8557316
232	0x3f85b72d	1.0446526
233	0x3f8562dc	1.0420794
234	0x40180901	2.3755496
235	0x3f79b2df	0.9753856
236	0x3f65327b	0.8953015
237	0x3f209913	0.6273357
238	0xbe486052	-0.19567993
239	0xbe5ac0ff	-0.21362685
240	0x3dbf7a96	0.09349553
241	0xbde5a62f	-0.11213338
242	0xbd3c4530	-0.04596442
243	0xbe06986b	-0.1314408
244	0xbd2a7846	-0.041618608
245	0xbe249c06	-0.16075143
246	0xbe18d179	-0.14923657
247	0x3d9b283e	0.07576035
248	0xbd8b0352	-0.06787743
249	0x3e10619f	0.1409974
250	0xbd960eb4	-0.07327023
251	0xbe2b9007	-0.16754161
252	0xbd250eb7	-0.040297236
253	0xbde2bd5e	-0.11071275
254	0xbd8f1ab4	-0.06987515
255	0xbe941211	-0.28920034

mps.0.l1.edge_block.m.0.bias f4 [16]
0	0x3f807f8f	1.0038928
1	0x3e2dfe02	0.16991428
2	0x3e0c8753	0.13723497
3	0xbd6d4cd1	-0.057934586
4	0xbe586979	-0.21133985
5	0xbf41b5b1	-0.75667864
6	0x3f74c68c	0.9561546
7	0xbe68c6ee	-0.22732136
8	0xbd891a80	-0.066945076
9	0x3e009ccc	0.12559813
10	0xbf6dd460	-0.92902184
11	0xbde8781f	-0.11351036
12	0xbdbf330e	-0.0933591
13	0x3f5bd615	0.8587354
14	0xbe5e406b	-0.21704261
15	0x3f5efc26	0.871035

mps.0.l1.edge_block.m.2.weight f4 [1, 16]
0	0x3e53fcd2	0.20701912
1	0xbcb5ad9d	-0.022177512
2	0xbbf9b7e2	-0.0076207975
3	0xbdb4fdd7	-0.088374786
4	0xbe2b9e59	-0.16759624
5	0xbea34e7d	-0.3189582
6	0x3d927e19	0.071529575
7	0xbe045c30	-0.12925792
8	0xbdf9c269	-0.12195284
9	0x3c85dde0	0.01634115
10	0xbe674834	-0.22586137
11	0xbd9ad371	-0.075598605
12	0x3bf7df2b	0.0075644455
13	0x3f320349	0.6953626
14	0xbda60246	-0.081059024
15	0x3fb40b65	1.4065977

mps.0.l1.node_block.m.0.weight f4 [16, 9]
0	0x3e544e94	0.207331
1	0x3eba83d8	0.36428714
2	0x3f02a5e9	0.5103441
3	0x3ebc08b5	0.36725393
4	0x3eff9f17	0.49926063
5	0x3fc1ea0a	1.5149548
6	0x3f1e3fd3	0.6181614
7	0x3e53b6a4	0.2067514
8	0x3dd054cb	0.10172423
9	0x3e8cac5e	0.27475256
10	0x3f3c5d84	0.73580194
11	0x3f2b1213	0.66824454
12	0x3f7792d1	0.967084
13	0x3f1257be	0.57165134
14	0x40083554	2.128255
15	0x3ee3261e	0.4436502
16	0x3f1817db	0.594114
17	0x3e81169c	0.25212562
18	0x3dd85e5c	0.105648726
19	0x3ead2b83	0.3382226
20	0x3e09c657	0.13454567
21	0x3eade10d	0.33960763
22	0x3e51bdf8	0.20482624
23	0x3fd9d6f2	1.7018721
24	0x3ef5c00f	0.47998092
25	0x3f4338ba	0.7625843
26	0x3d239963	0.039941203
27	0xbe747b10	-0.2387507
28	0xbe80ed99	-0.25181273
29	0x3e1fe78d	0.15615673
30	0xbe6f17d4	-0.23348933
31	0xbd1e4ecf	-0.038649376
32	0x3e1a3160	0.15057898
33	0xbe14c2dd	-0.1452746
34	0xbd0c3201	-0.034227375
35	0xbcdfd447	-0.027322901
36	0xbd9ef1c9	-0.077609606
37	0xbe28fd3b	-0.1650285
38	0xbe9132a8	-0.2835896
39	0xbe856cbe	-0.26059526
40	0xbe313d79	-0.17308606
41	0x3e9aab29	0.3020871
42	0xbe1bdee9	-0.15221752
43	0xbe58e4e4	-0.21181065
44	0x3d20491e	0.03913223
45	0x3db8decf	0.09026872
46	0xbf105357	-0.56377167
47	0xbe8e1803	-0.27752694
48	0xbf06d40b	-0.526673
49	0xbf7f09a9	-0.99624115
50	0xc006e832	-2.107922
51	0xbf0275dd	-0.50961095
52	0xbf3da3ec	-0.7407825
53	0xbe73f3b0	-0.23823428
54	0x3e951e5f	0.29124734
55	0xbf21126b	-0.6291873
56	0xbee07765	-0.4384109
57	0xbf461151	-0.7737017
58	0xbee34875	-0.44391218
59	0xbfed495f	-1.8538016
60	0xbed6b826	-0.4193737
61	0xbede396b	-0.4340318
62	0xbe949015	-0.29016176
63	0xbea450c1	-0.3209286
64	0xbd68e397	-0.05685767
65	0x3e6bb32b	0.23017566
66	0x3de7d466	0.11319809
67	0xbe7b1adb	-0.24521963
68	0xbd78c93b	-0.060738783
69	0xbe7f6020	-0.24939013
70	0xbe33ad9b	-0.17546694
71	0xbc7b658b	-0.015344034
72	0x3df27519	0.11838741
73	0xbe1c3847	-0.15255843
74	0xbf004e9f	-0.50119966
75	0xbe58d536	-0.21175084
76	0xbf19ca1d	-0.60074025
77	0xbfebb067	-1.8413209
78	0xbe228b3a	-0.15873423
79	0xbed50c74	-0.41611063
80	0x3e4c20e8	0.19934428
81	0xbb383e51	-0.0028113315
82	0x3f2b2e33	0.6686737
83	0x3f3fdc72	0.7494575
84	0x3f3f6777	0.7476725
85	0x3f31a1f6	0.6938776
86	0x3ffa5b2b	1.9559072
87	0x3f696133	0.9116394
88	0x3f5cca9f	0.86246675
89	0x3ee7e546	0.4529211
90	0xbe34a165	-0.17639692
91	0xbe82a0fa	-0.2551344
92	0x3d09b749	0.03362206
93	0x3dbd91a8	0.09256297
94	0xbe14d18a	-0.14533058
95	0xbdb3fa5a	-0.08787985
96	0x3e590699	0.21193923
97	0x3ccc3c8b	0.024931213
98	0x3c07e54b	0.008294414
99	0xbc9d6791	-0.019214423
100	0x3e561c83	0.20909314
101	0xbe0b1b7f	-0.13584708
102	0x3ee04327	0.43801233
103	0x3e9c2bf8	0.30502295
104	0x3fec9e68	1.8485842
105	0x3ef1eedc	0.47252548
106	0x3ed704fd	0.41995993
107	0x3f1bf36f	0.60918325
108	0x3d876314	0.066106945
109	0x3f5f0b0a	0.8712622
110	0x3e994b91	0.29940465
111	0x3f054d00	0.5207062
112	0x3f3a7f50	0.72850513
113	0x3fe3be8a	1.7792523
114	0x3ee4f75d	0.44719973
115	0x3f22abbe	0.6354331
116	0xbddfd034	-0.109283835
117	0xbc15faa0	-0.009153992
118	0x3f869ce2	1.0516627
119	0x3f68b4ca	0.9090086
120	0x3f7018de	0.93787944
121	0x3f47ae25	0.780001
122	0x3ffb9694	1.9655328
123	0x3f34fbfe	0.7069701
124	0x3f68f122	0.9099294
125	0x3ecd64c3	0.40115938
126	0xbe0dac60	-0.13835287
127	0xbddbcca2	-0.1073239
128	0x3ee2f5af	0.44328067
129	0x3d90cf54	0.07070795
130	0x3eb46aab	0.3523763
131	0x3ea1a60e	0.31572002
132	0x3e5bf29a	0.21479264
133	0x3db2db4b	0.08733233
134	0x3efcb319	0.4935539
135	0xbba806b4	-0.005127752
136	0x3f84de11	1.0380269
137	0x3f12864c	0.5723617
138	0x3f889d19	1.0672942
139	0x3f89989c	1.0749698
140	0x4008a024	2.1347742
141	0x3f12803b	0.57226914
142	0x3f86d6ca	1.0534298
143	0x3ebe4c44	0.3716756

mps.0.l1.node_block.m.0.bias f4 [16]
0	0x3e70f514	0.2353099
1	0x3f23a1be	0.63918674
2	0x3e7f85ba	0.24953356
3	0xbe838f94	-0.2569548
4	0x3d737475	0.059437234
5	0xbf1e1655	-0.61752826
6	0xbed9711a	-0.42469102
7	0xbdecb1c0	-0.115573406
8	0xbe0c75d3	-0.13716821
9	0x3f46d6ff	0.7767181
10	0xbe3dc85f	-0.18533467
11	0x3f0ff30f	0.56230253
12	0x3f3ad7f4	0.7298577
13	0x3f759101	0.95924383
14	0x3d05f10b	0.03270058
15	0x3f6e11e9	0.9299608

mps.0.l1.node_block.m.2.weight f4 [8, 16]
0	0xbdb62da4	-0.08895424
1	0xbe2b3881	-0.16720773
2	0xbdbad873	-0.09123316
3	0x3e687dc4	0.22704226
4	0x3e4e15c7	0.20125495
5	0x3e8a88d0	0.27057505
6	0x3e375e42	0.1790705
7	0x3e23cd09	0.15996183
8	0xbbb15dbf	-0.0054127867
9	0xbf05142d	-0.5198391
10	0x3df0e7f0	0.117629886
11	0xbec94022	-0.39306742
12	0xbe046db1	-0.12932469
13	0xbf0333a0	-0.5125065
14	0xbf016eab	-0.5055949
15	0xbe29790c	-0.16550082
16	0xbe0c2cda	-0.13688985
17	0xbe3f8955	-0.18704732
18	0xbc17317c	-0.009228107
19	0xbe0e1872	-0.13876513
20	0xbe1be127	-0.15222608
21	0x3db6ec72	0.08931817
22	0xbda705be	-0.08155392
23	0x3e58cd77	0.21172129
24	0x3e3658e0	0.1780734
25	0xbe9e8976	-0.3096425
26	0x3da5ef37	0.08102267
27	0x3e64f3e6	0.22358665
28	0xbd30c7fb	-0.043159466
29	0xbf03a95e	-0.5143031
30	0x3f559b9c	0.83440566
31	0xbe5958a5	-0.21225221
32	0x3e3d7276	0.18500695
33	0xbdc77a2a	-0.09740098
34	0xbdfad6e8	-0.12248021
35	0xbd69844c	-0.057010934
36	0xbdea8581	-0.11451245
37	0x3d4011b0	0.046891868
38	0x3e1fb4e3	0.15596347
39	0x3e346ea3	0.1762033
40	0x3d912ec7	0.07089
41	0xbf22558a	-0.6341177
42	0xbe0162a3	-0.12635283
43	0xbf40ef3a	-0.7536503
44	0xbd9d22f8	-0.076726854
45	0xbf08ccbd	-0.53437406
46	0xbf4bcf89	-0.7961355
47	0xbeb02828	-0.34405637
48	0xbdcfa587	-0.10138994
49	0xbd93a84f	-0.07209837
50	0xbdecef7e	-0.11569117
51	0x3e520d2d	0.20512839
52	0xbe62db7c	-0.22154039
53	0x3e93c4d2	0.288611
54	0x3da6a861	0.081375845
55	0xbd28bb29	-0.041194115
56	0x3e5fafaa	0.21844354
57	0xbe917cef	-0.2841563
58	0x3e1730a3	0.14764647
59	0x3e8c7e5b	0.27440152
60	0xbe04c40a	-0.12965408
61	0xbe6bdc39	-0.23033227
62	0x3f19e17e	0.601097
63	0xbe227815	-0.1586612
64	0x3cab9800	0.020946503
65	0x3d45968a	0.04823927
66	0xbdf5d96b	-0.1200436
67	0xbcf6be8e	-0.03012016
68	0x3e652389	0.22376837
69	0x3e3300bb	0.17480747
70	0xbc3d86d9	-0.011567795
71	0xbe662486	-0.2247487
72	0xbc0907e0	-0.008363694
73	0xbf014e4f	-0.50510114
74	0x3e4409aa	0.19144312
75	0xbedcece2	-0.43149477
76	0xbd0287fa	-0.03186796
77	0xbf04570b	-0.5169532
78	0xbee0ab1c	-0.43880546
79	0xbe1b8dc4	-0.15190798
80	0xbccf21fa	-0.025284756
81	0x3db29731	0.08720244
82	0x3e07b3f8	0.13252246
83	0x3e429ed8	0.19005907
84	0xbda8c36f	-0.08240401
85	0xbdf2b6e6	-0.11851291
86	0x3d6d322d	0.05790918
87	0xbd3a44e8	-0.04547587
88	0x3d88a4fe	0.06672095
89	0x3e23778c	0.15963572
90	0xbe2381d9	-0.15967502
91	0xbe77f0be	-0.2421293
92	0xbc1ca702	-0.009561302
93	0x3eaf069f	0.3418474
94	0xbf17875a	-0.59190905
95	0x3e8b5c9f	0.27219102
96	0x3e8509cb	0.25984034
97	0x3d58b99e	0.052911393
98	0xbe2fd26b	-0.17170112
99	0xbe291e6c	-0.16515511
100	0xbe14ed3b	-0.14543621
101	0xbe5504f1	-0.20802666
102	0xbdc10f36	-0.094267294
103	0xbe5fb44e	-0.21846125
104	0xbe32bb49	-0.17454256
105	0x3e7eaf3b	0.24871533
106	0xbe6da852	-0.2320874
107	0x3e27d460	0.16389608
108	0x3e039bbf	0.12852381
109	0x3f116e85	0.56809264
110	0x3eda124f	0.42592093
111	0x3e4cd160	0.20001745
112	0x3dc6c226	0.097049996
113	0xbe170512	-0.14748028
114	0xbe092c6c	-0.13395852
115	0x3e148819	0.14505042
116	0xbe53564d	-0.2063839
117	0x3cf6672d	0.030078495
118	0x3e423add	0.18967767
119	0x3d2cbf54	0.042174652
120	0x3cfad1c5	0.030617604
121	0xbe9e85b1	-0.30961373
122	0xbb54e247	-0.0032483505
123	0xbeed0d55	-0.46299234
124	0x3ce2c6a9	0.02768262
125	0xbe050c36	-0.1299294
126	0xbecf0ed9	-0.40441015
127	0xbf0080ba	-0.5019642

mps.0.l1.node_block.m.2.bias f4 [8]
0	0xbf216783	-0.6304857
1	0xbf315101	-0.6926423
2	0xbf7f3dd9	-0.9970375
3	0xbeedb7a9	-0.46429184
4	0xbf5e25ce	-0.86776435
5	0x3f03065d	0.51181585
6	0x3f263a5b	0.64932793
7	0xbf35a7b1	-0.70959

mps.0.l2.edge_block.m.0.weight f4 [16, 17]
0	0x3df46f74	0.119353205
1	0xbe5d5859	-0.21615733
2	0xbdb4eca5	-0.08834199
3	0xbd36405c	-0.04449497
4	0xbe46bc2a	-0.19407716
5	0xbe14b7b7	-0.14523207
6	0xbd18b102	-0.037278183
7	0x3e317472	0.17329577
8	0x3e61d798	0.22054899
9	0x3e14ce21	0.14531757
10	0xbe0ba6da	-0.13637868
11	0xbe190157	-0.14941917
12	0x3e4c19cd	0.19931717
13	0x3da5733f	0.08078622
14	0x3bc6d4e9	0.0060678613
15	0x3cfd34e0	0.030909002
16	0xbe3bf69a	-0.1835579
17	0xbea91de3	-0.33030614
18	0x3d7491a1	0.059709195
19	0xbf5d1c09	-0.86370903
20	0xbe3db6f9	-0.1852683
21	0xbf0178e9	-0.5057512
22	0x3cf06c2e	0.02934846
23	0x3ec2bde7	0.3803551
24	0xbf041e90	-0.51609135
25	0xbeab03b8	-0.33401275
26	0xbe566e9c	-0.20940632
27	0xbf568eae	-0.8381146
28	0xbe6ba00d	-0.23010273
29	0xbef69c7d	-0.48166266
30	0x3e3d4918	0.18484914
31	0x3ece8a55	0.40339914
32	0xbd59333c	-0.053027377
33	0x3ede32ae	0.4339804
34	0xbe0a4431	-0.13502575
35	0xbe641009	-0.22271742
36	0xbdb28028	-0.0871585
37	0xbe6331f6	-0.22187027
38	0xbe048b6e	-0.12943813
39	0x3d9327d2	0.071853295
40	0xbe642e03	-0.22283177
41	0x3e63a713	0.22231703
42	0x3dd9db0c	0.10637483
43	0xbe627711	-0.22115733
44	0xbdc35e5f	-0.09539484
45	0x3d7a7ef8	0.061156243
46	0xbe105572	-0.14095095
47	0xbc5695af	-0.013097211
48	0xbdbf2c16	-0.093345806
49	0x3e3b108a	0.18268028
50	0xbe336abd	-0.17521186
51	0x3e5676b8	0.20943725
52	0x3ca2f081	0.019890072
53	0x3d8cacfb	0.06868931
54	0x3e3978b4	0.18112451
55	0xbca08dd2	-0.019598875
56	0xbe0c7e27	-0.13719998
57	0xbd51da5f	-0.051233646
58	0x3e4d6137	0.20056616
59	0xbe166637	-0.1468743
60	0x3d6d7341	0.057971243
61	0xbe4bcc2f	-0.19902109
62	0x3dfcb8d7	0.12339943
63	0x3dd64dd4	0.10464063
64	0x3aafe669	0.0013420108
65	0x3da792f5	0.08182327
66	0x3c8f7a50	0.017514378
67	0x3de47044	0.111542255
68	0xbed5be81	-0.41746905
69	0xbe3b25b0	-0.18276095
70	0xbeff4364	-0.49856102
71	0x3dc6b14c	0.097017854
72	0xbe3d8335	-0.18507083
73	0xbc9cba31	-0.019131752
74	0x3ef4c357	0.47805282
75	0xbeb7bc00	-0.3588562
76	0xbea567e5	-0.32305828
77	0xbef568ea	-0.47931606
78	0xbed10144	-0.40821278
79	0xbd8047e5	-0.06263713
80	0xbe891258	-0.26771808
81	0x3e078a90	0.13236451
82	0x3e87e297	0.26540062
83	0xbe8189eb	-0.25300536
84	0x3f4428c3	0.766247
85	0xbe405ffd	-0.18786617
86	0xbd8ddc73	-0.06926813
87	0xbe7986a3	-0.24367766
88	0xbda89127	-0.082308106
89	0x3dfbe45c	0.122994155
90	0x3e553331	0.20820309
91	0x3d422950	0.04740268
92	0x3e51a8cc	0.20474547
93	0x3d3d1869	0.046165857
94	0x3de75452	0.1129538
95	0x3e35f0a9	0.17767586
96	0x3e3ef0f3	0.18646602
97	0xbd803558	-0.062601745
98	0x3e5b4a95	0.2141517
99	0x3e049217	0.12946354
100	0xbdd2179f	-0.102584116
101	0xbd678259	-0.056520794
102	0xbed3b79e	-0.41351026
103	0xbbb47611	-0.0055072387
104	0xbf029274	-0.5100472
105	0x398747ec	0.00025802793
106	0xbe275f64	-0.16344982
107	0xbe05e56a	-0.13075796
108	0x3ec258ea	0.3795846
109	0xbec195be	-0.37809557
110	0xbdabd9d0	-0.08391154
111	0xbc9f9b99	-0.019483374
112	0xbeb604e1	-0.35550597
113	0x3d156440	0.03647256
114	0x3cc1cc4c	0.023656987
115	0x3e6e6c3f	0.2328348
116	0xbb8ab6c3	-0.0042332127
117	0xbe7f4f58	-0.24932611
118	0x3e80bc62	0.25143725
119	0xbd8c0fac	-0.06838927
120	0x3e06f32d	0.13178702
121	0x3dbaa699	0.09113807
122	0x3e37101e	0.17877242
123	0xbe2d234f	-0.16908
124	0x3da517b8	0.080611646
125	0x3dcea3a3	0.10089805
126	0xbe415c8d	-0.18882962
127	0xbe668561	-0.22511818
128	0xbdbfc4da	-0.09363718
129	0x3e16b8f5	0.14718993
130	0xbe53f439	-0.20698632
131	0xbe994c55	-0.2994105
132	0x3deec78a	0.11659153
133	0x3e23bed1	0.1599076
134	0x3e29045a	0.16505566
135	0xbe7981cc	-0.2436592
136	0xbe057c86	-0.13035783
137	0x3e2c0abe	0.16800973
138	0x3e35d2fb	0.17756264
139	0x3e2b0582	0.1670132
140	0x3cf9c8aa	0.030491192
141	0x3d2f27a9	0.042762432
142	0x3e64812b	0.22314899
143	0xbe27b370	-0.16377044
144	0xbd77d801	-0.06050873
145	0x3e6c263f	0.23061465
146	0xbe3b44a7	-0.18287908
147	0xbdb4ebcd	-0.08834038
148	0x3e242cf6	0.16032776
149	0x3d047451	0.03233749
150	0x3da6fef8	0.081541
151	0xbdf211f5	-0.11819831
152	0xbd26a414	-0.04068382
153	0x3e8548e0	0.26032162
154	0xbd85d0b4	-0.065339476
155	0xbd3ac854	-0.045601204
156	0x3e163ceb	0.14671676
157	0xbe3a3599	-0.18184508
158	0x3e2a07c5	0.16604526
159	0xbd96dfe2	-0.07366921
160	0xbdecbf7b	-0.115599595
161	0xbc5db054	-0.013530809
162	0xbd85eae2	-0.06538941
163	0xbe8f65ee	-0.28007454
164	0x3e3804db	0.17970602
165	0x3c8a7cd7	0.016905231
166	0xbe8d80bb	-0.27637276
167	0xbdce4fb7	-0.10073798
168	0x3e1edbac	0.15513486
169	0x3cea19f2	0.028576825
170	0x3dbbae85	0.09164146
171	0xbe0bed9a	-0.13664857
172	0xbdcd0ee5	-0.100126065
173	0xbd0d37b6	-0.03447696
174	0xbd2b1560	-0.04176843
175	0xbe204330	-0.1565063
176	0x3c9a248f	0.01881626
177	0x3cb9f493	0.02269963
178	0xbcece7f8	-0.028919205
179	0x3d01b0d9	0.031662796
180	0xbdb96457	-0.090523414
181	0x3d737714	0.059439734
182	0x3db06818	0.08613604
183	0xbdf661a6	-0.12030344
184	0xbe67e7c4	-0.22647005
185	0x3df4d63e	0.11954926
186	0x3d5f2687	0.054480102
187	0xbee3cbb4	-0.4449135
188	0x3de684f7	0.1125583
189	0xbf0e11d5	-0.5549596
190	0x3d85d346	0.06534438
191	0xbe8ca630	-0.2747054
192	0xbd47e1e1	-0.0487994
193	0x3f0a2648	0.5396466
194	0xbf129d67	-0.57271427
195	0xbec0519d	-0.37562266
196	0xbe6332a0	-0.2218728
197	0xbec28b47	-0.37996885
198	0x3d83f800	0.064437866
199	0xbe9f69a9	-0.311353
200	0x3e91f2e2	0.28505617
201	0x3c83bf69	0.016082482
202	0x3afadc96	0.0019139226
203	0x3e9adf64	0.3024856
204	0xbe1affd1	-0.15136649
205	0x3d64a08a	0.055817164
206	0x3e07e52f	0.1327102
207	0x3e604c23	0.21904044
208	0xbdef93b5	-0.11698095
209	0xbe0aaf4e	-0.13543436
210	0x3cac18ae	0.021007862
211	0x3dad9de6	0.08477382
212	0x3ddce7ba	0.10786386
213	0x3e1a17b3	0.15048103
214	0xbd0cf793	-0.034415793
215	0x3e1c7214	0.15277892
216	0x3e401756	0.18758902
217	0xbdab6993	-0.08369746
218	0x3e1203d3	0.14259271
219	0x3e061817	0.13095127
220	0x3e3995bb	0.18123524
221	0xbe2367d7	-0.1595758
222	0xbe0f29fe	-0.13980862
223	0xbd8bdece	-0.06829606
224	0xbb279982	-0.0025573676
225	0x3dcd4f84	0.10024932
226	0xbdcfcab7	-0.10146087
227	0x3e2432d4	0.16035014
228	0xbdd6faec	-0.10497078
229	0x3de5160e	0.11185847
230	0xbd7d3827	-0.06182113
231	0xbe3d4fd0	-0.18487477
232	0xbe105414	-0.14094573
233	0xbe302efd	-0.17205425
234	0x3e1868f9	0.14883794
235	0xbe0af16f	-0.13568662
236	0xbb2c505e	-0.002629302
237	0x3e24c6eb	0.16091506
238	0xbe3ded2e	-0.18547508
239	0x3d505a56	0.0508674
240	0xbeb0958e	-0.344891
241	0xbe3b29fb	-0.18277733
242	0xbec0b028	-0.37634397
243	0xbd5d8a98	-0.05408725
244	0x3e494aad	0.19657393
245	0xbd97f108	-0.0741902
246	0xbdeccff6	-0.11563103
247	0x3d3a00a3	0.045410763
248	0x3e23c3da	0.1599268
249	0x3d17760a	0.036977805
250	0xbe73076f	-0.23733304
251	0xbe2833ba	-0.16425982
252	0x3e89a92a	0.26886874
253	0xbe0680d4	-0.13135082
254	0x3e826616	0.2546851
255	0x3e1c5ce5	0.15269811

mps.0.l2.edge_block.m.0.bias f4 [16]
0	0x3ca03111	0.019554647
1	0x3f05c98f	0.5226068
2	0xbf0539ec	-0.52041507
3	0x3e0b2480	0.13588142
4	0x3f1551f8	0.583282
5	0x3f13a7c4	0.57677865
6	0x3e2c928b	0.16852777
7	0xbe9b7100	-0.3035965
8	0xbe0df03a	-0.1386117
9	0xbc0da354	-0.0086448975
10	0x3e12f5c6	0.14351568
11	0x3ef72483	0.48270044
12	0x3e54fbe2	0.2079921
13	0x3f30f3ea	0.69122183
14	0x3e2acd94	0.16679984
15	0xbe46258b	-0.19350259

mps.0.l2.edge_block.m.2.weight f4 [1, 16]
0	0x3d3049cf	0.04303914
1	0x3f307c86	0.6894001
2	0xbdd74138	-0.10510486
3	0xbd1bd78f	-0.03804737
4	0x3f38fcd0	0.7226076
5	0x3e1a3ca4	0.15062195
6	0x3eea636c	0.45778978
7	0xbdad3130	-0.084566474
8	0xbda5d52a	-0.080972984
9	0xbd581060	-0.05274999
10	0xbdba598c	-0.09099111
11	0x3f47e3d3	0.7808201
12	0x3dbea879	0.09309477
13	0x3e87d538	0.2652986
14	0x3e3d0dfb	0.18462364
15	0x3d3f210b	0.04666237

mps.0.l2.node_block.m.0.weight f4 [16, 9]
0	0xbe9158ee	-0.2838816
1	0x3cff2674	0.031146266
2	0xbd0a4c44	-0.03376414
3	0xbe2bb3a0	-0.1676774
4	0xbe4bffb9	-0.19921769
5	0x3e88d92d	0.26728192
6	0x3e7f8a91	0.24955203
7	0x3e0251be	0.12726495
8	0x3e7dffba	0.24804583
9	0xbe693d56	-0.22777304
10	0xbe1a871f	-0.15090607
11	0x3da1c02e	0.078979835
12	0xbe060f60	-0.13091803
13	0xbe1bf752	-0.15231064
14	0xbe22711a	-0.15863457
15	0x3e7a2639	0.24428643
16	0xbe6e5386	-0.23274049
17	0x3e183c62	0.14866784
18	0x3eab11e7	0.33412096
19	0xbd9f5ba5	-0.07781152
20	0xbdeaf8b8	-0.114732206
21	0x3e5e63ac	0.2171771
22	0xbda556ed	-0.080732204
23	0xbd302eca	-0.04301337
24	0x3e9cd77b	0.3063315
25	0xbe1707b4	-0.14749032
26	0xbe580274	-0.21094686
27	0xbe2a3b5d	-0.16624208
28	0xbd91e4d3	-0.07123723
29	0xbe2e6dbd	-0.1703405
30	0xbe170e21	-0.14751484
31	0x3e08a4a7	0.1334406
32	0x3d33aac1	0.043864015
33	0xbd87ed1e	-0.066370234
34	0xbe883bae	-0.26608032
35	0xbdeaab17	-0.11458414
36	0xbd87b2a8	-0.06625873
37	0xbda7c91a	-0.08192654
38	0xbe98a842	-0.2981587
39	0x3e007b64	0.1254707
40	0xbe253e10	-0.16136956
41	0xbe899bd8	-0.26876712
42	0xbe800686	-0.25004977
43	0x3df2acd5	0.11849371
44	0xbe291364	-0.16511303
45	0xbda865dd	-0.08222554
46	0x3e95e8fa	0.2927931
47	0x3e59d2d6	0.21271834
48	0x3e6a8af0	0.22904563
49	0xbe813ac2	-0.2524014
50	0xbe8b21e2	-0.27174288
51	0xbe25fb42	-0.16209128
52	0x3e9b8bde	0.30380148
53	0xbcd0131d	-0.025399739
54	0xbe564e29	-0.20928253
55	0xbbebcf52	-0.0071963454
56	0xbe68e673	-0.2274416
57	0xbda21d82	-0.079157844
58	0xbcbaf6eb	-0.022822818
59	0x3e881893	0.2658125
60	0x3d8323c0	0.06403303
61	0xbd123925	-0.03569903
62	0x3de183aa	0.11011441
63	0xbcf138ac	-0.029445969
64	0x3e2399e0	0.15976667
65	0x3ddb99e0	0.10722709
66	0x3dcbc01a	0.0994875
67	0x3d726e0b	0.059186976
68	0x3e64853d	0.22316451
69	0xbd961a85	-0.07329277
70	0xbe107eab	-0.1411082
71	0x3e9a7dae	0.3017401
72	0x3e92c1ba	0.28663427
73	0x3ecc361a	0.39885026
74	0x3cb9fb62	0.022702876
75	0xbd882551	-0.066477425
76	0x3e23fd28	0.1601454
77	0x3e5788c9	0.21048273
78	0xbe7fc15a	-0.24976102
79	0xbdd75738	-0.105146825
80	0xbe6e8d3f	-0.23296069
81	0x3d8c2c62	0.06844403
82	0x3e2cca00	0.16873932
83	0xbdc29e42	-0.095028415
84	0xbbde11ad	-0.0067770095
85	0x3e193551	0.14961745
86	0xbda59c20	-0.08086419
87	0xbe6b9740	-0.23006916
88	0x3e626280	0.22107887
89	0xbe00a802	-0.1256409
90	0xbc37d3f5	-0.011219968
91	0x3d946a80	0.07246876
92	0xbd626003	-0.055267345
93	0xbe882284	-0.26588833
94	0x3df4b195	0.119479336
95	0xbe3324be	-0.17494485
96	0xbe05dc0e	-0.13072225
97	0x3d3214eb	0.04347698
98	0xbe2603a9	-0.16212334
99	0xbde01f2f	-0.10943448
100	0xbda87df2	-0.08227147
101	0xbe1b1802	-0.15145877
102	0xbdda18fa	-0.10649295
103	0xbc226f92	-0.009914296
104	0x3d534e5f	0.051588412
105	0xbe681810	-0.22665429
106	0xbe6b9941	-0.2300768
107	0xbcd526dc	-0.026019506
108	0x3d01b01b	0.031662088
109	0x3e2a9f72	0.16662386
110	0xbe57bf58	-0.21069086
111	0x3db907b7	0.090346746
112	0x3e4836ee	0.19552204
113	0x3e3fa7a0	0.18716288
114	0xbe93917c	-0.28821933
115	0xbe03548f	-0.12825225
116	0xbe89b01b	-0.2689217
117	0xbe3add0c	-0.18248385
118	0x3e5a9d07	0.21348964
119	0xbd91d188	-0.07120043
120	0x3e193c39	0.1496438
121	0xbe4447a5	-0.19167955
122	0x3cd33fb1	0.025787206
123	0xbe31aa9b	-0.17350237
124	0x3e084043	0.13305764
125	0xbe088fb3	-0.13336067
126	0xbce64c48	-0.028112546
127	0xbe77c641	-0.24196722
128	0xbcd59788	-0.026073232
129	0x3e9a8b08	0.30184197
130	0x3dfba184	0.12286666
131	0xbe48211a	-0.19543877
132	0x3d4a4491	0.049381796
133	0xbd812ee3	-0.06307771
134	0xbe546438	-0.20741355
135	0x3e5b33d6	0.21406493
136	0x3c43860e	0.011933817
137	0x3d83d00c	0.06436166
138	0xbe15084a	-0.14553943
139	0xbe42e5c1	-0.19032957
140	0x3d7a5daf	0.0611245
141	0x3e02d3ae	0.12776062
142	0x3d909dd8	0.07061356
143	0x3cd902c5	0.026490578

mps.0.l2.node_block.m.0.bias f4 [16]
0	0x3f353bbc	0.7079427
1	0x3ead78c8	0.3388121
2	0xbe5c9cfa	-0.21544257
3	0x3e911770	0.28338194
4	0x3e77b27a	0.24189177
5	0xbca507b5	-0.020145277
6	0xbe3f02ff	-0.18653487
7	0x3cbde951	0.023182543
8	0x3de3c3a2	0.111212984
9	0xbe80e4d3	-0.2517458
10	0xbebe17ab	-0.37127432
11	0x3f10d957	0.56581634
12	0x3ea3c80c	0.3198856
13	0x3e8e8a4c	0.27839887
14	0xbe670233	-0.22559433
15	0xbda1c009	-0.07897956

mps.0.l2.node_block.m.2.weight f4 [8, 16]
0	0xbdeb3b75	-0.1148595
1	0x3e7d9c6e	0.24766704
2	0x3e462be1	0.19352676
3	0x3e56e148	0.20984375
4	0x3e40aede	0.18816707
5	0x3e15b82c	0.14621037
6	0x3d3c5cee	0.045987062
7	0x3ded2d28	0.115808785
8	0xbd3cc029	-0.046081696
9	0x3deaf97a	0.11473365
10	0xbd6b6be8	-0.057475954
11	0xbb8cf9fd	-0.004302262
12	0xbe511c3c	-0.20420927
13	0xbd59c828	-0.0531694
14	0xbdbbf7d3	-0.09178128
15	0xbdaa9aa9	-0.0833028
16	0xbe553268	-0.2082001
17	0xbf05eb4c	-0.5231216
18	0x3d1e1920	0.03859818
19	0x3df7c099	0.12097282
20	0x3e83a512	0.25711876
21	0x3de6a797	0.11262434
22	0xbe1cf1b5	-0.15326579
23	0xbea5ed17	-0.32407448
24	0x3db60b6a	0.08888896
25	0x3d5a8ad3	0.05335505
26	0xbe69de4a	-0.22838703
27	0x3d813cca	0.06310423
28	0x3e493c7b	0.19651978
29	0x3cc2b04a	0.023765702
30	0xbe11c55d	-0.14235444
31	0x3e868b50	0.26278162
32	0x3d3b1149	0.04567078
33	0x3e5185a6	0.20461139
34	0xbe0fe377	-0.14051615
35	0x3dfb9ea5	0.122861184
36	0xbe09f93b	-0.1347398
37	0x3e7932fc	0.24335855
38	0xbe07e800	-0.13272095
39	0x3daa0884	0.083024055
40	0x3d04e617	0.032445993
41	0x3d8a5ddf	0.06756186
42	0xbc6a542d	-0.014302296
43	0x3d97f520	0.07419801
44	0xbd7546a7	-0.059881832
45	0xbe577add	-0.21042962
46	0xbd88820c	-0.066654295
47	0x3d088018	0.033325285
48	0xbd479323	-0.048724305
49	0x3d215c26	0.03939452
50	0xbd9b279a	-0.07575913
51	0x3e1d3153	0.15350847
52	0x3e2615bc	0.16219229
53	0x3d021418	0.031757444
54	0xbdada4b8	-0.08478683
55	0xbe2e367f	-0.17012976
56	0xbbde9e12	-0.006793746
57	0xbe03a738	-0.12856758
58	0x3e1f617c	0.15564531
59	0xbe658464	-0.22413784
60	0x3dc88639	0.09791226
61	0x3e6662c7	0.22498618
62	0x3e0b4962	0.13602212
63	0x3de7b26a	0.11313327
64	0xbe1ef1dd	-0.15521951
65	0x3e3d759d	0.18501897
66	0xbda095e5	-0.0784109
67	0xbe375793	-0.179045
68	0x3e34e270	0.17664504
69	0xbd50dc15	-0.050991137
70	0x3cc77a43	0.024350291
71	0x3e9a8285	0.30177703
72	0xbdeb311d	-0.11483977
73	0xbe2858c8	-0.16440117
74	0x3cff6556	0.03117625
75	0xbc856c96	-0.01628713
76	0x3d83409b	0.06408807
77	0xbe4db20e	-0.20087454
78	0xbd2cc63a	-0.04218123
79	0x3d33efdf	0.04392993
80	0xbdacc7db	-0.08436557
81	0xbe8e5002	-0.27795416
82	0x3e017c7d	0.12645145
83	0x3cdfb890	0.027309686
84	0xbe49dae5	-0.19712408
85	0x3e14016c	0.14453667
86	0x3daaafe6	0.08334331
87	0x3dbc66d9	0.09199304
88	0xbe126c2d	-0.14299078
89	0xbbba6565	-0.0056883567
90	0x3e49234f	0.19642375
91	0x3e175ebc	0.14782232
92	0xbe4c5a1c	-0.19956249
93	0x3e4f7c5d	0.20262285
94	0xbd3d0041	-0.04614282
95	0x3e403917	0.18771778
96	0x3e373ec1	0.17895032
97	0x3eaab4d4	0.33341086
98	0xbe312a79	-0.17301358
99	0x3e5bf6b8	0.21480834
100	0xbe3084ff	-0.17238234
101	0x3cc4e9c2	0.024037246
102	0xbe0d8fd5	-0.13824399
103	0xbd54f0cc	-0.051987454
104	0xbbf3665d	-0.007427974
105	0xbc801324	-0.015634127
106	0xbc6e6534	-0.014550496
107	0x3c055de9	0.008140066
108	0x3e8c6452	0.27420288
109	0x3e17065b	0.14748518
110	0x3cc34b46	0.023839604
111	0xbb915c47	-0.004436049
112	0x3e312b08	0.17301571
113	0x3daf22f5	0.085515894
114	0x3d09c3e7	0.033634093
115	0x3d8098f8	0.062791765
116	0xbe36a17e	-0.17835042
117	0xbe11be08	-0.14232647
118	0x3c9d1bf2	0.019178364
119	0xbdb6b043	-0.08920338
120	0x3c8ebc8e	0.017423894
121	0xbd48e3c4	-0.04904534
122	0x3d8e781d	0.069565035
123	0x3e19b374	0.15009862
124	0xbd816931	-0.06318892
125	0x3e4fe244	0.20301157
126	0x3e2a1d8f	0.16612838
127	0xbe82b99a	-0.25532228

mps.0.l2.node_block.m.2.bias f4 [8]
0	0x3e1e7e21	0.15477802
1	0xbef21071	-0.4727817
2	0x3e883b65	0.26607814
3	0xbebef74a	-0.37298042
4	0xbef06f71	-0.46960023
5	0xbeee9e5c	-0.46605194
6	0x3e982163	0.29712972
7	0x3ea81352	0.3282724

mps.1.l1.edge_block.m.0.weight f4 [16, 18]
0	0xbdf9b728	-0.121931374
1	0x3e8fd078	0.28088737
2	0xbdea6401	-0.114448555
3	0xbe093970	-0.13400817
4	0x3db0a177	0.08624547
5	0x3dca60ca	0.09881742
6	0x3de2525d	0.11050866
7	0x3dbf578d	0.09342871
8	0x3e4bd9ff	0.19907378
9	0xbdf3a32a	-0.118963555
10	0x3de61f00	0.112363815
11	0x3e5b35e8	0.21407282
12	0xbd99efb2	-0.075164214
13	0x3ea29af6	0.3175885
14	0x3df139ac	0.11778578
15	0xbd4a31d7	-0.049363937
16	0x3d6f498c	0.05841975
17	0x3ea26b76	0.3172261
18	0xbe5a6145	-0.21326168
19	0x3d7350ac	0.059403107
20	0x3d60306d	0.054733682
21	0xbe0e2b27	-0.13883649
22	0x3e0aa3b7	0.13539015
23	0xbe032da6	-0.12810382
24	0x3e2b5ac7	0.16733848
25	0x3e4e43ed	0.20143099
26	0xbbed303f	-0.0072384174
27	0xbd81f837	-0.06346171
28	0x3d6959a8	0.05697027
29	0x3dc10a67	0.09425812
30	0x3d5afa29	0.053461228
31	0x3e4a031e	0.19727752
32	0x3dcd30a9	0.10019047
33	0xbe1c5b54	-0.15269214
34	0xbdeb8f05	-0.11501888
35	0x3f0b7d0f	0.544877
36	0x3d62dbe8	0.0553855
37	0x3e29142a	0.16511598
38	0xbdd01045	-0.10159353
39	0xbd114e2b	-0.035474937
40	0x3cd429e6	0.025898885
41	0xbd80ae4a	-0.06283243
42	0x3e23563a	0.15950862
43	0x3d322c75	0.04349943
44	0xbe429723	-0.19002967
45	0xbc3f64bc	-0.011681732
46	0xbdd179ec	-0.10228333
47	0x3c5fe9c5	0.013666575
48	0xbd003453	-0.0312999
49	0xbe3fc8d5	-0.18728955
50	0xbd538589	-0.05164102
51	0xbca9b7fc	-0.020717613
52	0xbde45035	-0.11148111
53	0x3ef6da8e	0.4821362
54	0xbbb7be0c	-0.005607372
55	0x3ddd126a	0.10794528
56	0xbc7e8102	-0.015533688
57	0xbe0373d6	-0.12837157
58	0x3e06097d	0.13089557
59	0x3da98f8c	0.082793325
60	0xbe56fd59	-0.20995082
61	0xbdf9a89e	-0.12190364
62	0x3e768fdd	0.24078317
63	0x3e0e4628	0.1389395
64	0xbe419564	-0.18904644
65	0x3e417ddf	0.18895672
66	0x3d3d5ba6	0.04622998
67	0xbea30b4d	-0.3184456
68	0xbd1009de	-0.03516566
69	0x3dc670ba	0.0968947
70	0xbcf90af5	-0.030400733
71	0x3dd11a3c	0.10210082
72	0xbeba8b1e	-0.36434263
73	0x3ea99ded	0.331283
74	0x3ca8dac0	0.02061212
75	0x3e8c9f8c	0.27465475
76	0xbeb6f500	-0.35733795
77	0x3e8c3c9f	0.2739
78	0xbea22951	-0.31672147
79	0xbe48e93c	-0.19620222
80	0x3e357575	0.17720588
81	0xbead6133	-0.3386322
82	0x3d3da472	0.046299405
83	0xbd99d05d	-0.07510445
84	0x3eded23e	0.43519777
85	0xbecaf685	-0.39641204
86	0x3e9180b8	0.28418517
87	0x3e9c353c	0.30509365
88	0x3e9265e5	0.28593364
89	0x3d1f664d	0.03891592
90	0x3e349513	0.17634992
91	0xbd7c00e4	-0.061524287
92	0x3e1540e5	0.14575537
93	0x3e377fd9	0.17919864
94	0xbe41959e	-0.1890473
95	0xbd9fa2ed	-0.077947475
96	0x3c863d9b	0.016386798
97	0x3db2c435	0.0872883
98	0xbe06ff4b	-0.13183324
99	0x3d6aa779	0.05728862
100	0xbc9f9ff1	-0.019485446
101	0x3d935372	0.0719365
102	0xbdc45bde	-0.09587835
103	0x3e71f2b3	0.23627739
104	0x3de438ec	0.111436695
105	0xbe4e170c	-0.20125979
106	0xbd8f1b75	-0.06987659
107	0x3edb188e	0.4279217
108	0x3d5ee677	0.054419007
109	0x3e6b789b	0.22995226
110	0x3d4422d1	0.047884766
111	0xbcc55d06	-0.024092209
112	0x3e770095	0.24121316
113	0xbdb13ed6	-0.08654563
114	0xbd84a900	-0.06477547
115	0xbb80f0be	-0.0039349487
116	0xbe445e57	-0.19176613
117	0x3d2f3ed9	0.042784546
118	0xbe251fa8	-0.16125357
119	0x3d3c038f	0.04590183
120	0x3d5007a1	0.050788525
121	0x3cf5aee6	0.029990625
122	0xbe3710a7	-0.17877446
123	0xbe677b78	-0.22605693
124	0x3da3de3b	0.080013715
125	0x3e868d05	0.26279464
126	0xbe8ca15e	-0.27466863
127	0x3e267f95	0.16259606
128	0xbe43c4ed	-0.1911809
129	0x3d453d49	0.04815415
130	0x3e23fb4a	0.16013828
131	0x3e509246	0.20368299
132	0xbe5cb338	-0.21552742
133	0x3d909c36	0.07061045
134	0x3dbe4119	0.0928976
135	0x3cd5e788	0.02611138
136	0x3e4a7bb8	0.19773757
137	0xbd8cd7ee	-0.06877123
138	0xbd3ae9cb	-0.04563312
139	0xbdaf7738	-0.08567661
140	0x39ae2730	0.00033217063
141	0xbae786d3	-0.0017664082
142	0x3d854c35	0.06508676
143	0xbf1ae84f	-0.60510725
144	0xbd4c545d	-0.049885143
145	0x3da14922	0.07875277
146	0xbe423a1d	-0.18967481
147	0xbe02c54a	-0.12770572
148	0x399e338f	0.00030174523
149	0xbe13d12d	-0.14435263
150	0x3d12d39f	0.03584635
151	0x3cd4341f	0.02590376
152	0x3e53c58f	0.20680831
153	0xbcba93fc	-0.022775643
154	0xbe0bb705	-0.13644035
155	0x3d83eb07	0.06441312
156	0x3d0ca9f5	0.03434177
157	0xbdf173ca	-0.11789663
158	0xbe454b87	-0.19267093
159	0x3d86e98f	0.065875165
160	0xbe06a8ec	-0.13150376
161	0x3dd1b927	0.10240393
162	0x3dfffc54	0.124993
163	0xbe6210a3	-0.22076659
164	0xbdf978ba	-0.1218123
165	0xbe3d11a9	-0.18463768
166	0x3e7fb727	0.24972211
167	0x3e7a5d3f	0.24449633
168	0x3c9ac853	0.01889435
169	0x3e4b46da	0.19851246
170	0xbdffbf41	-0.12487651
171	0xbe1cd9dd	-0.15317483
172	0x3d49d584	0.04927589
173	0x3df1e778	0.11811727
174	0x3e6a4927	0.22879468
175	0x3e0c2e21	0.13689472
176	0x3df21ca8	0.11821872
177	0x3d837418	0.064186275
178	0x3da1b68b	0.078961454
179	0x3ea8cd21	0.32969
180	0x3e2e7be2	0.17039445
181	0xbe78a523	-0.24281745
182	0x3e6b4d80	0.22978783
183	0xbd27aec9	-0.040938172
184	0xbe03bd89	-0.1286527
185	0x3da5ac0d	0.08089457
186	0xbbb48118	-0.0055085532
187	0xbe27b1e6	-0.16376457
188	0xbde196a9	-0.11015064
189	0x3c5f030a	0.013611564
190	0x3e32a909	0.17447294
191	0xbd78af2d	-0.060713936
192	0x3e3320f0	0.17493033
193	0x3d969ac6	0.073537394
194	0x3ca8afd3	0.020591652
195	0x3d430764	0.04761447
196	0xbe304f48	-0.17217743
197	0x3e7b4d1e	0.24541137
198	0x3c5c54a7	0.013447917
199	0xbe96cd55	-0.2945353
200	0xbd09de12	-0.03365905
201	0xbd36793b	-0.044549208
202	0xbda74fa8	-0.0816949
203	0xbe3bb1d9	-0.18329562
204	0x3d87c465	0.06629256
205	0x3d3501b2	0.04419107
206	0xbd943a37	-0.07237666
207	0xbd0d5e2e	-0.034513645
208	0x3b29879f	0.002586819
209	0x3d540434	0.05176182
210	0x3d4a43c6	0.04938104
211	0xbe3036f3	-0.17208461
212	0xbb07e08f	-0.0020733213
213	0x3d137245	0.035997648
214	0xbe255aa3	-0.16147856
215	0x3ebda9a8	0.370435
216	0xbd3d4453	-0.046207737
217	0x3e123467	0.14277802
218	0x3cb93edb	0.02261298
219	0x3e3de81b	0.18545572
220	0xbc9bfd32	-0.019041631
221	0xbe27e308	-0.163952
222	0x3d8970e2	0.06710984
223	0xbe377217	-0.17914616
224	0xbd419905	-0.04726507
225	0xbc9651f6	-0.018349629
226	0xbde6ec0f	-0.11275493
227	0xbd720a6f	-0.05909198
228	0x3e4d4290	0.20044923
229	0x3e08c49a	0.13356248
230	0x3d03bbe6	0.032161616
231	0x3e39003d	0.18066497
232	0xbe5acfe5	-0.21368368
233	0x3f067803	0.52526873
234	0xbc9dd430	-0.019266218
235	0x3e8c2968	0.2737534
236	0xbecdbe3a	-0.40184194
237	0x3e806225	0.25074878
238	0xbed4de28	-0.41575742
239	0x3ddb3002	0.10702516
240	0xbe6df067	-0.23236237
241	0xbe76bc8e	-0.24095365
242	0xbd87a35c	-0.06622955
243	0xbeaaeb44	-0.33382618
244	0x3e37143c	0.17878813
245	0xbd052d93	-0.032514166
246	0xbd99233b	-0.07477423
247	0xbe94eb3c	-0.2908572
248	0x3df2852e	0.11841808
249	0x3d280dbc	0.041028723
250	0x3e5a643a	0.21327296
251	0x3d8dfb6f	0.06932723
252	0x3d78ba0a	0.060724296
253	0xbe310034	-0.17285234
254	0x3d417801	0.047233585
255	0x3dabfa6a	0.08397372

mps.1.l1.edge_block.m.0.bias f4 [16]
0	0x3ea5e9f5	0.32405058
1	0x3e905875	0.28192487
2	0x3e70581b	0.2347111
3	0xbe0bd145	-0.13654049
4	0x3e5b11ac	0.2139346
5	0x3e82d563	0.25553426
6	0xbe1890fb	-0.14899056
7	0x3eb60f9d	0.35558787
8	0x3dc7e4c3	0.0976043
9	0x3f1a3a61	0.6024533
10	0x3f31a755	0.69395953
11	0x3ebbfd46	0.3671667
12	0x3ef5e7fd	0.48028556
13	0x3e9c628e	0.3054394
14	0x3ec63837	0.38714764
15	0x3e277caa	0.1635615

mps.1.l1.edge_block.m.2.weight f4 [1, 16]
0	0x3dcfc675	0.101452745
1	0x3c24534d	0.010029626
2	0x3dca0312	0.09863867
3	0x3d778d40	0.06043744
4	0xbf77ddd4	-0.9682286
5	0x3e3c7483	0.1840382
6	0x3e245992	0.16049793
7	0x3e594cc9	0.21220697
8	0x3c8db3ea	0.017297704
9	0x3e0036e8	0.12520945
10	0x3e41c13a	0.18921366
11	0x3e4e76d0	0.20162511
12	0x3e8a4de8	0.27012563
13	0xbf087703	-0.533066
14	0x3ded4dd8	0.11587113
15	0x3e20aaf4	0.15690213

mps.1.l1.node_block.m.0.weight f4 [16, 9]
0	0x3e4ce011	0.2000735
1	0x3d9bc716	0.07606332
2	0xbe0679b1	-0.13132359
3	0xbca719d4	-0.020398058
4	0x3d3d9bd5	0.04629119
5	0x3d886bc6	0.06661181
6	0xbdcee81e	-0.101028666
7	0x3e727765	0.23678358
8	0x3e897a53	0.26851138
9	0xbe4437d8	-0.19161928
10	0xbd322e73	-0.04350133
11	0xbc467117	-0.012111924
12	0xbe534205	-0.20630653
13	0xb920f94d	-0.00015351661
14	0xbe84da0f	-0.25947616
15	0xbe000f63	-0.1250587
16	0xbcb35078	-0.021888956
17	0xbe520a31	-0.205117
18	0x3ea640a8	0.32471204
19	0x3e8d3feb	0.27587828
20	0x3e49e7b8	0.197173
21	0x3e62f3bd	0.22163291
22	0xbd559084	-0.052139774
23	0x3ca34cb9	0.019934045
24	0xbd09abc2	-0.033611067
25	0xbdde5ad7	-0.1085717
26	0xbe9146f4	-0.28374445
27	0xbdd4f21a	-0.1039774
28	0x3dda9657	0.10673206
29	0x3d8fe19d	0.07025454
30	0x3e40ffa7	0.18847524
31	0x3e6f47bb	0.23367207
32	0x3dc01b6a	0.09380229
33	0xbe2a07b4	-0.16604501
34	0xbe75e63e	-0.24013612
35	0xbe24f984	-0.16110808
36	0xbdea1d85	-0.11431412
37	0x3dc84ab4	0.097798735
38	0x3e0877e5	0.13326986
39	0x3e969a36	0.2941453
40	0xbd99ad07	-0.075037055
41	0xbce75b45	-0.028241763
42	0xbe0dd928	-0.1385237
43	0x3c1a49ac	0.009416979
44	0x3dc10a94	0.09425846
45	0x3d17c81c	0.037056074
46	0x3c5ddc77	0.013541332
47	0x3c67681b	0.014123942
48	0x3dfa44b4	0.12220135
49	0xbd9443b6	-0.07239477
50	0xbe322c32	-0.17399672
51	0x3d4470ea	0.047959246
52	0xbd3ed0db	-0.0465859
53	0xbee3f736	-0.44524544
54	0x3b018d27	0.0019767971
55	0x3ca141b7	0.019684656
56	0xbd6461ea	-0.05575744
57	0xbe08a479	-0.13343991
58	0xbdb19985	-0.0867186
59	0xbe1d6cbe	-0.15373513
60	0x3d60ef1f	0.054915544
61	0xbc895fd3	-0.016769325
62	0x3eddf644	0.43351948
63	0x3dacd32c	0.08438715
64	0x3dfd7792	0.12376322
65	0x3ce16ae8	0.027516797
66	0x3e88294d	0.2659401
67	0xbdef342c	-0.11679873
68	0x3dc6d5ab	0.09708723
69	0xbb50b7cd	-0.0031847835
70	0xbe459d8f	-0.19298385
71	0x3c1efd10	0.0097038895
72	0xbe0f9cc5	-0.14024647
73	0x3ddc2dd1	0.10750926
74	0xbe7dafc8	-0.24774086
75	0xbdece9b0	-0.1156801
76	0x3e5c5727	0.21517621
77	0xbe79d0fa	-0.24396124
78	0x3c02584f	0.007955625
79	0xbea82aa1	-0.32845023
80	0xbd057b66	-0.032588385
81	0x3c8fb865	0.01754398
82	0x3e5d233f	0.21595477
83	0xbe43b920	-0.19113588
84	0x3db4e9bf	0.08833646
85	0x3a84a715	0.0010120595
86	0x3e11c8db	0.14236777
87	0xbc93ccb8	-0.018041953
88	0x3e21db4c	0.15806311
89	0xbe8e40da	-0.27783853
90	0xbe82aa2a	-0.2552045
91	0x3e615959	0.2200674
92	0xbe6ab198	-0.22919309
93	0xbd7fd5b2	-0.062459655
94	0xbd55076b	-0.052009027
95	0x3e900a16	0.28132695
96	0xbd80c3ab	-0.06287321
97	0xbe4f01c3	-0.20215516
98	0xbd3cf90d	-0.04613595
99	0x3d37f3d4	0.044910267
100	0x3e2cf14a	0.1688892
101	0x3e66697c	0.22501177
102	0xbd071b84	-0.032985225
103	0x3de1d2ca	0.11026533
104	0xbe12e289	-0.14344229
105	0x3d91596d	0.07097135
106	0x3db04bf3	0.08608236
107	0x3ebb80b7	0.3662164
108	0xbe4de0cc	-0.20105284
109	0xbcd04558	-0.02542369
110	0x3cd9b2c2	0.026574496
111	0xbe3823a1	-0.17982341
112	0xbe7c03de	-0.2461085
113	0xbe6170f6	-0.22015747
114	0xbd492236	-0.04910489
115	0x3e18ffd5	0.14941342
116	0xbd370b9e	-0.044688813
117	0x3da62bc0	0.081138134
118	0x3d1d9ad6	0.03847774
119	0xbe95d41a	-0.29263383
120	0x3d74cf1b	0.059767824
121	0xbd73f6f3	-0.05956168
122	0xbe203242	-0.15644172
123	0x3e15b805	0.14620979
124	0xbe307ed2	-0.17235878
125	0xbe89e3aa	-0.26931506
126	0xbe901bbe	-0.28146166
127	0x3d205dab	0.03915183
128	0xbdf66c0b	-0.12032326
129	0x3de8923e	0.113560185
130	0xbe212527	-0.15736829
131	0x3e6a6ea0	0.22893763
132	0xbe81cda6	-0.2535221
133	0x3e002f85	0.12518127
134	0xbe8fe9ce	-0.28108066
135	0x3d9984fa	0.074960664
136	0x3d9c2e44	0.07626012
137	0xbdcd0599	-0.10010833
138	0x3d3d3ce0	0.046200633
139	0x3de10af4	0.10988417
140	0x3e85e91b	0.26154408
141	0xbee04244	-0.43800557
142	0xbd28477d	-0.0410838
143	0xbd8cc769	-0.06873972

mps.1.l1.node_block.m.0.bias f4 [16]
0	0x3f0a237a	0.5396038
1	0xbe6dbccc	-0.23216552
2	0xbe8a5dc0	-0.2702465
3	0xbe0ed53a	-0.13948527
4	0x3e26c664	0.16286618
5	0xbda60da1	-0.08108068
6	0x3f1d48dd	0.61439306
7	0x3d189046	0.037246965
8	0x3dd6f25a	0.10495444
9	0x3e23e8c4	0.16006762
10	0xbe9d5ad0	-0.30733347
11	0x3f294c9f	0.6613254
12	0x3ea3541b	0.31900105
13	0xbe9ec204	-0.31007397
14	0xba310d60	-0.0006754007
15	0x3e0013c8	0.12507546

mps.1.l1.node_block.m.2.weight f4 [8, 16]
0	0x3e3729a3	0.17886977
1	0x3d4ed027	0.05049148
2	0x3e35d016	0.1775516
3	0xbe449914	-0.1919902
4	0x3d9a03b5	0.07520238
5	0xbe80daf4	-0.25167048
6	0x3e1bc878	0.15213192
7	0xbe0b81df	-0.1362376
8	0xbe028d39	-0.12749185
9	0x3e58db39	0.21177377
10	0x3e4df871	0.20114304
11	0xbdb7570c	-0.0895215
12	0xbd848236	-0.06470148
13	0xbdba364a	-0.09092386
14	0x3e585a10	0.21128106
15	0xbda0293c	-0.07820365
16	0xbd46a5dd	-0.048498023
17	0xbddac40b	-0.106819235
18	0x3d97ebc0	0.074180126
19	0x3e5418b9	0.20712556
20	0xbd153462	-0.03642691
21	0x3e7fb787	0.24972354
22	0x3e0f534f	0.13996623
23	0x3e2ee14c	0.17078131
24	0xbd8f470b	-0.06995972
25	0xbc591657	-0.013249955
26	0x3e500577	0.20314585
27	0x3e3ab884	0.1823445
28	0x3e6cf861	0.23141624
29	0x3d9a8095	0.07544056
30	0x3d21f18b	0.039536994
31	0x3e08f757	0.13375603
32	0xbe26a7e9	-0.1627499
33	0xbd5dd1a7	-0.05415502
34	0x3d058098	0.03259334
35	0x3e5d26e7	0.21596871
36	0xbd89e239	-0.06732602
37	0xbe3bc047	-0.18335067
38	0x3e2db2d7	0.16962753
39	0xbe0b6e2f	-0.1361625
40	0xbe1a36c8	-0.1505996
41	0x3d6fecee	0.058575563
42	0x3e3d50c9	0.18487848
43	0x3e244cf1	0.16044976
44	0xbe198de7	-0.14995538
45	0xbdc22b04	-0.09480861
46	0x3d4fa973	0.05069871
47	0xbd9ec56d	-0.077525
48	0x3e78eac2	0.24308303
49	0x3cdd1db9	0.026991712
50	0xbdd48595	-0.10377041
51	0xbca435e3	-0.020045226
52	0x3bb03ad8	0.0053781085
53	0x3da7f159	0.0820033
54	0xbdc1ab11	-0.094564565
55	0xbdc8b624	-0.098003656
56	0x3e411b7c	0.1885814
57	0x3c3bb5d6	0.011456927
58	0x3d98cae8	0.07460576
59	0xbdc509cf	-0.096210115
60	0x3d99c956	0.07509105
61	0x3ec52810	0.38507128
62	0x3d870c80	0.06594181
63	0x3dd1fcd7	0.102533035
64	0x3e68724d	0.22699852
65	0xbe05464f	-0.13015102
66	0x3dcd767a	0.10032363
67	0x3e9ecebd	0.31017104
68	0x3e560da9	0.20903648
69	0xbe23f387	-0.16010867
70	0x3e500e89	0.20318045
71	0x3e061280	0.13092995
72	0x3c706219	0.014671826
73	0x3e9afff3	0.302734
74	0xbdc7b6a1	-0.097516306
75	0x3de759aa	0.11296399
76	0x3e51c051	0.20483519
77	0xbe82084c	-0.25396955
78	0xbda0e737	-0.07856601
79	0xbe380534	-0.17970735
80	0xbd99c8d4	-0.07509008
81	0xbe4819d7	-0.19541107
82	0xbd11bf54	-0.035582855
83	0x3e19f688	0.1503545
84	0x3dec5ede	0.11541532
85	0x3e00ce4e	0.12578699
86	0x3e35eb0c	0.17765445
87	0x3de87282	0.11349966
88	0xbe147de3	-0.14501147
89	0xbe0a6654	-0.13515598
90	0xbabac6d8	-0.0014249934
91	0x3e4e699d	0.20157476
92	0x3d0bc8f0	0.034127176
93	0xbd85f568	-0.06540948
94	0xbddd6294	-0.10809818
95	0xbd7d690b	-0.061867755
96	0xbe2dae9e	-0.16961142
97	0x3e7b68c6	0.24551687
98	0xbd5ab11f	-0.053391572
99	0xbe2c1176	-0.16803536
100	0x3d7c173e	0.061545603
101	0x3de7af13	0.1131269
102	0xbd8f2a71	-0.06990517
103	0x3d9853f3	0.07437887
104	0x3df5d0b3	0.12002697
105	0xbe457521	-0.19282962
106	0xbe0a2c0a	-0.13493362
107	0xbcf4fc46	-0.02990545
108	0xbe5246c3	-0.20534806
109	0xbd7d2f3c	-0.061812624
110	0x3df68358	0.120367706
111	0x3bd435e7	0.006476152
112	0xbe017cb3	-0.12645225
113	0x3ad94727	0.0016576991
114	0xbe4492bc	-0.191966
115	0x3e0966de	0.13418147
116	0xbce0f940	-0.027462602
117	0xbd6b4184	-0.057435527
118	0xbe631c49	-0.22178759
119	0x3dfe9a92	0.12431826
120	0xbd9a3591	-0.07529748
121	0xbdb9d2ff	-0.090734474
122	0xbcf9acb9	-0.030477868
123	0xbdca84e7	-0.0988863
124	0x3d23fed9	0.040037964
125	0x3e699e7b	0.22814362
126	0xbe3b550a	-0.18294159
127	0xbca42fb6	-0.020042282

mps.1.l1.node_block.m.2.bias f4 [8]
0	0xbf1922bf	-0.59818643
1	0xbf086c80	-0.5329056
2	0x3f2f1f61	0.68407255
3	0x3ef613ad	0.48061886
4	0x3f2f431b	0.6846177
5	0x3ece33b7	0.4027383
6	0xbf1a9301	-0.6038056
7	0xbf07bdcc	-0.5302398
