archive-july16/warmup_results/pcg_finetune/model_epoch24.pt (torch, 44782 bytes, 56 tensors)

mps.0.l1.edge_block.m.0.weight f4 [16, 17]
0	0x3d57d306	0.052691482
1	0x3e54554e	0.20735666
2	0x3dac47e4	0.084121495
3	0x3ece4c4f	0.40292594
4	0x3d958a64	0.073017865
5	0x3f3717f9	0.71520954
6	0x3e111a4d	0.14170189
7	0x3e98ae92	0.29820687
8	0x3e276582	0.16347316
9	0xbdbb0615	-0.091320194
10	0x3ead11cd	0.33802643
11	0x3e7f19f7	0.24912249
12	0x3e9ce5f0	0.30644178
13	0x3f0b5e09	0.5444036
14	0x3eb3e6da	0.35137063
15	0x3e1ea624	0.15493065
16	0x3f9f6e34	1.2455506
17	0x3b4cac28	0.0031230543
18	0xbdd42bab	-0.103598915
19	0x3d5887e0	0.052863955
20	0xbdd16c17	-0.102256946
21	0xbce4770f	-0.027888803
22	0xbdb44c0c	-0.08803567
23	0x3e12980b	0.14315812
24	0xbe2f3a26	-0.17112026
25	0xbddcb580	-0.10776806
26	0xbd8144ad	-0.06311927
27	0xbe0751e3	-0.13214831
28	0x3c9223ce	0.017839339
29	0xbe5cfb70	-0.21580291
30	0x3e47d4bf	0.1951475
31	0xbe3c5382	-0.1839123
32	0x3e2a9c62	0.16661218
33	0x3d13e29d	0.036104787
34	0xbdb8ebcf	-0.09029352
35	0x3d817bb6	0.06322424
36	0xbd9760b2	-0.0739149
37	0x3d8b7098	0.06808585
38	0xbd8ce0cd	-0.06878815
39	0xbdc8277f	-0.09773158
40	0x3c131884	0.008978013
41	0xbdec1d3e	-0.11529015
42	0x3d920df4	0.071315676
43	0x3dd8fd3b	0.10595175
44	0x3c8457cb	0.016155144
45	0xbe5bc95f	-0.21463536
46	0x3cd6e724	0.026233263
47	0xbb2d5554	-0.0026448565
48	0x3d789213	0.060686182
49	0xbe450a7e	-0.19242284
50	0xbe90d7f8	-0.2828977
51	0xbdb7d61c	-0.08976385
52	0xbe383286	-0.17988023
53	0x3e28de27	0.16490994
54	0x3d3a1daf	0.045438465
55	0x3d9a1bd6	0.075248405
56	0x3d87d440	0.0663228
57	0xbbbbbcf0	-0.00572931
58	0x3e2a6b69	0.16642536
59	0xbe1eb87c	-0.15500063
60	0x3ad3b640	0.0016152337
61	0xbe224ed7	-0.15850388
62	0x3d535d7e	0.051602833
63	0xbdb3fa89	-0.0878802
64	0x3d833fbe	0.06408642
65	0xbd40a324	-0.047030583
66	0x3e34fbcd	0.1767418
67	0xbe012d69	-0.12614979
68	0xbe264b35	-0.16239627
69	0xbe3fca7a	-0.18729582
70	0x3e0dbab6	0.13840756
71	0x3b910de2	0.004426704
72	0x3e15f513	0.1464427
73	0xbe42970f	-0.19002937
74	0xbe676a82	-0.22599223
75	0xbe3dbb54	-0.18528491
76	0xbe2ef7c6	-0.17086706
77	0x3cfbe88e	0.03075054
78	0x3cbda1aa	0.023148376
79	0x3de8011b	0.11328336
80	0xbe30a9cc	-0.17252272
81	0xbe230a21	-0.15921833
82	0x3dd3a525	0.10334233
83	0xbdd3b4d1	-0.10337222
84	0x3dd32acc	0.10310897
85	0xbd5ef498	-0.05443248
86	0xbed300ad	-0.41211453
87	0xbf462ff1	-0.774169
88	0xbf55ded7	-0.8354315
89	0xbf0ad462	-0.5423032
90	0xbfcbf25f	-1.5933341
91	0xbf48eb62	-0.78484166
92	0xbf0a01ee	-0.53909194
93	0x3e234f43	0.15948205
94	0xbf313b56	-0.69231164
95	0xbf462dde	-0.7741374
96	0xbf0a9196	-0.54128397
97	0xbf309e01	-0.68991095
98	0xbfa17f92	-1.2617056
99	0xbf704b00	-0.9386444
100	0xbf4b8668	-0.7950196
101	0xbf18108c	-0.5940025
102	0xbdcfa52d	-0.10138927
103	0x3d51509c	0.051102266
104	0x3e94ff98	0.29101253
105	0x3e74c284	0.23902327
106	0x3deb1fe2	0.114806905
107	0x3f38bbca	0.72161543
108	0x3e5f77c9	0.21823038
109	0x3e500552	0.2031453
110	0x3e324fa0	0.17413187
111	0x3e833518	0.25626445
112	0x3ec2b804	0.38031018
113	0x3e42f20e	0.19037649
114	0x3e2a506a	0.16632238
115	0x3f22b160	0.635519
116	0x3ee20586	0.4414484
117	0x3e1e32f6	0.15449128
118	0x3f357095	0.7087491
119	0xbe049331	-0.12946774
120	0x3a1d15c7	0.000599232
121	0xbda4df3a	-0.080503896
122	0xbc75963c	-0.014989432
123	0xbe162119	-0.14661063
124	0xbe181e00	-0.14855194
125	0xbe011be8	-0.12608302
126	0xbd97b5c0	-0.07407713
127	0xbe2ebc13	-0.17063932
128	0x3e39bdb0	0.18138766
129	0xbd2fc628	-0.042913586
130	0x3e3e8253	0.18604402
131	0x3d8a225d	0.067448355
132	0xbe3b7c20	-0.18309069
133	0x3e1965d0	0.14980245
134	0xbd73d855	-0.059532482
135	0xbda9e5be	-0.08295773
136	0xbe4a9251	-0.19782378
137	0xbe83042f	-0.2558913
138	0x3cb8189a	0.022472668
139	0xbdc5cd25	-0.09658269
140	0x3d22b1a4	0.039720193
141	0xbe3d0228	-0.18457854
142	0x3e1d0415	0.15333588
143	0xbe2cde80	-0.16881752
144	0xbd4ee7f8	-0.05051419
145	0x3baa937a	0.005205569
146	0x3d965419	0.07340259
147	0x3e0123d8	0.1261133
148	0x3e1cc910	0.15311074
149	0xbe3734cd	-0.17891236
150	0x3d417616	0.047231756
151	0xbdd31ceb	-0.1030825
152	0xbd26d6eb	-0.040732305
153	0xbe266b7b	-0.16251938
154	0x3ef8d2d2	0.48598343
155	0x3e99266c	0.29912126
156	0x3f330920	0.699358
157	0x3f01e901	0.5074616
158	0x3f8b3524	1.0875592
159	0x3ece2ca2	0.40268427
160	0x3f2103ea	0.628966
161	0x3e26175c	0.16219848
162	0x3eb163a9	0.34646347
163	0x3e9cd29c	0.30629432
164	0x3f2ef16c	0.6833713
165	0x3ed8a092	0.42310005
166	0x3f4aac11	0.791688
167	0x3f348f85	0.70531493
168	0x3efbf0be	0.4920711
169	0x3f3b91be	0.7326926
170	0xbda15085	-0.07876686
171	0xbf111f84	-0.56688714
172	0xbf08c03c	-0.53418326
173	0xbf54760a	-0.82992613
174	0xbf44571a	-0.76695406
175	0xbfcc94b6	-1.5982883
176	0xbf68bc02	-0.9091188
177	0xbf1ce204	-0.6128237
178	0x3e47cbeb	0.19511382
179	0xbf46ab9f	-0.77605623
180	0xbf258684	-0.6465838
181	0xbf2db2ab	-0.6785075
182	0xbf1e6c5e	-0.61884105
183	0xbfaf4c1f	-1.3695105
184	0xbf22651f	-0.6343555
185	0xbf1597ab	-0.5843455
186	0xbf092ea3	-0.53586787
187	0xbd1d320d	-0.03837781
188	0xbd7892be	-0.06068682
189	0x3ca41acc	0.020032309
190	0xbd2e7446	-0.042591356
191	0xbd8c0caa	-0.06838353
192	0x3e0d0575	0.13771613
193	0x3e3db90d	0.18527623
194	0xbcb58d52	-0.022162113
195	0xbd47fe0a	-0.048826255
196	0xb990f3e9	-0.00027647548
197	0xbc833706	-0.016017448
198	0x3d4301c3	0.047609102
199	0x3d6862f0	0.05673498
200	0xbe49bc75	-0.19700797
201	0xbda499c3	-0.0803714
202	0x3e39ca95	0.18143685
203	0x3da7ad96	0.08187406
204	0xbc3036cb	-0.010755251
205	0xbe058921	-0.13040592
206	0xbe078e43	-0.13237862
207	0xbe468901	-0.193882
208	0xbd904b71	-0.07045639
209	0x3d959f6c	0.07305798
210	0x3e0d3fd0	0.13793874
211	0x3dcc70b3	0.09982433
212	0xbe43da37	-0.19126211
213	0xbe052f05	-0.13006218
214	0xbd0bf385	-0.034167785
215	0x3e56564a	0.20931354
216	0x3d0006c8	0.031256467
217	0xbd658029	-0.056030426
218	0x3db764a5	0.08954743
219	0xbda8dade	-0.082448706
220	0xbe0f3c29	-0.13987793
221	0x3e658b1d	0.22416349
222	0x3ec18386	0.37795657
223	0x3ec6d6a9	0.38835648
224	0x3e430fb2	0.19048956
225	0x3f11df56	0.5698141
226	0x3ec02b5d	0.37533084
227	0x3ec69782	0.38787466
228	0x3e5c3400	0.21504211
229	0xbe99f8f4	-0.3007275
230	0x3e8a9dc4	0.2707349
231	0x3f1acc2b	0.60467786
232	0x3f02793d	0.50966245
233	0x3f179252	0.5920764
234	0x3e8eedb8	0.2791574
235	0x3eba47d6	0.3638293
236	0x3eb5ccae	0.3550772
237	0xbe985697	-0.29753563
238	0xbe3dafa2	-0.1852403
239	0xbe4f2755	-0.20229848
240	0x3db56b1b	0.08858319
241	0xbdd96d12	-0.10616507
242	0xbd324e23	-0.04353155
243	0xbdfeb57f	-0.124369614
244	0xbd216539	-0.039403174
245	0xbe1bedaf	-0.15227388
246	0xbe10a22e	-0.14124367
247	0x3d92e743	0.07173016
248	0xbd839a07	-0.06425863
249	0x3e08d029	0.13360657
250	0xbd8e10ad	-0.069367744
251	0xbe227530	-0.15865016
252	0xbd1c530d	-0.03816514
253	0xbdd6ca51	-0.104878075
254	0xbd8792c8	-0.06619793
255	0xbe7372cd	-0.23774262

mps.0.l1.edge_block.m.0.bias f4 [16]
0	0x3ec79eb3	0.38988265
1	0x3e253258	0.16132486
2	0x3e07c69f	0.13259362
3	0xbd60e0cd	-0.054901887
4	0xbe4bd5a6	-0.19905719
5	0xbf313902	-0.6922761
6	0x3f0caf3c	0.54954886
7	0xbe5c6525	-0.21522959
8	0xbd80d1a8	-0.06289989
9	0x3ee0ffd6	0.43945187
10	0xbf4b50d4	-0.7942021
11	0xbddc25ac	-0.10749373
12	0xbdb525c7	-0.08845096
13	0x3e83e6bc	0.25761974
14	0xbe528bdd	-0.20561166
15	0x3e20ee3e	0.15715882

mps.0.l1.edge_block.m.2.weight f4 [1, 16]
0	0x3dfa3e2a	0.12218888
1	0xbc99e8a1	-0.018787684
2	0x3c67586d	0.014120203
3	0xbdaab35d	-0.08334992
4	0xbe26e469	-0.16298069
5	0xbec2a89c	-0.38019264
6	0x3d976615	0.073925175
7	0xbdfa9c3e	-0.12236832
8	0xbdf0e486	-0.117623374
9	0x3f46487e	0.77454364
10	0xbe7e6640	-0.24843693
11	0xbd92a214	-0.0715982
12	0x3beaad61	0.0071617817
13	0xbeb62ed3	-0.355826
14	0xbd9d29a5	-0.07673959
15	0xbaf064fa	-0.001834064

mps.0.l1.node_block.m.0.weight f4 [16, 9]
0	0x3e64aa53	0.22330599
1	0x3e7f98f8	0.24960697
2	0x3e9db9be	0.30805773
3	0x3dcab663	0.09898069
4	0x3e9793e1	0.2960501
5	0xbe33d5db	-0.17562048
6	0x3e8df25b	0.27723965
7	0xbd123a32	-0.03570003
8	0x3d0c09d3	0.034189057
9	0x3e485dd6	0.19567046
10	0x3ed4db74	0.4157368
11	0x3eed56ff	0.46355435
12	0x3f0f3654	0.55942273
13	0x3e77a2ff	0.24183272
14	0x3ec46a84	0.38362515
15	0x3cd952da	0.026528765
16	0x3e554420	0.20826769
17	0x3e1acca8	0.15117133
18	0x3bf9ea93	0.0076268404
19	0x3b1f1d6a	0.0024279007
20	0xbc7b7ab6	-0.015349081
21	0x3c853a02	0.016263012
22	0xbdb56063	-0.08856275
23	0x3dbb55b5	0.09147207
24	0x3e14e81b	0.14541666
25	0x3ed27d2b	0.4111112
26	0x3dd00c8d	0.10158644
27	0xbe678360	-0.2260871
28	0xbe7443d7	-0.23854004
29	0x3e178292	0.14795902
30	0xbe62861f	-0.22121476
31	0xbd15f5ed	-0.036611486
32	0x3e11f7b5	0.14254649
33	0xbe0ceef1	-0.13763024
34	0xbd04bff8	-0.03240964
35	0xbcd413c4	-0.025888331
36	0xbd8fed37	-0.07027667
37	0xbe1a7cd2	-0.15086678
38	0xbe87bb3d	-0.2651004
39	0xbe76114a	-0.24030033
40	0xbe22fd87	-0.15917026
41	0x3e92f7fb	0.2870482
42	0xbe12ffa8	-0.14355338
43	0xbe4c5573	-0.19954471
44	0x3d938d6f	0.07204711
45	0x3e01ea45	0.12687023
46	0xbdb6dcbf	-0.08928823
47	0x3d5f3af0	0.054499567
48	0x3d4a14b1	0.04933614
49	0xbefb8741	-0.49126628
50	0x3f28a579	0.6587749
51	0x3da0aa64	0.078449994
52	0xbe363a35	-0.17795642
53	0xbdcefd99	-0.10106964
54	0x3e8829aa	0.26594287
55	0x3e9374e1	0.2880011
56	0x3e05f1c8	0.13080513
57	0x3be7cf9f	0.007074311
58	0x3eaf38e3	0.3422309
59	0xbe67c8a5	-0.22635134
60	0x3e96425b	0.293475
61	0x3eb28e46	0.3487417
62	0xbe5662c4	-0.20936114
63	0xbb68dff1	-0.003553387
64	0x3db80fd7	0.08987396
65	0x3f0c5d53	0.548299
66	0x3f029e85	0.5102313
67	0x3d1d2a9a	0.038370706
68	0x3f151387	0.5823292
69	0x3d8863e0	0.06659675
70	0x3d7ad29d	0.061236013
71	0x3f14bc3e	0.58099735
72	0x3d9e79a4	0.07738045
73	0x3ea67012	0.32507378
74	0xbdadaca0	-0.08480191
75	0x3ed7609e	0.420659
76	0xbd5aa94c	-0.05338411
77	0x3f2d6da7	0.6774544
78	0x3f03a346	0.5142101
79	0x3e504738	0.20339668
80	0x3eb4504d	0.35217515
81	0xbc0e8b69	-0.00870023
82	0xbdca1f6b	-0.09869274
83	0x3ea95185	0.33070007
84	0x3e2d2ae6	0.16910896
85	0x3d8e4156	0.069460556
86	0x3e7d0219	0.24707831
87	0x3ebfe099	0.37476042
88	0x3e7a39d1	0.24436118
89	0x3f2ce2d3	0.67533606
90	0xbe2b1503	-0.16707234
91	0xbe770fb6	-0.24127087
92	0x3d03a6b6	0.03214141
93	0x3db46f2a	0.08810265
94	0xbe0c9faa	-0.13732782
95	0xbdaa677d	-0.0832052
96	0x3e4d8826	0.20071468
97	0x3cc20428	0.023683622
98	0x3c5bad83	0.013408068
99	0xbf161120	-0.5861988
100	0xbd9d8e8b	-0.076932035
101	0xbdfe6f6e	-0.12423597
102	0x3d97c126	0.07409887
103	0x3da2bdc9	0.07946355
104	0x3ef3bcfb	0.47605118
105	0x3e2f616c	0.17127007
106	0x3ddb40f8	0.10705751
107	0x3f0078c1	0.50184256
108	0x3cfbef35	0.030753711
109	0x3f357537	0.7088198
110	0x3e4781ba	0.1948308
111	0x3e4da14f	0.20081066
112	0x3f00ccf2	0.5031272
113	0xbedc0b6d	-0.42977467
114	0x3d844bc3	0.06459763
115	0x3ea83da5	0.3285953
116	0xbe4129d9	-0.1886362
117	0xbc108123	-0.008819851
118	0x3d8018a4	0.062547
119	0x3ea1279f	0.3147554
120	0x3e3bfa0a	0.18357101
121	0xbd060fd4	-0.03272994
122	0x3dfa1c7d	0.12212465
123	0x3c756b32	0.014979171
124	0x3de33604	0.11094287
125	0x3f1e992d	0.6195248
126	0xbd7f014a	-0.06225709
127	0xbe0b4f27	-0.13604413
128	0x3e17ad00	0.14812088
129	0xbe81e395	-0.25368944
130	0x3e2ea85d	0.17056413
131	0xbe02dbb3	-0.12779121
132	0xbc04922a	-0.008091489
133	0xbd97727b	-0.07394882
134	0x3ce5cdfb	0.02805232
135	0xbd751d0a	-0.059842147
136	0x3ecc1e23	0.39866742
137	0x3e808aea	0.25105983
138	0x3efdc537	0.49564525
139	0x3f036209	0.51321465
140	0x3e9bb965	0.30414882
141	0x3d104446	0.03522136
142	0x3eee823f	0.46583745
143	0x3eb5d7b9	0.35516146

mps.0.l1.node_block.m.0.bias f4 [16]
0	0xbdaf0c4b	-0.085472666
1	0x3e582fef	0.21112035
2	0xbd96ab61	-0.07356907
3	0xbe791c4a	-0.24327198
4	0x3d6b1f3f	0.057402845
5	0xbcc07083	-0.02349115
6	0x3e95a9c8	0.29231095
7	0x3e771608	0.24129498
8	0x3f09d98c	0.53847575
9	0x3e7bb47f	0.24580573
10	0xbe33a9b7	-0.1754521
11	0x3e8187e7	0.25298998
12	0x3eaa039c	0.3320588
13	0x3e842bb5	0.25814596
14	0xbe67f473	-0.22651844
15	0x3ec0df98	0.37670588

mps.0.l1.node_block.m.2.weight f4 [8, 16]
0	0xbc444e62	-0.011981579
1	0xbda44dae	-0.08022629
2	0xbd0b1714	-0.033957556
3	0x3e5c1e5f	0.2149596
4	0x3e433927	0.1906477
5	0x3e8dfacb	0.27730402
6	0x3e6b6ba1	0.22990276
7	0x3e0ecbb0	0.13944888
8	0x3d858459	0.06519384
9	0xbf03c90f	-0.51478666
10	0x3de442a7	0.111455254
11	0xbf53deec	-0.82762027
12	0xbcc50986	-0.024052393
13	0xbeae042e	-0.33987564
14	0x3d3d8fc5	0.046279687
15	0x3e2af4a2	0.16694883
16	0xbe1c2b63	-0.15250926
17	0xbe4b4d7e	-0.1985378
18	0xbcc9df29	-0.024642544
19	0xbe0697cb	-0.13143842
20	0xbe14a595	-0.1451629
21	0x3d6892b9	0.05678055
22	0xbde58ecd	-0.11208878
23	0x3f38a106	0.721207
24	0x3e18387e	0.148653
25	0x3f1490fa	0.58033717
26	0x3d9d18cb	0.076707445
27	0x3f515789	0.81774193
28	0xbda81e30	-0.08208883
29	0x3eee1014	0.46496642
30	0xbb10eb28	-0.002211282
31	0x3e0fdd4d	0.14049263
32	0x3e2b1774	0.16708165
33	0xbdd0e328	-0.101995766
34	0xbe0d198e	-0.1377928
35	0xbd5d1ce1	-0.05398262
36	0xbddc8c7d	-0.107689835
37	0x39dfc867	0.00042683186
38	0x3dffce16	0.1249048
39	0x3dbee013	0.093200825
40	0x3d45b218	0.048265547
41	0xbea0b05b	-0.3138455
42	0xbdf518ca	-0.11967619
43	0x3f05995b	0.52187127
44	0xbd90d368	-0.070715725
45	0xbe2e43ef	-0.17018102
46	0xbe4fe270	-0.20301223
47	0x3d2160a5	0.039398808
48	0xbe06f625	-0.13179834
49	0xbdd6eba6	-0.10494165
50	0xbe0739f5	-0.13205703
51	0x3e470921	0.19437076
52	0xbe582f9a	-0.21111909
53	0x3e5b8770	0.21438384
54	0x3cea82bb	0.02862679
55	0x3ee1bfb7	0.4409158
56	0x3e334c97	0.17509685
57	0x3f12f6f9	0.574081
58	0x3e0f0dcb	0.13970105
59	0x3f6d0ea8	0.9260049
60	0xbe2ba4a7	-0.16762029
61	0x3f2796f6	0.65464723
62	0x3d5be755	0.053687412
63	0x3c861e6e	0.016371932
64	0x3d9e0b2a	0.07716973
65	0x3de19718	0.11015147
66	0xbd4163cc	-0.047214314
67	0xbce99530	-0.028513521
68	0x3e58e1a8	0.21179831
69	0x3e2c1ebd	0.168086
70	0x3d088587	0.033330467
71	0x3c56a1b7	0.013100079
72	0x3d803c69	0.06261522
73	0xbe38c605	-0.18044288
74	0x3e39b03c	0.18133634
75	0xbf273f01	-0.6533051
76	0x3d331005	0.04371645
77	0x3e13b465	0.14424284
78	0x3d2b04f2	0.041752763
79	0x3e91c2cd	0.28468934
80	0xbbc37884	-0.0059652943
81	0x3ddda40f	0.10822307
82	0x3e13c01b	0.14428751
83	0x3e386b2c	0.18009633
84	0xbd9d9ac8	-0.07695538
85	0xbdbeeb99	-0.093222804
86	0x3d9f5d38	0.07781452
87	0xbe37e1bf	-0.17957209
88	0x3dac30b0	0.08407724
89	0xbf241d5c	-0.641073
90	0xbe1af4e6	-0.15132484
91	0xbf5a4480	-0.8526077
92	0x3d08d61e	0.033407323
93	0xbea2b2b7	-0.31776974
94	0x3e57925b	0.21051924
95	0x3e93161c	0.28727806
96	0x3e843566	0.2582199
97	0x3d78b45e	0.060718887
98	0xbe260993	-0.1621459
99	0xbe2015c4	-0.15633303
100	0xbe0dcb5a	-0.13847104
101	0xbe0d96a8	-0.13827002
102	0xbd65c52a	-0.056096233
103	0xbf167f9b	-0.5878846
104	0xbe22afd3	-0.15887384
105	0xbf085035	-0.53247386
106	0xbe612172	-0.21985415
107	0xbf1ea1d5	-0.61965686
108	0x3e165034	0.14679033
109	0xbe686f33	-0.22698669
110	0xbd74f48a	-0.059803523
111	0xbe051d98	-0.1299957
112	0x3e16d126	0.14728221
113	0xbd9794d8	-0.074014366
114	0xbdc66b63	-0.09688451
115	0x3e0cbb95	0.13743432
116	0xbe47081f	-0.19436692
117	0x3d6bc2f1	0.057558957
118	0x3e6cb3f3	0.2311552
119	0xbe930682	-0.28715903
120	0x3dcc59f1	0.099780925
121	0xbeea947d	-0.45816413
122	0xbb49915a	-0.0030756802
123	0xbec8238a	-0.39089614
124	0x3de8872c	0.11353907
125	0xbea0591d	-0.31317988
126	0x3e48f1e5	0.19623525
127	0xbe23b275	-0.15986045

mps.0.l1.node_block.m.2.bias f4 [8]
0	0xbe5656ee	-0.20931599
1	0x3e1184bf	0.14210795
2	0xbe7d06da	-0.24709645
3	0xbead26ad	-0.3381857
4	0xbe5bf77b	-0.21481125
5	0x3f15f207	0.5857243
6	0x395d37a1	0.00021096926
7	0x3d7eea86	0.062235378

mps.0.l2.edge_block.m.0.weight f4 [16, 17]
0	0x3da1adb8	0.07894462
1	0xbe1030da	-0.14081135
2	0xbe0d967c	-0.13826936
3	0x39ef4986	0.00045640412
4	0xbe7f0ea1	-0.24907924
5	0xbe3f9914	-0.18710738
6	0xbc646096	-0.0139390435
7	0x3dc5887d	0.09645174
8	0x3e332ad4	0.17496806
9	0x3e4e2386	0.20130739
10	0xbe3c0417	-0.18360935
11	0xbdca7e6a	-0.09887393
12	0x3dfc7f57	0.12328976
13	0x3cdca709	0.026935117
14	0x3cdee435	0.027208427
15	0xbd1d37d0	-0.038383305
16	0xbdf191a3	-0.11795356
17	0x3b967cf8	0.004592534
18	0x3e28f5d8	0.16500032
19	0xbe8062ab	-0.25075278
20	0xbdada33b	-0.08478399
21	0xbe61af21	-0.22039463
22	0xbce0e019	-0.027450608
23	0x3d9381c1	0.07202483
24	0xbdd91262	-0.10599209
25	0xbc26a59f	-0.010171323
26	0x3e01ac7d	0.12663455
27	0xbf15f5a3	-0.58577937
28	0x3de12f06	0.10995297
29	0xbe675c9c	-0.22593921
30	0xbe63ccb6	-0.2224606
31	0x3e0e174a	0.13876072
32	0x3e0b95f3	0.1363142
33	0xbd97ff9c	-0.074218005
34	0xbdb8f99f	-0.090319864
35	0xbe263814	-0.1623233
36	0xbe1d6999	-0.15372314
37	0xbe418ad1	-0.1890061
38	0xbdddcd1a	-0.10830136
39	0x3c60a0bf	0.0137102
40	0xbddcae07	-0.107753806
41	0x3e1a0bcd	0.15043564
42	0x3de22321	0.110418566
43	0xbe1bb852	-0.15207031
44	0xbe2a49bc	-0.1662969
45	0x3dc16977	0.09443944
46	0xbdf73e68	-0.1207245
47	0xbd926534	-0.07148209
48	0xbd1dcb73	-0.038524102
49	0x3de3390e	0.11094867
50	0xbdd89487	-0.10575204
51	0xbd72e953	-0.059304547
52	0x3e922188	0.28541207
53	0x3dbaede4	0.09127405
54	0x3e9b7728	0.30364347
55	0xbd2ee0e3	-0.042694937
56	0xbe3385da	-0.17531529
57	0xbde6083c	-0.11232039
58	0xbe0ebf94	-0.13940269
59	0xbe7c138e	-0.24616835
60	0xbd3dfbbf	-0.046382662
61	0xbdbd4403	-0.09241488
62	0xbd5e40ad	-0.0542609
63	0x3e39d5cd	0.18147965
64	0x3e00f1b1	0.12592198
65	0x3d998e19	0.07497806
66	0x3ddb1b98	0.106986225
67	0x3e5d94c0	0.21638775
68	0xbde6a607	-0.11262136
69	0xbdaabae9	-0.083364315
70	0xbd8abc09	-0.06774146
71	0x3e03d019	0.12872352
72	0xbd5a3ea1	-0.053282384
73	0xbdca11a4	-0.09866646
74	0x3e960a65	0.29304805
75	0xbaa99f2a	-0.0012941111
76	0xbc9847d7	-0.018588943
77	0xbe1aa489	-0.15101828
78	0xbeb28e03	-0.3487397
79	0x3e5bb2ee	0.21454975
80	0xbe33c9a7	-0.17557393
81	0xbe7e8652	-0.24855927
82	0x3e3b6ae9	0.18302502
83	0xbda3a40d	-0.079902746
84	0x3d4c7940	0.04992032
85	0xbddba274	-0.10724345
86	0xbe132584	-0.1436978
87	0xbe16bdaf	-0.14720796
88	0xbe350ce4	-0.17680699
89	0x3e26dc08	0.16294873
90	0x3e8f8d95	0.28037706
91	0xbd4febe1	-0.05076206
92	0x3e8fef5e	0.2811231
93	0x3dd6f63a	0.10496183
94	0x3da3309e	0.07968257
95	0x3e68a047	0.22717391
96	0x3e317782	0.17330745
97	0xbcfbd8b9	-0.03074299
98	0x3e7134d8	0.23555315
99	0xbc61e6a8	-0.013787903
100	0xbd6e3e04	-0.05816461
101	0x3b0c9edd	0.0021456995
102	0xbdf41531	-0.119181044
103	0xbd9e7ba4	-0.07738426
104	0xbe03c06b	-0.1286637
105	0xbd6ec5ce	-0.05829411
106	0xbc6f790e	-0.014616264
107	0xbcd0aca5	-0.025472948
108	0x3e2c6d14	0.16838485
109	0x3db6e60c	0.08930597
110	0x3e0092ee	0.12556049
111	0x3d96c6a0	0.073621035
112	0xbeb4b2d8	-0.35292697
113	0x3e354027	0.17700253
114	0x3d7e2767	0.062049296
115	0x3d75cd80	0.060010433
116	0xbdd6db58	-0.10491055
117	0xbca7e28e	-0.020493772
118	0xbdf5d11a	-0.120027736
119	0xbc24a292	-0.010048525
120	0x3db4cd66	0.08828239
121	0x3dcf73bb	0.10129496
122	0x3e3c0ef9	0.18365087
123	0xbd623e2c	-0.055235073
124	0x3daf53d7	0.08560913
125	0x3de1314c	0.10995731
126	0xbe133521	-0.14375736
127	0xbdefd3ac	-0.11710295
128	0xbe31b4fa	-0.17354193
129	0x3e2db0f3	0.16962032
130	0xbe771155	-0.24127705
131	0xbe1c4259	-0.15259685
132	0x3e1ee8bb	0.15518467
133	0x3e5867a9	0.21133293
134	0x3e7f4405	0.24928291
135	0xbe47219a	-0.19446412
136	0xbe4a0271	-0.19727494
137	0x3e0f586d	0.13998576
138	0x3e981c3e	0.29709047
139	0x3e27bfc1	0.16381742
140	0xba62bec9	-0.0008649645
141	0x3c8e26ba	0.01735245
142	0x3e46f186	0.19428071
143	0xbe1edf50	-0.15514874
144	0xbe6100b0	-0.21972919
145	0x3e476dcf	0.19475482
146	0xbdd886a9	-0.105725594
147	0xbdaaf179	-0.083468385
148	0x3e18a427	0.14906369
149	0xbc1b6e69	-0.009486773
150	0x3d63a828	0.05558029
151	0xbdfc2da3	-0.12313392
152	0xbc1e1ef1	-0.009650932
153	0x3e3ae468	0.18251193
154	0xbd99853c	-0.074961156
155	0xbe3890e2	-0.18024018
156	0x3da32128	0.079653084
157	0xbe30d3c3	-0.1726828
158	0x3e45825d	0.19288011
159	0xbca35af2	-0.019940827
160	0xbdeec931	-0.11659468
161	0xbd841ceb	-0.06450828
162	0xbdc0f022	-0.09420802
163	0xbec5478c	-0.38531148
164	0x3db8c0c0	0.09021139
165	0x3cd023de	0.025407728
166	0xbe5b0424	-0.21388298
167	0xbd313215	-0.043260653
168	0x3e23c561	0.15993263
169	0x3d59ebe2	0.05320347
170	0xbd9f236e	-0.077704296
171	0x3cbbd44d	0.022928381
172	0x3c3911e0	0.011295766
173	0x3e0858f5	0.13315184
174	0xbcaf4baf	-0.021398393
175	0xbe78e227	-0.2430502
176	0xbdc24080	-0.09484959
177	0xbe01fb53	-0.12693529
178	0xbe77056c	-0.24123162
179	0x3e7c83d6	0.24659666
180	0xbd9bbc34	-0.07604256
181	0x3e853cdf	0.26023003
182	0x3dce0d4e	0.100611314
183	0xbe93bf2c	-0.2885679
184	0xbea682d7	-0.32521698
185	0xbd2d0a0a	-0.042245902
186	0xbc1d4399	-0.009598636
187	0xbdc38e12	-0.09548582
188	0x3e3f22f1	0.18665673
189	0xbec83d17	-0.39109108
190	0x3dcda834	0.10041848
191	0x3b08a03c	0.002084746
192	0xbe8a7504	-0.270424
193	0x3e575c55	0.21031316
194	0xbe541bc9	-0.20713724
195	0xbddb18f9	-0.106981225
196	0xbd9c3375	-0.07627002
197	0xbe40818f	-0.18799423
198	0x3deb008e	0.11474715
199	0xbdf41fb2	-0.11920108
200	0x3d3d0ca3	0.04615463
201	0xbe0e4340	-0.13892841
202	0x3e038dc9	0.12847055
203	0xbe3a6ad7	-0.18204819
204	0xbdc46d42	-0.09591152
205	0xbd69534f	-0.056964215
206	0x3dd292e9	0.10281927
207	0x3d5918df	0.053002235
208	0xbe4ee84c	-0.20205802
209	0xbdbbf1d5	-0.09176985
210	0x3e1c0f33	0.15240173
211	0x3e1a60d0	0.15075994
212	0x3de3a630	0.11115682
213	0x3d911677	0.07084363
214	0xbdab6bbf	-0.0837016
215	0x3ce290e9	0.02765699
216	0x3d7873fa	0.06065748
217	0xbd7bc3d5	-0.061466057
218	0x3e86024e	0.26173633
219	0x3e186441	0.14881994
220	0x3e914e40	0.28380013
221	0xbdb52012	-0.088440076
222	0xbd77f9ed	-0.060541082
223	0xbeab7eff	-0.33495328
224	0x3c58114d	0.013187719
225	0x3e0878d2	0.1332734
226	0xbdbe126c	-0.092808574
227	0x3ddebf9f	0.108763926
228	0xbe0cb2d7	-0.13740097
229	0x3e30ad1a	0.17253533
230	0x3d2e48a0	0.04254973
231	0xbf05dbb1	-0.5228835
232	0xbe09125f	-0.13385914
233	0xbe221fa4	-0.15832382
234	0x3e1ddc1a	0.15415993
235	0xbdffc8dc	-0.12489483
236	0xbdddc90a	-0.10829361
237	0x3d47a34e	0.048739724
238	0xbe9fe596	-0.31229848
239	0x3e910531	0.28324273
240	0xbe3cd5b7	-0.184409
241	0xbcb077e9	-0.021541553
242	0xbe310bd2	-0.17289665
243	0xbdd3a690	-0.10334504
244	0xbe1b8daa	-0.1519076
245	0xbe82c204	-0.25538647
246	0xbcbc9d1d	-0.023024136
247	0xbdc16b5e	-0.09444307
248	0x3eb29322	0.34877878
249	0xbe2074fb	-0.15669625
250	0x3d688524	0.056767598
251	0xbd138b15	-0.03602131
252	0x3d9e4cec	0.077295154
253	0x3dfb58df	0.1227281
254	0x3e4afa9a	0.1982216
255	0x3e0df5a3	0.13863234

mps.0.l2.edge_block.m.0.bias f4 [16]
0	0x3c9dcadc	0.01926177
1	0xbe3de515	-0.18544419
2	0xbe756399	-0.23963775
3	0x3e2bab82	0.16764644
4	0xbe203156	-0.1564382
5	0x3eaa40f0	0.33252668
6	0xbdf66cf3	-0.12032499
7	0x3ddb4e05	0.107082404
8	0x3e139203	0.14411168
9	0xbda3dee6	-0.08001499
10	0x3e626755	0.2210973
11	0x3d875c9b	0.0660946
12	0x3e8fca13	0.28083858
13	0x3e0e691f	0.13907288
14	0xbd43ea0e	-0.047830634
15	0xbe875b7a	-0.2643698

mps.0.l2.edge_block.m.2.weight f4 [1, 16]
0	0x3c6ad218	0.014332317
1	0xbbd9e3cb	-0.0066494695
2	0xbc7f7a7d	-0.015593168
3	0xbe1250a4	-0.14288574
4	0x3b6a6334	0.0035764696
5	0x3e55640b	0.20838945
6	0xbd1beace	-0.038065724
7	0xbdf6fccb	-0.12059935
8	0xbdbc6d6e	-0.092005596
9	0x3d2f644e	0.042820267
10	0xbe6f1b2e	-0.23350212
11	0x3e550870	0.20804
12	0x3dfd95b3	0.123820685
13	0x3e9554ad	0.29166165
14	0xbe554011	-0.2082522
15	0xbe01e677	-0.12685572

mps.0.l2.node_block.m.0.weight f4 [16, 9]
0	0xbe9654f0	-0.29361677
1	0x3de3ed81	0.11129285
2	0xbdaf058d	-0.085459806
3	0xbde98e5b	-0.11404105
4	0xbe998e7e	-0.29991525
5	0x3e5233a8	0.20527518
6	0x3e816f21	0.25280097
7	0x3d7295e2	0.05922497
8	0x3e46ed15	0.19426377
9	0xbdc54272	-0.09631814
10	0xbdae40ab	-0.08508428
11	0x3df3eb76	0.11910145
12	0xbd9d655b	-0.07685348
13	0xbdad977a	-0.084761575
14	0xbe689c7f	-0.22715949
15	0x3de72fc6	0.11288409
16	0xbe1689a0	-0.14700937
17	0x3d5b29fa	0.05350683
18	0x3e8ff562	0.281169
19	0xbda30499	-0.07959861
20	0xbe171e3d	-0.14757629
21	0x3e1e99db	0.15488379
22	0xbe894eef	-0.26818034
23	0xbdd7a977	-0.1053037
24	0x3e9ef5b9	0.31046847
25	0xbdf366e9	-0.11884863
26	0xbe2da72c	-0.16958302
27	0xbe8665d0	-0.26249552
28	0xbccabd0c	-0.024748348
29	0xbccf16cd	-0.025279427
30	0xbdc80a9b	-0.09767648
31	0x3d89a820	0.067215204
32	0xbd4ef042	-0.050522096
33	0xbdfd39e8	-0.1236456
34	0xbe8e8008	-0.27832055
35	0xbe07dfdf	-0.13268994
36	0xbf03fd89	-0.5155874
37	0x3e2c2ea5	0.16814668
38	0x3dae2527	0.0850318
39	0x3e4e4cf5	0.20146544
40	0x3da0efae	0.07858215
41	0xbdc8eac4	-0.09810403
42	0xbf0fa7bb	-0.5611531
43	0xbe55b632	-0.20870283
44	0xbeee905a	-0.46594507
45	0xbf0d9b83	-0.5531542
46	0x3f3fdbe3	0.74944896
47	0xbdb079f6	-0.08617012
48	0x3f5aa5ca	0.85409224
49	0xbe8ad761	-0.27117446
50	0xbf8024aa	-1.0011189
51	0xbed1ce29	-0.409776
52	0xbdd9329a	-0.106053546
53	0xbe9b831a	-0.3037346
54	0xbe62f042	-0.22161964
55	0xbbf4d03b	-0.007471112
56	0xbe64bd33	-0.22337799
57	0xbd90ea61	-0.07075954
58	0xbd9e8966	-0.077410504
59	0x3e865e58	0.26243854
60	0x3dbf86b4	0.093518645
61	0xbd3012d1	-0.042986695
62	0x3d5534f5	0.052052457
63	0xbdfd05da	-0.12354632
64	0x3e1e8e1c	0.15483898
65	0x3d96dd40	0.07366419
66	0x3d8cbe80	0.068722725
67	0xbe1df151	-0.15424086
68	0x3e52b374	0.20576268
69	0xbc7de3a4	-0.015496168
70	0xbe103f7c	-0.14086717
71	0x3e41b2fb	0.18915932
72	0x3e4c5635	0.1995476
73	0x3eb0909e	0.34485334
74	0x3d5043ce	0.050845914
75	0xbd98bff6	-0.07458489
76	0x3df281f9	0.118411966
77	0x3e6b84b7	0.22999845
78	0xbe884964	-0.26618493
79	0xbdaeed1f	-0.08541321
80	0xbea321b4	-0.3186165
81	0x3c4ce6a7	0.012506164
82	0x3e1652cd	0.14680023
83	0xbd9ccbe0	-0.076560736
84	0x3d06fde5	0.032956976
85	0x3df0c270	0.11755836
86	0xbd977ce8	-0.07396871
87	0xbe6c2d0a	-0.23064056
88	0x3e5b721a	0.21430245
89	0xbe75b16d	-0.23993464
90	0xbe57f758	-0.21090448
91	0x3d69a541	0.057042364
92	0xbd1d4733	-0.03839798
93	0xbea4f34f	-0.3221688
94	0xbdec2151	-0.11529792
95	0xbe2e29fb	-0.17008202
96	0xbdb066c6	-0.086133525
97	0xbd000967	-0.031258967
98	0xbde4b8cf	-0.11168062
99	0xbe130e0d	-0.14360829
100	0xbd57c994	-0.052682474
101	0xbd8ab7cf	-0.0677334
102	0xbdc41abe	-0.09575413
103	0xbe32c114	-0.17456466
104	0x3cd75361	0.026284875
105	0xbe4c1860	-0.19931173
106	0xbe65f767	-0.22457658
107	0xbd6ee6ad	-0.05832546
108	0xbd4818d0	-0.048851788
109	0x3e653150	0.22382092
110	0xbe68a183	-0.22717862
111	0x3dbcbe2a	0.092159584
112	0x3e42b120	0.1901288
113	0x3e0eda4b	0.1395046
114	0xbe9b6337	-0.30349132
115	0xbe3c45e0	-0.1838603
116	0xbe99f965	-0.30073085
117	0xbe84af43	-0.25914964
118	0x3e5e6698	0.21718824
119	0x3d88b2dd	0.066747405
120	0x3e403713	0.18771009
121	0xbe21b6f2	-0.15792444
122	0xbd6afd0d	-0.057370234
123	0xbe60c1a1	-0.21948864
124	0x3dd954c3	0.1061187
125	0xbe406231	-0.18787457
126	0xbe170868	-0.147493
127	0xbe3c63a9	-0.18397392
128	0xbd8bf372	-0.06833543
129	0x3e9d75d1	0.3075395
130	0x3e2aaca5	0.16667421
131	0xbe3ba50f	-0.18324684
132	0x3c726178	0.014793746
133	0xbe21c745	-0.15798672
134	0xbefe109a	-0.4962204
135	0x3d88549b	0.06656762
136	0x3dbec139	0.09314198
137	0x3d930fc6	0.07180743
138	0xbdcd19b4	-0.10014668
139	0xbecb2280	-0.3967476
140	0xbcff35e6	-0.03115363
141	0x3e03c45c	0.12867874
142	0xbd6b55fd	-0.05745505
143	0xbe377ea9	-0.17919411

mps.0.l2.node_block.m.0.bias f4 [16]
0	0x3f079f54	0.5297749
1	0xbd4f897e	-0.050668232
2	0xbed17a50	-0.4091363
3	0x3e15a71e	0.14614531
4	0x3f13b265	0.57694083
5	0x3e142105	0.14465721
6	0xbe73bdd5	-0.23802884
7	0xbe8c9990	-0.2746091
8	0x3e1be1d7	0.1522287
9	0x3e1e2681	0.15444376
10	0xbf0cfec6	-0.55076253
11	0x3e814f58	0.25255847
12	0x3f1f4447	0.6221356
13	0x3ee48f1d	0.44640437
14	0x3d4fa8a8	0.050697953
15	0x3e48e8ad	0.19620009

mps.0.l2.node_block.m.2.weight f4 [8, 16]
0	0xbdfcdac4	-0.12346414
1	0x3e083789	0.13302435
2	0xbd0ecf4b	-0.03486566
3	0x3e4c13be	0.19929406
4	0x3eb1a88a	0.34698898
5	0x3f2b76fe	0.6697844
6	0x3cdde512	0.027086768
7	0x3dc9a1e4	0.09845331
8	0xbce67d5e	-0.028135952
9	0x3e151f5e	0.14562747
10	0xbb1a6ab6	-0.002356214
11	0xbb80dd60	-0.00393264
12	0xbe69da0a	-0.22837082
13	0x3bb8eea9	0.005643685
14	0xbeaa9f02	-0.33324438
15	0xbcfbc334	-0.030732729
16	0xbdec55b9	-0.11539788
17	0xbe4d166b	-0.20028083
18	0xbebbbb5b	-0.36666378
19	0x3df8a1c5	0.1214023
20	0x3e2ca4eb	0.16859786
21	0xbdce0c8f	-0.10060989
22	0xbdc2e7c5	-0.09516863
23	0xbe7a32c2	-0.24433425
24	0x3d20820c	0.039186522
25	0xbcdb56f5	-0.026774863
26	0xbe82798b	-0.25483355
27	0x3d73be24	0.059507504
28	0x3ebcdd13	0.36887416
29	0x3c0a2f7f	0.0084341755
30	0x3cae8a35	0.021306137
31	0x3daa5b24	0.08318165
32	0x3da9d190	0.08291924
33	0x3e173ae5	0.1476856
34	0x3eb33b5c	0.35006225
35	0x3e0260cd	0.12732239
36	0xbeab350d	-0.33438912
37	0x3e841430	0.25796652
38	0xbdc18d38	-0.094507635
39	0x3dd1ee77	0.10250562
40	0x3c88c0d4	0.01669351
41	0x3ca8ea93	0.020619666
42	0x3c56a9b2	0.013101982
43	0x3e336566	0.17519149
44	0xbe52723c	-0.2055139
45	0xbe6c6463	-0.2308517
46	0xbe17165e	-0.14754626
47	0x3e580612	0.21096066
48	0xbd115fff	-0.03549194
49	0x3d8fad56	0.07015483
50	0xbe9947c2	-0.2993756
51	0x3e2cf366	0.16889724
52	0x3f0e92ca	0.5569273
53	0x3f29ef5f	0.66380876
54	0xbdce7c87	-0.100823455
55	0xbe0e6ee3	-0.13909487
56	0xbb87da94	-0.0041459296
57	0xbe6283a8	-0.22120535
58	0x3e581160	0.21100378
59	0xbe27f69c	-0.16402668
60	0x3e200fb6	0.15630993
61	0x3e963919	0.29340437
62	0x3e29e99a	0.16593018
63	0x3ddb9ca2	0.10723235
64	0xbe2356b8	-0.1595105
65	0x3e5b7a26	0.21433315
66	0x3c81f737	0.015864952
67	0xbe5608cb	-0.20901792
68	0xbe7acb48	-0.24491608
69	0xbf168804	-0.58801293
70	0x3c6d2fce	0.01447673
71	0x3e525ac7	0.20542441
72	0xbe1a4c6c	-0.15068215
73	0xbd83638b	-0.06415471
74	0x3d2f1967	0.042748835
75	0xbd8908ff	-0.06691169
76	0x3b41a66f	0.0029548665
77	0xbe939067	-0.28821108
78	0xbde83a39	-0.1133923
79	0xbda11f2a	-0.07867272
80	0xbdb7aedb	-0.08968898
81	0xbe50ff29	-0.20409836
82	0x3ef384ae	0.47562164
83	0x3d501dfb	0.05080984
84	0xbdc40913	-0.09572043
85	0x3bc11334	0.005892182
86	0x3d953eac	0.07287344
87	0x3d9b7a99	0.07591743
88	0xbe27d457	-0.16389595
89	0x3c91aaa2	0.01778156
90	0x3e3b1235	0.18268664
91	0x3e5ae7d8	0.21377504
92	0xbe736c61	-0.23771812
93	0x3e396c14	0.18107635
94	0xbe2d39cb	-0.16916578
95	0x3e29ab6c	0.16569299
96	0x3e205641	0.15657903
97	0x3e42bdf8	0.1901778
98	0xbee9ceba	-0.45665532
99	0x3e487483	0.19575696
100	0x3ddc21ef	0.1074866
101	0x3e9f9375	0.31167188
102	0xbe1a1b06	-0.15049371
103	0xbd9ea3f7	-0.077461176
104	0x3d0c72bf	0.034289118
105	0xbd880d6b	-0.06643184
106	0xbc97ddff	-0.018538473
107	0xbc8e4134	-0.017365076
108	0x3ee724e7	0.45145342
109	0x3e44127f	0.1914768
110	0x3ea7a504	0.32743084
111	0x3c6e8ac2	0.01455945
112	0x3e034e4e	0.1282284
113	0xbc295b76	-0.010336747
114	0xbc6c4fcf	-0.014423325
115	0x3c9cc211	0.019135507
116	0xbf228230	-0.634799
117	0xbecace9d	-0.39610758
118	0x3c81b63d	0.015833968
119	0xbdba05c0	-0.09083128
120	0x3ae579cc	0.0017507612
121	0xbdc24f70	-0.09487808
122	0x3dac54c3	0.084146045
123	0x3deb7381	0.1149664
124	0xbdc72b25	-0.09725026
125	0x3e1c7e0b	0.15282457
126	0x3e9275bc	0.2860545
127	0xbe460750	-0.19338727

mps.0.l2.node_block.m.2.bias f4 [8]
0	0xbec4d256	-0.38441724
1	0x3d942572	0.072337046
2	0x3e5abff0	0.21362281
3	0x3e02f7ac	0.12789792
4	0xbdb1f6de	-0.08689664
5	0xbe084804	-0.13308722
6	0xbe48f4e0	-0.19624662
7	0x3e9258d1	0.28583387

mps.1.l1.edge_block.m.0.weight f4 [16, 18]
0	0xbcc44612	-0.023959193
1	0x3e5ff024	0.2186895
2	0xbdeb3cd4	-0.114862114
3	0xbe075567	-0.13216172
4	0x3dbd9e3e	0.09258698
5	0x3cfdf72d	0.031001652
6	0x3e145433	0.14485244
7	0x3de0ab2a	0.10970147
8	0x3e394d76	0.18095955
9	0xbe221a91	-0.15830447
10	0x3e1120b0	0.14172626
11	0x3dd958a5	0.10612611
12	0xbca6e228	-0.020371512
13	0x3e8cf280	0.27528763
14	0x3d82bc25	0.06383542
15	0x3d00b7ff	0.031425472
16	0xbca21141	-0.019783618
17	0x3bdd046b	0.0067449114
18	0xbe757437	-0.23970114
19	0x3e3de035	0.1854256
20	0x3dd88dcc	0.105739206
21	0xbce0b8b6	-0.027431827
22	0x3cc8416b	0.024445256
23	0xbe8034e2	-0.25040346
24	0x3daa07fb	0.083023034
25	0x3e8763de	0.2644338
26	0x3c16775c	0.009183731
27	0xbd8f8219	-0.07007236
28	0x3e43084a	0.19046131
29	0xbe484fee	-0.19561741
30	0x3c910393	0.0177019
31	0x3daecece	0.085355386
32	0xbda30937	-0.07960742
33	0xbd555b67	-0.05208912
34	0xbe0db659	-0.13839091
35	0xbbf43f19	-0.007453811
36	0x3d9e2aef	0.07723033
37	0x3df0a13d	0.11749504
38	0xbde9c05f	-0.11413645
39	0x3c20f121	0.009823115
40	0x3c9df563	0.019282049
41	0xbd501974	-0.050805524
42	0x3e5cbe58	0.21556985
43	0xbc7d2f70	-0.0154532045
44	0xbe71d435	-0.23616107
45	0xbd46aeef	-0.048506673
46	0xbe1a3fc1	-0.15063383
47	0xbc88a86f	-0.016681878
48	0xbc72f069	-0.014827826
49	0xbe73f13c	-0.23822492
50	0x3bc5b305	0.0060333037
51	0xbc802e85	-0.015647182
52	0xbaa28cef	-0.0012401621
53	0x3f610a21	0.8790608
54	0xbdb9b32a	-0.09067376
55	0x3d956f7e	0.07296656
56	0x3dbe7f6b	0.09301647
57	0xbe7fcf80	-0.24981499
58	0x3d6c5785	0.057700653
59	0x3e3842c6	0.17994222
60	0xbdba7ab7	-0.09105437
61	0xbdb7fb02	-0.08983423
62	0xbc5de83a	-0.013544137
63	0x3e420c41	0.18949987
64	0xbe428244	-0.18995005
65	0xbd09fdfc	-0.033689484
66	0x3ca49633	0.020091152
67	0xbe738f5b	-0.23785155
68	0x3cee07c5	0.02905644
69	0x3e5c6a4a	0.21524921
70	0xb9e05263	-0.00042785992
71	0x3f6c4e34	0.9230683
72	0xbea28dc3	-0.3174878
73	0xbe1763f1	-0.14784218
74	0x3ee7d05b	0.4527615
75	0xbe0d8e83	-0.13823895
76	0x3e90e2de	0.28298086
77	0x3e1c1316	0.15241656
78	0xbe8c212d	-0.2736906
79	0x3db14897	0.086564235
80	0x3ee1d41b	0.44107136
81	0x3e9239fd	0.28559867
82	0xbeb8b1c7	-0.36073133
83	0x3f3aed42	0.73018277
84	0xbed785cc	-0.42094266
85	0xbea1a9ff	-0.3157501
86	0x3f07f1de	0.53103435
87	0xbe499f98	-0.19689786
88	0xbd895255	-0.06705157
89	0xbf402f1f	-0.750719
90	0x3e97ebb4	0.29672015
91	0xbd4d79d3	-0.05016501
92	0x3df8bd98	0.12145537
93	0x3e4ec794	0.2019332
94	0xbe4f58b2	-0.20248678
95	0xbe110e4e	-0.14165613
96	0x3d361578	0.044454068
97	0x3d8d0f74	0.06887713
98	0xbddd4d9a	-0.10805817
99	0x3d2aa960	0.041665435
100	0xbcc35aa6	-0.023846935
101	0x3ca1c20f	0.019745855
102	0xbd88d459	-0.06681127
103	0x3e135359	0.14387263
104	0x3dbfdca5	0.093682565
105	0xbdfe3572	-0.12412538
106	0xbe55bfe0	-0.20873976
107	0x3dd5f3bd	0.1044688
108	0x3d56e3c3	0.052463304
109	0x3e71a2d4	0.2359727
110	0x3c32fb28	0.010924138
111	0xbd830e9c	-0.06399271
112	0x3e69af40	0.22820759
113	0xbdf5326d	-0.119725086
114	0x3d72cbd1	0.059276406
115	0x3c67267f	0.014108299
116	0xbe9efa79	-0.3105047
117	0x3dcce368	0.10004312
118	0xbe9c22ff	-0.3049545
119	0xbd62dfd9	-0.05538926
120	0x3d089cf3	0.033352803
121	0xbdeb7232	-0.114963904
122	0xbc480974	-0.012209285
123	0xbe23daae	-0.16001388
124	0xba8914ca	-0.0010458466
125	0x3f3c7918	0.73622274
126	0xbe298fd4	-0.16558772
127	0xba96af6f	-0.0011496375
128	0xbe50aa64	-0.20377499
129	0xbd9b2e77	-0.07577222
130	0x3e9d89e2	0.3076926
131	0x3e9eb457	0.30996963
132	0xbe5f0054	-0.21777469
133	0x3db87137	0.09005969
134	0x3da2d1dc	0.07950184
135	0xbcd58bdf	-0.026067672
136	0x3db713cb	0.08939322
137	0xbc834a19	-0.016026543
138	0x3d932b9c	0.07186052
139	0xbd96330c	-0.07333955
140	0x3dbe4a44	0.09291509
141	0x3dd6784d	0.10472164
142	0xbe34c194	-0.17651969
143	0x3d9da87f	0.07698154
144	0xbdad9039	-0.08474774
145	0xbd84d6da	-0.06486292
146	0xbe4658a6	-0.19369754
147	0xbe06f957	-0.13181053
148	0x3c0d83fa	0.008637423
149	0xbd7c4a46	-0.06159427
150	0x3e535d33	0.20641021
151	0x3ad09cef	0.001591591
152	0x3bff225d	0.007786079
153	0xbdc551ac	-0.09634718
154	0xbe426afa	-0.18986121
155	0x3e0e84a2	0.13917783
156	0x3e13a8b7	0.14419828
157	0xbd75eb2c	-0.06003873
158	0xbd7bd06c	-0.061478063
159	0x3e02d687	0.12777148
160	0xbea19600	-0.31559753
161	0x3dc7b48d	0.09751234
162	0x3ddbc69d	0.10731242
163	0xbe0f7d7e	-0.14012715
164	0xbe11dbac	-0.14243954
165	0xbdefde84	-0.11712363
166	0x3e28aa3a	0.16471186
167	0x3e1f3d88	0.15550816
168	0xbd357d51	-0.044308964
169	0x3e4fc1ed	0.2028882
170	0xbd6b5ea3	-0.0574633
171	0xbe178a55	-0.14798863
172	0x3d577d0d	0.052609492
173	0x3e0cf275	0.13764365
174	0x3e54c07b	0.2077655
175	0xbc4d2f34	-0.012523461
176	0x3dda0abf	0.10646581
177	0x3df871b3	0.121310614
178	0x3d11f824	0.035637036
179	0x3f0b74ff	0.54475397
180	0x3e8a14ae	0.26968902
181	0xbe283f62	-0.16430429
182	0x3e07698c	0.13223857
183	0x3d0ec5bc	0.034856543
184	0xbe49f725	-0.19723184
185	0x3da25d9b	0.0792801
186	0xbd2cbcc2	-0.0421722
187	0xbe7e3f8f	-0.24828933
188	0xbc57eff9	-0.0131797725
189	0x3d75497d	0.059884537
190	0x3d721c5a	0.05910907
191	0x3b5c8239	0.0033646955
192	0x3de739f8	0.112903535
193	0x3c84eaf8	0.016225323
194	0x3cf7d925	0.03025491
195	0xbc244ae1	-0.010027618
196	0xbe9491c8	-0.29017472
197	0x3db0cfef	0.0863341
198	0x3cdfb324	0.0273071
199	0xbe39cc08	-0.18144238
200	0xbe045edd	-0.12926812
201	0x3d6bc995	0.05756529
202	0xbe1f621d	-0.15564771
203	0xbd83379e	-0.064070925
204	0xbcb21307	-0.021737589
205	0xbd96c0cb	-0.07360991
206	0xbe14ed97	-0.14543758
207	0x3cc8234d	0.024430895
208	0xbdb9c3a8	-0.090705216
209	0x3d207719	0.03917608
210	0x3d5fa44f	0.054600056
211	0xbdb17ead	-0.086667396
212	0xbdd6f1f5	-0.104953684
213	0x3cb0061e	0.021487292
214	0xbea27b43	-0.31734666
215	0x3dd62607	0.10456472
216	0x3d05ff13	0.03271396
217	0x3d9b4538	0.07581562
218	0x3d7fbf07	0.062438037
219	0x3e5ceebc	0.21575445
220	0xbdcf27c9	-0.1011501
221	0xbe7d93fc	-0.24763483
222	0x3e43c07a	0.19116393
223	0xbe355e58	-0.1771177
224	0xbd302ffc	-0.04301451
225	0xbcde6eb8	-0.027152404
226	0xbe10a157	-0.14124046
227	0xbaae365a	-0.0013291345
228	0x3e21d928	0.15805495
229	0x3cf0589d	0.02933913
230	0x3dedd4c2	0.11612846
231	0x3e39ed17	0.18156849
232	0xbefa6943	-0.48908433
233	0x3e5c5799	0.21517791
234	0x3e254150	0.16138196
235	0x3e33540c	0.1751253
236	0xbe80a41e	-0.2512521
237	0x3d4e1548	0.050313264
238	0xbdcf5ca2	-0.1012509
239	0xbd22efec	-0.03977959
240	0xbd36cac2	-0.04462696
241	0xbe381485	-0.17976578
242	0xbe4ee6ef	-0.20205282
243	0xbd990dac	-0.07473311
244	0x3cbdbc88	0.023161188
245	0x3dc9c99e	0.098529086
246	0xbe2d857c	-0.16945451
247	0xbe094e96	-0.13408884
248	0xbc21a6fe	-0.009866474
249	0xbe3d6967	-0.18497239
250	0x3d251625	0.04030432
251	0xbf4d8128	-0.802752
252	0x3dfb2710	0.1226331
253	0xbe18e1ac	-0.14929837
254	0xbd1ce9f3	-0.03830905
255	0x3d98fb3e	0.07469796

mps.1.l1.edge_block.m.0.bias f4 [16]
0	0x3e1de61c	0.15419811
1	0x3e292bea	0.16520658
2	0x3ebd254e	0.36942524
3	0x3d8a510b	0.06753739
4	0xbeb7beef	-0.35887858
5	0x3e833442	0.25625807
6	0x3dd3ff6a	0.10351451
7	0x3e25c7f6	0.1618956
8	0x3f1e830d	0.6191872
9	0x3f0b8c45	0.5451091
10	0x3f1b6d65	0.607138
11	0x3eff917a	0.49915677
12	0x3f15ea4e	0.58560646
13	0xbe482ffb	-0.19549553
14	0x3e6c7153	0.23090105
15	0x3e2bf467	0.16792451

mps.1.l1.edge_block.m.2.weight f4 [1, 16]
0	0xbadbbfeb	-0.001676557
1	0xbe12ca0c	-0.14334887
2	0x3ec5bb39	0.38619402
3	0x3e8e6d09	0.27817562
4	0xbf21e670	-0.63242245
5	0x3e33ae66	0.17546996
6	0x3f144614	0.5791943
7	0x3ee456c0	0.44597435
8	0x3da439a3	0.08018806
9	0x3d8a165e	0.067425475
10	0x3e11ec6d	0.14250346
11	0x3e0e7709	0.13912596
12	0x3ece3128	0.40271878
13	0xbd3d57e3	-0.046226393
14	0x3def36a3	0.11680343
15	0x3ea3afd8	0.31970096

mps.1.l1.node_block.m.0.weight f4 [16, 9]
0	0x3e0d5cb3	0.13804893
1	0x3d9ab47c	0.07553956
2	0xbddc6428	-0.10761291
3	0x3c6aaf03	0.014323953
4	0x3ae7dee3	0.0017690327
5	0xbcaaa888	-0.020832315
6	0xbcdaa6ac	-0.026690803
7	0x3eb24553	0.34818515
8	0x3ea47a55	0.32124582
9	0xbe493b58	-0.19651544
10	0x3d83e212	0.06439604
11	0xbd831e74	-0.06402293
12	0xbda7bf25	-0.08190755
13	0xbcac5f14	-0.02104143
14	0xbdc89832	-0.09794654
15	0xbd850179	-0.064944215
16	0xbdc510a9	-0.09622318
17	0xbe46c6e0	-0.19411802
18	0x3e1ec68c	0.15505427
19	0x3e12fc3a	0.1435403
20	0x3e8677bf	0.26263234
21	0x3de8631c	0.113470286
22	0x3cdf5b90	0.02726534
23	0x3dd51766	0.104048535
24	0x3dc9f728	0.098615944
25	0xbe0bd089	-0.13653769
26	0xbe8654e0	-0.2623663
27	0xbe3ae616	-0.18251833
28	0x3d3928d7	0.045204964
29	0x3e39f41c	0.18159527
30	0x3e1a7f19	0.15087546
31	0x3e3cb23d	0.18427368
32	0x3d3723b4	0.044711784
33	0xbe2eab2b	-0.17057483
34	0xbdfd1bcf	-0.1235882
35	0xbe81f353	-0.25380954
36	0xbe6a2fa5	-0.22869737
37	0x3d9f042a	0.07764466
38	0x3e496259	0.19666423
39	0x3e8cfac7	0.27535078
40	0xbdc55bf8	-0.09636682
41	0x3c4b3207	0.012402064
42	0xbe14d0c9	-0.1453277
43	0x3d26afbc	0.040694937
44	0x3e72c82f	0.23709176
45	0xbbe33863	-0.006934212
46	0x3d12038d	0.035647918
47	0x3da75fee	0.08172594
48	0x3d87a30f	0.06622898
49	0xbd62534f	-0.05525523
50	0xbd8eb53f	-0.06968164
51	0x3d50bafb	0.05095957
52	0xbc259f9b	-0.010108854
53	0xbe9fa91d	-0.3118371
54	0x3d3337d5	0.043754417
55	0x3d5fcaef	0.054636892
56	0xbd5f7479	-0.054554436
57	0xbdedeec3	-0.11617806
58	0xbd2fc117	-0.042908754
59	0xbe8603e4	-0.26174843
60	0xbbf07f25	-0.0073393756
61	0x3d5e18bb	0.054222804
62	0x3e8d9b21	0.27657416
63	0x3de6528e	0.11246215
64	0x3d324ad1	0.04352838
65	0x3ddcaacd	0.10774765
66	0x3e8913b8	0.26772857
67	0xbe38bea7	-0.18041478
68	0x3e165280	0.14679909
69	0x3dca497e	0.09877299
70	0xbe689bfc	-0.22715753
71	0x3e3c94ba	0.1841611
72	0xbdc616dc	-0.09672329
73	0xbdc6239f	-0.09674763
74	0xbe4c8b17	-0.19974934
75	0xbe66d046	-0.22540388
76	0x3e3b252c	0.18275899
77	0xbe1ddfa8	-0.1541735
78	0x3dacc63b	0.08436247
79	0xbea393d4	-0.3194872
80	0xbe8ac8ae	-0.2710623
81	0xbe1ac2de	-0.15113398
82	0x3e8ddccb	0.27707514
83	0x3d38234e	0.044955544
84	0x3d5aac9a	0.053387262
85	0xbcb76c22	-0.022390429
86	0x3d74b3dd	0.059741843
87	0xbd2a5a3e	-0.041589968
88	0x3e8ef34f	0.27920005
89	0x3d329260	0.043596625
90	0xbe0d322a	-0.13788667
91	0x3ea6ce66	0.32579345
92	0xbe034f9b	-0.12823336
93	0xbe138874	-0.14407521
94	0xbd899091	-0.06717027
95	0x3e876f45	0.2645208
96	0xbe1e0629	-0.15432037
97	0xbea73ab9	-0.3266199
98	0x3e274aea	0.16337171
99	0x3d9b1d7f	0.07573985
100	0x3e5f5739	0.21810617
101	0x3e84aef7	0.25914738
102	0x3b18dacf	0.002332378
103	0x3db8a23e	0.0901532
104	0xbe9b2efd	-0.30309287
105	0x3d916915	0.07100121
106	0x3e622d04	0.22087485
107	0x3e9d24bc	0.3069209
108	0xbda8c7dc	-0.08241245
109	0xbd3f66ac	-0.046728775
110	0xbb915c8a	-0.0044360803
111	0xbe333f76	-0.17504677
112	0xbe4fb630	-0.20284343
113	0xbe44ee58	-0.19231546
114	0x3d0282d7	0.03186306
115	0x3e0b2590	0.13588548
116	0x3e1c212a	0.15247026
117	0x3d460135	0.048340995
118	0x3e1bd6b4	0.15218621
119	0xbe5bacfe	-0.2145271
120	0x3d885f51	0.06658805
121	0xbdc70c19	-0.09719104
122	0xbe52518f	-0.20538925
123	0x3e969baf	0.29415652
124	0xbe7d74e4	-0.24751621
125	0x3e54a20f	0.20764945
126	0xbe3ced2d	-0.1844985
127	0x3c5b2c72	0.013377296
128	0xbe67e246	-0.2264491
129	0xbd5dc640	-0.054144144
130	0xbdeb9da4	-0.11504677
131	0x3e47a736	0.1949738
132	0xbe3ef8d2	-0.18649605
133	0x3de8692c	0.11348185
134	0xbeba3aae	-0.36372894
135	0x3e713e0e	0.23558828
136	0xbd96d71b	-0.07365247
137	0x3c19a3ea	0.009377459
138	0xbdedcdd7	-0.116115265
139	0x3e2576a8	0.16158545
140	0x3d024672	0.031805463
141	0xbe904ef5	-0.2818524
142	0xbd5223c4	-0.05130364
143	0xbea32f54	-0.31872046

mps.1.l1.node_block.m.0.bias f4 [16]
0	0x3f2723cc	0.65288997
1	0x3f08bdae	0.5341443
2	0x3e012b2e	0.12614128
3	0x3e3ee167	0.18640672
4	0x3f55c1a4	0.834986
5	0xbe442218	-0.1915363
6	0x3f117ad2	0.56828034
7	0xbd1fe0db	-0.0390328
8	0x3d075a28	0.033044964
9	0x3f222f4d	0.63353425
10	0xbe1fb9de	-0.15598246
11	0x3ed5da8c	0.417683
12	0xbe731340	-0.23737812
13	0x3d8f2a23	0.06990459
14	0xbea9afaf	-0.33141848
15	0x3e38ed4e	0.18059275

mps.1.l1.node_block.m.2.weight f4 [8, 16]
0	0x3e169293	0.14704351
1	0xbcbdd898	-0.023174569
2	0x3d9a0f9b	0.07522508
3	0xbe8a9d17	-0.27072975
4	0x3dcce274	0.1000413
5	0xbe3355dc	-0.17513222
6	0x3de7c34f	0.11316549
7	0x3c9c4f8f	0.019080905
8	0xbdf86cb9	-0.12130112
9	0x3e211d4a	0.15733829
10	0x3f1f6a4b	0.62271565
11	0xbdd6e6ab	-0.10493215
12	0x3dc85270	0.09781349
13	0x3e805319	0.25063398
14	0x3ceada5f	0.02866858
15	0xbdc89a81	-0.09795094
16	0xbf017d89	-0.50582176
17	0xbe83a24d	-0.25709763
18	0x3dfa39e6	0.122180745
19	0x3e841b67	0.25802156
20	0xbea4d14e	-0.32190937
21	0x3e8647fc	0.26226795
22	0xbd963c38	-0.073357046
23	0x3e8810ff	0.26575467
24	0xbc1c679b	-0.009546186
25	0xbe9c3ab9	-0.30513552
26	0x3cd27219	0.025689172
27	0x3d840c72	0.06447686
28	0x3eb1f1ec	0.34754884
29	0xbdc9f364	-0.09860876
30	0x3e2ac342	0.16676047
31	0x3e32409f	0.17407463
32	0xbd91e40a	-0.07123573
33	0x3dc8c269	0.09802706
34	0xbd387060	-0.045029044
35	0x3e1ecf86	0.15508851
36	0xbd20baf9	-0.03924081
37	0xbbb5ac65	-0.0055442327
38	0x3e1888bb	0.14895909
39	0xbea22627	-0.31669733
40	0xbdad3f8a	-0.08459385
41	0x3d1b5539	0.03792307
42	0x3e350162	0.17676309
43	0x3e21d25b	0.158029
44	0xbea5eaea	-0.32405788
45	0xbd980ffa	-0.07424922
46	0xbe053f1e	-0.13012359
47	0xbd13677c	-0.035987362
48	0x3e4a709b	0.19769518
49	0x3d5c98d1	0.053856675
50	0xbc442807	-0.011972434
51	0x3d94c5bb	0.072642766
52	0xbdb55c1e	-0.088554606
53	0x3db36707	0.08759885
54	0xbe308e89	-0.17241873
55	0xbe60b8cc	-0.21945494
56	0x3e35fa6b	0.17771308
57	0xbd8ee6ca	-0.06977613
58	0x3dc803af	0.097663276
59	0xbdf6145d	-0.12015603
60	0xbe0c5e26	-0.1370779
61	0xbd25c61e	-0.040472142
62	0x3e790680	0.24318886
63	0x3daef9b8	0.08543724
64	0x3ed973b0	0.42471075
65	0x3b8c865f	0.004288479
66	0xbc06b564	-0.008221958
67	0x3e2d2097	0.16906963
68	0x3eb8db45	0.3610479
69	0xbe25b581	-0.1618252
70	0x3e8fddef	0.2809901
71	0x3e274fff	0.1633911
72	0xbcf0dd6c	-0.029402457
73	0x3ec4c22b	0.38429388
74	0xbd8bbcf2	-0.06823148
75	0x3e2a628f	0.1663916
76	0x3ecef0f1	0.404182
77	0xbe2251ff	-0.15851592
78	0xbe049b6d	-0.12949915
79	0xbe63023a	-0.22168818
80	0x3e153610	0.14571404
81	0xbe1cc99a	-0.1531128
82	0xbd86caf8	-0.06581682
83	0x3da5679d	0.08076403
84	0x3e64a2df	0.22327755
85	0x3e2969d6	0.1654428
86	0x3e4cc01b	0.19995157
87	0x3e248609	0.16066755
88	0xbdcafa4f	-0.09911024
89	0x3e5dfdca	0.21678844
90	0x3e6b38a1	0.22970821
91	0x3e7681e9	0.24072994
92	0x3e5ebc5a	0.21751538
93	0x3ea606bb	0.3242701
94	0xbe27ffa3	-0.16406111
95	0xbda00b7d	-0.07814691
96	0x3dba0f18	0.0908491
97	0x3e550b64	0.20805126
98	0xbd491dfc	-0.04910086
99	0xbe502dcc	-0.2032997
100	0x3e04d40d	0.12971516
101	0x3df73b6a	0.12071879
102	0x3dce1583	0.10062697
103	0x3d67eb89	0.05662111
104	0x3d4bdba2	0.049770005
105	0xbdf26dca	-0.11837347
106	0xbeaeac8f	-0.34116027
107	0x3c0d41a3	0.008621606
108	0xbea4aa40	-0.3216114
109	0xbe5db07f	-0.21649359
110	0x3e543015	0.20721467
111	0xbd84ea87	-0.06490045
112	0xbe1ee5b0	-0.15517306
113	0xbc690311	-0.0142219225
114	0xbe296845	-0.16543682
115	0x3ddeae8c	0.10873136
116	0xbd257f26	-0.04040446
117	0xbde5959c	-0.11210176
118	0xbe3074aa	-0.17232004
119	0x3d8f0f94	0.06985393
120	0xbdb8d7d8	-0.09025544
121	0x3d65df67	0.056121256
122	0xbe0210dd	-0.12701745
123	0xbdb190ae	-0.086701736
124	0xbdf19042	-0.11795093
125	0x3e768adf	0.24076413
126	0xbe499b96	-0.19688258
127	0xbd2e7cde	-0.04259955

mps.1.l1.node_block.m.2.bias f4 [8]
0	0xbeda8db9	-0.4268625
1	0xbf10cb68	-0.56560373
2	0x3f12a0ae	0.5727643
3	0x3e12c038	0.14331138
4	0x3f1e2d73	0.617881
5	0x3d4f5475	0.050617654
6	0xbe173e92	-0.14769962
7	0xbed9f55a	-0.4257
