archive-july16/warmup_results/FINAL_baseline_sketched/model_epoch1.pt (torch, 44714 bytes, 56 tensors)

mps.0.l1.edge_block.m.0.weight f4 [16, 17]
000000 5f 0f 43 3d 21 df 6f 3e 37 a2 b1 3d 4e 1c da 3e
       0.04762208 0.2342496 0.08673518 0.4259972
000010 f8 20 8f 3d 0a b8 3c 3f 3d 27 f4 3d a8 04 9a 3e
       0.0698871 0.7371832 0.119215466 0.30081677
000020 b9 48 1a 3e 1b 11 9d bd 72 ff b8 3e 4a 48 86 3e
       0.15066804 -0.07669278 0.3613239 0.26227027
000030 1b 09 9f 3e bd 80 04 3f 2d e5 aa 3e a5 e7 1a 3e
       0.31061634 0.5175894 0.33377972 0.15127428
000040 8a aa 7f 3f f8 95 51 3b 7b 15 d9 bd 37 aa 5d 3d
       0.99869597 0.0031980257 -0.105998 0.054117408
000050 e7 55 d6 bd 23 c0 e9 bc 2c 82 b8 bd 7b 1a 16 3e
       -0.10465603 -0.028534 -0.09009203 0.14658539
000060 46 70 33 be 28 f9 e1 bd 45 6d 84 bd 7b 7a 0a be
       -0.17523298 -0.11033851 -0.06466154 -0.13523285
000070 3e a6 95 3c 18 3f 62 be 5d 7a 4c 3e 7a e3 40 be
       0.018267747 -0.22094381 0.19968553 -0.18836775
000080 cd 96 2e 3e 0d 65 17 3d 14 35 bd bd 4e a4 84 3d
       0.17049713 0.036961604 -0.092386395 0.06476651
000090 22 e3 9a bd 30 99 8e 3d 36 25 90 bd 7b d3 cc bd
       -0.075628534 0.06962812 -0.070383474 -0.10001274
0000a0 f4 9a 16 3c be ba f1 bd 64 90 95 3d f4 27 de 3d
       0.009192217 -0.11803196 0.07302931 0.10847464
0000b0 63 80 87 3c 07 0d 61 be b6 eb db 3c 74 8b 31 bb
       0.016540712 -0.21977626 0.026845794 -0.0027091177
0000c0 6b 89 7e 3d 76 9a 49 be 68 5a 94 be 3c 0c bc bd
       0.06214277 -0.19687828 -0.28975224 -0.09182021
0000d0 5a 6c 3c be 6f ba 2c 3e 71 80 3e 3d 46 9e 9d 3d
       -0.18400708 0.16867994 0.04650921 0.07696204
0000e0 d8 fc 8a 3d 4d 42 c0 bb 60 61 2e 3e c4 94 22 be
       0.06786507 -0.0058672787 0.17029333 -0.15877062
0000f0 10 a0 d8 3a 1f 2b 26 be 4e 47 58 3d a9 30 b8 bd
       0.0016527195 -0.16227387 0.052802376 -0.08993656
000100 56 68 86 3d 1c 33 45 bd ed 31 39 3e 01 56 04 be
       0.06562869 -0.048144445 0.18085451 -0.12923433
000110 7d 27 2a be 72 5a 44 be 55 17 11 3e 52 90 94 3b
       -0.16616626 -0.19175127 0.14169057 0.004533806
000120 83 77 19 3e 07 27 47 be f3 e5 6c be 4c 4b 42 be
       0.14986996 -0.19448482 -0.23134594 -0.18974036
000130 e6 2d 33 be 10 fe 00 3d a2 31 c2 3c 96 86 ed 3d
       -0.17497978 0.031492293 0.023705307 0.11597936
000140 ec df 34 be 69 e6 26 be f5 8e d8 3d a1 9e d8 bd
       -0.17663544 -0.16298832 0.10574142 -0.10577131
000150 9c 14 d8 3d c2 9c 9a bd 2d c1 c2 be 0d 99 3f bf
       0.10550806 -0.075494304 -0.38038006 -0.7484291
000160 86 99 4d bf 27 a0 02 bf 66 23 c2 bf 55 6b 40 bf
       -0.80312383 -0.51025623 -1.5167053 -0.75163776
000170 c3 e1 00 bf 11 86 16 3e 88 b2 28 bf 80 ac 3d bf
       -0.50344485 0.1469958 -0.6589742 -0.7409134
000180 a5 84 00 bf 84 c7 27 bf d2 f8 ad bf 3a d5 68 bf
       -0.502024 -0.6553881 -1.3591559 -0.9095036
000190 f7 46 43 bf 3b 12 f8 be 10 23 d4 bd 8b c7 9a 3d
       -0.7628016 -0.4845141 -0.1035825 0.07557591
0001a0 76 6f 9a 3e 5e 28 83 3e 54 e5 e6 3d d8 d3 3a 3f
       0.30163163 0.25616735 0.112742096 0.729795
0001b0 62 36 47 3e a3 a3 4e 3e 51 45 2b 3e 99 54 8e 3e
       0.19454339 0.2017961 0.16725661 0.27798918
0001c0 72 a8 cf 3e 62 bf 4d 3e 1c ff 29 3e d6 67 1a 3f
       0.405582 0.20092538 0.16601223 0.6031469
0001d0 42 8d d8 3e aa 64 18 3e 66 a4 e8 3e c9 bb 07 be
       0.4229527 0.1488215 0.45437926 -0.13255228
0001e0 a0 d7 20 3a 82 bb a8 bd 71 5f 7b bc 89 a3 19 be
       0.0006135646 -0.08238889 -0.015342579 -0.1500379
0001f0 70 a0 1b be 80 44 04 be 30 38 9b bd 33 f2 32 be
       -0.15197921 -0.12916756 -0.07579076 -0.17475204
000200 72 18 3e 3e 48 fc 33 bd 4b 12 43 3e f5 4a 8d 3d
       0.18564013 -0.043941766 0.19049947 0.068990625
000210 16 fc 3f be 40 e8 1c 3e ab 85 79 bd 8f cf ad bd
       -0.18748507 0.15322971 -0.06091849 -0.08486854
000220 e7 6d 4f be c7 2c 86 be 45 50 bc 3c 1d 5d ca bd
       -0.20256768 -0.26206037 0.022987494 -0.09881041
000230 ec 8d 26 3d 20 92 41 be 29 c4 20 3e 7a 0d 31 be
       0.04066269 -0.18903399 0.15699829 -0.17290297
000240 c8 d1 53 bd 16 8d ae 3b 89 d6 99 3d 70 4c 04 3e
       -0.051713735 0.0053268773 0.075116225 0.12919784
000250 3d 83 20 3e ed 6a 3b be 0e 06 46 3d bb 06 d8 bd
       0.15675063 -0.18302508 0.048345618 -0.10548159
000260 33 b3 2a bd 44 6b 19 be 53 6b 06 3f 48 58 a0 3e
       -0.041674804 -0.14982325 0.52507514 0.31317353
000270 85 25 3c 3f 11 34 05 3f 57 d5 8f 3f de 77 c8 3e
       0.7349475 0.5203257 1.1236981 0.3915395
000280 a6 24 25 3f 8d 39 23 3e 22 7a c0 3e 2a 8d aa 3e
       0.64509046 0.15939923 0.3759318 0.33310825
000290 c4 70 36 3f b8 9c de 3e ec 6c 47 3f 8f 8f 33 3f
       0.71265817 0.43478942 0.77900577 0.7014093
0002a0 c0 6d 00 3f 9b ed f2 3e 94 bd cd bd 22 ec 0a bf
       0.50167465 0.47446904 -0.10045925 -0.5426656
0002b0 97 f4 02 bf 1e 41 4d bf 06 98 3e bf f3 00 bd bf
       -0.51154464 -0.80177486 -0.7445072 -1.4765915
0002c0 a8 13 62 bf 39 33 15 bf e5 58 3a 3e 48 ac 40 bf
       -0.88311243 -0.58281285 0.18197973 -0.7526288
0002d0 5b f9 1e bf 81 99 25 bf b6 03 17 bf 85 b4 a9 bf
       -0.62099236 -0.64687353 -0.5899004 -1.3258215
0002e0 04 29 1a bf af 6e 0d bf d2 73 e3 be ba f6 20 bd
       -0.60218835 -0.55247015 -0.444243 -0.039297797
0002f0 16 8a 7e bd 14 f7 a7 3c 66 aa 32 bd 81 39 8f bd
       -0.062143408 0.020503558 -0.043619536 -0.0699339
000300 f1 4d 10 3e 05 49 42 3e 72 c3 b9 bc d5 a6 4c bd
       0.14092232 0.18973167 -0.022676203 -0.04996379
000310 59 76 94 b9 9e 5f 86 bc bb 91 47 3d f1 ee 6d 3d
       -0.00028316936 -0.016403016 0.048722964 0.0580892
000320 97 87 4e be 0b 76 a8 bd 6a 26 3e 3e de 89 ab 3d
       -0.20168911 -0.0822564 0.18569341 0.083759055
000330 eb 6c 34 bc b9 b1 08 be db b6 0a be f9 18 4b be
       -0.011012296 -0.13349046 -0.13546316 -0.19833745
000340 e1 cd 93 bd dc 21 99 3d c8 8e 10 3e 83 5a d1 3d
       -0.07217003 0.07477161 0.14116967 0.10222342
000350 2f 6a 48 be 9d 57 08 be 91 1d 0f bd 84 50 5b 3e
       -0.19571756 -0.13314672 -0.034940306 0.21417433
000360 60 2f 03 3d e9 da 6a bd c5 9a bb 3d 26 b7 ac bd
       0.032027602 -0.057337675 0.09160379 -0.0843337
000370 99 be 12 be 88 f5 6f 3e be 98 b7 3e d4 d2 c7 3e
       -0.1433052 0.23433506 0.3585872 0.39028037
000380 02 f3 33 3e 9c 01 15 3f a4 7d bf 3e e2 92 d5 3e
       0.17573169 0.5820558 0.37400544 0.41713625
000390 23 d8 5f 3e 7f b2 95 be 39 e4 81 3e df aa 18 3f
       0.21859793 -0.29237744 0.25369433 0.5963573
0003a0 c0 66 02 3f de 21 1a 3f 54 68 a5 3e 23 f3 c8 3e
       0.50938034 0.6020793 0.3230616 0.39248
0003b0 fb c2 ba 3e 88 f5 1a bd 9a 3f 42 be 25 11 54 be
       0.36476883 -0.037831813 -0.18969575 -0.20709665
0003c0 3b a1 b9 3d c8 9f de bd 43 84 36 bd 9f 79 02 be
       0.090639554 -0.108703196 -0.04455973 -0.12741707
0003d0 81 41 25 bd ec 91 1f be 9e 24 14 be b3 69 96 3d
       -0.040345673 -0.15583009 -0.14467093 0.07344379
0003e0 9f c2 86 bd c1 f8 0b 3e da 76 91 bd 78 51 26 be
       -0.0658009 0.13669111 -0.07102747 -0.16242015
0003f0 6d 01 20 bd d4 cc db bd 60 bb 8a bd cb 19 79 be
       -0.03906386 -0.10732427 -0.0677402 -0.24326245

mps.0.l1.edge_block.m.0.bias f4 [16]
000000 3b 1e bf 3e a0 0e 29 3e 37 ef 0a 3e 75 24 66 bd
       0.37327752 0.16509485 0.13567816 -0.056187112
000010 76 bf 50 be 45 28 28 bf fc 85 08 3f cd a8 61 be
       -0.20385537 -0.65686446 0.53329444 -0.22037049
000020 40 fa 83 bd 8a b7 db 3e 73 ef 43 bf 54 69 e1 bd
       -0.06444216 0.42913467 -0.76537246 -0.11006418
000030 e7 5b b9 bd 9b 62 91 3e ad 75 57 be 86 ca 24 3e
       -0.09050732 0.28395543 -0.21040983 0.16092882

mps.0.l1.edge_block.m.2.weight f4 [1, 16]
000000 50 14 dd 3d 11 6b 9d bc aa d2 6c 3c df af ae bd
       0.1079489 -0.019216092 0.014454523 -0.085296385
000010 b1 c0 2a be 18 d8 9e be 24 95 6c 3d 22 4e 00 be
       -0.16675068 -0.3102424 0.05775942 -0.12529805
000020 06 82 f6 bd c4 55 48 3f 22 49 41 be 84 24 96 bd
       -0.12036519 0.7825587 -0.18875554 -0.073311836
000030 e1 4a f0 3b 51 dc ab be 7b ed a0 bd 7a 02 f6 ba
       0.007333145 -0.33566526 -0.07857796 -0.0018769049

mps.0.l1.node_block.m.0.weight f4 [16, 9]
000000 ed 81 7e 3e c8 03 61 3e e5 f3 99 3e 3d 3e 94 3d
       0.2485425 0.21974099 0.3006889 0.072384335
000010 c0 73 96 3e 64 de 4c be 20 4c 96 3e af 5a 42 bd
       0.29385185 -0.2000671 0.29354954 -0.047449764
000020 34 05 89 3d f1 0c 55 3e d3 f9 c9 3e 1c 80 eb 3e
       0.066904455 0.20805718 0.39448413 0.45996177
000030 7e f0 0c 3f 90 b0 76 3e a6 68 c9 3e e1 d5 27 3d
       0.5505446 0.24090791 0.39337653 0.040975455
000040 ea 11 54 3e 20 d4 30 3e cc da 52 3c c1 e9 db 3c
       0.20709959 0.1726842 0.012869548 0.026844861
000050 c0 8d 09 3c 53 0a 61 3d 97 99 75 bd f3 14 46 3e
       0.008395612 0.054941487 -0.059960928 0.19343929
000060 63 96 48 3e 08 28 eb 3e 1a a5 c6 3d 79 00 6d be
       0.19588618 0.4592898 0.096994594 -0.23144712
000070 e5 f7 79 be 02 05 1b 3e c7 c9 67 be 5d 78 19 bd
       -0.2441097 0.15138629 -0.22635566 -0.037468303
000080 25 7a 15 3e ec 34 10 be 90 e8 07 bd 94 fd d8 bc
       0.14597376 -0.14082688 -0.033180773 -0.026488103
000090 a7 6f 93 bd 42 ff 1d be d5 e3 8a be 30 e2 7b be
       -0.0719903 -0.15429404 -0.27126947 -0.24598002
0000a0 cf d9 26 be 6b 7a 96 3e 18 82 16 be 43 3f 51 be
       -0.16294025 0.29390272 -0.14698064 -0.20434289
0000b0 df 0f 97 3d 1e fd f5 3d cb 23 25 be c2 1e d0 bc
       0.07376074 0.12011169 -0.16126935 -0.025405291
0000c0 a0 1b 1a bd 28 b3 14 bf 00 d5 fc 3e 0c 61 38 bc
       -0.037624 -0.5808587 0.49381256 -0.0112536065
0000d0 4a 71 88 be cb 4f 2c be 82 28 8f 3e 25 f1 65 3e
       -0.26648933 -0.16827314 0.27960593 0.2245527
0000e0 5d 4f 89 3d 3d b3 88 bd 84 43 97 3e c1 d7 93 be
       0.067045905 -0.06674812 0.29543698 -0.28875545
0000f0 45 bc 83 3e 2d 4a 99 3e 37 25 60 be f7 a9 da bc
       0.25729576 0.29939404 -0.21889196 -0.026692374
000100 de e9 00 3e b9 4e 13 3f 86 dc 0c 3f 3a a4 4a 3d
       0.12589213 0.57541996 0.5502399 0.049473025
000110 72 9b 1e 3f 8f 03 7a 3d c4 0f 98 3d e8 41 12 3f
       0.6195594 0.06103855 0.07424882 0.57131815
000120 a7 37 9a 3d 67 d1 a7 3e b7 66 e6 bd 27 1a d4 3e
       0.07530146 0.3277695 -0.1125006 0.41426203
000130 93 98 a4 bd 89 a3 2b 3f 07 54 f7 3e 3b a1 39 3e
       -0.08036914 0.6704641 0.48306295 0.18127911
000140 15 68 a6 3e 4a 3f e3 ba 0c cb 77 bd d9 b7 bb 3e
       0.32501283 -0.0017337587 -0.060496375 0.36663702
000150 c1 4f 56 3e 43 3c b7 3d 77 52 8c 3e 02 a7 c4 3e
       0.20928861 0.08947041 0.27406666 0.38408667
000160 ae d7 89 3e 16 29 2c 3f 66 1a 2f be 82 f0 7c be
       0.26922363 0.6725019 -0.17099914 -0.24701121
000170 4e cf 06 3d 4a a5 b8 3d d6 dc 0f be 19 5d ae bd
       0.032912545 0.090159014 -0.14049086 -0.08513851
000180 f6 71 52 3e 20 94 c6 3c 2b f1 60 3c 7f 35 bb be
       0.20551285 0.024240553 0.013729374 -0.36564252
000190 10 d5 0b be 24 3a 77 be a2 01 88 3a e2 7a df bc
       -0.13655496 -0.24143273 0.0010376463 -0.027280275
0001a0 30 01 e4 3e 5c 9b 10 3d 01 de b0 3b 57 34 d1 3e
       0.44532156 0.035304412 0.0053975587 0.40860245
0001b0 15 1f 5c 3d 45 56 2f 3f 28 d7 3a 3e 6c 9c 33 3e
       0.05374058 0.6849101 0.18246138 0.17540139
0001c0 4f 9b 00 3f 8b 5c ea be 5e 41 97 3d 51 43 a5 3e
       0.5023698 -0.4577373 0.07385515 0.3227792
0001d0 85 9a 2f be 1a d7 f4 bc a3 47 bb 3d 28 ce ac 3e
       -0.17148788 -0.029887725 0.09144523 0.33751035
0001e0 1b 03 57 3e 2a 02 df bc ca 4a 05 3e 3a 94 66 3b
       0.20997278 -0.027222712 0.13016811 0.0035183565
0001f0 f4 18 f5 3d 3f 58 1d 3f bf a1 82 bd bf 77 0e be
       0.1196765 0.6146278 -0.06378507 -0.13912867
000200 70 2f 1b 3e 2d 0c 85 be 7d de 32 3e 4b 04 06 be
       0.15154815 -0.25985852 0.17467685 -0.13087575
000210 c2 ba 07 bc eb f4 9a bd ec 2d eb 3c d9 df 2b bd
       -0.008284273 -0.07566246 0.02870842 -0.041961525
000220 98 28 e5 3e 0a 05 85 3e 36 99 0b 3f 12 33 0d 3f
       0.44757533 0.25980407 0.54530656 0.5515605
000230 ad 71 d8 3e 64 76 85 3d f5 bd 02 3f ce 72 ad 3e
       0.42274228 0.06516722 0.510711 0.33876652

mps.0.l1.node_block.m.0.bias f4 [16]
000000 dc 2b 9f bd ee 76 6b 3e f9 3a e6 bc a2 13 7f be
       -0.077720374 0.22994587 -0.028104292 -0.24909833
000010 bf bc 70 3d c0 19 ed bd a6 1d 83 3e 2e 8a 75 3e
       0.058773752 -0.11577177 0.25608557 0.23978493
000020 51 06 02 3f 92 0b 81 3e d7 df 37 be f6 94 f3 3d
       0.5079089 0.2520414 -0.17956482 0.118936464
000030 5c 01 b2 3e 6f 50 81 3e 16 79 6d be ba 60 d4 3e
       0.34766662 0.25256678 -0.23190722 0.41480047

mps.0.l1.node_block.m.2.weight f4 [8, 16]
000000 98 70 cc bc 7e 97 c9 bd 32 7b 28 bd 07 62 61 3e
       -0.024956033 -0.09843348 -0.041133113 0.2201005
000010 1f c9 47 3e 43 8c 94 3e 55 bf 64 3e 81 ba 04 3e
       0.19510315 0.2901326 0.22338612 0.1296177
000020 7c 39 57 3d 5b f4 07 bf 3d 88 e9 3d e6 6c 13 bf
       0.052545056 -0.5310723 0.114029385 -0.5758804
000030 1b d6 66 bd 67 d4 b3 be bd 1f 42 3d 6a d5 1e 3e
       -0.05635653 -0.35122988 0.04739355 0.15511099
000040 79 f9 24 be 0f b0 52 be a4 21 23 bd 63 c0 09 be
       -0.16110791 -0.20574974 -0.039827004 -0.13452296
000050 05 28 18 be 90 6d 15 3d 0b f8 f2 bd 00 62 3d 3f
       -0.14859016 0.03648144 -0.11863717 0.7397766
000060 fc 92 17 3e 26 4d 16 3f f2 da a0 3d ec 4b 02 3f
       0.14802164 0.5871147 0.078542605 0.508971
000070 b6 06 8e bd 9e 5d f1 3e 98 6d 14 bb dc d5 24 3e
       -0.06934874 0.47141737 -0.002264833 0.16097206
000080 4a fe 44 3e 2a ac a1 bd 38 a1 eb bd 89 60 62 bd
       0.19237629 -0.07894166 -0.115053594 -0.055267844
000090 25 d0 e1 bd b3 8b e5 3b 9a c1 15 3e 68 4c 00 3e
       -0.110260285 0.007005179 0.14624634 0.12529147
0000a0 b5 20 a3 3d 98 b2 95 be 28 da fa bd 44 bd ab 3e
       0.07965223 -0.2923782 -0.12248641 0.33542836
0000b0 f6 03 24 bd e1 f1 1b be 40 cc 54 be 89 a4 3e 3d
       -0.04004284 -0.15228988 -0.2078104 0.04654363
0000c0 66 06 18 be f3 6c f7 bd ae 4c 21 be 16 9f 4b 3e
       -0.14846191 -0.12081327 -0.15751907 0.19884905
0000d0 a2 4b 5d be 10 9f 4b 3e 53 aa 8d 3c b8 b8 e0 3e
       -0.21610883 0.19884896 0.017293131 0.4389093
0000e0 e5 ea 27 3e 78 b2 11 3f 18 90 12 3e 4e ce 21 3f
       0.16398199 0.56912947 0.1431278 0.6320542
0000f0 0b 8b 34 be 4c 12 28 3f fd 2a 61 3d 53 64 bc 3c
       -0.17631166 0.6565292 0.054972637 0.022997057
000100 62 b5 9e 3d a4 c4 d9 3d 38 27 80 bd b0 32 ef bc
       0.0774944 0.10633209 -0.062574804 -0.029198974
000110 68 0a 5e 3e 32 56 3f 3e e5 3c 12 3d 44 c7 da bc
       0.21683657 0.18685225 0.035702605 -0.026706345
000120 68 a1 54 3d 19 e4 5f be df 09 3e 3e bf 01 87 be
       0.05191174 -0.21864356 0.18558453 -0.2636852
000130 3b f5 e5 3c 05 a1 eb 3d df 08 2f 3d 7b 9c 7c 3e
       0.028071037 0.115053214 0.04273307 0.24669068
000140 63 c8 7d bc 9a d1 c8 3d 63 aa 0f 3e b9 a9 3c 3e
       -0.01548967 0.09805603 0.14029841 0.18424119
000150 ee 69 a1 bd 31 ec b1 bd 45 8e 91 3d 9e cc 44 be
       -0.078815326 -0.08687628 0.07107214 -0.1921868
000160 96 67 95 3d 7c 68 28 bf 43 80 1e be 57 4c cd be
       0.07295148 -0.6578443 -0.15478615 -0.40097305
000170 74 e6 07 3c 80 4d a4 be 28 a3 5c 3e 8d da 93 3e
       0.00829469 -0.32090378 0.21546614 0.2887768
000180 e1 ae 88 3e e1 c9 81 3d 6a 48 1e be 0c f2 23 be
       0.26695922 0.063373335 -0.15457311 -0.16010302
000190 d3 29 11 be ad b8 07 be a8 54 67 bd a4 6f 17 bf
       -0.14176111 -0.13254042 -0.05647722 -0.59154725
0001a0 16 ba 21 be a2 9e 06 bf 1a 65 66 be 1e 7e df be
       -0.15793642 -0.52585804 -0.22499505 -0.43650907
0001b0 df fc 0e 3e 90 bb 5c be a4 b3 7a bd 96 ae 0e be
       0.1396365 -0.21555924 -0.061206475 -0.13933787
0001c0 8f 52 1d 3e 72 5b a0 bd 04 80 bc bd db fb 0f 3e
       0.15363525 -0.07829942 -0.092041045 0.14060919
0001d0 00 9e 4b be ef c5 97 3d c0 57 76 3e 4a 6b a2 be
       -0.19884491 0.074108 0.24056911 -0.3172248
0001e0 16 86 c8 3d fb 43 ef be 2c 59 4e bb e9 60 a5 bd
       0.097912 -0.46731552 -0.0031486256 -0.08075125
0001f0 47 f3 b5 3d 48 87 a2 be 73 ad 4d 3e 99 a0 51 be
       0.08884292 -0.31743836 0.20085697 -0.2047142

mps.0.l1.node_block.m.2.bias f4 [8]
000000 01 1c 67 be 14 6f 0f 3e a4 58 6d be 15 1b c3 be
       -0.22569276 0.14007217 -0.23178345 -0.381066
000010 21 e7 91 be 70 d6 13 3f 15 b5 ae 3c 0f e3 44 bc
       -0.2849665 0.5774908 0.021326581 -0.012017026

mps.0.l2.edge_block.m.0.weight f4 [16, 17]
000000 00 8a a5 3d 4a b3 13 be 15 ef 10 be 06 e7 f4 39
       0.08082962 -0.14423862 -0.14153703 0.00046711433
000010 cf a8 82 be 0c 29 44 be 2b a8 69 bc 75 18 ca 3d
       -0.25519416 -0.19156283 -0.014261286 0.09867946
000020 f4 60 37 3e 56 0d 53 3e 62 8f 40 be 78 58 cf bd
       0.17908078 0.20610556 -0.18804696 -0.10124296
000030 e4 4d 01 3e b1 ea e1 3c dd 27 e4 3c 11 fd 20 bd
       0.12627369 0.02757773 0.02785104 -0.039303843
000040 23 2f f7 bd b7 ad 72 bd 98 50 4d 3e ce 9b 36 be
       -0.120695375 -0.0592477 0.20050275 -0.17832872
000050 c8 ca 5b bd 0e 0c 8c be cc 54 b1 bd 2b 98 39 3d
       -0.053660184 -0.27352947 -0.08658752 0.045311134
000060 e0 10 0c be 6a 52 ad bd e4 23 33 3e 5c 71 08 bf
       -0.13678312 -0.08462985 0.1749416 -0.5329797
000070 c1 28 21 3e a5 4d 87 be 60 7e 96 be ad cb ce 3d
       0.15738203 -0.26426426 -0.2939329 0.10097442
000080 c3 a2 c5 3d 6e 6b 98 bd cd a5 d7 bd 28 57 1d be
       0.09650185 -0.074423656 -0.10529671 -0.15365279
000090 db fe 27 be d8 c4 2f be a0 76 e6 bd 31 42 bb 3b
       -0.16405813 -0.17164934 -0.11253095 0.0057146777
0000a0 94 73 0d be 93 e0 14 3e a1 d2 f4 3d 84 9b 28 be
       -0.13813621 0.14538793 0.11954237 -0.16465575
0000b0 23 7a 20 be 22 e1 cd 3d a3 4b dd bd af 54 8b bd
       -0.15671591 0.10052706 -0.10805442 -0.068032615
0000c0 bf eb 31 bd f5 38 00 3e ed 07 af bd 23 56 39 bd
       -0.043437716 0.12521727 -0.085464336 -0.045248162
0000d0 b9 77 96 3e ca 35 f2 3c 88 e6 9a 3e 51 c0 e4 bc
       0.29388216 0.029566664 0.30254006 -0.027923735
0000e0 0d a4 17 be 6d e2 ed bd d8 2f 22 be 34 31 7a be
       -0.14808674 -0.11615453 -0.15838563 -0.24432832
0000f0 e0 52 23 bd f2 9a d4 bd 7a 74 69 bd 2a 76 4b 3e
       -0.039873958 -0.10381116 -0.056995846 0.19869295
000100 e5 27 15 3e 10 35 93 3d 80 29 d9 3d 04 6f 3b 3e
       0.14566 0.07187855 0.106036186 0.18304068
000110 79 2a 13 be 87 1b 83 bd 99 c8 93 bd 26 0d 1e 3e
       -0.14371671 -0.06401735 -0.07215995 0.15434703
000120 eb fc 58 bd 06 18 03 be 4d d8 8e 3e e3 97 ab bc
       -0.052975576 -0.12802133 0.278994 -0.020946449
000130 6a ae 51 bd b7 8e 03 be 96 f5 b8 be 13 84 7c 3e
       -0.051191725 -0.1284741 -0.36124867 0.24659757
000140 c2 5b 30 be 6e a3 91 be 27 70 25 3e 0c 74 d9 bd
       -0.17222503 -0.28445 0.16156064 -0.10617837
000150 46 ee 86 3d 5b bb e1 bd 4d db 0a be 6f 38 1a be
       0.06588416 -0.11022063 -0.13560219 -0.1506059
000160 6a 49 f1 bd 71 a8 2d 3e 9a 13 86 3e 79 22 9e bd
       -0.11781581 0.16958787 0.2618683 -0.07721419
000170 fd d8 90 3e 52 b4 dc 3d 42 f9 b0 3d 84 43 69 3e
       0.2829055 0.10776581 0.08641292 0.22779661
000180 30 a1 47 3e 3c 60 14 bd 6b 02 71 3e ca 99 81 bc
       0.19495082 -0.03622459 0.23536079 -0.015820403
000190 ca ea 82 bd 84 8b 8b bd e1 ce f1 bd 9d 83 a8 bd
       -0.06392439 -0.0681372 -0.11807037 -0.08228228
0001a0 21 35 e1 bd a0 03 57 bd f5 31 53 bb 0f 52 db bc
       -0.10996462 -0.05249369 -0.0032225822 -0.026772527
0001b0 3a 67 2b 3e 42 3e cf 3d 40 6b 0d 3e aa 73 85 3d
       0.16738597 0.101192966 0.13810444 0.06516202
0001c0 fb b7 ad be be 97 40 3e a0 37 a3 3d 91 41 86 3d
       -0.33929428 0.18807885 0.07969594 0.065554745
0001d0 f5 ab dc bd 55 60 eb bb cf 3a 05 be ad 1b ee bc
       -0.10774986 -0.0071831145 -0.13010715 -0.029065931
0001e0 0e cc e0 3d cf b2 b5 3d e1 d5 48 3e 2e e2 80 bd
       0.1097642 0.08871996 0.19612838 -0.0629314
0001f0 6d 1f a2 3d c4 87 ae 3d 87 d6 27 be c6 79 f9 bd
       0.0791615 0.08521989 -0.1639043 -0.121814296
000200 2f c6 35 be e7 82 39 3e 3a 69 6a be 49 1e 15 be
       -0.17751382 0.18116342 -0.22891703 -0.14562334
000210 1e ff 1c 3e 34 8e 4b 3e f0 df 84 3e fc 5d 46 be
       0.15331694 0.19878465 0.259521 -0.1937179
000220 0a 58 24 be da 04 0f 3e 1f d8 48 3e aa 4e 24 3e
       -0.16049209 0.13966694 0.19613694 0.16045633
000230 af 56 3d 3d 4b e8 5b 3d cb d6 4d 3e 0a 56 24 be
       0.046225246 0.05368833 0.20101468 -0.16048446
000240 9e 89 c3 bd f2 06 1c 3e 92 c5 19 be 5a cd d6 bd
       -0.09547733 0.15237024 -0.15016773 -0.104883865
000250 88 ec 35 3e 98 4e 57 3d 34 2a 98 3d 3f 00 ab bd
       0.17766011 0.052565187 0.074299246 -0.08349656
000260 3c fd 0a bb 9f 9f 1a 3e 4d c5 95 bd 5a f4 a0 bd
       -0.0021208068 0.15099953 -0.07313023 -0.07859106
000270 d9 54 b4 3d 5d ac 61 be 4d c5 2a 3e 63 96 ba bc
       0.08805246 -0.22038408 0.16676827 -0.022776788
000280 ce 12 f3 bd 8d d3 e9 bd 1b 1c a8 bd 87 a2 98 be
       -0.11868821 -0.11417303 -0.08208486 -0.298115
000290 99 14 dd 3d 7e a0 0a bc 23 11 84 be 77 6d 67 bd
       0.10794944 -0.008461116 -0.25794324 -0.05650088
0002a0 77 bd 1b 3e 6c d6 27 3d 5b c7 7d bd 7d 74 0f 3d
       0.15208994 0.040975973 -0.0619577 0.0350232
0002b0 1f 8b 8b bd 59 ce 12 3e c1 64 85 3c d1 4e 6e be
       -0.068136446 0.14336528 0.016283395 -0.23272254
0002c0 03 33 e0 bd d1 b4 16 be e3 c0 03 be 42 2b 39 3e
       -0.1094723 -0.14717413 -0.12866549 0.18082908
0002d0 d5 d5 8a bd 37 8f 80 3e 49 5e 0d 3e 5a de 44 be
       -0.067790665 0.25109264 0.13805498 -0.19225445
0002e0 30 06 a3 be a4 8d 86 3c 79 e3 70 bc dc 34 e6 bd
       -0.31840658 0.016424961 -0.014702671 -0.11240551
0002f0 dc 70 36 3e 23 7b 76 be 86 8e d0 3d 19 0a de bc
       0.1781649 -0.2407041 0.10183434 -0.027104424
000300 49 33 99 be 4b 7e 64 3e 1b c6 3c be 63 ac df bd
       -0.2992194 0.22313802 -0.18434946 -0.10921552
000310 12 00 dd bd 4a 87 2f be 72 4c e1 3d 01 40 07 be
       -0.10791029 -0.17141452 0.11000909 -0.1320801
000320 b7 ce 65 3d a7 7a 03 be a3 19 17 3e 06 4a 5f be
       0.05610534 -0.12839757 0.14755873 -0.21805581
000330 31 bb c4 bd b3 3f 59 bd ea 1c d4 3d ef df cb 3d
       -0.096060164 -0.053039264 0.103570774 0.09954821
000340 80 52 55 be 15 08 e4 bd 03 63 17 3e 46 d1 1a 3e
       -0.20832253 -0.11134354 0.14783864 0.15118894
000350 08 21 db 3d b4 9c ab 3d 1a 14 cb bd eb fa 5e 3d
       0.106996596 0.08379498 -0.099159434 0.054438513
000360 16 bd 43 3d 34 1e 9d bd 86 ef 86 3e 79 de 0f 3e
       0.04778775 -0.076717764 0.26354617 0.1404971
000370 3b 05 66 3e d7 b0 23 be 17 bb 37 bd b0 cb 5f be
       0.22462933 -0.15985428 -0.044856157 -0.21855044
000380 6c 2b fb 3c 2b ca c6 3c 44 8a 1b be e7 15 cd 3d
       0.030660354 0.024266323 -0.15189463 0.10013943
000390 88 6e 20 be cf eb c0 3d 41 f8 9a 3d cd 5b d7 be
       -0.15667164 0.09419977 0.07566882 -0.42062226
0003a0 77 19 d9 bd ff 94 81 be 7e a9 b9 3d 30 9a 1d be
       -0.1060056 -0.25308987 0.09065531 -0.15390849
0003b0 44 8b 11 be 6e a2 9c 3c e1 34 9d be db 46 97 3e
       -0.14213282 0.019120421 -0.30704406 0.29546246
0003c0 8a 81 51 be b0 41 ee bc 2c 9a 23 be e4 d4 90 bd
       -0.20459571 -0.029084057 -0.1597678 -0.07071856
0003d0 9a fd 25 be 85 71 89 be 51 ca 48 bc be 80 d5 bd
       -0.16210023 -0.2684442 -0.012255267 -0.10424946
0003e0 33 ee bb 3e ed b1 1e be 0a 53 9e 3d 0a 32 b8 bc
       0.3670517 -0.15497561 0.07730682 -0.022484798
0003f0 26 0d 91 3d 67 77 0b 3e 1d 82 1b 3e 1e 5b 41 3e
       0.07082586 0.13619767 0.15186353 0.18882415

mps.0.l2.edge_block.m.0.bias f4 [16]
000000 d1 9e a1 3c bc 14 24 be 1a 30 16 be 3d a4 35 3e
       0.01972905 -0.16023535 -0.14666787 0.17738433
000010 f2 88 0c be ba a1 8d 3e ce f8 f4 bd 88 c8 5b 3e
       -0.13724115 0.2766245 -0.11961518 0.21463215
000020 be c4 11 3e 5f d7 a0 bd 97 04 74 3e 0c e1 84 3d
       0.14235207 -0.07853579 0.23829876 0.06488237
000030 ab 4c 3b 3e 24 dd 1b 3e 94 23 e3 3b ea 38 79 be
       0.18290965 0.15221077 0.0069317315 -0.24338117

mps.0.l2.edge_block.m.2.weight f4 [1, 16]
000000 98 6f 70 3c c6 17 c5 3d 44 df 28 bc 69 ca 13 be
       0.0146750435 0.09623675 -0.010307137 -0.14432682
000010 37 3d 25 3d 51 5a 50 3e 13 70 f0 3b e2 ce 08 be
       0.040341582 0.20346953 0.007337579 -0.1336017
000020 0b a1 98 bd 33 e6 e0 3c 7f 88 69 be b6 b1 4b 3e
       -0.074525915 0.027453518 -0.22805975 0.1989201
000030 b3 6d d2 3d 24 ed 5b 3e d9 36 67 be e4 e9 cd bc
       0.1027483 0.2147718 -0.22579516 -0.025135942

mps.0.l2.node_block.m.0.weight f4 [16, 9]
000000 60 d7 99 be 29 31 e9 3d ad 3b b3 bd db 2b ef bd
       -0.3004713 0.1138633 -0.087516166 -0.11678287
000010 ee 10 9d be 78 1d 57 3e b9 97 84 3e 62 33 78 3d
       -0.3067698 0.21007335 0.25897005 0.060595877
000020 e1 80 4b 3e 6a d2 c9 bd cb 76 b2 bd fe 99 f9 3d
       0.19873382 -0.098545864 -0.08714064 0.12187575
000030 2a 2f a1 bd 9a cd b1 bd 56 2c 6e be 4d a7 ec 3d
       -0.07870324 -0.086817935 -0.232591 0.115553476
000040 10 0c 1a be a2 6d 60 3d c7 2e 9d 3e 7e e7 c7 bd
       -0.15043664 0.054792054 0.3069975 -0.097609505
000050 ec 39 52 be 44 84 11 3e b1 f4 77 be 7f b6 a2 bd
       -0.20529908 0.14210612 -0.24214436 -0.079449646
000060 13 a8 a9 3e 49 d7 df bd 5e e8 04 be 60 6f 35 be
       0.33136043 -0.10929734 -0.12979266 -0.17718267
000070 0d 4a 7f bd ce a3 24 be d0 9e 0e be 98 e6 df 3d
       -0.06232648 -0.16078112 -0.1392777 0.10932654
000080 e0 1f 00 3d 23 32 c2 bd bb a1 83 be 4f 16 03 be
       0.0312804 -0.09482219 -0.25709328 -0.12801479
000090 a5 d4 f8 be b1 51 07 3e 8d 26 bc bc b7 b9 1f 3e
       -0.48599735 0.13214757 -0.022967601 0.15598188
0000a0 18 79 28 3d db ac d3 bc 10 7b 08 bf 7f 0f 50 be
       0.04113111 -0.02583926 -0.5331278 -0.20318411
0000b0 58 12 ef be 90 8f ea be 91 09 3a 3f fd 5d 30 be
       -0.46693683 -0.45812654 0.7267085 -0.17223354
0000c0 8b a5 56 3f 6c 79 69 be de 4a 70 bf 55 25 c7 be
       0.8384635 -0.22800225 -0.9386424 -0.3889567
0000d0 16 f0 86 bd 08 0a 98 be ea 33 68 be 10 8d fa bb
       -0.065887615 -0.29695153 -0.22676054 -0.0076462105
0000e0 f4 0a 6a be d1 6c 94 bd ae 65 a2 bd f0 86 89 3e
       -0.22855741 -0.072473176 -0.0792955 0.26860762
0000f0 ac 16 c4 3d f1 48 34 bd c5 1e 5a 3d 1a 95 01 be
       0.09574637 -0.044014875 0.053252 -0.12654534
000100 64 6a 22 3e b0 5f 9a 3d 1a ff 8f 3d 1f c9 21 be
       0.15860897 0.07537782 0.07031079 -0.15799378
000110 44 9d 57 3e 85 0a 82 bc ec c1 13 be f3 42 46 3e
       0.21056086 -0.015874157 -0.14429444 0.19361477
000120 aa c2 63 3e 13 b4 a5 3e bd 02 8b 3d 53 0b a7 bd
       0.22242227 0.32363948 0.06787632 -0.08156457
000130 fe 0f 06 3e 19 e9 77 3e ef 91 87 be 9c 56 89 bd
       0.13092038 0.24210013 -0.26478526 -0.067059726
000140 b4 47 ad be f3 2f 01 ba 66 20 20 3e 8f e2 bc bd
       -0.33843768 -0.00049281045 0.15637359 -0.092229
000150 49 fc 09 3b f3 cf d4 3d e9 99 a2 bd 11 ca 67 be
       0.0021054915 0.10391226 -0.07939512 -0.22635676
000160 bc 05 56 3e 70 c5 54 be 01 fd b2 bd 7b 7f 58 3d
       0.20900625 -0.20778441 -0.08739663 0.05285595
000170 02 f2 14 bd 8f c1 8f be c8 6b c2 3d b4 75 16 be
       -0.03636361 -0.2807736 0.09493214 -0.14693338
000180 29 d8 08 be ec 10 03 3d dd 58 05 be 6f 0b f7 bd
       -0.13363709 0.03199856 -0.1302218 -0.12062728
000190 cb 14 7f bd eb a0 22 be a5 11 d6 bd eb 5c 0e be
       -0.06227569 -0.15881698 -0.10452584 -0.13902633
0001a0 7f ca 56 3d 09 7c 4d be 3a d6 62 be 7a 2a e3 bc
       0.05243921 -0.20066847 -0.22152033 -0.027730215
0001b0 5e 22 dd bc 2f cd 47 3e 4c c7 5b be fd 17 a4 3d
       -0.026993927 0.19511865 -0.21462744 0.08012388
0001c0 3b d0 42 3e 0e 8e 2f 3e 04 e7 96 be e5 02 2a be
       0.19024746 0.17144033 -0.29473126 -0.16602667
0001d0 27 6a 95 be c8 33 47 be e4 24 3f 3e 4c de 87 bd
       -0.2918255 -0.19453347 0.18666416 -0.06634197
0001e0 88 0f 17 3e 7c c2 1a be 55 4f cb 3c eb 1f 42 be
       0.14752018 -0.15113252 0.024818102 -0.18957488
0001f0 95 98 05 3e d8 c9 41 be 5e 8d 15 be c9 02 59 be
       0.13046487 -0.18924654 -0.14604709 -0.21192469
000200 9f a7 9e bc 1e 78 96 3e 25 3b 19 3e 42 5f 2b be
       -0.019367037 0.29388517 0.14963968 -0.16735557
000210 13 14 10 3d 22 2f 0e be 67 6c 04 bf f1 e6 36 3e
       0.035175394 -0.13885167 -0.5172791 0.17861535
000220 e6 bd b7 3d 55 82 e6 3b 89 9d 98 bd 6a 0f 62 be
       0.08971767 0.0070345798 -0.074519224 -0.22076192
000230 a5 c0 30 bb d2 cf d0 3d f1 84 02 bc 0e 95 4a be
       -0.0026970294 0.101958886 -0.007966266 -0.19783422

mps.0.l2.node_block.m.0.bias f4 [16]
000000 ec c7 0a 3f 4e 73 54 bd fc ed cb be fc f9 fe 3d
       0.54211307 -0.051867776 -0.39830005 0.124500245
000010 ea b2 0c 3f 9d 98 05 3e 83 69 79 be 0f d6 8f be
       0.549605 0.13046499 -0.24356656 -0.28093
000020 01 51 16 3e 7b 5f 33 3d ac 67 f2 be 41 3e 92 3e
       0.14679338 0.04379223 -0.4734472 0.2856312
000030 d2 83 22 3f 06 75 dc 3e b3 f3 df 3c d5 bc 90 3e
       0.6348239 0.43058032 0.027337885 0.28269067

mps.0.l2.node_block.m.2.weight f4 [8, 16]
000000 4b 7e 01 be 21 60 0b 3e 49 0d 4e 3d fa 2d 39 3e
       -0.12645833 0.13610889 0.05030564 0.18083945
000010 92 da aa 3e cd 0d 29 3f ba 28 e3 3c fb 6a ce 3d
       0.3336988 0.66036683 0.02772938 0.10078999
000020 3f 6a 64 bd 45 a2 9c 3d b0 1e 45 bd 06 20 21 bc
       -0.055765387 0.07648138 -0.04812497 -0.009834295
000030 19 db 83 be 97 c5 82 bc a4 32 b9 be 4d eb 6a bd
       -0.25753096 -0.015963359 -0.36171448 -0.057353307
000040 39 f3 f1 bd 3b 00 52 be a8 10 3b be e9 ae 13 3e
       -0.11813969 -0.205079 -0.18268073 0.14422192
000050 8d 87 2b 3e 5a 15 f3 bd bd 77 c7 bd 4a 16 80 be
       0.16750927 -0.11869307 -0.09739635 -0.25017005
000060 3c cb 3c 3d 57 dc 3b 3d 63 48 56 be 53 b2 b5 3d
       0.046092257 0.04586443 -0.20926051 0.08871903
000070 5f 40 bd 3e 80 39 38 3b 56 a8 e4 3c 3f f4 14 3e
       0.36963174 0.0028110445 0.0279123 0.14546297
000080 8b b9 ad 3d 55 bd 1a 3e 62 0d bd 3d ae 2f 02 3e
       0.08482655 0.15111287 0.09231068 0.12713501
000090 a0 c4 a6 be 3e a1 8c 3e 30 1d c6 bd 47 d8 d6 3d
       -0.32571888 0.27466768 -0.09673536 0.104904704
0000a0 60 0d 44 3d 37 9b ed 3c e8 c2 de bc ed 90 d4 3d
       0.047864318 0.029004676 -0.027192548 0.10379205
0000b0 6a c4 37 be ec a1 68 be 90 cc 00 be 9b 48 20 3e
       -0.1794602 -0.22718018 -0.12578034 0.15652697
0000c0 6f e2 14 bd c6 2f 93 3d 33 79 a3 be 6b 9d 2e 3e
       -0.036348756 0.071868464 -0.31928405 0.17052238
0000d0 17 68 0f 3f 27 29 26 3f 57 66 d3 bd 88 df 11 be
       0.56018203 0.64906543 -0.10322254 -0.14245427
0000e0 1b bf dd 3b 00 d1 5a be 81 bf 2e 3e 65 b6 58 be
       0.0067671663 -0.2136879 0.1706524 -0.21163328
0000f0 c8 d4 28 3e df f8 8f 3e 73 cf 32 3e 69 b5 95 3d
       0.1648742 0.2811956 0.17461948 0.07309992
000100 00 33 27 be ce bd 60 3e f5 9b ce 3c 31 d7 59 be
       -0.16328049 0.21947405 0.02522085 -0.21273495
000110 97 bc 73 be 26 46 12 bf 4e cd 72 3c 97 44 57 3e
       -0.2380241 -0.5713829 0.014819456 0.21022259
000120 62 5f 1c be 9e cf 96 bd 99 49 86 3d 49 8d 09 bd
       -0.1527076 -0.073638186 0.065570064 -0.033582006
000130 87 de 95 3b 2d 00 8c be 8f e4 e8 bd 98 47 65 bd
       0.0045736465 -0.27343884 -0.11371719 -0.05597648
000140 fb e4 bb bd f9 e8 55 be bc e8 6a 3e 00 02 30 3d
       -0.09174534 -0.20889653 0.22940344 0.042970657
000150 66 bf bc bd 9c bb 01 3c 1c c1 98 3d 54 13 9f 3d
       -0.09216194 0.007918265 0.07458708 0.077673584
000160 69 2e 1e be 66 7b 1b bc b6 df 20 3e 1e 4f 26 3e
       -0.15447392 -0.00948987 0.15710339 0.16241118
000170 34 4b 67 be 23 f1 3c 3e 88 82 28 be 0d 5a e7 3d
       -0.22587281 0.18451361 -0.16456044 0.11296473
000180 89 32 24 3e f0 4d 47 3e 1d b0 8a be 8f 89 46 3e
       0.16034903 0.19463325 -0.2708749 0.19388412
000190 6a b0 b1 3d 13 a5 96 3e 76 9d 1d be 3f 80 a2 bd
       0.086762264 0.29422817 -0.15392098 -0.07934617
0001a0 bb f4 c7 3b bc 9a 85 bd a6 61 a4 3b ac 6e 8b 3c
       0.006102172 -0.06523654 0.0050165234 0.017020546
0001b0 ca a0 dc 3e bd b6 33 3e 27 77 9f 3e 6e 51 47 3d
       0.43091422 0.17550178 0.31145594 0.04866164
0001c0 e6 76 06 3e b4 38 2d bc 40 1a 2d bc 3f 89 c8 3c
       0.13131294 -0.010572601 -0.0105653405 0.024479507
0001d0 22 58 21 bf 47 d2 c0 be d5 de 84 3c 84 66 be bd
       -0.63025105 -0.3766043 0.016219536 -0.09296897
0001e0 10 1e a9 3c dd ce 6f bd 14 52 2e 3d 12 12 f6 3d
       0.020644218 -0.05854689 0.042558745 0.120151654
0001f0 aa 9b aa bd bf a3 39 3e f3 62 a0 3e f2 3c 56 be
       -0.08330472 0.1812887 0.31325492 -0.20921686

mps.0.l2.node_block.m.2.bias f4 [8]
000000 ea 1d e0 be e4 69 a2 3d 2d 75 93 3d 0c 08 b1 3d
       -0.43772823 0.07930353 0.07200084 0.08644113
000010 a4 67 d2 bd 5f dd 20 be 6b 3e 14 be 92 cd 8d 3e
       -0.10273674 -0.15709446 -0.14476936 0.276959

mps.1.l1.edge_block.m.0.weight f4 [16, 18]
000000 b9 6b 2b bd ef 35 7c 3e 7e 1b d6 bd 2a 63 00 be
       -0.04185078 0.24629949 -0.104544625 -0.12537828
000010 7d d0 a5 3d 46 c7 fd 38 e0 ad 19 3e b1 96 f2 3d
       0.080964066 0.00012101098 0.15007734 0.11845148
000020 5e 12 52 3e 18 e8 08 be 01 93 fd 3d 68 06 0a 3e
       0.20514819 -0.13369787 0.123815544 0.13479006
000030 85 d4 45 bd 79 54 7d 3e d4 dd b7 3d 2b 30 13 3c
       -0.048298378 0.24739255 0.08977857 0.008983652
000040 57 9b db bc 44 f7 15 bd 88 98 26 be 4a 6c a5 3d
       -0.02680747 -0.036612764 -0.16269124 0.08077295
000050 29 09 2c 3d 78 02 0f be ca 4e ee 3d 80 8b 25 be
       0.042000923 -0.13965786 0.116361216 -0.16166496
000060 a7 7c 1b 3e 73 37 4a 3e d9 6a 1f 3d 73 88 dd bd
       0.1518427 0.19747715 0.038920257 -0.10817041
000070 ce d4 a9 3d cb ba 6c bc d2 97 e0 3d 02 9e f3 3d
       0.082925424 -0.014448832 0.109664574 0.11895372
000080 c4 c9 93 3d 7a e3 a3 bd 7c 47 02 be 11 d5 33 3d
       0.07216218 -0.08002372 -0.12722582 0.043904368
000090 3e 6d 18 3d 10 f9 23 3e 13 4f 9e bd e2 f5 e3 3b
       0.037213556 0.16012979 -0.07729926 0.0069568017
0000a0 1d d6 f7 bb 3f 6a c3 bd 4e 13 39 3e 8c 3c be 3c
       -0.007563366 -0.09541749 0.1807377 0.02322223
0000b0 fa 86 8f be 95 84 19 bc 5f 45 e9 bd af 28 f0 ba
       -0.28032666 -0.009369989 -0.113901846 -0.0018322672
0000c0 9b fe 35 bd 57 00 93 be 09 8e c2 bc 86 66 a4 3c
       -0.044432264 -0.28711197 -0.023749368 0.020068418
0000d0 15 77 c7 bb c0 ed 1e 3f f8 06 0e be ad 09 00 3e
       -0.0060871937 0.6208153 -0.13869846 0.12503691
0000e0 71 68 11 3e 7d 7c 69 be de 31 e4 3b 0b ec 09 3e
       0.14199997 -0.22801395 0.0069639524 0.1346895
0000f0 37 6d 0d be 77 18 3c bd e2 8f 59 bd 01 17 70 3e
       -0.13811193 -0.04592177 -0.053115733 0.23446275
000100 8c fd 0c be a0 90 3a bc 71 b9 0d bd f6 97 92 be
       -0.13768595 -0.01138702 -0.03460068 -0.28631562
000110 e6 be 94 bc 29 75 86 3e 57 07 32 bb ec 7f 27 3f
       -0.018157434 0.2626126 -0.002716502 0.6542957
000120 77 9f 9c be f5 1a 22 be a3 18 e8 3e 15 8f 0e be
       -0.30590412 -0.15830596 0.45331296 -0.13921769
000130 5a a4 94 3e bb 1a 29 3e 61 ca 8c be f1 3e a1 3d
       0.2903164 0.16514103 -0.27498153 0.07873333
000140 8d 94 e1 3e f8 1c 91 3e 06 42 be be e5 c9 3b 3f
       0.44058648 0.28342414 -0.37159747 0.7335494
000150 2f 07 d6 be bc d6 a0 be 4a 68 08 3f 7f 30 43 be
       -0.41802356 -0.3141383 0.5328413 -0.19061469
000160 0e b9 a1 bd 47 56 2f bf 4e bc 91 3e f9 66 38 bd
       -0.078966245 -0.68491024 0.28463978 -0.045020077
000170 9f 2c 13 3e 79 8a 51 3e 91 29 55 be 1f 57 1c be
       0.1437249 0.2046298 -0.20816638 -0.15267609
000180 b5 f3 22 3d f9 3b a6 3d c0 9d ca bd b2 b9 58 3d
       0.0397832 0.081169076 -0.0989337 0.052911468
000190 02 13 99 bc 07 c7 05 3d ce 26 a9 bd d1 02 0c 3e
       -0.018685821 0.03266051 -0.082593545 0.1367295
0001a0 b6 ed d8 3d 7a e1 0d be d4 25 78 be d5 35 31 3d
       0.10592215 -0.13855544 -0.2423318 0.04326423
0001b0 31 d9 69 bc 2b ed 9e 3e 28 aa ae 3d 77 58 28 bc
       -0.014272974 0.3104032 0.085285485 -0.010274998
0001c0 f5 ad 24 3e 3c ac 44 be e9 9f 33 bc 3a 2f ab 3d
       0.16081984 -0.19206327 -0.0109634185 0.08358617
0001d0 16 12 c4 be 33 6d 24 3e 32 fd 69 be 88 bf 8c bc
       -0.38295048 0.16057281 -0.22850493 -0.017181173
0001e0 fb f0 0f bd 59 40 37 be e3 58 bd bd 0d 8c bf bd
       -0.035141926 -0.1789564 -0.092454694 -0.093528844
0001f0 54 7b 77 bb 5b 95 f4 3e bb 60 7c be dc ff ae 3d
       -0.0037762718 0.477702 -0.24646275 0.08544895
000200 a5 5f 06 be 67 80 16 bc 62 7c 68 3e 80 8d 6e 3e
       -0.13122423 -0.009185887 0.22703698 0.23296165
000210 cf 8d 96 be 9f 9f 2c 3e 5e 27 67 3d 3c 14 0d 3d
       -0.29405066 0.16857766 0.056434028 0.034443125
000220 89 be 36 3e ee cb a0 bd ab 1d 80 bd 0c 51 13 be
       0.17846121 -0.078513965 -0.06255659 -0.14386386
000230 06 09 cc 3c c4 f4 02 3e 8c 00 41 be 72 4c 27 bd
       0.024906646 0.12788683 -0.18847865 -0.04084439
000240 c2 7f 2b be 4d 61 3a 3c 87 94 da bd e9 43 a2 bd
       -0.16747954 0.011375737 -0.106728606 -0.07923109
000250 67 b0 93 bd f4 9c 12 be 3d 55 00 3e c4 7f ad 3d
       -0.072113805 -0.14317685 0.12532516 0.08471635
000260 d6 5f 0e bd c5 9a db bc ba e6 dd bd ed 77 97 3d
       -0.034759365 -0.026807198 -0.10835023 0.07395921
000270 94 08 82 3c e0 50 0b be 8b da 05 be 09 91 29 3e
       0.015873231 -0.1360507 -0.13071649 0.16559233
000280 fd d5 8d be 2f 45 4f 3e d6 8f f7 3d 43 ae 1b be
       -0.27702323 0.20241235 0.120879814 -0.15203194
000290 92 7e 20 be bf 86 0d be 16 43 32 3e e5 6f 2c 3e
       -0.15673283 -0.13820933 0.17408404 0.1683956
0002a0 f3 77 0d bd 77 aa 49 3e f2 92 3b bd 8b 46 2d be
       -0.03453822 0.19693933 -0.045794435 -0.16921441
0002b0 22 a4 6a 3d 9d ec c6 3d ca 03 61 3e ed ed 4b 3a
       0.057285435 0.09713099 0.21974102 0.0007779289
0002c0 92 90 df 3d d6 52 ea 3d 65 dc ae 3c 65 9f 72 3e
       0.109162465 0.11441581 0.021345327 0.23693617
0002d0 be dd 71 3e 3b cd 16 be e4 45 33 3e b0 a2 1d 3d
       0.23619744 -0.14726727 0.1750713 0.03848523
0002e0 82 7c 52 be ce 69 4a 3d 62 b4 5d bd bc f3 6c be
       -0.20555308 0.04941731 -0.054127105 -0.23139852
0002f0 96 a0 0c bd ad 7e ae 3d 82 a7 e0 3d 0d 93 a1 3b
       -0.034332834 0.08520255 0.109694496 0.00493086
000300 2b d8 cb 3d 77 af 53 bc f0 40 b7 3c 01 0b a0 ba
       0.0995334 -0.012920252 0.022369832 -0.0012210311
000310 62 24 59 be 24 a3 26 bd ea ef 03 39 d7 c5 31 be
       -0.21205285 -0.040682927 0.00012582508 -0.17360626
000320 26 79 d8 bd c1 2f 73 3d 22 a6 24 be 2f ff ac bd
       -0.10569982 0.059371714 -0.16079 -0.0844711
000330 3a b5 f1 bc 2c 73 72 bd cf 0e 20 be 80 99 35 3d
       -0.02950536 -0.059191868 -0.15630649 0.044335842
000340 08 20 7d bd 59 7a 32 3d 2c f3 25 3d 52 a2 df bd
       -0.061798126 0.04357371 0.04051511 -0.10919632
000350 75 b1 de bd 98 62 b6 3c c4 9d a3 be 39 81 e1 bc
       -0.10873691 0.02226381 -0.31956303 -0.027527438
000360 21 d2 2c 3c e9 e6 b0 3d 33 4c b2 3d c1 06 62 3e
       0.0105481455 0.086377926 0.0870594 0.22072889
000370 f5 72 d4 bd 30 a6 88 be ae 11 42 3e 40 34 2c be
       -0.10373489 -0.2668929 0.18952057 -0.16816807
000380 ba 6a 44 bd 7d e7 26 bc cd bb f2 bd 36 90 6f 3b
       -0.047953345 -0.010187027 -0.118522264 0.0036554462
000390 d8 73 17 3e 16 f4 33 3c c0 1a f6 3d 04 2f 3d 3e
       0.14790285 0.010983488 0.12016821 0.18474966
0003a0 75 4b 07 bf ef c7 f0 3d b1 93 1c 3e 93 1a 40 3e
       -0.52849513 0.11756884 0.15290715 0.18760137
0003b0 ca 89 77 be b8 46 60 3d bc 82 d6 bd 84 5a 51 bd
       -0.24173656 0.054754943 -0.10474154 -0.051111713
0003c0 12 5e 4b bd a4 ea 31 be 74 49 5e be 5e b2 b3 bd
       -0.04965026 -0.17374665 -0.21707708 -0.08774255
0003d0 a9 9b 01 3d b0 af ac 3d b0 50 21 be 8e 90 02 be
       0.03164259 0.08431947 -0.15753436 -0.12750456
0003e0 12 c3 30 bc 3d 99 3d be ce 28 48 3d 03 04 df be
       -0.010788696 -0.18515487 0.04886704 -0.43557748
0003f0 cf 25 9e 3d 39 93 c2 bd ed c6 15 3c d5 fc ef 3d
       0.07722055 -0.09500737 0.009141666 0.11718146

mps.1.l1.edge_block.m.0.bias f4 [16]
000000 10 e8 62 3e 4a 7c b2 3d c2 69 d7 3e c0 7b eb 3d
       0.22158837 0.087151125 0.42072874 0.11498213
000010 14 c7 dd be 58 cb a3 3e ac 1c 32 3e 54 ae 76 3e
       -0.43315947 0.31991076 0.1739375 0.24089938
000020 7b 0e 37 3f e5 dd 0b 3f 16 98 3d 3f b0 06 18 3f
       0.7150647 0.5463546 0.7406019 0.59385204
000030 24 6c 30 3f 54 95 3c be 30 6f 91 3e 1f 3f 9b 3e
       0.6891501 -0.18416339 0.28405142 0.30321595

mps.1.l1.edge_block.m.2.weight f4 [1, 16]
000000 98 3f b3 3c 8b 37 08 3c 58 53 66 3e 81 00 8e 3d
       0.02188091 0.008314024 0.2249273 0.0693369
000010 c0 fa 21 bf f9 01 43 3e 7c a0 d2 3e 1e bd 05 3f
       -0.6327324 0.19043721 0.41138065 0.52241695
000020 6c 67 29 3e df 93 26 3d 27 16 36 3e d7 47 54 3e
       0.16543359 0.040668365 0.17781888 0.2073053
000030 2c 89 dd 3e a4 ba 0d bd 9c 2a e7 3d bb 28 e4 3e
       0.43268716 -0.034601822 0.11287424 0.44562325

mps.1.l1.node_block.m.0.weight f4 [16, 9]
000000 eb e6 1f 3e 01 1f 87 3d ff fb fb bd f0 b9 37 bc
       0.15615432 0.065977104 -0.12303924 -0.011213765
000010 d7 64 1c 3c 9e 58 0b bc e3 fa 7f bc 12 d5 ae 3e
       0.0095455265 -0.008505015 -0.015623781 0.34146935
000020 3d 04 88 3e f7 08 35 be 01 2e 47 3d 3f 5b af bd
       0.26565734 -0.17679201 0.048627857 -0.08562326
000030 80 99 e9 bd 5b 41 01 bc cf 8e a4 bd bb 18 4b bd
       -0.11406231 -0.007889117 -0.08035051 -0.04958413
000040 f8 f5 fa bd da 3f 3b be d2 69 37 3e 4c 4b 11 3e
       -0.12253946 -0.18286076 0.17911461 0.1418888
000050 95 9c 84 3e 06 2f ec 3d c0 e2 c4 3c cc 2b fa 3d
       0.25900713 0.115324065 0.024033904 0.12215385
000060 7e ae d7 3d 51 4b 1d be d5 cf 1e be 80 35 dc bd
       0.105313286 -0.15360762 -0.15508969 -0.10752392
000070 c8 3d 9e bb 7e f9 f2 3d 7a c9 b8 3d 64 db 66 3e
       -0.0048291422 0.11863993 0.090228036 0.22544628
000080 8e fb d4 3d 96 82 eb bd cd 87 50 be 38 ba 76 be
       0.10399543 -0.11499517 -0.20364304 -0.24094474
000090 46 1c 60 be 42 80 af 3d e0 20 30 3e 7a 01 95 3e
       -0.21885785 0.08569385 0.17200041 0.2910269
0000a0 b4 ba e1 bd 8e dd 5c 3c bc 8b fb bd ce 0e b4 3c
       -0.11021939 0.013480557 -0.122825116 0.021979716
0000b0 14 c8 33 3e 35 17 c1 bc 90 31 82 3d 47 e6 c1 3a
       0.17556792 -0.023570636 0.063571095 0.001479336
0000c0 46 27 95 3d 63 ee 59 bd 2b eb 10 be dc e1 82 3d
       0.072828814 -0.05320586 -0.1415221 0.063907355
0000d0 b8 1d a1 bb a2 8a 97 be b4 de 6c 3d c0 e4 53 3d
       -0.004916873 -0.29597956 0.057829574 0.051731825
0000e0 1c 61 8b bd a8 29 03 be a0 3a 50 bd 14 40 85 be
       -0.068056315 -0.1280886 -0.05083716 -0.2602545
0000f0 00 89 d1 3b ac 17 28 3d 9f bf 5f 3e 39 d1 b3 3d
       0.0063945055 0.0410382 0.21850441 0.087801404
000100 85 e8 7e 3d 43 6c c4 3d d2 de 89 3e 51 50 37 be
       0.062233467 0.09590962 0.2692781 -0.17901732
000110 b4 d8 f0 3d ed 49 bc 3d 79 a5 58 be e8 ed 14 3e
       0.11760083 0.09193788 -0.21156873 0.14543879
000120 60 84 28 be 51 73 60 bd 7a 91 4c be f1 95 29 be
       -0.16456747 -0.054797474 -0.1997737 -0.16561104
000130 01 10 58 3e 36 8d 58 be 99 7f de 3d 1b 77 8a be
       0.21099855 -0.21147618 0.10864181 -0.27043995
000140 1c 56 8a be 60 dc 04 be 46 97 85 3e bc 0c a6 3c
       -0.2701882 -0.12974691 0.26091975 0.020269744
000150 6d 13 b6 3c a3 fa 99 bb 37 f8 ab 3d 1b be 8d bc
       0.02222606 -0.0046990677 0.083969526 -0.017302563
000160 ae 7b 85 3e a9 f1 18 3d 84 4f 4f be e5 52 83 3e
       0.26070923 0.03733984 -0.20245177 0.2564918
000170 7b c5 5d be 4e f8 a7 bd fd 39 46 ba 50 b5 b1 3e
       -0.21657364 -0.08201657 -0.00075617415 0.34708643
000180 b1 7a ac bd 71 b1 8a be 02 50 e3 3c 74 ee 00 3e
       -0.08421839 -0.27088502 0.027748112 0.12590963
000190 04 3a 39 3e 9a f3 5c 3e 54 28 a0 bc 12 c1 ea 3d
       0.18088537 0.21577302 -0.01955048 0.114626065
0001a0 b9 50 87 be 3f ae ed 3d 3e ae 36 3e 89 cd 66 3e
       -0.26428774 0.116055004 0.17839906 0.22539343
0001b0 3b 1c e1 bd 8d 83 ba bc a9 2e aa 3c 7a 97 17 be
       -0.10991713 -0.022767806 0.020774202 -0.14803877
0001c0 4f 09 6d be 1d ed 62 be a3 e2 08 3c 2d d8 28 3e
       -0.23148082 -0.22160764 0.008354816 0.16488715
0001d0 ae 9d fd 3d f4 74 1e 3d 00 ed 14 3e 55 0c 30 be
       0.12383591 0.038685754 0.14543533 -0.17192204
0001e0 d3 38 95 3d a6 00 cc bd 73 f8 41 be dd 29 93 3e
       0.07286229 -0.09961061 -0.18942432 0.28742877
0001f0 30 30 79 be 72 d3 49 3e 70 cb 77 be 47 2a 50 3d
       -0.24334788 0.19709566 -0.24198699 0.05082157
000200 53 63 48 be 6d 46 39 3d 9e 60 16 be e2 50 23 3e
       -0.19569139 0.04523318 -0.14685294 0.15948823
000210 84 cf 68 be 50 35 2c 3e f8 b2 b4 be 66 75 4d 3e
       -0.22735411 0.16817212 -0.35292792 0.20064315
000220 32 11 ca bd 76 ee 8a 3b a6 43 7e bd c3 59 51 3e
       -0.09866561 0.0042398525 -0.062076233 0.20444398
000230 4d 93 13 3d e0 91 88 be 0e 61 59 bc cb 96 9e be
       0.03602915 -0.26673794 -0.013267769 -0.3097442

mps.1.l1.node_block.m.0.bias f4 [16]
000000 03 78 27 3f 91 80 06 3f 47 10 82 bc 14 d6 e2 3d
       0.654175 0.52539927 -0.015876902 0.110759884
000010 6e 2c 57 3f 6b ee 41 be 18 41 12 3f 09 9f b2 bc
       0.8405217 -0.18938605 0.57130575 -0.02180435
000020 22 c9 89 3d 33 af 1f 3f fc 65 95 be cf 9f c2 3e
       0.06727816 0.6237671 -0.2917937 0.3801255
000030 fd 41 5f be a2 9b b9 3d 3a 08 92 be a6 4e 57 3e
       -0.21802516 0.09062888 -0.285219 0.21026096

mps.1.l1.node_block.m.2.weight f4 [8, 16]
000000 b1 6f 10 3e 48 3e 9e 3c 8e 07 ba 3d 8f 5c 89 be
       0.14105107 0.019316807 0.09083472 -0.2682843
000010 c2 dc cd 3d 49 f4 2b be 4b 6d db 3d 65 2f 89 bd
       0.10051872 -0.16792406 0.10714205 -0.06698493
000020 d6 90 e8 bd 39 c1 2b 3e 99 47 f0 3e 41 54 f6 bd
       -0.1135575 0.16772927 0.46929625 -0.12027789
000030 8c 4b d9 bd 6a 61 53 3e 40 97 11 3d 30 c9 ad bd
       -0.106101125 0.2064263 0.035544634 -0.08485639
000040 61 88 ee be 41 33 5d be fe 7a a0 3d b6 de 5c 3e
       -0.46588424 -0.21601583 0.07835959 0.21569332
000050 7f 1c 8a be a2 24 67 3e 9f 1f c2 bc 4f 0a 61 3e
       -0.26974866 0.22572568 -0.023696719 0.21976589
000060 f5 53 6c bd bc d8 79 be 4b 8e 73 bd 4a d9 ea 3d
       -0.057697255 -0.24399084 -0.059461873 0.11467226
000070 34 43 82 3e 3a c8 f0 bd 1c d9 fc 3d 66 46 04 3e
       0.25441897 -0.1175694 0.12346098 0.1291748
000080 99 04 92 bd b2 4c 59 3d e6 e8 16 bd 8c 12 05 3e
       -0.07129783 0.053051658 -0.036843203 0.12995356
000090 c6 c2 37 bd e1 fa 08 bd c3 00 1d 3e dc e8 83 be
       -0.044863485 -0.03344238 0.15332322 -0.25763595
0000a0 66 d4 f5 bd 3e 02 d4 3c 6f fd 89 3e d3 77 2a 3e
       -0.120034024 0.025879975 0.26951167 0.16647272
0000b0 ee 35 30 be 56 c0 0c bd 14 40 25 be 32 66 9a bd
       -0.17208073 -0.034363113 -0.16137725 -0.075390235
0000c0 b9 d2 5b 3e fb 29 93 3c 9a 1a 8a bc 6f a1 7e 3d
       0.21467103 0.017964354 -0.016858388 0.062165674
0000d0 28 e5 b5 bd 8f 6b 99 3d 84 62 29 be 19 d0 5b be
       -0.08881599 0.07491218 -0.16541487 -0.21466102
0000e0 77 f3 2c 3e 7b e7 95 bd f7 c9 38 3e 22 ef da bd
       0.1688975 -0.07319542 0.18045793 -0.10690142
0000f0 eb 69 90 3d e8 96 1a bd 8a 07 73 3e e8 c0 92 3d
       0.07051452 -0.03774157 0.23733345 0.071657
000100 1b 67 ce 3e 41 4b a7 3b d7 ff b5 bc c9 b3 1b 3e
       0.40313038 0.0051054065 -0.02221672 0.15205301
000110 77 0c b1 3e c8 c2 39 be 2d 34 83 3e 46 b3 ef 3d
       0.34579822 -0.1814071 0.25625744 0.117041156
000120 24 90 42 bd 06 fa bd 3e 35 a6 1d be 00 ee 0a 3e
       -0.047500744 0.37104815 -0.15395434 0.13567352
000130 a2 00 68 3e 60 e5 54 be 72 2d 16 be 6c 90 7d be
       0.22656491 -0.20790625 -0.14665774 -0.24762124
000140 56 fa 01 3e 84 d3 08 be a6 ca 59 bd d2 e0 aa 3d
       0.12693152 -0.13361937 -0.053171776 0.08343662
000150 80 e5 5a 3e 35 a9 36 3e 6a 20 3b 3e 05 dd e7 3d
       0.2137661 0.17837985 0.18274084 0.11321453
000160 4c de c9 bd 5f ea 59 3e 4a a2 a1 3d 3b 3a 62 3e
       -0.09856853 0.21280812 0.07892282 0.22092526
000170 bf 62 f4 3c 83 69 94 3e 49 02 27 be a1 b3 a2 bd
       0.029832242 0.2898675 -0.16309465 -0.07944418
000180 92 6a b2 3d 9b d9 47 3e a6 d3 64 bd db 9d 49 be
       0.08711733 0.19516604 -0.055865906 -0.19689123
000190 4e 14 f2 3d 39 64 08 3e 4d 3d cb 3d 83 28 89 3d
       0.11820279 0.13319482 0.099238016 0.0669718
0001a0 30 d9 6e 3d a9 1e 07 be bb 86 09 be 7f c8 e6 3b
       0.058312595 -0.1319529 -0.13430302 0.007042944
0001b0 dc 25 46 be f6 d1 52 be 30 08 5c 3e 9e a5 5d bd
       -0.1935038 -0.20587906 0.21487498 -0.054113023
0001c0 c7 e4 13 be d6 ba 24 bd be e8 23 be f6 a2 1f 3e
       -0.1444274 -0.040217243 -0.16006753 0.15589508
0001d0 31 7f 0b bd 62 78 b4 bd ab 5e 26 be f4 5c 11 3e
       -0.034056846 -0.08812024 -0.1624705 0.14195615
0001e0 8b 2d 55 bd 43 b9 70 3d 6a 5e 30 3d c4 0b 92 bd
       -0.052045386 0.05877043 0.04305879 -0.0713115
0001f0 a4 11 3d 3d 5f a5 92 3e 24 e5 26 be 2b c2 dc ba
       0.0461594 0.28641793 -0.16298348 -0.0016842535

mps.1.l1.node_block.m.2.bias f4 [8]
000000 d4 5d da be a4 36 03 bf 1d 3a 12 3f 05 09 06 3e
       -0.4264971 -0.5125525 0.57119924 0.13089378
000010 c7 ef 1c 3f 2e 53 38 3d b6 0b 25 be 76 77 df be
       0.6130337 0.0450012 -0.16117749 -0.4364583
