archive-july16/warmup_results/FINAL_baseline_sketched/model_epoch23.pt (torch, 44782 bytes, 56 tensors)

mps.0.l1.edge_block.m.0.weight f4 [16, 17]
0	0x3d5609ae	0.052255325
1	0x3e562919	0.20914115
2	0x3d910d7e	0.070826516
3	0x3ecfa567	0.4055588
4	0x3d8c4f63	0.06851079
5	0x3f3e873d	0.7442511
6	0x3e0c06e1	0.13674499
7	0x3e97fbb6	0.29684228
8	0x3e282903	0.16421895
9	0xbdbfde22	-0.0936854
10	0x3ea9a504	0.3313371
11	0x3e7bfe83	0.24608807
12	0x3e9ab270	0.30214262
13	0x3f0c7ebb	0.54880875
14	0x3eb177fc	0.34661853
15	0x3e1ace34	0.15117723
16	0x3f9df881	1.2341462
17	0x3b4ce2d8	0.003126314
18	0xbdd4625b	-0.10370322
19	0x3d58be90	0.05291611
20	0xbdd1a2c7	-0.102361254
21	0xbce4b1a7	-0.027916742
22	0xbdb47aec	-0.08812508
23	0x3e12bf1b	0.14330713
24	0xbe2f6906	-0.17129907
25	0xbddcf018	-0.10787982
26	0xbd8167d5	-0.063186325
27	0xbe07750b	-0.13228242
28	0x3c924ade	0.017857965
29	0xbe5d3608	-0.21602643
30	0x3e480787	0.19534121
31	0xbe3c864a	-0.18410602
32	0x3e2ac75a	0.16677609
33	0x3d1409ad	0.03614204
34	0xbdb91aaf	-0.090382926
35	0x3d819ede	0.0632913
36	0xbd9787c2	-0.073989406
37	0x3d8b93c0	0.068152905
38	0xbd8d03f5	-0.0688552
39	0xbdc85a47	-0.09782844
40	0x3c133f94	0.008987326
41	0xbdec5bbe	-0.11540936
42	0x3d923504	0.07139018
43	0x3dd933eb	0.10605606
44	0x3c847af3	0.016171908
45	0xbe5c03f7	-0.21485887
46	0x3cd71dd4	0.02625934
47	0xbb2d8434	-0.0026476504
48	0x3d78d47b	0.060749512
49	0xbe453d46	-0.19261655
50	0xbe90ff08	-0.28319573
51	0xbdb804fc	-0.08985326
52	0xbe386166	-0.18005905
53	0x3e29091f	0.16507386
54	0x3d3a4c8f	0.04548317
55	0x3d9a42e6	0.07532291
56	0x3d87f768	0.06638986
57	0xbbbbebd0	-0.005734898
58	0x3e2a9661	0.16658928
59	0xbe1ee374	-0.15516454
60	0x3ad3ecf0	0.0016168635
61	0xbe2279cf	-0.15866779
62	0x3d53942e	0.051654987
63	0xbdb42969	-0.08796961
64	0x3d8362e6	0.06415348
65	0xbd40d5ec	-0.04707901
66	0x3e352aad	0.17692061
67	0xbe015091	-0.1262839
68	0xbe26762d	-0.16256018
69	0xbe3ffd42	-0.18748954
70	0x3e0dddde	0.13854167
71	0x3b9134f2	0.0044313604
72	0x3e161c23	0.14659171
73	0xbe42c9d7	-0.19022308
74	0xbe67a51a	-0.22621575
75	0xbe3dee1c	-0.18547863
76	0xbe2f26a6	-0.17104587
77	0x3cfc2af6	0.030782204
78	0x3cbdd472	0.02317259
79	0x3de83bb3	0.11339512
80	0xbe30d8ac	-0.17270154
81	0xbe233519	-0.15938224
82	0x3dd3dbd5	0.10344664
83	0xbdd3eb81	-0.10347653
84	0x3dd3617c	0.10321328
85	0xbd6b90e7	-0.057511237
86	0xbed110e0	-0.40833187
87	0xbf45343b	-0.7703282
88	0xbf5445c2	-0.8291894
89	0xbf09ae62	-0.5378171
90	0xbfc5c038	-1.5449286
91	0xbf475402	-0.7786256
92	0xbf089112	-0.5334636
93	0x3e21509c	0.15753406
94	0xbf302018	-0.6879897
95	0xbf443da1	-0.7665654
96	0xbf08e162	-0.53468907
97	0xbf2f3bc9	-0.684506
98	0xbfa4e5a3	-1.288258
99	0xbf6ec290	-0.9326563
100	0xbf4a31e7	-0.78982395
101	0xbf16d043	-0.5891153
102	0xbdc6adcb	-0.09701117
103	0x3d6aa11e	0.05728256
104	0x3e90edf6	0.2830655
105	0x3e7a471b	0.24441187
106	0x3de99e4e	0.11407147
107	0x3f3fbcce	0.7489747
108	0x3e5d1cad	0.2159297
109	0x3e51cdd2	0.2048867
110	0x3e34cedc	0.17657036
111	0x3e8383b8	0.2568643
112	0x3ec0bfa6	0.37646216
113	0x3e42bde2	0.19017747
114	0x3e28ac95	0.16472085
115	0x3f246c2c	0.6422756
116	0x3ee0f475	0.43936506
117	0x3e1d1330	0.1533935
118	0x3f32dde3	0.6986982
119	0xbe04b659	-0.12960185
120	0x3a1d3cd7	0.00059981406
121	0xbda50a32	-0.08058585
122	0xbc75d4bc	-0.015004333
123	0xbe164829	-0.14675964
124	0xbe184510	-0.14870095
125	0xbe013f10	-0.12621713
126	0xbd97dcd0	-0.074151635
127	0xbe2eeaf3	-0.17081814
128	0x3e39ec90	0.18156648
129	0xbd2ff508	-0.04295829
130	0x3e3eb51b	0.18623774
131	0x3d8a4585	0.06751541
132	0xbe3bab00	-0.1832695
133	0x3e198ce0	0.14995146
134	0xbd7416d5	-0.059592087
135	0xbdaa10b6	-0.083039686
136	0xbe4ac519	-0.1980175
137	0xbe832757	-0.2561595
138	0x3cb8477a	0.02249502
139	0xbdc5ffed	-0.096679546
140	0x3d22dc9c	0.03976117
141	0xbe3d34f0	-0.18477225
142	0x3e1d2b25	0.1534849
143	0xbe2d0978	-0.16898143
144	0xbd4f1ea8	-0.050566345
145	0x3baabe72	0.005210691
146	0x3d967b29	0.0734771
147	0x3e014700	0.1262474
148	0x3e1cf020	0.15325975
149	0xbe3763ad	-0.17909117
150	0x3d41a8de	0.047280185
151	0xbdd3539b	-0.10318681
152	0xbd2701e3	-0.040773284
153	0xbe2640b0	-0.16235614
154	0x3ef9c936	0.48786324
155	0x3e9310dc	0.287238
156	0x3f33e6a1	0.70273787
157	0x3f00e672	0.5035163
158	0x3f8edd78	1.1161337
159	0x3ecbfdd7	0.39842102
160	0x3f20d31b	0.6282212
161	0x3e26fd2f	0.1630752
162	0x3eb02e04	0.34410107
163	0x3e99258f	0.29911467
164	0x3f2e589d	0.68103963
165	0x3ed67eec	0.4189371
166	0x3f4c2b8e	0.7975396
167	0x3f3384ed	0.70124704
168	0x3efa3d48	0.4887488
169	0x3f3870f9	0.7204738
170	0xbda15c2b	-0.07878908
171	0xbf0ee6e9	-0.5582109
172	0xbf07332f	-0.52812475
173	0xbf517ce6	-0.81831205
174	0xbf41df1d	-0.7573107
175	0xbfc3dd68	-1.5301943
176	0xbf65dd96	-0.8979124
177	0xbf1a236c	-0.602103
178	0x3e470be7	0.19438134
179	0xbf451d96	-0.7699827
180	0xbf23a81b	-0.63928384
181	0xbf2ad9dd	-0.66738683
182	0xbf1c7507	-0.6111607
183	0xbfa26c17	-1.2689236
184	0xbf1f80a6	-0.62305677
185	0xbf12eec3	-0.5739557
186	0xbf07e742	-0.53087246
187	0xbd1d591d	-0.038415063
188	0xbd78d526	-0.06075015
189	0x3ca445c4	0.020052798
190	0xbd2ea326	-0.04263606
191	0xbd8c2fd2	-0.068450585
192	0x3e0d289d	0.13785024
193	0x3e3debd5	0.18546994
194	0xbcb5bc32	-0.022184465
195	0xbd4830d2	-0.048874684
196	0xb9911af9	-0.0002767665
197	0xbc835a2e	-0.016034212
198	0x3d43348b	0.04765753
199	0x3d689d88	0.05679086
200	0xbe49ef3d	-0.19720168
201	0xbda4c4bb	-0.08045336
202	0x3e39f975	0.18161567
203	0x3da7d88e	0.081956014
204	0xbc3065ab	-0.010766427
205	0xbe05ac49	-0.13054003
206	0xbe07b16b	-0.13251273
207	0xbe46bbc9	-0.19407572
208	0xbd907281	-0.0705309
209	0x3d95c67c	0.073132485
210	0x3e0d62f8	0.13807285
211	0x3dcca763	0.09992864
212	0xbe440cff	-0.19145583
213	0xbe05522d	-0.13019629
214	0xbd0c16ad	-0.034201313
215	0x3e568cfa	0.20952216
216	0x3d0029f0	0.031289995
217	0xbd65bac1	-0.056086306
218	0x3db79385	0.08963684
219	0xbda905d6	-0.08253066
220	0xbe0f6339	-0.14002694
221	0x3e613c67	0.21995698
222	0x3ebf94c7	0.37418196
223	0x3ecc7d12	0.3993917
224	0x3e3f83be	0.187026
225	0x3f12b15c	0.5730188
226	0x3eb2792e	0.34858078
227	0x3ec8ed94	0.39243758
228	0x3e5c932c	0.21540517
229	0xbe9d48de	-0.30719656
230	0x3e8a7fc4	0.27050602
231	0x3f1c0007	0.6093754
232	0x3f0310c5	0.51197463
233	0x3f185713	0.59507865
234	0x3e8e622e	0.2780928
235	0x3ebc910f	0.3682942
236	0x3eb74023	0.3579112
237	0xbe8c2cb6	-0.27377862
238	0xbe3de26a	-0.18543401
239	0xbe4f5e05	-0.2025071
240	0x3db599fb	0.0886726
241	0xbdd9a3c2	-0.106269374
242	0xbd327d03	-0.04357625
243	0xbdfef7e7	-0.12449627
244	0xbd219031	-0.039444152
245	0xbe1c14bf	-0.15242289
246	0xbe10c93e	-0.14139268
247	0x3d930e53	0.071804665
248	0xbd83bd2f	-0.06432568
249	0x3e08f351	0.13374068
250	0xbd8e33d5	-0.0694348
251	0xbe22a028	-0.15881407
252	0xbd1c7a1d	-0.038202394
253	0xbdd70101	-0.10498238
254	0xbd87b5f0	-0.06626499
255	0xbe73b14d	-0.23798104

mps.0.l1.edge_block.m.0.bias f4 [16]
0	0x3ec528e8	0.38507771
1	0x3e255d50	0.16148877
2	0x3e07e9c7	0.13272773
3	0xbd611b65	-0.054957766
4	0xbe4c0c56	-0.19926581
5	0xbf2fa8ea	-0.6861712
6	0x3f0c28cc	0.5474975
7	0xbe5c9fbd	-0.2154531
8	0xbd80f4d0	-0.06296694
9	0x3edecba8	0.43514752
10	0xbf487247	-0.78299373
11	0xbddc6044	-0.10760549
12	0xbdb554a7	-0.08854037
13	0x3e8636d7	0.26213714
14	0xbe52c28d	-0.20582028
15	0x3e211936	0.15732273

mps.0.l1.edge_block.m.2.weight f4 [1, 16]
0	0x3df95e8d	0.12176237
1	0xbc9a0fb1	-0.01880631
2	0x3c679305	0.014134173
3	0xbdaade55	-0.08343188
4	0xbe270f61	-0.1631446
5	0xbec3ec31	-0.38266137
6	0x3d946da2	0.07247473
7	0xbdfadea6	-0.12249498
8	0xbdf12306	-0.11774258
9	0x3f45ee6f	0.77316946
10	0xbe8138d7	-0.25238678
11	0xbd92c924	-0.07167271
12	0x3beaebe1	0.0071692322
13	0xbeb9f5d6	-0.3632037
14	0xbd9d50b5	-0.07681409
15	0xbaf0a37a	-0.0018359267

mps.0.l1.node_block.m.0.weight f4 [16, 9]
0	0x3e64707a	0.22308531
1	0x3e819cfc	0.25315082
2	0x3ea63ec0	0.3246975
3	0x3dcc7d7b	0.09984871
4	0x3e9bdb79	0.30440882
5	0xbe4a70c4	-0.19769579
6	0x3e922d22	0.2855006
7	0xbcfb89a7	-0.030705286
8	0x3d208d7b	0.039197426
9	0x3e489457	0.19587837
10	0x3ed5501b	0.41662678
11	0x3ef3c5f9	0.4761198
12	0x3f0f39b4	0.55947423
13	0x3e7d3aa5	0.24729402
14	0x3eba46b8	0.3638208
15	0x3d038321	0.032107476
16	0x3e584932	0.21121672
17	0x3e1e4ee3	0.1545978
18	0x3c10a882	0.008829238
19	0xbb0d8bb4	-0.0021598162
20	0xbc6cf100	-0.014461756
21	0x3c53beac	0.012923878
22	0xbdbb1d56	-0.09136455
23	0x3dab2511	0.08356679
24	0x3e136131	0.14392544
25	0x3ed13bd3	0.40865955
26	0x3dc94ab8	0.098287046
27	0xbe67bdf8	-0.22631061
28	0xbe748257	-0.23877846
29	0x3e17a9a2	0.14810804
30	0xbe62c0b7	-0.22143827
31	0xbd161cfd	-0.03664874
32	0x3e121ec5	0.1426955
33	0xbe0d1219	-0.13776435
34	0xbd04e320	-0.032443166
35	0xbcd44a74	-0.025914408
36	0xbd901447	-0.070351176
37	0xbe1aa3e2	-0.15101579
38	0xbe87de65	-0.2653686
39	0xbe764fca	-0.24053875
40	0xbe23287f	-0.15933417
41	0x3e931f0b	0.2873462
42	0xbe1326b8	-0.14370239
43	0xbe4c8c23	-0.19975333
44	0x3d93b47f	0.07212161
45	0x3e004634	0.1252678
46	0xbdd0fd7b	-0.102045976
47	0x3d00647c	0.03134583
48	0x3d0d232e	0.034457378
49	0xbf020d86	-0.50801885
50	0x3f275a25	0.65371925
51	0x3d77b54f	0.060475644
52	0xbe468af4	-0.19388944
53	0xbde8e16b	-0.1137112
54	0x3e8694fb	0.26285538
55	0x3e90085b	0.28131375
56	0x3e0484db	0.12941305
57	0xbb8cc85a	-0.0042963447
58	0x3eacf0d6	0.33777493
59	0xbe8216c3	-0.2540799
60	0x3e939aee	0.2882914
61	0x3eaf037f	0.34182355
62	0xbe5cd59b	-0.21565859
63	0xbc071cbd	-0.008246598
64	0x3db32469	0.08747179
65	0x3f08898f	0.533349
66	0x3f028a1c	0.5099199
67	0x3cfe9cdd	0.031080658
68	0x3f1af665	0.6053222
69	0x3d72d256	0.059282623
70	0x3d6861b9	0.05673382
71	0x3f144e65	0.5793212
72	0x3d9c4b54	0.07631555
73	0x3ea1e8b9	0.31622866
74	0xbddd1022	-0.10794093
75	0x3ed1b23a	0.4095629
76	0xbd8d269c	-0.0689213
77	0x3f30a563	0.6900236
78	0x3efedd25	0.49778095
79	0x3e42868e	0.18996641
80	0x3eafb996	0.34321278
81	0xbc16bd20	-0.009200364
82	0xbdc6e8d3	-0.097123764
83	0x3ea51816	0.3224494
84	0x3e316a6f	0.17325757
85	0x3d890755	0.066908516
86	0x3e8ae20b	0.27125582
87	0x3ebea932	0.3723846
88	0x3e7a6f3c	0.24456495
89	0x3f2c8f8c	0.67406535
90	0xbe2b3ffb	-0.16723625
91	0xbe774e36	-0.24150929
92	0x3d03c9de	0.032174937
93	0x3db49e0a	0.08819206
94	0xbe0cc2d2	-0.13746193
95	0xbdaa9275	-0.08328716
96	0x3e4dbed6	0.2009233
97	0x3cc236f0	0.023707837
98	0x3c5be81b	0.0134220375
99	0xbf0ff5e7	-0.5623459
100	0xbd91eaaa	-0.07124837
101	0xbe16b95a	-0.14719144
102	0x3d9dbd00	0.077020645
103	0x3d949f4d	0.07256947
104	0x3f0606a0	0.5235386
105	0x3e27656b	0.16347282
106	0x3dd77401	0.10520173
107	0x3eff9c3d	0.49923888
108	0x3cf792f7	0.030221445
109	0x3f35641a	0.7085587
110	0x3e54e9c5	0.20792301
111	0x3e4b8b55	0.1987737
112	0x3f021c6a	0.50824606
113	0xbee90e4d	-0.45518723
114	0x3d8f07ae	0.06983887
115	0x3ea95913	0.3307577
116	0xbe3f4ae9	-0.1868092
117	0xbca353ba	-0.019937385
118	0x3d781273	0.06056447
119	0x3e99dd90	0.3005185
120	0x3e3ae474	0.1825121
121	0xbd2364d4	-0.03989108
122	0x3e115596	0.14192805
123	0x3bf17790	0.0073689893
124	0x3dd9cde2	0.10634972
125	0x3f1df628	0.6170373
126	0xbd7f43b2	-0.06232042
127	0xbe0b724f	-0.13617824
128	0x3e17d410	0.14826989
129	0xbe8206bd	-0.25395766
130	0x3e2ed73d	0.17074294
131	0xbe02fedb	-0.12792532
132	0xbc04b552	-0.008099871
133	0xbd97998b	-0.07402333
134	0x3ce60893	0.02808026
135	0xba9f37b6	-0.001214734
136	0x3edf3baa	0.43600208
137	0x3e8eacc0	0.27866173
138	0x3f0b08fb	0.5431058
139	0x3f0d2282	0.5513078
140	0x3eca9e81	0.39574054
141	0x3da35ddc	0.07976887
142	0x3f0234a7	0.5086159
143	0x3eb6fced	0.35739842

mps.0.l1.node_block.m.0.bias f4 [16]
0	0xbd9edb6b	-0.077566944
1	0x3e5e1aa1	0.21689846
2	0xbd9a294d	-0.07527409
3	0xbe795eb2	-0.2435253
4	0x3d6b5dbf	0.05746245
5	0xbd2a6293	-0.041597914
6	0x3e930392	0.2871366
7	0x3e6fb6cd	0.23409577
8	0x3f058d0f	0.52168363
9	0x3e791d65	0.2432762
10	0xbe33d897	-0.17563091
11	0x3e7b30b6	0.245303
12	0x3eacc7bc	0.33746135
13	0x3e806599	0.25077513
14	0xbe682f0b	-0.22674195
15	0x3ed7fbc5	0.42184272

mps.0.l1.node_block.m.2.weight f4 [8, 16]
0	0xbc80b653	-0.015711939
1	0xbdab5336	-0.083654806
2	0xbd161af8	-0.036646813
3	0x3e5c58f7	0.21518312
4	0x3e436bef	0.19084142
5	0x3e8a809c	0.27051246
6	0x3e67a35d	0.22620912
7	0x3e0ffc08	0.14060986
8	0x3d7da858	0.061928123
9	0xbf037d89	-0.51363426
10	0x3de47d3f	0.11156701
11	0xbf573904	-0.84071374
12	0xbcd1b5a7	-0.025599314
13	0xbead2df1	-0.33824113
14	0x3d3dc28d	0.046328116
15	0x3e317212	0.1732867
16	0xbe1dd796	-0.15414271
17	0xbe4d521d	-0.20050855
18	0xbcde6403	-0.027147299
19	0xbe06baf3	-0.13157253
20	0xbe14cca5	-0.1453119
21	0x3d6230c8	0.055222303
22	0xbde81985	-0.113329925
23	0x3f3831d2	0.7195102
24	0x3e16db97	0.14732204
25	0x3f14184a	0.5784956
26	0x3d9d3fdb	0.07678195
27	0x3f50b4bf	0.81525797
28	0xbdae9cb0	-0.085259795
29	0x3eed04b0	0.4629264
30	0xbb111238	-0.0022136103
31	0x3e104810	0.1408999
32	0x3e2b6d1f	0.16740845
33	0xbdd00c4b	-0.10158595
34	0xbe0dd754	-0.13851672
35	0xbd5d5779	-0.0540385
36	0xbddcc715	-0.107801594
37	0xba2149af	-0.00061526423
38	0x3e005bf0	0.12535071
39	0x3dc018a4	0.093797
40	0x3d4ba010	0.049713194
41	0xbea13dba	-0.31492406
42	0xbdf5574a	-0.1197954
43	0x3f08106f	0.53150076
44	0xbd8d8eb1	-0.06911982
45	0xbe2e51c9	-0.17023386
46	0xbe501920	-0.20322084
47	0x3cce8d9d	0.02521401
48	0xbe043cb1	-0.12913777
49	0xbdd1bec6	-0.10241465
50	0xbe03c071	-0.1286638
51	0x3e473be9	0.19456448
52	0xbe58664a	-0.2113277
53	0x3e6122ad	0.21985884
54	0x3d030983	0.031991493
55	0x3ee14b2a	0.44002658
56	0x3e36fa8c	0.17869014
57	0x3f12adea	0.5729662
58	0x3e0f34b8	0.13984954
59	0x3f6c7ddf	0.92379564
60	0xbe2a9b66	-0.16660842
61	0x3f275911	0.6537028
62	0x3d5c21ed	0.05374329
63	0x3cbca384	0.02302719
64	0x3d9fa633	0.07795372
65	0x3ddfe598	0.109324634
66	0xbd500bd6	-0.050792538
67	0xbce9d3b0	-0.028543323
68	0x3e591858	0.21200693
69	0x3e30d06b	0.17267005
70	0x3d0f070d	0.034918834
71	0xbbe78e0c	-0.007066494
72	0x3d72c3a7	0.05926862
73	0xbe492dbf	-0.19646357
74	0x3e39df1c	0.18151516
75	0xbf05e182	-0.5229722
76	0x3d1decbc	0.038555846
77	0x3e031590	0.12801194
78	0x3d2b2fea	0.04179374
79	0x3e885038	0.26623702
80	0xbc37e2b3	-0.011223483
81	0x3dd29545	0.10282377
82	0x3e0fefdd	0.14056344
83	0x3e389a0c	0.18027514
84	0xbd9dc1d8	-0.077029884
85	0xbdcb723a	-0.09933896
86	0x3d946321	0.0724547
87	0xbe3c9dcf	-0.18419574
88	0x3da09f74	0.07842913
89	0xbf24d53a	-0.6438786
90	0xbe1b1bf6	-0.15147385
91	0xbf4ff5fc	-0.8123472
92	0x3ce04854	0.027378239
93	0xbea3fa4f	-0.32026908
94	0x3e57c90b	0.21072786
95	0x3e9513fc	0.2911681
96	0x3e8500ec	0.25977266
97	0x3d806929	0.06270058
98	0xbe238022	-0.15966848
99	0xbe2040bc	-0.15649694
100	0xbe0dee82	-0.13860515
101	0xbe0f3ae6	-0.13987312
102	0xbd6388a1	-0.05555022
103	0xbf146fa3	-0.57982844
104	0xbe201d5c	-0.156362
105	0xbf064081	-0.52442175
106	0xbe615c0a	-0.22007766
107	0xbf26e1a0	-0.65188026
108	0x3e1b60e6	0.15173683
109	0xbe5fa1ae	-0.2183902
110	0xbd75330a	-0.059863128
111	0xbe020cd4	-0.12700206
112	0x3e1922ac	0.14954633
113	0xbd971823	-0.073776506
114	0xbdcbd290	-0.09952271
115	0x3e0cdebd	0.13756843
116	0xbe473ae7	-0.19456063
117	0x3d7c08e0	0.0615319
118	0x3e6fe539	0.23427285
119	0xbe9a51e0	-0.3014059
120	0x3dc66e44	0.09689
121	0xbeef1160	-0.46692944
122	0xbb49c422	-0.003078707
123	0xbec036a6	-0.37541693
124	0x3de331dc	0.11093494
125	0xbea4f55e	-0.3221845
126	0x3e4924ad	0.19642897
127	0xbe251c1b	-0.16124003

mps.0.l1.node_block.m.2.bias f4 [8]
0	0xbe51bb72	-0.20481661
1	0x3e09973b	0.13436596
2	0xbe7f4a34	-0.2493065
3	0xbeb02929	-0.34406403
4	0xbe76267f	-0.24038123
5	0x3f147470	0.5799017
6	0x3c8b785f	0.01702517
7	0x3d397890	0.045280993

mps.0.l2.edge_block.m.0.weight f4 [16, 17]
0	0x3da1d8b0	0.07902658
1	0xbe1057ea	-0.14096037
2	0xbe0db9a4	-0.13840348
3	0x39ef8806	0.00045686978
4	0xbe7f5109	-0.24933256
5	0xbe3fcbdc	-0.1873011
6	0xbc649b2e	-0.013953013
7	0x3dc5bb45	0.096548595
8	0x3e3359b4	0.17514688
9	0x3e4e5a36	0.201516
10	0xbe3c32f7	-0.18378817
11	0xbdcab132	-0.098970786
12	0x3dfcc1bf	0.12341642
13	0x3cdce1a1	0.026963057
14	0x3cdf1ecd	0.027236367
15	0xbd1d5ee0	-0.038420558
16	0xbdf1d023	-0.11807277
17	0x3c2ff4e9	0.0107395435
18	0x3e3194f9	0.17341985
19	0xbe8cac42	-0.27475172
20	0xbd9b1c39	-0.075737424
21	0xbe44cbb3	-0.1921833
22	0xbcd41773	-0.025890088
23	0x3d7fbb2b	0.062434357
24	0xbde97420	-0.11399102
25	0xbbc3d145	-0.0059758746
26	0x3e0cb200	0.13739777
27	0xbf1c3f93	-0.61034507
28	0x3df79208	0.120884
29	0xbe4b9158	-0.19879663
30	0xbe63a754	-0.222318
31	0x3e029b2c	0.12754506
32	0x3e00b23c	0.12567991
33	0xbd5e9351	-0.05433971
34	0xbdcf1029	-0.10110504
35	0xbe1c8b0f	-0.15287422
36	0xbe2785ac	-0.16359586
37	0xbe3cdcde	-0.18443629
38	0xbdf4e114	-0.11956993
39	0xbabed31a	-0.0014558763
40	0xbdf43c1a	-0.11925526
41	0x3e116d6a	0.14201894
42	0x3ddfae8b	0.10921963
43	0xbe1d06a6	-0.15334567
44	0xbe2ad5f6	-0.16683182
45	0x3da12293	0.07867923
46	0xbdfc469d	-0.12318156
47	0xbd9717ec	-0.073776096
48	0xbd0b3e9d	-0.03399526
49	0x3de50e0a	0.11184318
50	0xbdfe0189	-0.124026366
51	0xbd8a5105	-0.067537345
52	0x3e92d53a	0.28678304
53	0x3d9ec57c	0.07752511
54	0x3e9bc9d3	0.30427417
55	0xbd4997e2	-0.049217112
56	0xbe367e22	-0.17821553
57	0xbdea4ffb	-0.11441036
58	0xbe154f65	-0.14581068
59	0xbe82062a	-0.25395328
60	0xbd36143f	-0.044452902
61	0xbdccc7dd	-0.099990584
62	0xbd786e21	-0.060651902
63	0x3e344f02	0.17608264
64	0x3df36e9b	0.11886331
65	0x3da7a57c	0.081858605
66	0x3dd2a64f	0.10285627
67	0x3e4de4fe	0.20106885
68	0xbe44c3ed	-0.19215365
69	0xbd71a4f0	-0.058995187
70	0x3d36e7c9	0.04465464
71	0x3e1d9223	0.15387778
72	0xbe274686	-0.16335496
73	0xbe2c864c	-0.16848105
74	0x3e8c7633	0.2743393
75	0xbcbaed0f	-0.022818116
76	0xbdd73b73	-0.10509386
77	0xbdef7cd3	-0.1169373
78	0xbe801b06	-0.25020617
79	0x3e7e6f1b	0.24847071
80	0xbe885b45	-0.26632133
81	0xbea5fcf0	-0.32419538
82	0x3e1e21cc	0.1544258
83	0xbde493a2	-0.11160971
84	0x3cc8e6ea	0.02452417
85	0xbdd547d4	-0.10414091
86	0xbe151b6d	-0.14561243
87	0xbe132c54	-0.14372379
88	0xbe307205	-0.17230995
89	0x3e2c74f0	0.16841483
90	0x3e91b8e8	0.28461385
91	0xbd4f7f81	-0.050658707
92	0x3e913054	0.28357184
93	0x3dd3893f	0.10328912
94	0x3daaeac1	0.08345557
95	0x3e66fee2	0.22558168
96	0x3e3e97cb	0.18612592
97	0xbcffff38	-0.031249627
98	0x3e6dcdf1	0.23223092
99	0xbca90407	-0.020631803
100	0xbd7a3dee	-0.061094217
101	0x3c5a6030	0.013328597
102	0xbdf91ec3	-0.121640705
103	0xbd958e17	-0.07302492
104	0xbdea449f	-0.1143887
105	0xbd6e24b3	-0.058140468
106	0xbc2b8ce1	-0.0104706
107	0xbced3ba3	-0.028959101
108	0x3e2b806f	0.16748212
109	0x3dbc162d	0.09183917
110	0x3e04cb11	0.12968089
111	0x3d8c1c7f	0.06841373
112	0xbeacd3d3	-0.3375536
113	0x3e398660	0.18117666
114	0x3d91bb1c	0.071157664
115	0x3d72f2c1	0.05931354
116	0xbde21778	-0.110396326
117	0xbc4915f4	-0.0122733
118	0xbe008ea7	-0.12554418
119	0xbcb4f6d9	-0.022090362
120	0x3dc83652	0.09775986
121	0x3db99df1	0.09063328
122	0x3e3cc5d2	0.18434837
123	0xbd8dd3f2	-0.06925191
124	0x3d92e179	0.07171912
125	0x3dd33d9d	0.10314486
126	0xbe1d52ce	-0.15363619
127	0xbdfa831a	-0.12232037
128	0xbe2f9f87	-0.17150699
129	0x3e28e9d4	0.16495448
130	0xbe834af1	-0.25643113
131	0xbe237110	-0.15961099
132	0x3e19adce	0.15007707
133	0x3e5b4855	0.21414311
134	0x3e7c6336	0.24647221
135	0xbe583b9c	-0.21116489
136	0xbe46e3c2	-0.1942282
137	0x3e088776	0.13332924
138	0x3e9b348b	0.30313525
139	0x3e21b749	0.15792574
140	0xbb97f326	-0.00463714
141	0x3cab5229	0.0209132
142	0x3e4d4c3a	0.2004861
143	0xbe165b90	-0.14683366
144	0xbe824b3f	-0.25448033
145	0x3e4831b9	0.19550218
146	0xbe05d3ee	-0.13069126
147	0xbdb68516	-0.08912103
148	0x3e0a3b87	0.1349927
149	0xbcc6c4a3	-0.024263686
150	0x3d755df6	0.05990406
151	0xbe118c3e	-0.14213654
152	0x3c4a987a	0.012365455
153	0x3e489ef6	0.19591889
154	0xbd9a8f94	-0.075469166
155	0xbe41c53d	-0.18922897
156	0x3da453ad	0.080237724
157	0xbe1f6a06	-0.15567788
158	0x3e4d5396	0.20051417
159	0xbca83f2c	-0.020537935
160	0xbdee6667	-0.116406254
161	0xbd6889ac	-0.05677192
162	0xbdbb41b9	-0.09143395
163	0xbec82cec	-0.39096773
164	0x3dbff7fe	0.09373473
165	0x3d2add6f	0.04171508
166	0xbe571899	-0.21005477
167	0xbd4045bf	-0.046941515
168	0x3e207808	0.15670788
169	0x3d80120f	0.062534444
170	0xbdb04fea	-0.086089924
171	0x3ce35364	0.027749725
172	0x3ce76d94	0.028250493
173	0x3e0ea0fa	0.13928595
174	0xbc72ce81	-0.014819742
175	0xbe806ea8	-0.25084424
176	0xbdcffc4d	-0.101555444
177	0xbe04ec95	-0.12980874
178	0xbe66bddf	-0.22533368
179	0x3e6e3c30	0.23265147
180	0xbd8bd9e1	-0.068286665
181	0x3e85843c	0.2607745
182	0x3ddbda65	0.10735015
183	0xbe964a68	-0.29353642
184	0xbea67dc8	-0.32517838
185	0xbcb3ae68	-0.02193375
186	0xba880e6f	-0.0010380278
187	0xbdb6a154	-0.0891749
188	0x3e3f9f0a	0.18713012
189	0xbebfee83	-0.37486658
190	0x3dd3732d	0.103247024
191	0x3bc91c92	0.006137439
192	0xbe8ade22	-0.271226
193	0x3e55dc61	0.20884849
194	0xbe527d9e	-0.20555732
195	0xbdc93a1a	-0.09825535
196	0xbd9e8d51	-0.07741798
197	0xbe3773f0	-0.1791532
198	0x3e022d7a	0.1271266
199	0xbde59f8e	-0.11212073
200	0x3d790f80	0.060805798
201	0xbe1b679a	-0.1517624
202	0x3e06a5aa	0.13149133
203	0xbe502e14	-0.20330077
204	0xbdbc5036	-0.091949865
205	0xbd6d2170	-0.057893217
206	0x3ddc54a1	0.10758329
207	0x3d96957b	0.0735273
208	0xbe47321b	-0.19452707
209	0xbdb69254	-0.089146286
210	0x3e169851	0.14706542
211	0x3e1cf988	0.15329564
212	0x3de1c996	0.110247776
213	0x3d9849f3	0.0743598
214	0xbdada4f7	-0.0847873
215	0x3d4553df	0.04817569
216	0x3d7d982b	0.061912697
217	0xbd853091	-0.06503404
218	0x3e822fbe	0.2542705
219	0x3e16371b	0.14669459
220	0x3e993db1	0.2992988
221	0xbdac6218	-0.084171474
222	0xbd858ee4	-0.06521395
223	0xbea33a3d	-0.3188037
224	0x3bf8a1f7	0.007587667
225	0x3e004855	0.12527592
226	0xbdb2bfc6	-0.08727984
227	0x3dea6dea	0.11446746
228	0xbe0a5daf	-0.135123
229	0x3e3125ae	0.1729953
230	0x3d2633ca	0.040576734
231	0xbf00e928	-0.5035577
232	0xbe0c3b1d	-0.13694425
233	0xbe2ab6a5	-0.16671236
234	0x3e20b516	0.15694079
235	0xbdf9e7c4	-0.12202409
236	0xbdddb681	-0.108258255
237	0x3d365199	0.04451141
238	0xbea16579	-0.3152273
239	0x3e9475e0	0.2899618
240	0xbe369c34	-0.17833024
241	0xbc3d08ab	-0.011537711
242	0xbe2e8219	-0.17041816
243	0xbddcd908	-0.10783583
244	0xbe270dda	-0.16313878
245	0xbe836f49	-0.2567084
246	0xbc93c669	-0.018038945
247	0xbdcfb35a	-0.101416305
248	0x3eb688b4	0.3565117
249	0xbe138e21	-0.14409687
250	0x3d7fb0e8	0.06242457
251	0xbd0dd6cf	-0.034628686
252	0x3d9339b6	0.07188742
253	0x3e0663ae	0.13123962
254	0x3e333437	0.17500387
255	0x3e06a7d8	0.13149965

mps.0.l2.edge_block.m.0.bias f4 [16]
0	0x3c9df1ec	0.019280396
1	0xbe2f150d	-0.17097874
2	0xbe660f61	-0.22466804
3	0x3e2323c0	0.15931606
4	0xbe18be95	-0.14916451
5	0x3ea40911	0.32038167
6	0xbdf81dbe	-0.12115048
7	0x3defb48b	0.11704358
8	0x3e087e42	0.13329414
9	0xbd96e4f7	-0.0736789
10	0x3e64d6f4	0.22347623
11	0x3d95dab3	0.07317104
12	0x3e87bf1f	0.26513
13	0x3e0cc6d8	0.13747728
14	0xbd25699e	-0.040383928
15	0xbe84c85e	-0.25934118

mps.0.l2.edge_block.m.2.weight f4 [1, 16]
0	0x3c6b1098	0.014347218
1	0x3c8555b7	0.016276224
2	0xbcb86251	-0.022507818
3	0xbe14ad73	-0.1451929
4	0xbe25b836	-0.16183552
5	0x3e57e092	0.2108176
6	0xbc9db1b7	-0.01924978
7	0xbe059513	-0.13045149
8	0xbdbbaa64	-0.09163359
9	0x3d75e0cb	0.060028832
10	0xbe700e91	-0.23443057
11	0x3e53f282	0.20697978
12	0x3df93c4f	0.12169706
13	0x3e8cf5a8	0.2753117
14	0xbe5f553b	-0.21809857
15	0xbdddef55	-0.108366646

mps.0.l2.node_block.m.0.weight f4 [16, 9]
0	0xbe967c00	-0.2939148
1	0x3de42819	0.111404605
2	0xbdaf346d	-0.08554921
3	0xbde9ccdb	-0.11416026
4	0xbe99b58e	-0.30021328
5	0x3e526a58	0.2054838
6	0x3e819249	0.2530692
7	0x3d72d462	0.059284575
8	0x3e471fdd	0.19445749
9	0xbdc5753a	-0.096415
10	0xbdae6f8b	-0.08517369
11	0x3df429f6	0.11922066
12	0xbd9d8c6b	-0.07692798
13	0xbdadc65a	-0.08485098
14	0xbe68d717	-0.227383
15	0x3de76a5e	0.11299585
16	0xbe16b0b0	-0.14715838
17	0x3d5b6492	0.05356271
18	0x3e917b62	0.28414446
19	0xbda10aea	-0.0786341
20	0xbe8a18f0	-0.2697215
21	0x3e16e017	0.14733921
22	0xbe84c04c	-0.2592796
23	0xbdb4ec52	-0.08834137
24	0x3ea09dde	0.31370443
25	0xbe0847fa	-0.13308707
26	0xbe233331	-0.15937497
27	0xbe81a8dc	-0.25324142
28	0xbd0cdea8	-0.03439203
29	0xbd512f8d	-0.05107074
30	0xbdd8a396	-0.105780765
31	0x3d942324	0.07233265
32	0xbd28cc85	-0.04121067
33	0xbdefc2d5	-0.11707083
34	0xbe8927d8	-0.2678821
35	0xbe0bc895	-0.13650735
36	0xbf03fa36	-0.51553667
37	0x3e1ef0ec	0.15521592
38	0x3dbcc77d	0.09217737
39	0x3e428224	0.18994957
40	0x3d71617c	0.05893086
41	0xbdb2538b	-0.08707341
42	0xbf0ce09e	-0.5503024
43	0xbe562a1e	-0.20914504
44	0xbef0b010	-0.47009325
45	0xbf0764e4	-0.5288832
46	0x3f3d7f2e	0.74022186
47	0xbd80e650	-0.062939286
48	0x3f5a9ac2	0.8539239
49	0xbe820ace	-0.25398868
50	0xbf7e1530	-0.9925108
51	0xbed0d576	-0.40787858
52	0xbdaa3db9	-0.08312554
53	0xbe9cca76	-0.30623215
54	0xbe632ada	-0.22184315
55	0xbbf50ebb	-0.0074785626
56	0xbe64f7cb	-0.2236015
57	0xbd911171	-0.07083405
58	0xbd9eb45e	-0.07749246
59	0x3e868180	0.26270676
60	0x3dbfb97c	0.0936155
61	0xbd3041b1	-0.0430314
62	0x3d556ba5	0.05210461
63	0xbdfd4842	-0.12367298
64	0x3e1eb914	0.15500289
65	0x3d970450	0.073738694
66	0x3d8ce1a8	0.06878978
67	0xbe1e1861	-0.15438987
68	0x3e52ea24	0.2059713
69	0xbc7e260c	-0.015512001
70	0xbe10668c	-0.14101619
71	0x3e41e5c3	0.18935303
72	0x3e4bccd4	0.19902354
73	0x3ea9a788	0.3313563
74	0x3d62ae49	0.055341993
75	0xbd9ae2fb	-0.07562824
76	0x3de95780	0.113936424
77	0x3e5be870	0.21475387
78	0xbe854656	-0.26030225
79	0xbda46396	-0.08026807
80	0xbea9df3b	-0.33178124
81	0x3c365db3	0.011130738
82	0x3e15efd4	0.14642268
83	0xbd9dfb89	-0.07713992
84	0x3c8e24ea	0.017351586
85	0x3dedb9af	0.11607682
86	0xbd938f0e	-0.0720502
87	0xbe6619ec	-0.22470826
88	0x3e5ae492	0.21376255
89	0xbe6e4c48	-0.23271286
90	0xbe47fa9f	-0.19529198
91	0x3d692229	0.056917343
92	0xbe2fbb3e	-0.17161271
93	0xbea37265	-0.31923214
94	0xbdb94200	-0.090457916
95	0xbe26f8f0	-0.163059
96	0xbdbd08c3	-0.09230187
97	0xbcebffd8	-0.02880852
98	0xbdd9b88d	-0.106309034
99	0xbe166b65	-0.14689405
100	0xbd38b20b	-0.04509167
101	0xbe3b4a89	-0.18290152
102	0xbdc4fd47	-0.09618621
103	0xbe29f1ed	-0.16596194
104	0x3d0da04f	0.03457671
105	0xbe5083d4	-0.20362788
106	0xbe79778d	-0.24362011
107	0xbd519733	-0.051169585
108	0xbd0a83fb	-0.033817273
109	0x3e539e9c	0.20665973
110	0xbe4e9307	-0.20173274
111	0x3dcd02dc	0.10010311
112	0x3e4cfbdc	0.20017952
113	0x3e10226f	0.14075635
114	0xbe9cb995	-0.30610338
115	0xbe28ecac	-0.16496533
116	0xbe9b9118	-0.30384135
117	0xbe8040d5	-0.25049463
118	0x3e52adb0	0.20574069
119	0x3d256a74	0.040384725
120	0x3e342504	0.17592245
121	0xbe2441ee	-0.16040775
122	0xbd2e89c7	-0.042611863
123	0xbe566c15	-0.20939668
124	0x3dec8056	0.11547916
125	0xbe435224	-0.19074303
126	0xbe057b62	-0.13035348
127	0xbe4bca80	-0.19901466
128	0xbc86e961	-0.016468706
129	0x3e9ca5d8	0.3059528
130	0x3e337873	0.17526416
131	0xbe2ec59c	-0.1706757
132	0x3c9709fb	0.018437376
133	0xbe0aa359	-0.13538875
134	0xbf00cfe5	-0.5031722
135	0x3d5bc5fe	0.053655617
136	0x3ddcfc69	0.10790331
137	0xbdb362ef	-0.087591045
138	0xbdc330ff	-0.0953083
139	0xbec99031	-0.39367822
140	0xbd0055f9	-0.03133199
141	0x3df240eb	0.11828788
142	0xbdac27a4	-0.08405998
143	0xbe3c08fd	-0.18362804

mps.0.l2.node_block.m.0.bias f4 [16]
0	0x3f07c27c	0.53031135
1	0xbd4fc02e	-0.050720386
2	0xbeccce2b	-0.40001044
3	0x3e0cf89f	0.13766716
4	0x3f0df067	0.5544495
5	0x3e1529ed	0.14566775
6	0xbe73fc55	-0.23826726
7	0xbe8cbcb8	-0.2748773
8	0x3e0aa6fb	0.1354026
9	0x3dc0a529	0.09406502
10	0xbf07fe0d	-0.53122026
11	0x3e8974eb	0.26847014
12	0x3f20c804	0.628052
13	0x3edd8819	0.43267897
14	0x3d373abf	0.04473376
15	0x3e5c4f4a	0.21514621

mps.0.l2.node_block.m.2.weight f4 [8, 16]
0	0xbdfd1d2c	-0.1235908
1	0x3e085ab1	0.13315846
2	0xbd3401f8	-0.04394719
3	0x3e4016fa	0.18758765
4	0x3eb05362	0.34438616
5	0x3f2a91c0	0.66628647
6	0x3cde1faa	0.027114708
7	0x3dc9d4ac	0.09855017
8	0xbcd5edc7	-0.026114358
9	0x3ddb5546	0.10709624
10	0xbccb7074	-0.024833895
11	0xbd005ffb	-0.031341534
12	0xbe6d5bb7	-0.23179518
13	0x3b497c4c	0.0030744253
14	0xbeaa0df8	-0.33213782
15	0xbd40c2db	-0.04706083
16	0xbdec9439	-0.11551709
17	0xbe4d4d1b	-0.20048945
18	0xbea68938	-0.32526565
19	0x3e03d639	0.12874688
20	0x3e2d8dc2	0.16948608
21	0xbdd4fd53	-0.1039988
22	0xbdc31a8d	-0.095265485
23	0xbe7a752a	-0.24458757
24	0x3d2bc682	0.04193736
25	0x3c16da16	0.009207269
26	0xbe721615	-0.23641236
27	0x3d946b1a	0.072469905
28	0x3ebdd3f5	0.37075773
29	0x3c147c58	0.009062849
30	0x3cd7baf7	0.026334269
31	0x3ddd0a2c	0.10792956
32	0x3da9fc88	0.0830012
33	0x3e1761f5	0.14783461
34	0x3e9e89a3	0.30964383
35	0x3e07c78b	0.13259713
36	0xbea922b2	-0.33034283
37	0x3e86d544	0.26334584
38	0xbdc1c000	-0.09460449
39	0x3dd22527	0.102609925
40	0x3cc37fc6	0.023864638
41	0x3b84775f	0.0040425505
42	0x3b14b559	0.00226911
43	0x3e37091e	0.17874572
44	0xbe481e45	-0.19542797
45	0xbe69efed	-0.2284543
46	0xbe17366d	-0.14766856
47	0x3e4d21ca	0.20032421
48	0xbd11870f	-0.035529193
49	0x3d8fd466	0.07022934
50	0xbea1cc5d	-0.3160123
51	0x3e2f28fa	0.17105475
52	0x3f0e8d77	0.5568461
53	0x3f28d7f5	0.65954524
54	0xbdceb337	-0.10092776
55	0xbe0e920b	-0.13922898
56	0x3b67150d	0.003526035
57	0xbe69fbf2	-0.22850016
58	0x3e4c6528	0.19960463
59	0xbe2929c0	-0.16519833
60	0x3e23c37c	0.1599254
61	0x3e94e685	0.29082122
62	0x3e2c079c	0.16799778
63	0x3dd53a35	0.10411493
64	0xbe2381b0	-0.1596744
65	0x3e5bb4be	0.21455666
66	0x3cb29381	0.021798851
67	0xbe5afa64	-0.21384579
68	0xbe79a7e8	-0.24380457
69	0xbf1544bf	-0.58308023
70	0x3c6d6e4e	0.014491631
71	0x3e529177	0.20563303
72	0xbe1d1236	-0.15338978
73	0xbdbd2bef	-0.09236895
74	0x3d311166	0.043229483
75	0xbd9d0477	-0.07666867
76	0x3b6dc4f7	0.003628073
77	0xbe92031b	-0.28517994
78	0xbdeaf5ed	-0.11472688
79	0xbda968b4	-0.08271924
80	0xbdb7ddbb	-0.089778386
81	0xbe5135d9	-0.20430698
82	0x3edff463	0.4374114
83	0x3d637abc	0.05553697
84	0xbdc0fd6a	-0.09423335
85	0x3c019eb7	0.007911376
86	0x3d9565bc	0.07294795
87	0x3d9ba1a9	0.075991936
88	0xbe24cb97	-0.16093288
89	0x3ab71053	0.0013966657
90	0x3e3a9784	0.18221861
91	0x3e64fe81	0.2236271
92	0xbe6e8fce	-0.23297045
93	0x3e3972da	0.18110219
94	0xbe30ae87	-0.17254077
95	0x3e21cc5d	0.15800615
96	0x3e208139	0.15674295
97	0x3e42f0c0	0.19037151
98	0xbed9f375	-0.42568555
99	0x3e44f0b2	0.19232443
100	0x3dd64abc	0.10463473
101	0x3e9d6144	0.3073827
102	0xbe1a4216	-0.15064272
103	0xbd9eceef	-0.07754313
104	0x3d0dd81d	0.03462993
105	0xbd81fa5f	-0.063465826
106	0xbc21eb2e	-0.009882731
107	0xbcad7e85	-0.021178493
108	0x3ee50e86	0.44737643
109	0x3e4281f8	0.18994892
110	0x3ea8b82a	0.32953006
111	0x3cc5f8ef	0.024166552
112	0x3e037176	0.1283625
113	0xbc29866e	-0.010346992
114	0xbd43b865	-0.047783274
115	0x3c063247	0.008190698
116	0xbf227c9c	-0.6347139
117	0xbec9eac1	-0.39436916
118	0x3c81d965	0.015850732
119	0xbdba34a0	-0.09092069
120	0x3a97d3c4	0.0011583497
121	0xbd9efde1	-0.07763267
122	0x3d46afbd	0.04850744
123	0x3da3c00f	0.07995617
124	0xbdc30711	-0.09522832
125	0x3e1d62e2	0.15369752
126	0x3e93ec54	0.28891242
127	0xbe609208	-0.21930707

mps.0.l2.node_block.m.2.bias f4 [8]
0	0xbec95da5	-0.39329258
1	0x3d9809e1	0.07423759
2	0x3e5791c5	0.210517
3	0x3dcfcd85	0.101466216
4	0xbdb5bacf	-0.088735215
5	0xbe0db52c	-0.13838643
6	0xbe49f302	-0.19721606
7	0x3e919a5c	0.2843808

mps.1.l1.edge_block.m.0.weight f4 [16, 18]
0	0xbcb8d40d	-0.022562051
1	0x3e6a4afb	0.22880165
2	0xbde7694d	-0.112993814
3	0xbe01a9a3	-0.12662368
4	0x3db12477	0.08649533
5	0x3cbd06f8	0.023074612
6	0x3e1930bc	0.14959997
7	0x3dda4ccc	0.10659179
8	0x3e4491d1	0.1919625
9	0xbe16b6a7	-0.14718114
10	0x3e0b11d9	0.13581027
11	0x3dedb205	0.1160622
12	0xbcfc4ab4	-0.03079734
13	0x3e88e556	0.2673747
14	0x3d96d3fd	0.07364652
15	0x3caacd6b	0.020849904
16	0xbc81a029	-0.01582344
17	0x3b243bb4	0.002506
18	0xbe482bd7	-0.19547974
19	0x3e085256	0.13312659
20	0x3d8ec51c	0.069711894
21	0xbdaebb7a	-0.08531852
22	0x3d8b6fb6	0.068084165
23	0xbe507324	-0.20356423
24	0x3df62856	0.12019412
25	0x3e647d13	0.22313337
26	0x3d0af348	0.033923417
27	0xbe11e642	-0.14247993
28	0x3e1a6ac0	0.15079784
29	0xbcf80a5e	-0.030278381
30	0x3df41282	0.119175926
31	0x3e16c428	0.14723265
32	0xbd097374	-0.03355737
33	0xbd72b003	-0.05924989
34	0xbda87bdb	-0.082267486
35	0x3dddd25d	0.10831139
36	0x3d9d4dc1	0.07680846
37	0x3df37d5b	0.11889144
38	0xbddff464	-0.10935286
39	0x3bfbb847	0.0076818797
40	0x3c7dd6a7	0.015493072
41	0xbd4896e8	-0.04897204
42	0x3e587740	0.2113924
43	0xbc6a5594	-0.01430263
44	0xbe722d85	-0.23650177
45	0xbd3e00be	-0.046387427
46	0xbe18c256	-0.14917883
47	0xbca357d8	-0.019939348
48	0xbc8e0302	-0.017335419
49	0xbe72e24c	-0.23719138
50	0x3a503bb5	0.00079434674
51	0xbc73354a	-0.014844248
52	0xbab051a3	-0.0013452064
53	0x3f621055	0.8830617
54	0xbdbe760b	-0.09299859
55	0x3d9540dc	0.072877616
56	0x3dc38f3f	0.095488064
57	0xbe7900fe	-0.24316785
58	0x3d74552e	0.059651546
59	0x3e37b577	0.17940317
60	0xbdbd99f5	-0.092578806
61	0xbdb3576f	-0.08756911
62	0xbc5fa175	-0.013649334
63	0x3e44161c	0.19149059
64	0xbe443449	-0.1916057
65	0xbd29cbda	-0.041454174
66	0x3c872b5c	0.016500168
67	0xbe7462fb	-0.23865883
68	0x3ce1ac4f	0.027547983
69	0x3e5bf1ca	0.21478954
70	0xba328ea6	-0.00068114174
71	0x3f6d1718	0.92613363
72	0xbea22bda	-0.3167408
73	0xbe18c283	-0.1491795
74	0x3ee38f0d	0.44445077
75	0xbe0cac86	-0.13737687
76	0x3e90844c	0.28225935
77	0x3e166f78	0.1469096
78	0xbe8b6afd	-0.27230063
79	0x3daf08cd	0.085466005
80	0x3edffdf2	0.43748432
81	0x3e916d13	0.2840353
82	0xbebd908c	-0.37024343
83	0x3f3a3d67	0.7274994
84	0xbed65781	-0.41863635
85	0xbea492ed	-0.32143345
86	0x3f0793e8	0.5296006
87	0xbe468dfc	-0.193901
88	0xbd85595e	-0.06511186
89	0xbf3f49e0	-0.747221
90	0x3e95fcc1	0.29294398
91	0xbd469b32	-0.04848785
92	0x3e09547d	0.13411136
93	0x3e4e0628	0.20119536
94	0xbe4e9be5	-0.20176657
95	0xbe0c8bee	-0.13725254
96	0x3d2c7363	0.04210223
97	0x3d92ace9	0.07161886
98	0xbdd3d79a	-0.10343857
99	0x3d33da7c	0.043909535
100	0xbc5cddf4	-0.013480652
101	0x3cb2d852	0.021831665
102	0xbd8f9674	-0.070111185
103	0x3e190f64	0.14947277
104	0x3dc29d54	0.09502664
105	0xbe0306c2	-0.12795547
106	0xbe4f5668	-0.20247805
107	0x3ddea09f	0.1087048
108	0x3d1d6f52	0.03843624
109	0x3e7ddf40	0.24792194
110	0x3cdeeb02	0.02721167
111	0xbd3fedd6	-0.046857677
112	0x3e5f793e	0.21823594
113	0xbe07b893	-0.13254003
114	0x3d33661b	0.043798547
115	0x3cead69f	0.028666792
116	0xbea5ac56	-0.32358044
117	0x3de81e2d	0.113338806
118	0xbe95df8e	-0.2927212
119	0xbd4d87a8	-0.0501782
120	0x3c8f881f	0.017520962
121	0xbe018ad6	-0.12650618
122	0xbce0192c	-0.027355753
123	0xbe181630	-0.14852214
124	0xbada54b1	-0.001665732
125	0x3f3d9b66	0.74065244
126	0xbe36e5ec	-0.17861146
127	0x3c7c3abd	0.015394864
128	0xbe42c42e	-0.19020149
129	0xbd80ab8c	-0.0628272
130	0x3e964ff7	0.29357883
131	0x3e973870	0.29535246
132	0xbe6b5e48	-0.22985184
133	0x3dd1a066	0.10235672
134	0x3dc60fe2	0.09670998
135	0xbba62a1c	-0.005070938
136	0x3dc1fe7d	0.09472368
137	0xbdb1eccd	-0.08687744
138	0x3cab8e01	0.020941736
139	0xbdaf2212	-0.0855142
140	0x3d9cb5a0	0.0765183
141	0x3d9fa9be	0.07796048
142	0xbe48ce46	-0.19609937
143	0x3d05c88c	0.03266196
144	0xbdbd980a	-0.09257515
145	0xbd43aa6d	-0.047769953
146	0xbe3cfffa	-0.18457022
147	0xbdfd2216	-0.12360017
148	0x3a0f2916	0.00054611394
149	0xbd94a186	-0.07257371
150	0x3e508060	0.20361471
151	0x3bfe7ad4	0.007766107
152	0x3c8c285d	0.01710909
153	0xbd96693e	-0.07344292
154	0xbe3e8684	-0.18606001
155	0x3da882d9	0.08228082
156	0x3ddd3225	0.1080058
157	0xbd93ce6f	-0.072171085
158	0xbd8a0362	-0.067389265
159	0x3ddc8a8b	0.107686125
160	0xbea44b6a	-0.32088786
161	0x3e04bbe2	0.12962297
162	0x3dd76291	0.10516847
163	0xbe0eac8e	-0.13933012
164	0xbe0feafe	-0.14054486
165	0xbde81c3b	-0.113335095
166	0x3e293989	0.16525854
167	0x3e1dc31b	0.15406458
168	0xbd3b94f7	-0.04579636
169	0x3e526e7e	0.20549962
170	0xbd6dc479	-0.0580487
171	0xbe186824	-0.14883476
172	0x3d6964bf	0.056980845
173	0x3e037ff7	0.12841783
174	0x3e52bf1a	0.20580712
175	0xbc466698	-0.012109421
176	0x3dcf96f1	0.10136212
177	0x3dfadda2	0.12249304
178	0x3d10e86a	0.035377897
179	0x3f0c904f	0.549077
180	0x3e84556d	0.25846425
181	0xbe21027f	-0.15723608
182	0x3e204d16	0.15654406
183	0x3d141c48	0.036159784
184	0xbe4a89d8	-0.19779146
185	0x3d9937f9	0.07481379
186	0xbd3f4607	-0.046697643
187	0xbe76c894	-0.24099952
188	0xbc98dd41	-0.01866019
189	0x3d87b8dc	0.06627056
190	0x3db17bd5	0.08666197
191	0xbb6d8416	-0.003624206
192	0x3de48e8b	0.111600004
193	0x3c81c597	0.015841288
194	0x3caa82b6	0.020814281
195	0xbbc461ad	-0.005993089
196	0xbe7d96f4	-0.24764615
197	0x3c13638f	0.008995905
198	0x3cb00235	0.021485427
199	0xbe35fb95	-0.17771752
200	0xbde6ab57	-0.11263149
201	0x3d6bfc35	0.05761357
202	0xbe1f0a86	-0.15531358
203	0xbd8194fd	-0.063272454
204	0xbcc94bc5	-0.024572263
205	0xbd8e5b82	-0.069510475
206	0xbe149d7d	-0.14513202
207	0x3ce661cb	0.028122803
208	0xbd934a79	-0.07191939
209	0x3d077bbe	0.033076994
210	0x3d5cdcb8	0.05392143
211	0xbda84ec8	-0.08218151
212	0xbde425fb	-0.11140057
213	0x3cb17c59	0.021665739
214	0xbea3a3d7	-0.31960937
215	0x3b8c864d	0.004288471
216	0x3cdb1ace	0.02674618
217	0x3da2c8db	0.079484664
218	0x3da120fc	0.078676194
219	0x3e5cc123	0.21558051
220	0xbdce0b01	-0.100606926
221	0xbe7c9e7d	-0.24669833
222	0x3e40f4d7	0.18843399
223	0xbe313a32	-0.17307356
224	0xbd359656	-0.044332825
225	0xbcc73a7a	-0.024319876
226	0xbdfafe3f	-0.12255525
227	0xbbe010e1	-0.0068379496
228	0x3e225ac0	0.15854931
229	0x3d081f56	0.03323301
230	0x3de13881	0.109971054
231	0x3e3c4cc3	0.18388657
232	0xbefbaf70	-0.49157286
233	0x3e422a4a	0.18961444
234	0x3e2ccfb7	0.16876112
235	0x3e2f0d06	0.17094812
236	0xbe850de1	-0.2598715
237	0x3d3e200d	0.046417285
238	0xbdcd7abe	-0.10033177
239	0xbd0fc1da	-0.03509698
240	0xbd2aa932	-0.041665263
241	0xbe3e50a2	-0.18585446
242	0xbe4e39d8	-0.20139253
243	0xbd9f6a3c	-0.077839345
244	0x3c9808fe	0.018558975
245	0x3dc0a9f0	0.09407413
246	0xbe296fa6	-0.16546497
247	0xbe08a316	-0.13343462
248	0xbc0ee1c8	-0.008720823
249	0xbe3e0296	-0.18555674
250	0x3d1f8c26	0.038952015
251	0xbf4c4b38	-0.79802275
252	0x3e031eaf	0.12804674
253	0xbe1c6766	-0.15273818
254	0xbd281c06	-0.04104235
255	0x3d84f6d0	0.06492388

mps.1.l1.edge_block.m.0.bias f4 [16]
0	0x3e2a2572	0.16615847
1	0x3df9f005	0.12203983
2	0x3ebe2b97	0.3714263
3	0x3d8e4691	0.06947053
4	0xbeb9a03c	-0.36255062
5	0x3e89da11	0.26924184
6	0x3df07dbb	0.11742731
7	0x3e32b8d1	0.17453314
8	0x3f204ea6	0.6262001
9	0x3f0c2dcf	0.547574
10	0x3f26afb8	0.65111876
11	0x3f05aa26	0.5221275
12	0x3f1e0523	0.6172659
13	0xbe507174	-0.20355779
14	0x3e67d84b	0.22641103
15	0x3e345163	0.17609172

mps.1.l1.edge_block.m.2.weight f4 [1, 16]
0	0x3bc6e9e1	0.006070361
1	0xbd90ef96	-0.070769474
2	0x3ec5e880	0.38653946
3	0x3e8f25d5	0.2795855
4	0xbf210a4f	-0.62906355
5	0x3e3427d5	0.1759332
6	0x3f148899	0.5802093
7	0x3eeda28f	0.46413085
8	0x3dd07d21	0.101801164
9	0x3d89a599	0.06721038
10	0x3e172961	0.14761879
11	0x3e1e3e53	0.15453462
12	0x3ecfb3bb	0.4056681
13	0xbd40321c	-0.046922788
14	0x3da3fe23	0.08007457
15	0x3eaa94db	0.33316693

mps.1.l1.node_block.m.0.weight f4 [16, 9]
0	0x3e0eff96	0.13964686
1	0x3d981914	0.07426658
2	0xbddf068c	-0.108899206
3	0x3c1d7335	0.009609987
4	0x3ae92fb7	0.0017790709
5	0xbca0addd	-0.019614154
6	0xbcd4418d	-0.025910163
7	0x3eb19b9a	0.34689027
8	0x3ea36d16	0.31919163
9	0xbe48e7ac	-0.19619626
10	0x3d8d3c44	0.068962604
11	0xbd8a4b7b	-0.06752678
12	0xbdaf4a5e	-0.08559106
13	0xbccf4412	-0.025301013
14	0xbdd16ddf	-0.102260344
15	0xbd81a725	-0.063307084
16	0xbdc59c9b	-0.09649011
17	0xbe46e4e7	-0.19423257
18	0x3e27f8d6	0.16403517
19	0x3e123fd6	0.14282164
20	0x3e86f82f	0.26361224
21	0x3de2b9fa	0.110706285
22	0x3cb122fd	0.021623129
23	0x3dd02c3c	0.10164687
24	0x3dc94b6e	0.0982884
25	0xbe12cf1d	-0.1433682
26	0xbe80e7b9	-0.2517679
27	0xbe387993	-0.18015127
28	0x3d5d02e3	0.05395783
29	0x3e38b71b	0.18038599
30	0x3e4ceb19	0.20011558
31	0x3e4c2ce7	0.19939004
32	0x3d334a50	0.04377204
33	0xbe2ace4d	-0.1668026
34	0xbe001388	-0.1250745
35	0xbe80ad24	-0.25132096
36	0xbe690a29	-0.22757782
37	0x3d9e7c47	0.07738548
38	0x3e486733	0.19570617
39	0x3e8c9209	0.27455166
40	0xbdc5f540	-0.09665918
41	0x3c70bc05	0.014693265
42	0xbe13e6e9	-0.14443554
43	0x3d205ede	0.039152972
44	0x3e713c99	0.23558272
45	0xbbe99ec1	-0.0071295206
46	0x3d2ac9c4	0.041696325
47	0x3d931b7a	0.07182975
48	0x3d8dd74f	0.069258325
49	0xbd67fd79	-0.056638215
50	0xbdaf787c	-0.085679024
51	0x3d5aa8e8	0.053383738
52	0xbc388622	-0.0112624485
53	0xbe9f9625	-0.3116924
54	0x3d38abf5	0.045085866
55	0x3d5c2e1a	0.053754903
56	0xbd61d8c3	-0.05513836
57	0xbdfa0e5a	-0.122097686
58	0xbd330c5f	-0.04371297
59	0xbe859ef4	-0.26097834
60	0xbbf55a3a	-0.0074875625
61	0x3d58c744	0.05292441
62	0x3e8ca7e2	0.27471834
63	0x3de5a1de	0.11212514
64	0x3d3cb6f5	0.04607292
65	0x3ddc2165	0.10748557
66	0x3e88f47a	0.2674902
67	0xbe37ddc4	-0.1795569
68	0x3e175cd2	0.14781502
69	0x3dc7bf15	0.09753243
70	0xbe67e0dc	-0.22644371
71	0x3e3e92c9	0.18610682
72	0xbe07c906	-0.13260278
73	0xbdd1992e	-0.10234295
74	0xbe44f680	-0.19234657
75	0xbe43f3f3	-0.19136028
76	0x3e58a046	0.2115489
77	0xbe2c0a74	-0.16800863
78	0x3db91a8c	0.090382665
79	0xbe8f338c	-0.27969015
80	0xbe8861fd	-0.2663726
81	0xbe1a8609	-0.15090193
82	0x3e8dd50e	0.2770161
83	0x3d3a75dd	0.04552256
84	0x3d58d559	0.05293784
85	0xbcac6ee4	-0.02104897
86	0x3d763924	0.060113087
87	0xbd2afad3	-0.04174311
88	0x3e8eed2c	0.27915323
89	0x3d293d83	0.041318428
90	0xbe2c9314	-0.16852981
91	0x3e98f5b9	0.29874972
92	0xbdd3435e	-0.10315584
93	0xbdf58e2e	-0.11990009
94	0xbd338b43	-0.043833982
95	0x3e8beb00	0.27327728
96	0xbe0350f1	-0.12823845
97	0xbe983915	-0.2973105
98	0x3dedafac	0.116057724
99	0x3da102ff	0.078618996
100	0x3e59e692	0.21279362
101	0x3e833f76	0.25634354
102	0xbbda0154	-0.0066529904
103	0x3db70ffa	0.08938594
104	0xbe9937ac	-0.29925287
105	0x3d954196	0.072879
106	0x3e603cf0	0.21898246
107	0x3e9d088e	0.3067059
108	0xbdb67b7e	-0.08910273
109	0xbd22efc4	-0.03977944
110	0x3b176698	0.0023101922
111	0xbe2e5b3f	-0.17026995
112	0xbe57a758	-0.2105993
113	0xbe4b9cf2	-0.19884089
114	0x3ccb0599	0.024782943
115	0x3e1201d5	0.14258511
116	0x3e221f03	0.15832143
117	0x3d4976d7	0.0491856
118	0x3e1c1402	0.15242007
119	0xbe54db5d	-0.20786805
120	0x3d9624a4	0.073312074
121	0xbdcc17ac	-0.099654526
122	0xbe4d4fcf	-0.20049976
123	0x3e97d290	0.29652834
124	0xbe7e45e1	-0.24831344
125	0x3e55f768	0.20895159
126	0xbe40ad6b	-0.18816154
127	0xbbbb836f	-0.005722455
128	0xbe5af812	-0.21383694
129	0xbd544fca	-0.051833905
130	0xbdff1bef	-0.124565
131	0x3e4de3d4	0.20106441
132	0xbe5a59e1	-0.21323349
133	0x3dfc71da	0.12326403
134	0xbeb790ac	-0.35852563
135	0x3e5ef6f4	0.21773893
136	0xbdb606aa	-0.0888799
137	0x3c11ba1b	0.008894469
138	0xbdc71aa9	-0.09721882
139	0x3e356ff6	0.17718491
140	0x3cfd73ce	0.030939009
141	0xbe8d2892	-0.27570015
142	0xbcf70a30	-0.030156225
143	0xbea20650	-0.3164544

mps.1.l1.node_block.m.0.bias f4 [16]
0	0x3f26ffe6	0.6523422
1	0x3f08ca01	0.53433233
2	0x3debd078	0.11514372
3	0x3e380b88	0.17973149
4	0x3f55a350	0.8345232
5	0xbe36ab40	-0.17838764
6	0x3f116531	0.5679503
7	0xbd23c81e	-0.03998577
8	0x3d389ffd	0.04507445
9	0x3f2245e0	0.6338787
10	0xbe3db0f3	-0.18524532
11	0x3ed4d7d9	0.4157093
12	0xbe6c7832	-0.23092726
13	0x3d8d1fd7	0.068908386
14	0xbea4f103	-0.32215127
15	0x3e4797f6	0.19491562

mps.1.l1.node_block.m.2.weight f4 [8, 16]
0	0x3e16496e	0.14676449
1	0xbcbf5b60	-0.023359
2	0x3db350d8	0.08755654
3	0xbe8ad0fd	-0.2711257
4	0x3dcc3893	0.09971728
5	0xbe2ab15a	-0.16669217
6	0x3de7b362	0.113135114
7	0x3c9ab604	0.01888562
8	0xbdf31cd5	-0.11870734
9	0x3e20e807	0.15713511
10	0x3ee5d53a	0.4488924
11	0xbdd7b70b	-0.105329596
12	0x3d0aef98	0.0339199
13	0x3e81559d	0.2526063
14	0x3cf44508	0.029818073
15	0xbdbd92d6	-0.09256522
16	0xbf006038	-0.5014682
17	0xbe839a51	-0.25703672
18	0x3df4d509	0.11954696
19	0x3e82c53b	0.255411
20	0xbea2659e	-0.31718153
21	0x3e850632	0.2598129
22	0xbd8d23d0	-0.06891596
23	0x3e87b7f1	0.26507524
24	0xbc54d905	-0.012991195
25	0xbe9a4be9	-0.3013604
26	0xbceabaef	-0.02865359
27	0x3d8f4faa	0.069976166
28	0x3ea23eeb	0.31688628
29	0xbdc23998	-0.094836414
30	0x3e275e94	0.16344672
31	0x3e2ee2e5	0.17078741
32	0xbd92e810	-0.07173169
33	0x3dca0164	0.098635465
34	0xbd2b434c	-0.041812226
35	0x3e15680f	0.14590476
36	0xbd219712	-0.039450713
37	0xbbb75afb	-0.0055955625
38	0x3e18094d	0.14847298
39	0xbe9eb99d	-0.31000987
40	0xbdc37506	-0.09543805
41	0x3d1b0a90	0.03785187
42	0x3e92c8d3	0.28668842
43	0x3e215db3	0.157584
44	0xbe8e06bf	-0.27739522
45	0xbd91c439	-0.071175046
46	0xbe0cf03a	-0.13763514
47	0xbd5a3d9f	-0.053281423
48	0x3e4a8512	0.19777325
49	0x3d4b1e8a	0.04958967
50	0xbc88106f	-0.016609399
51	0x3d8e69fe	0.0695381
52	0xbdb83389	-0.089942046
53	0x3dac0942	0.08400203
54	0xbe310d01	-0.17290117
55	0xbe6342a9	-0.22193398
56	0x3e324b8a	0.17411628
57	0xbd8f9065	-0.07009963
58	0x3e6e28e7	0.2325779
59	0xbdf681dd	-0.12036488
60	0xbd866b4e	-0.065634355
61	0xbd2e5c3a	-0.042568423
62	0x3e762819	0.24038734
63	0x3da3bb79	0.07994742
64	0x3ed96ab7	0.4246423
65	0x3b371f30	0.0027942173
66	0xbc599d2f	-0.013282104
67	0x3e2b1e15	0.16710694
68	0x3eb8945a	0.36050683
69	0xbe28877d	-0.16457935
70	0x3e8fa7ad	0.28057614
71	0x3e1d53a0	0.15363932
72	0xbd002b49	-0.03129128
73	0x3ec465cc	0.38358915
74	0xbe2558b2	-0.16147116
75	0x3e2a3abf	0.16623972
76	0x3eb4d014	0.35315
77	0xbe2824b8	-0.16420257
78	0xbe056c9b	-0.13029711
79	0xbe66a9e5	-0.22525747
80	0x3e146bc1	0.1449423
81	0xbe1ce381	-0.15321161
82	0xbd749fe4	-0.059722796
83	0x3daa039c	0.0830147
84	0x3e637350	0.22211957
85	0x3e2da5ec	0.16957825
86	0x3e4c07ad	0.19924803
87	0x3e25bf19	0.16186179
88	0xbdc6d914	-0.09709373
89	0x3e5d65e0	0.21620893
90	0x3d8d4d2d	0.06899486
91	0x3e761ba9	0.24033989
92	0x3e246bca	0.16056743
93	0x3ea69078	0.32532096
94	0xbe257f4f	-0.16161846
95	0xbd9d1ab0	-0.07671106
96	0x3db9102c	0.09036288
97	0x3e556de0	0.20842695
98	0xbd445df3	-0.04794116
99	0xbe4eabc0	-0.20182705
100	0x3e04ac0c	0.12956256
101	0x3dfa7752	0.1222979
102	0x3dcf598a	0.101245
103	0x3d649d5e	0.05581414
104	0x3d52fd32	0.051510997
105	0xbdf49fb3	-0.11944523
106	0xbe34ef67	-0.1766945
107	0x3c00ee90	0.007869378
108	0xbe8cd7ff	-0.27508542
109	0xbe5e7b77	-0.21726786
110	0x3e5543f4	0.20826703
111	0xbd796f8c	-0.060897395
112	0xbe1e8ade	-0.15482661
113	0xbc559e08	-0.013038166
114	0xbe2a1998	-0.16611326
115	0x3deb416c	0.114870876
116	0xbd224231	-0.039613906
117	0xbde35f3c	-0.11102149
118	0xbe30106a	-0.17193761
119	0x3d969b2d	0.07353816
120	0xbdae00ba	-0.08496232
121	0x3d6a565a	0.057211258
122	0x3d9effd0	0.07763636
123	0xbdb0ec41	-0.08638812
124	0xbd8d9b8e	-0.06914435
125	0x3e76ed97	0.24114071
126	0xbe44957f	-0.19197653
127	0xbd1b8ff0	-0.037979066

mps.1.l1.node_block.m.2.bias f4 [8]
0	0xbedae610	-0.4275365
1	0xbf106a52	-0.5641223
2	0x3f12bfea	0.5732409
3	0x3e12a0bb	0.14319126
4	0x3f1e135c	0.6174829
5	0x3d4d0fd9	0.05006394
6	0xbe169f7e	-0.14709279
7	0xbed9ce0c	-0.42540014
