archive-july16/warmup_results/FINAL_baseline_sketched/model_epoch9.pt (torch, 44714 bytes, 56 tensors)

mps.0.l1.edge_block.m.0.weight f4 [16, 17]
000000 d8 f8 40 3d 0b d7 60 3e ac 20 af 3d f2 0e d4 3e
       0.047112316 0.21957032 0.085511535 0.41417652
000010 d5 93 85 3d 6f e7 36 3f 32 b4 f3 3d a6 3e 96 3e
       0.06522337 0.7144689 0.11899604 0.29344672
000020 98 37 22 3e 12 01 b0 bd a9 f9 b5 3e f8 ab 81 3e
       0.1584152 -0.08593954 0.35542038 0.25326514
000030 4e e0 9b 3e 71 24 01 3f 7e ed a9 3e ee cf 15 3e
       0.30444568 0.5044623 0.33189005 0.146301
000040 96 93 8a 3f 78 e0 4f 3b fb 5f d7 bd 77 d5 5b 3d
       1.082629 0.0031719487 -0.10516354 0.053670373
000050 67 a0 d4 bd f7 e5 e7 bc 2c 0b b7 bd fb e1 14 3e
       -0.10382157 -0.028307898 -0.08937678 0.1453933
000060 46 f9 31 be 68 24 e0 bd 05 54 83 bd 3b 61 09 be
       -0.17380247 -0.10944444 -0.0641251 -0.13415997
000070 be 6d 94 3c 58 6a 60 be 77 ce 4a 3e 3a 4d 3f be
       0.018118735 -0.21915567 0.19805323 -0.18681803
000080 ea 20 2d 3e 8d 2c 16 3d ef aa bb bd 0e 8b 83 3d
       0.16907087 0.03666358 -0.09163462 0.06423007
000090 a2 aa 99 bd f0 7f 8d 3d 25 f0 8e bd 37 21 cb bd
       -0.07503249 0.06909168 -0.06979398 -0.099184446
0000a0 74 62 15 3c be c6 ef bd e4 57 94 3d 34 53 dc 3d
       0.009117711 -0.11707829 0.07243326 0.10758057
0000b0 23 67 86 3c 47 38 5f be 74 1b da 3c 74 14 30 bb
       0.016406601 -0.21798812 0.026624419 -0.002686766
0000c0 2b 76 7c 3d 36 04 48 be e8 21 93 be 3c 95 ba bd
       0.06163613 -0.19532856 -0.28736806 -0.091104954
0000d0 a6 f1 3a be af 62 2b 3e 31 ea 3c 3d c6 65 9c 3d
       -0.18256244 0.16736864 0.04612178 0.07636599
0000e0 98 e3 89 3d 0d ac be bb f1 ef 2c 3e 04 3d 21 be
       0.06732863 -0.00581885 0.16888405 -0.15745932
0000f0 90 ea d6 3a 5f d3 24 be ce 91 56 3d a9 b9 b6 bd
       0.0016396809 -0.16096257 0.052385144 -0.089221306
000100 16 4f 85 3d dc 9c 43 bd ed ba 37 3e c1 3c 03 be
       0.06509225 -0.047757015 0.179424 -0.12816145
000110 bd cf 28 be 32 c4 42 be d5 de 0f 3e d2 57 93 3b
       -0.16485496 -0.19020155 0.14049847 0.004496553
000120 03 3f 18 3e c7 90 45 be f3 f1 6a be 0c b5 40 be
       0.14867787 -0.1929351 -0.22943859 -0.18819064
000130 e6 b6 31 be a6 cc ff 3c 62 9b c0 3c 96 92 eb 3d
       -0.17354926 0.031225514 0.023511592 0.115025684
000140 ec 68 33 be a9 8e 25 be 75 d9 d6 3d 21 e9 d6 bd
       -0.17520493 -0.16167702 0.104906954 -0.104936846
000150 1c 5f d6 3d 8b b8 90 bd e3 74 c7 be b4 bb 42 bf
       0.104673594 -0.07066449 -0.38956365 -0.7606766
000160 e5 d1 4f bf 77 2e 05 bf ee b0 b9 bf 53 b4 42 bf
       -0.8117965 -0.52024025 -1.450712 -0.760564
000170 19 70 03 bf c5 8c 18 3e b0 16 2c bf ca f0 40 bf
       -0.5134292 0.1489745 -0.6722212 -0.75367415
000180 bd 59 03 bf 7a fe 2a bf d7 ae 9e bf a6 c1 6a bf
       -0.51308805 -0.6679455 -1.2397107 -0.91701734
000190 1e d6 45 bf 02 6b 04 bf 45 cc c7 bd 2c 02 86 3d
       -0.7727984 -0.5172578 -0.09755758 0.06543383
0001a0 88 ca 9a 3e d2 22 7f 3e dc 17 e4 3d 4d 02 36 3f
       0.30232644 0.24915627 0.11137363 0.7109726
0001b0 36 7f 4a 3e e9 bf 4b 3e 4f 9e 33 3e c6 bc 89 3e
       0.1977509 0.19897427 0.17540859 0.26901835
0001c0 7b e4 cd 3e 16 b8 48 3e 0a 51 28 3e d1 44 18 3f
       0.4021338 0.19601473 0.16437164 0.59480006
0001d0 57 47 d9 3e 92 11 17 3e 67 23 0a 3f 89 a2 06 be
       0.4243724 0.14752796 0.5396027 -0.1314794
0001e0 e0 7f 1f 3a c2 63 a7 bd 31 4c 79 bc 09 6b 18 be
       0.00060844235 -0.08173324 -0.015215919 -0.1488458
0001f0 f0 67 1a be 40 2b 03 be b0 ff 99 bd 33 7b 31 be
       -0.15078712 -0.12809467 -0.07519472 -0.17332153
000200 32 82 3c 3e 48 85 32 bd 0b 7c 41 3e b5 31 8c 3d
       0.1840904 -0.04358414 0.18894975 0.06845418
000210 d6 65 3e be c0 af 1b 3e d5 81 77 bd 46 6a ac bd
       -0.18593535 0.15203762 -0.06042655 -0.084187075
000220 67 b8 4d be 87 13 85 be ba d7 ba 3c dd c6 c8 bd
       -0.20089875 -0.2599146 0.022807945 -0.09803555
000230 2c 36 25 3d e0 fb 3f be 69 6c 1f 3e 7a 96 2f be
       0.040334865 -0.18748426 0.15568699 -0.17147246
000240 48 1c 52 bd 02 18 ad 3b 09 9e 98 3d 30 33 03 3e
       -0.051296502 0.005282403 0.07452018 0.12812495
000250 7d 2b 1f 3e ed f3 39 be ce 6f 44 3d 3b 51 d6 bd
       0.15543933 -0.18159457 0.047958188 -0.10464712
000260 73 5b 29 bd cb 36 1b be 86 dc 01 3f 7b 7f 9e 3e
       -0.04134698 -0.1515762 0.5072712 0.30956635
000270 ba 54 38 3f 8f e2 02 3f 9a 6d 8c 3f 0c ef c6 3e
       0.7200428 0.5112695 1.0970948 0.38854253
000280 32 5b 22 3f e2 63 29 3e a6 8b b9 3e 73 19 a7 3e
       0.63420403 0.16542009 0.36239356 0.32636604
000290 ca 0a 33 3f 68 82 da 3e 16 b6 43 3f 23 1f 32 3f
       0.6993834 0.42677617 0.76449716 0.6957876
0002a0 1a 81 fc 3e c0 21 10 3f 4d ce cb bd 08 68 0d bf
       0.49317247 0.563015 -0.09951458 -0.55236864
0002b0 84 dd 06 bf 9e d0 4f bf e9 0c 41 bf 57 98 b6 bf
       -0.52681756 -0.811777 -0.75410324 -1.426524
0002c0 3f 70 64 bf 02 fe 17 bf 8b 24 38 3e d1 15 44 bf
       -0.89233774 -0.5937196 0.1798269 -0.7659579
0002d0 7a e1 22 bf 2c 87 28 bf 13 ab 1a bf c2 ee 9b bf
       -0.636253 -0.65831256 -0.6041729 -1.2182238
0002e0 db 21 1d bf 7f af 10 bf 34 ab f4 be fa 9e 1f bd
       -0.61379784 -0.56517786 -0.47786868 -0.03896997
0002f0 d6 76 7c bd 54 9f a6 3c 66 33 31 bd 02 1c 8e bd
       -0.06163677 0.020339645 -0.043261908 -0.06938936
000300 71 15 0f 3e c5 b2 40 3e 72 4c b8 bc c2 f7 4a bd
       0.13973023 0.18818195 -0.02249739 -0.049552687
000310 d9 3d 93 b9 5e 46 85 bc 7b fb 45 3d f1 fa 6b 3d
       -0.00028084105 -0.016268905 0.048335534 0.057612363
000320 17 d2 4c be 4b 1e a7 bd 2a 90 3c 3e 1e 32 aa 3d
       -0.20002018 -0.08160075 0.18414369 0.0831034
000330 eb f5 32 bc 79 98 07 be 9b 9d 09 be b9 82 49 be
       -0.010922889 -0.13241757 -0.13439028 -0.19678773
000340 61 95 92 bd 5c e9 97 3d 48 56 0f 3e 03 a5 cf 3d
       -0.07157398 0.07417557 0.13997757 0.10138895
000350 ef d3 46 be 5d 3e 07 be dd 02 0e bd 9a 8a 59 3e
       -0.19416784 -0.13207383 -0.0346707 0.21244279
000360 20 16 02 3d 11 ef 68 bd c5 23 ba 3d 66 5f ab bd
       0.03175938 -0.056868616 0.09088854 -0.08367805
000370 19 86 11 be a4 3a 68 3e d0 3e bc 3e 9a 22 c6 3e
       -0.1421131 0.2267862 0.36766672 0.38698274
000380 2b 64 3a 3e 8f 9f 14 3f 15 eb c5 3e b8 04 d3 3e
       0.18202274 0.5805597 0.38655916 0.41214538
000390 0f 3c 62 3e c8 4f 9c be db 7d 85 3e 59 0d 18 3f
       0.22093223 -0.30529618 0.26072583 0.59395367
0003a0 29 db 02 3f 97 ab 19 3f 72 cf a7 3e 39 84 c6 3e
       0.5111566 0.6002745 0.32775456 0.38772753
0003b0 72 c0 ba 3e 11 d6 05 be 5a a9 40 be a5 5b 52 be
       0.3647495 -0.13069941 -0.18814602 -0.20542772
0003c0 3b 2a b8 3d 08 cb dc bd 43 0d 35 bd 5f 60 01 be
       0.0899243 -0.10780913 -0.0442021 -0.12634419
0003d0 c1 e9 23 bd 2c 3a 1e be 1e ec 12 be 33 31 95 3d
       -0.040017847 -0.15451878 -0.14347884 0.07284775
0003e0 5f a9 85 bd 81 df 0a 3e 5a 3e 90 bd b8 f9 24 be
       -0.065264456 0.13561822 -0.070431426 -0.16110885
0003f0 ad a9 1e bd a1 fe d9 bd 20 a2 89 bd 4d 1c 77 be
       -0.038736034 -0.1064427 -0.06720376 -0.2413189

mps.0.l1.edge_block.m.0.bias f4 [16]
000000 6e e8 bd 3e e0 b6 27 3e f7 d5 09 3e b5 4f 64 bd
       0.37091392 0.16378355 0.13460527 -0.055740077
000010 f6 09 4f be e6 b6 2a bf 2e a5 08 3f 0d d4 5f be
       -0.20218644 -0.6668533 0.53377044 -0.21858235
000020 00 e1 82 bd a5 0a da 3e 45 94 46 bf 94 94 df bd
       -0.063905716 0.42586246 -0.7756999 -0.10917011
000030 e7 e4 b7 bd 5f 51 8f 3e 2d c0 55 be c6 72 23 3e
       -0.089792065 0.2799177 -0.2087409 0.15961751

mps.0.l1.edge_block.m.2.weight f4 [1, 16]
000000 f2 e7 e5 3d 91 32 9c bc aa de 6a 3c df 38 ad bd
       0.11225881 -0.01906708 0.014335314 -0.08458113
000010 f1 68 29 be 04 6c af be 39 34 85 3d 56 80 fe bd
       -0.16543938 -0.34262097 0.06504101 -0.12426822
000020 06 8e f4 bd ac f2 46 3f c1 f1 5a be 04 ec 94 bd
       -0.11941151 0.7771404 -0.21381284 -0.07271579
000030 e1 56 ee 3b 79 7a b4 be bb 95 9f bd 7a 0e f4 ba
       0.0072735404 -0.3524969 -0.07792231 -0.0018620037

mps.0.l1.node_block.m.0.weight f4 [16, 9]
000000 77 c6 79 3e 39 64 71 3e fc a8 9a 3e 93 71 ac 3d
       0.24392115 0.23573388 0.3020705 0.084201
000010 ce ac 99 3e 52 ae 35 be d1 3b 97 3e 72 3c 19 bd
       0.30014652 -0.17742279 0.29537824 -0.03741116
000020 b6 ca 6e 3d e6 29 52 3e b4 fc cd 3e b9 28 e9 3e
       0.05829879 0.20523795 0.4023186 0.4553888
000030 c0 61 0d 3f 4f a1 77 3e 33 a2 ce 3e ef ba 1e 3d
       0.5522728 0.24182628 0.40358123 0.038752493
000040 05 c8 55 3e 09 16 27 3e 72 53 36 3c d9 16 6f 3b
       0.20877083 0.16317 0.011128293 0.0036482124
000050 5c 59 80 bc 63 f7 dc 3c 41 f6 ab bd d1 e3 1d 3e
       -0.01566761 0.026973432 -0.083965786 0.15418936
000060 c2 f6 29 3e d5 a6 db 3e b5 44 a2 3d 79 0c 6b be
       0.16598037 0.4290072 0.07923261 -0.22953977
000070 57 ed 77 be 82 cc 19 3e 07 f5 65 be dd 3f 18 bd
       -0.24211632 0.1501942 -0.22456752 -0.03717028
000080 a5 41 14 3e 49 fe 0e be 50 cf 06 bd 14 48 d7 bc
       0.14478166 -0.1396419 -0.032912552 -0.026279487
000090 27 37 92 bd c2 c6 1c be 95 ca 89 be f0 ce 79 be
       -0.07139426 -0.15310195 -0.2691237 -0.24395347
0000a0 0f 82 25 be eb 41 95 3e 98 49 15 be c3 89 4f be
       -0.16162895 0.29151854 -0.14578855 -0.20267396
0000b0 5f d7 95 3d d2 54 fd 3d cc 1c 0e be 00 4b 32 3a
       0.073164694 0.12369694 -0.13878173 0.0006801337
0000c0 61 9f 41 bc 15 a4 0d bf 6d b8 01 3f 4e f5 5a 3c
       -0.011817784 -0.55328494 0.50672036 0.013364149
0000d0 d9 5a 76 be 3e f2 17 be ed 76 8e 3e ec 24 7d 3e
       -0.24058093 -0.14838502 0.27825108 0.24721116
0000e0 72 1b ac 3d 27 6e 36 bd af d2 9f 3e cd b4 87 be
       0.08403672 -0.044538643 0.31215426 -0.26505128
0000f0 b8 18 8b 3e 00 34 a2 3e f5 7b 5f be 94 81 c8 bc
       0.27167296 0.31680298 -0.2182463 -0.02447585
000100 22 c1 e2 3d a2 70 11 3f 62 39 09 3f 73 d8 2f 3d
       0.110719934 0.5681249 0.53603184 0.04293103
000110 f5 be 18 3f c6 10 70 3d 8e 86 88 3d bf 3d 13 3f
       0.5966638 0.058609746 0.06666289 0.5751609
000120 f1 a5 9d 3d 8b 0a a3 3e c2 71 db bd 58 b1 d0 3e
       0.076976664 0.3184398 -0.10715057 0.40760303
000130 b4 eb a2 bd 2a 86 25 3f b4 58 f7 3e 3e 82 37 3e
       -0.07955113 0.64657843 0.48309863 0.17920777
000140 f9 1e a9 3e 87 a2 19 bc ef a4 9b bd ce 67 b7 3e
       0.33031443 -0.009377128 -0.07599818 0.35821384
000150 78 3a 48 3e d3 0c a4 3d f0 1f 82 3e 79 a8 c0 3e
       0.19553554 0.080102585 0.2541499 0.37628534
000160 12 e8 83 3e c8 82 2c 3f 66 a3 2d be 42 dd 7a be
       0.25762993 0.67387056 -0.16956863 -0.24498466
000170 0e b6 05 3d 4a 2e b7 3d 02 af 0e be 05 ec ac bd
       0.032644324 0.08944376 -0.13933948 -0.08443455
000180 76 bc 50 3e e0 fd c4 3c 6b 1c 5f 3c c1 78 d8 be
       0.20384392 0.024046838 0.013617615 -0.42279628
000190 83 3c 01 be b3 52 56 be 79 b2 85 3c 7e 4b 05 3a
       -0.1262074 -0.20929985 0.016320454 0.00050847966
0001a0 76 8d e3 3e de 72 96 3d 19 2a ff 3c f8 34 dd 3e
       0.44443864 0.07346128 0.031148003 0.43204474
0001b0 bb a1 51 3d a0 c5 31 3f 4e 21 3a 3e 78 9f 3b 3e
       0.05117963 0.69442177 0.18176767 0.18322551
0001c0 05 f9 00 3f fa c6 de be f8 4b 97 3d d6 37 a7 3e
       0.50379974 -0.43511182 0.07387537 0.32659787
0001d0 56 62 37 be 91 50 c5 bc eb 57 9e 3d 06 cb a9 3e
       -0.17908606 -0.024086269 0.07731613 0.33162707
0001e0 a2 04 4b 3e a9 d4 08 bd 75 f3 e3 3d a9 3f 3f 3a
       0.19825986 -0.033405934 0.1113042 0.0007295558
0001f0 cd 45 e4 3d 9f 77 1e 3f 7f 88 81 bd 7f 5e 0d be
       0.11146126 0.6190128 -0.06324863 -0.13805579
000200 f0 f6 19 3e ed f2 83 be 7d 67 31 3e 0b eb 04 be
       0.15035605 -0.25771275 0.17324634 -0.12980287
000210 82 a1 06 bc 6b bc 99 bd e3 3c e9 3c 4d 7f 05 bd
       -0.008217217 -0.07506641 0.028471416 -0.032592107
000220 b2 c5 dd 3e 11 02 85 3e 9d b5 08 3f cb 83 0b 3f
       0.43314892 0.2597814 0.5340212 0.54497975
000230 ed 58 ca 3e 72 0d 88 3d ee b5 00 3f c3 b0 ad 3e
       0.3952097 0.066431895 0.502776 0.3392392

mps.0.l1.node_block.m.0.bias f4 [16]
000000 e7 51 95 bd 75 9e 67 3e b4 93 66 bd 62 00 7d be
       -0.07291012 0.2261904 -0.056293204 -0.24707177
000010 bf c8 6e 3d e6 df b8 bd 86 7b 8a 3e a0 96 71 3e
       0.058296915 -0.0902708 0.27047366 0.23592615
000020 9e e9 01 3f b8 2f 7b 3e d7 68 36 be 8c 30 20 3e
       0.50747097 0.24529922 -0.1781343 0.15643519
000030 2e db b0 3e 04 ae 7d 3e 16 85 6b be e7 97 d3 3e
       0.3454222 0.24773413 -0.22999987 0.4132683

mps.0.l1.node_block.m.2.weight f4 [8, 16]
000000 40 45 bc bc 4a 04 c1 bd 2b e9 23 bd 47 8d 5f 3e
       -0.02298224 -0.09424646 -0.04001729 0.21831237
000010 df 32 46 3e 43 19 91 3e df b2 64 3e bb 78 08 3e
       0.19355343 0.28339586 0.22333859 0.13327305
000020 37 18 63 3d 1d 92 06 bf 8f b1 e7 3d e6 5c 23 bf
       0.055443015 -0.525667 0.113131635 -0.63813627
000030 96 08 3c bd 10 49 b2 be 7d 89 40 3d e5 c9 26 3e
       -0.045906626 -0.34821367 0.04700612 0.16287954
000040 98 cd 24 be d3 22 53 be 6a aa 1d bd 23 a7 08 be
       -0.16094053 -0.20618753 -0.038492598 -0.13345008
000050 85 ef 16 be c8 e6 24 3d 8d 9b f4 bd 4f fd 3b 3f
       -0.14739807 0.040259153 -0.119437315 0.73433393
000060 97 ba 14 3e 83 03 16 3f 32 83 9f 3d 75 67 16 3f
       0.14524303 0.5859911 0.077886954 0.5875161
000070 c8 6a 9e bd 4b c1 f1 3e 18 35 13 bb f9 16 1d 3e
       -0.07735211 0.47217783 -0.0022462066 0.15340795
000080 6b 32 3c 3e 04 af af bd 36 22 f8 bd c9 8b 60 bd
       0.18378608 -0.085783035 -0.121159 -0.05482081
000090 65 fb df bd b3 be 4a 3b d6 ee 0d 3e 98 8f fa 3d
       -0.109366216 0.003093642 0.1386064 0.122344196
0000a0 6c 31 92 3d 5e 42 96 be e8 c6 f8 bd 15 fd d0 3e
       0.07138333 -0.2934751 -0.12147313 0.40818086
0000b0 7f d5 42 bd 55 68 19 be c0 16 53 be e9 59 53 3d
       -0.047566887 -0.14981206 -0.20614147 0.051599417
0000c0 2c c4 12 be 94 ac ed bd 3b 1d 19 be d9 02 4a 3e
       -0.14332646 -0.11605182 -0.14952557 0.19727649
0000d0 e2 76 5b be 69 8c 4e 3e a2 f9 a5 3c 3c b9 e1 3e
       -0.21432069 0.2017075 0.020260636 0.44086635
0000e0 b8 d0 2a 3e d5 96 12 3f 98 57 11 3e d0 3b 33 3f
       0.16681182 0.572614 0.1419357 0.7001314
0000f0 eb 61 32 be a3 7e 28 3f 3d 56 5f 3d c9 9d a3 3c
       -0.17420165 0.6581823 0.054525603 0.019972699
000100 6e 20 a6 3d e8 01 e2 3d 22 db 5e bd b0 3e ed bc
       0.08111654 0.1103552 -0.0544082 -0.028960556
000110 a8 35 5c 3e 3c 12 3f 3e 66 c6 1f 3d ae 3c 8e bc
       0.21504843 0.186593 0.039007567 -0.017362919
000120 0f 41 69 3d 29 69 52 be 9f 73 3c 3e df e8 78 be
       0.05694681 -0.20547928 0.18403481 -0.24307583
000130 a3 84 07 3d 85 16 fd 3d df 91 2d 3d 2f 84 82 3e
       0.033085477 0.12357811 0.04237544 0.25491473
000140 15 89 4c bc 6a f6 cd 3d 2a 13 10 3e 4c 2a 3b 3e
       -0.012483855 0.100567654 0.1406981 0.18277854
000150 2e 12 a0 bd 00 f3 b2 bd 10 dd 96 3d 70 82 47 be
       -0.078159675 -0.08737755 0.07366383 -0.19483352
000160 e2 ea 98 3d 2d fd 27 bf d6 3e 1d be 59 b4 00 bf
       0.07466675 -0.6562069 -0.15356001 -0.5027519
000170 d4 9f 7c 3c 39 97 a7 be 68 ce 5a 3e d0 0d 91 3e
       0.015418965 -0.3273256 0.213678 0.2833085
000180 4d 7c 86 3e 9e e5 7f 3d ef 77 1e be 4c 9a 22 be
       0.2626671 0.06247484 -0.15475439 -0.15879172
000190 53 f1 0f be 4c 6e 0f be eb 0d 6e bd da d7 15 bf
       -0.14056902 -0.14006919 -0.058118742 -0.5853249
0001a0 35 2c 20 be 4d 2a 06 bf 5a 90 64 be db 2b fe be
       -0.15641864 -0.52408296 -0.22320691 -0.49642834
0001b0 45 37 14 3e 45 ec 5c be 64 a0 78 bd f1 1e 05 be
       0.14474209 -0.21574505 -0.060699835 -0.13000084
0001c0 5c 55 25 3e c0 a5 8b bd 32 08 b6 bd ed ca 0e 3e
       0.16145843 -0.06818724 -0.08888282 0.13944598
0001d0 d7 01 4a be db fc a3 3d 06 52 7e 3e 8f 08 a1 be
       -0.19727264 0.08007213 0.24835977 -0.31451842
0001e0 6c 54 d5 3d e6 be ee be ac a3 4c bb f6 7d 18 be
       0.10416493 -0.4663002 -0.0031225486 -0.148918
0001f0 ad 7e d5 3d 07 2f a5 be f3 f7 4b 3e 2d 90 44 be
       0.10424552 -0.32262442 0.19918804 -0.19195624

mps.0.l1.node_block.m.2.bias f4 [8]
000000 af 42 5c be 8d e8 0a 3e 55 b4 6a be ab 51 be be
       -0.21509813 0.13565274 -0.22920354 -0.37171683
000010 99 72 8a be f4 3e 13 3f 77 83 cb 3c 6e aa 5c 3b
       -0.27040556 0.57517934 0.02484296 0.003367092

mps.0.l2.edge_block.m.0.weight f4 [16, 17]
000000 40 32 a4 3d ca 7a 12 be 95 b6 0f be 06 f3 f2 39
       0.08017397 -0.14304653 -0.14034493 0.00046338903
000010 8f 8f 81 be cc 92 42 be 7e cf 67 bc 35 82 c8 3d
       -0.2530484 -0.19001311 -0.014148591 0.0979046
000020 f4 e9 35 3e d6 57 51 3e 22 f9 3e be f8 a2 cd bd
       0.17765027 0.20443663 -0.18649724 -0.100408494
000030 a4 34 00 3e f1 15 e0 3c 1d 53 e2 3c 51 a5 1f bd
       0.12520081 0.027354212 0.027627522 -0.038976017
000040 23 3b f5 bd e1 08 0f bd e2 71 3b 3e 56 a4 41 be
       -0.1197417 -0.034920577 0.18305162 -0.18910345
000050 96 6d 8f bd 9f 56 89 be 15 8c 83 bd bd a1 76 3d
       -0.07003324 -0.268239 -0.06423203 0.06021284
000060 34 ac f8 bd 6e 2e 65 bd 94 18 1c 3e c5 2d 0a bf
       -0.1214222 -0.055952482 0.15243751 -0.5397609
000070 0e c3 09 3e 8a 5d 87 be f0 85 88 be 30 ef f6 3d
       0.13453314 -0.26438552 -0.26664686 0.1205734
000080 fb 3c ec 3d 15 a1 a7 bd 8f 8d de bd 4f 04 16 be
       0.115350686 -0.08185021 -0.10866844 -0.14650081
000090 60 13 2f be d8 a9 2e be 0b c1 f6 bd a5 7e b5 3b
       -0.17097235 -0.17056978 -0.12048539 0.005538779
0000a0 bd 61 0c be 2d 43 0c 3e 06 c5 ef 3d a2 88 24 be
       -0.13709159 0.136975 0.11707501 -0.16067746
0000b0 6a 04 25 be b3 ca bb 3d 9c 2b e8 bd d0 06 7e bd
       -0.16114965 0.09169521 -0.11336443 -0.062018216
0000c0 e9 6c 1e bd d2 74 f5 3d 35 14 f7 bd 70 52 55 bd
       -0.038678084 0.11985172 -0.12064401 -0.05208057
0000d0 fb ba 95 3e 8b 68 02 3d 66 5e 9b 3e 8e cb 0e bd
       0.29244217 0.03183798 0.30345458 -0.034862094
0000e0 b7 ff 22 be a8 14 ec bd 34 c7 20 be 35 8a 83 be
       -0.1591786 -0.11527377 -0.1570099 -0.2569138
0000f0 65 96 ce bc c9 52 e4 bd 43 39 40 bd 90 0f 40 3e
       -0.025218198 -0.111486025 -0.04692961 0.18755937
000100 76 48 f2 3d f7 03 82 3d c1 45 bf 3d e3 13 4a 3e
       0.11830227 0.063484125 0.093394764 0.19734149
000110 ed 27 fd bd 66 4b 9c bd ff 61 91 bd 43 58 0f 3e
       -0.12361131 -0.076315686 -0.070987694 0.13998513
000120 01 04 40 bd 9b 42 e2 bd e5 db 93 3e 9a 38 0d bc
       -0.04687882 -0.1104786 0.28878704 -0.008619452
000130 39 14 ed bc 4e 84 13 be 82 58 b6 be 7f 74 69 3e
       -0.028940307 -0.14405939 -0.356144 0.22798346
000140 af d1 2d be f3 ce 86 be b9 57 34 3e cf d2 b6 bd
       -0.16974519 -0.26329765 0.17611589 -0.08926927
000150 a9 61 74 3d 5b fe c9 bd a6 c1 1a be fb 39 0e be
       0.05966345 -0.098629676 -0.15112934 -0.13889305
000160 fc c4 17 be d7 db 34 3e 1b ed 8e 3e 0a 0b 60 bd
       -0.14821237 0.17661987 0.27915272 -0.054698028
000170 ad 6d 96 3e 97 25 d8 3d ef 93 ae 3d 2e ab 69 3e
       0.2938055 0.10554045 0.0852431 0.22819206
000180 c0 30 48 3e ab c0 09 bd c1 fc 6a 3e 31 12 9f bc
       0.19549847 -0.033631008 0.2294798 -0.019417854
000190 3d dc 7e bd 26 b2 d6 bb e1 da ef bd dd 2b a7 bd
       -0.062221754 -0.0065519987 -0.1171167 -0.08162663
0001a0 61 60 df bd 20 4e 55 bd 75 7c 51 bb 0b 8c d9 bc
       -0.10907055 -0.05207646 -0.0031965051 -0.026556036
0001b0 7a 0f 2a 3e c2 88 cd 3d 00 52 0c 3e 6a 5a 84 3d
       0.16607466 0.1003585 0.13703156 0.064625576
0001c0 a9 54 ac be 7e 01 3f 3e e0 df a1 3d 51 28 85 3d
       -0.3365834 0.18652913 0.07904029 0.0650183
0001d0 35 d7 da bd 55 6c e9 bb 8f 21 04 be ad ec fc bc
       -0.10685579 -0.00712351 -0.12903427 -0.030874575
0001e0 16 0e e1 3d 0e a0 a6 3d eb 81 41 3e 03 a9 93 bd
       0.10989015 0.08135997 0.18897216 -0.07209971
0001f0 25 d9 a0 3d bb 42 ba 3d 92 50 2a be 42 b3 fb bd
       0.07853917 0.09094759 -0.16632298 -0.1229005
000200 c3 9d 31 be fd d5 2f 3e 61 68 75 be 38 5e 1d be
       -0.17345338 0.17171474 -0.23965599 -0.15367973
000210 bc c9 21 3e dd a5 51 3e 55 f2 80 3e cd 81 57 be
       0.15799612 0.20473428 0.25184885 -0.21045609
000220 90 92 2a be 3b e9 0f 3e 62 b2 56 3e 57 5c 27 3e
       -0.16657472 0.14053814 0.20966485 0.16343819
000230 4e 84 35 3d 94 5e 39 3d 82 44 49 3e 23 ed 21 be
       0.04431563 0.045256212 0.1965504 -0.15813117
000240 e0 3c 33 be 62 96 4c 3e 56 19 21 be 98 14 a8 bd
       -0.1750369 0.19979241 -0.15732321 -0.08207053
000250 c9 fd 2e 3e d4 b1 28 3c 25 3c 52 3d d9 74 0a be
       0.17088999 0.010296304 0.05132689 -0.13521136
000260 39 cf df 3c 91 17 28 3e 93 5c a7 bd 1c 00 ae bd
       0.027320491 0.1641524 -0.08171954 -0.084961146
000270 b9 c0 9e 3d 5b 09 5a be 3a 1f 36 3e bb f6 60 bc
       0.07751603 -0.21292631 0.1778535 -0.0137307
000280 b6 87 e0 bd 6b 08 c6 bd c5 96 bf bd f0 ef 99 be
       -0.10963385 -0.09669574 -0.09354929 -0.3006587
000290 9d a6 c1 3d f4 49 d5 bb bc 4f 77 be df 54 35 bd
       0.09455607 -0.00650906 -0.2415151 -0.044270393
0002a0 29 e9 25 3e 6b 23 16 3d f2 ad 89 bd ed 07 11 3d
       0.16202225 0.03665487 -0.067226306 0.03540795
0002b0 9e 35 71 bd 35 dc 13 3e ae 60 5f 3c a1 63 72 be
       -0.058889024 0.14439471 0.01363389 -0.23670818
0002c0 67 32 e0 bd 2d 62 14 be 09 2e 3f be f1 90 73 3e
       -0.109471135 -0.14490576 -0.18669905 0.2378576
0002d0 c3 b1 9c bd eb 52 8a 3e d6 25 05 3e fb 17 77 be
       -0.07651093 0.27016386 0.13002715 -0.24130242
0002e0 18 d7 ac be 68 d2 a2 bc b5 53 1e 3c ff bf e5 bd
       -0.33757854 -0.01987572 0.009663512 -0.11218261
0002f0 d8 03 3a 3e 95 1f 88 be 92 cd d0 3d 99 1e ca bc
       0.18165529 -0.26586595 0.101954594 -0.024672793
000300 6d ba 96 be f7 cc 5f 3e c2 56 45 be 41 fc c3 bd
       -0.29439107 0.21855532 -0.19271377 -0.09569598
000310 15 0a f7 bd 4d 6f 29 be d2 47 cc 3d f1 31 00 be
       -0.1206247 -0.16546364 0.09974636 -0.12519051
000320 92 3c 95 3d 15 31 f1 bd 64 e3 1f 3e 34 90 82 be
       0.072869435 -0.1177694 0.15614086 -0.25500643
000330 ef 16 b2 bd b1 af 82 bd ed 0b e9 3d 65 78 b3 3d
       -0.086957805 -0.06381167 0.11379228 0.08763198
000340 79 4c 48 be b0 f4 cb bd ee 56 1e 3e 02 fb 24 3e
       -0.19560422 -0.0995878 0.15462849 0.16111377
000350 35 4b d5 3d c0 1e ad 3d 56 66 c3 bd 4b 5d 87 3d
       0.10414735 0.08453131 -0.095410034 0.06609591
000360 37 e7 52 3d 1b 2c a9 bd df cc 80 3e 39 62 0f 3e
       0.051490035 -0.082603656 0.25156304 0.14002313
000370 37 d1 98 3e 29 91 0d be 2e bc 63 bd 9d e9 60 be
       0.29847118 -0.13824905 -0.055599384 -0.21964116
000380 8f 43 9d 3c 97 a6 21 3d 2c 3c 09 be 49 94 df 3d
       0.019197254 0.039465513 -0.1340186 0.10916955
000390 e1 40 14 be ac 58 f1 3d 41 b5 6f 3d 53 1c d6 be
       -0.14477874 0.11784491 0.058522467 -0.41818485
0003a0 84 76 f8 bd 2e d3 77 be 4e ee e0 3d cd be 0c be
       -0.1213198 -0.24201652 0.10982953 -0.1374466
0003b0 dc 8c ff bd 97 b4 9a 3c 0a 5a 9c be 13 36 95 3e
       -0.12478039 0.01888494 -0.30537444 0.29142818
0003c0 ec 77 4c be f0 ec c6 bc fa c9 23 be 9b 21 a4 bd
       -0.19967622 -0.024282902 -0.15995017 -0.08014222
0003d0 dc b3 24 be f5 6a 86 be 61 22 33 bc 6d 90 d4 bd
       -0.16084236 -0.26253477 -0.01093349 -0.103791095
0003e0 17 30 ba 3e bc 5c 19 be 9b 06 9a 3d c1 1d c6 bc
       0.36364815 -0.14976782 0.07520791 -0.02418411
0003f0 96 01 91 3d 28 ed 0a 3e 4c 09 21 3e 4f a4 2c 3e
       0.070803806 0.1356703 0.15726203 0.16859554

mps.0.l2.edge_block.m.0.bias f4 [16]
000000 11 47 a0 3c eb 41 36 be da 2f 2b be dc 4a 29 3e
       0.019565137 -0.17798583 -0.16717473 0.16532463
000010 36 16 1a be 99 7f 94 3e ce 04 f3 bd 9b d6 35 3e
       -0.15047535 0.290036 -0.11866151 0.17757647
000020 19 ea 16 3e 4f bd b4 bd 8f 9f 73 3e 8d 0a 83 3d
       0.14737739 -0.0882517 0.23791336 0.06398497
000030 13 68 54 3e f9 ff 0c 3e 06 df 01 bc d9 b1 84 be
       0.20742826 0.13769521 -0.007926708 -0.25916937

mps.0.l2.edge_block.m.2.weight f4 [1, 16]
000000 98 7b 6e 3c 94 e3 8d 3d e2 f4 80 bc 07 c9 12 be
       0.014555834 0.06928173 -0.01574177 -0.14334498
000010 a0 07 8b bb 85 26 5b 3e 13 7c ee 3b 1f d8 08 be
       -0.0042428523 0.21401413 0.0072779744 -0.13363694
000020 d1 48 b5 bd 92 1b 50 3c 5b 76 76 be 67 69 56 3e
       -0.08851779 0.012701886 -0.24068587 0.20938645
000030 f9 fe fc 3d 61 42 48 3e 97 5b 61 be 79 36 40 bd
       0.1235332 0.19556572 -0.22007595 -0.04692695

mps.0.l2.node_block.m.0.weight f4 [16, 9]
000000 e0 9e 98 be 69 5c e7 3d ad c4 b1 bd db 37 ed bd
       -0.29808712 0.11296923 -0.08680091 -0.11582919
000010 6e d8 9b be f8 67 55 3e 79 7e 83 3e 62 3f 76 3d
       -0.3043856 0.20840442 0.25682428 0.06011904
000020 cd e6 49 3e 2a 3c c8 bd cb ff b0 bd f6 94 f7 3d
       0.1971695 -0.097771004 -0.08642539 0.12088959
000030 6a d7 9f bd 9a 56 b0 bd 56 38 6c be 4d b3 ea 3d
       -0.07804759 -0.08610268 -0.23068365 0.1145998
000040 90 d3 18 be e2 98 5e 3d 6f e3 98 3e 0a 98 bb bd
       -0.14924455 0.05434502 0.29861018 -0.091598585
000050 36 ef 8e be 69 61 0d 3e 66 50 88 be 84 61 9a bd
       -0.27916878 0.1380669 -0.2662384 -0.07538131
000060 0a 99 a8 3e 9d 07 fc bd d1 84 0d be 31 0c 3f be
       0.3292926 -0.123061396 -0.13820197 -0.18656994
000070 1f e1 6b bd 76 a6 18 be bb a1 05 be 86 07 d9 3d
       -0.05758774 -0.1490725 -0.13049977 0.10597138
000080 34 4e 92 3c af 1a cc bd 3d 83 81 be 0f 3d 08 be
       0.017859556 -0.09966027 -0.2529544 -0.13304542
000090 e3 e4 00 bf 56 d7 0d 3e 40 5a ee bc f5 9c 22 3e
       -0.50349253 0.13851675 -0.029095769 0.15880187
0000a0 04 91 eb 3c d2 52 3f bd 01 92 07 bf 0a 70 5b be
       0.028755672 -0.046709843 -0.5295716 -0.21429458
0000b0 68 72 ef be e8 b2 ee be f7 04 3a 3f ab 19 27 be
       -0.46766973 -0.4662087 0.72663826 -0.16318385
0000c0 0c 37 57 3f 8b 8b 6a be d1 0c 72 bf 39 0c c9 be
       0.8406837 -0.22904794 -0.94550806 -0.39267138
0000d0 9b d2 84 bd 2f d9 9a be 2a 5f 66 be d0 79 f8 bb
       -0.06485482 -0.30243823 -0.2249724 -0.0075828806
0000e0 1b 2c 68 be 51 34 93 bd ee 0d a1 bd b0 6d 88 3e
       -0.22673075 -0.07187713 -0.07863985 0.26646185
0000f0 6c 80 c2 3d f1 d1 32 bd 45 69 58 3d da 7b 00 be
       0.09497151 -0.043657247 0.052834768 -0.12547246
000100 a4 12 21 3e 30 27 99 3d d8 cd 8e 3d 5f 71 20 be
       0.15729767 0.074781775 0.06972855 -0.15668248
000110 c4 e7 55 3e 45 f1 80 bc 6c 89 12 be b3 ac 44 3e
       0.20889193 -0.015740046 -0.14310235 0.19206505
000120 e0 24 63 3e 91 2e a2 3e c7 99 90 3d f1 6a aa bd
       0.22182035 0.31676152 0.07060581 -0.08321179
000130 7c ab 05 3e 93 23 76 3e 16 64 84 be a8 6a 80 bd
       0.13053697 0.24037008 -0.2585761 -0.06270343
000140 b2 32 ac be 24 83 6a 3c f3 3e 14 3e 47 44 9b bd
       -0.33632427 0.014313493 0.14477138 -0.07581382
000150 f5 68 4b 3b 72 d8 f2 3d c1 bf 93 bd c0 c0 63 be
       0.00310379 0.1185769 -0.072143085 -0.22241497
000160 27 0f 62 3e c5 f8 59 be 6d e5 f7 bd ac ac 73 3d
       0.22076093 -0.21286304 -0.12104306 0.059490845
000170 07 65 03 be 07 d1 99 be c4 18 9c 3c ae 5e 10 be
       -0.12831508 -0.30042288 0.019054778 -0.14098617
000180 92 a9 eb bd ed 24 c5 bb f1 e9 ed bd 20 48 0f be
       -0.11506952 -0.006016365 -0.116168864 -0.13992357
000190 8e 62 34 bd 80 f0 44 be ec 1f be bd c6 f5 15 be
       -0.0440393 -0.19232368 -0.09283432 -0.14644536
0001a0 57 2a 26 3d 50 86 58 be 1d d3 7b be 1f 9d 34 bd
       0.040567722 -0.21144986 -0.24592252 -0.044095155
0001b0 9d 71 df bc 97 3e 47 3e 14 46 4c be c3 c0 b5 3d
       -0.027275855 0.1945747 -0.19948608 0.08874657
0001c0 df 5b 4b 3e e8 97 21 3e e3 bf 98 be 30 12 21 be
       0.19859265 0.15780604 -0.29833898 -0.15729594
0001d0 b3 c6 97 be 84 dd 4f be 54 93 3f 3e 95 36 7d bd
       -0.29643783 -0.20299345 0.18708545 -0.06181963
0001e0 10 f3 1a 3e 6b 44 1e be bb 41 09 3c fd 1d 42 be
       0.15131783 -0.15455787 0.008377488 -0.18956752
0001f0 2b 2b 04 3e 35 57 43 be fb d5 0e be 15 55 59 be
       0.12907092 -0.19076236 -0.13948815 -0.21223862
000200 b1 19 2b bc 6a e4 97 3e 34 e1 22 3e b0 94 2c be
       -0.010443137 0.29666454 0.1590622 -0.16853595
000210 88 2b 00 3d 76 86 05 be 0e 9b 04 bf 9a b6 d5 3d
       0.031291515 -0.13039574 -0.51799095 0.10435219
000220 19 de eb 3d 36 f7 11 be 93 40 ad bd 81 2f aa be
       0.11516971 -0.1425446 -0.08459582 -0.33239368
000230 36 d5 de bb 18 61 d9 3d d0 dd ad bd 9b bb 45 be
       -0.006800319 0.10614222 -0.08489573 -0.19309847

mps.0.l2.node_block.m.0.bias f4 [16]
000000 ac ae 09 3f ce bd 52 bd 48 45 d0 be e0 e2 03 3e
       0.53782153 -0.051450543 -0.40677857 0.12879515
000010 d4 54 08 3f 6a 29 0a 3e 55 67 77 be e8 a8 8e be
       0.5325444 0.1349236 -0.24160512 -0.2786324
000020 6d 62 18 3e b4 f3 bf 3c c2 a8 ff be 5d ff 92 3e
       0.14881296 0.023431636 -0.4993344 0.28710452
000030 d4 71 22 3f e8 fc d6 3e ab e3 09 3d fd f1 7e 3e
       0.6345494 0.41989827 0.033664387 0.24896999

mps.0.l2.node_block.m.2.weight f4 [8, 16]
000000 0b 65 00 be e1 46 0a 3e be a5 60 bd 2f 54 35 3e
       -0.12538545 0.135036 -0.054845564 0.17707895
000010 c1 55 ac 3e 1b 66 29 3f fa 53 e1 3c 7b b5 cc 3d
       0.33659175 0.66171426 0.027505863 0.09995552
000020 b5 26 26 bd fb 62 96 3d cd 10 31 bd 42 fd 51 bd
       -0.040564258 0.07343098 -0.043228913 -0.051266916
000030 89 82 7e be 85 be 20 bc 66 8f b2 be ea 79 83 bd
       -0.24854483 -0.009811048 -0.3487503 -0.06419738
000040 39 ff ef bd bb 4a 50 be 4c 25 7b be 87 6c 11 3e
       -0.11718602 -0.20341007 -0.24525946 0.14201556
000050 d4 6a 2c 3e 43 77 ea bd 7d e1 c5 bd da 16 7e be
       0.16837627 -0.114485286 -0.09662149 -0.24813405
000060 30 fd 1e 3d 6e 85 d6 3c 19 03 54 be d5 7d c4 3d
       0.038815677 0.026186671 -0.20704307 0.09594313
000070 47 a5 bc 3e be 2a b3 3b cc fb cf 3c a8 73 15 3e
       0.36844847 0.0054677418 0.02538862 0.145949
000080 18 56 ac 3d d5 84 19 3e fd 1e 72 3e 9e 1d 08 3e
       0.084148586 0.14992078 0.23644634 0.13292548
000090 bf c6 a8 be c1 d2 89 3e f0 86 c4 bd c7 22 d5 3d
       -0.3296413 0.26918605 -0.0959605 0.10407024
0000a0 d4 9f 0e 3d f7 90 41 3c a6 91 ee bc 6e ab 20 3e
       0.034820393 0.0118143475 -0.029122185 0.15690395
0000b0 f1 a5 3e be 7b 4b 6b be 60 f6 10 be 06 33 2f 3e
       -0.18617989 -0.22978012 -0.14156485 0.17109308
0000c0 ef a9 13 bd 46 f7 91 3d 8c 97 b6 be 6f ba 2d 3e
       -0.036050733 0.07127242 -0.35662496 0.1696565
0000d0 78 89 0e 3f de 19 26 3f d7 b0 d1 bd 08 a7 10 be
       0.5567851 0.6488322 -0.10238808 -0.14126217
0000e0 69 20 f5 3b 91 0d 62 be 22 49 31 3e 1c 64 4f be
       0.00748067 -0.22075488 0.17313054 -0.20253032
0000f0 92 e5 26 3e d4 65 90 3e a9 39 30 3e 82 5b a4 3d
       0.16298512 0.2820269 0.17209496 0.08025266
000100 40 db 25 be 0e e9 5e 3e 1c 2d 12 3d 45 77 5e be
       -0.16196918 0.21768591 0.03568755 -0.21725185
000110 65 77 74 be 0e d3 12 bf 4e d9 70 3c 17 8f 55 3e
       -0.2387367 -0.57353294 0.014700247 0.20855366
000120 f0 e7 1f be 21 25 a5 bd 64 6a 6d 3d fd 45 82 bd
       -0.15615821 -0.080637224 0.05796279 -0.063610055
000130 50 71 9d 3b b2 a4 8d be 57 33 e8 bd 25 aa 94 bd
       0.0048047677 -0.27664715 -0.11337917 -0.07259015
000140 fb 6d ba bd 79 33 54 be 6a 1a bd 3e c0 3e 55 3d
       -0.09103008 -0.2072276 0.36934215 0.052061796
000150 07 1f c3 bd 17 8d f0 3b 9c 88 97 3d 89 c4 9d 3d
       -0.09527402 0.007341038 0.07399103 0.07703502
000160 aa 33 23 be ce 8a 2f bc 8a 0d 21 3e 02 f2 56 3e
       -0.15937677 -0.010714246 0.15727821 0.20990756
000170 51 79 6b be cc de 39 3e 0a 98 32 be 61 62 05 3e
       -0.22995497 0.18151397 -0.17440811 0.1302581
000180 c9 da 22 3e b0 b7 45 3e 96 8a be be e2 cb 44 3e
       0.15903772 0.19308352 -0.37215108 0.192184
000190 3d 8f be 3d 1b 66 99 3e f6 64 1c be 7f 28 a1 bd
       0.09304664 0.29960713 -0.15272889 -0.07869052
0001a0 6b a6 8d 3c ae a4 86 bd ef 8c 17 3c d2 05 8f bb
       0.017291268 -0.06574379 0.00924991 -0.0043647075
0001b0 47 ff de 3e f5 e1 39 3e cb 09 a3 3e 8a 51 36 3d
       0.43554136 0.18152602 0.3184341 0.044511355
0001c0 a6 5d 05 3e fe df 2b bc 1b d5 af bd 72 24 82 3b
       0.13024005 -0.010490416 -0.085855685 0.00397163
0001d0 53 dd 21 bf 98 c0 c6 be 95 c5 83 3c 44 d0 bc bd
       -0.6322834 -0.38818812 0.016085425 -0.09219411
0001e0 1b 82 6f 3c f8 5d 84 bd 87 8c f3 3c 2b b4 46 3d
       0.014618422 -0.064632356 0.029730095 0.048511665
0001f0 bd 80 af bd 2c 89 2b 3e aa 6a 9e 3e 41 dc 75 be
       -0.08569477 0.16751546 0.30940753 -0.24009801

mps.0.l2.node_block.m.2.bias f4 [8]
000000 1d a6 dc be fa aa ae 3d f2 4e d4 3d 64 3c bf 3d
       -0.43095484 0.08528705 0.1036662 0.093376905
000010 8f 2d bb bd ee 77 1c be 68 26 27 be d2 f7 90 3e
       -0.09139549 -0.15280125 -0.16323245 0.28314072

mps.1.l1.edge_block.m.0.weight f4 [16, 18]
000000 36 e6 e1 bc f0 c7 74 3e b6 18 cb bd fd 6d fd bd
       -0.027575593 0.23904395 -0.099168226 -0.12374494
000010 98 cd a8 3d a2 00 a2 3c 3b 2c 1b 3e a5 4a de 3d
       0.08242339 0.019775692 0.15153591 0.10854081
000020 f7 b9 52 3e 15 c5 0f be 53 52 12 3e c5 fa 02 3e
       0.20578752 -0.14040025 0.14289217 0.12790973
000030 d3 87 2e bd 4f c7 87 3e 8f 8c a9 3d 2c 0b 2e 3c
       -0.04261 0.26519248 0.082787625 0.010622781
000040 7c b6 29 bd f5 5c b5 bc f9 8c 22 be 07 0d c4 3d
       -0.041433796 -0.022139052 -0.1587409 0.09572797
000050 26 be fb 3c 06 9d 00 be f8 07 de 3d 5a ef 2a be
       0.030730318 -0.125599 0.10841364 -0.16692868
000060 3b 8c 24 3e 85 56 3f 3e 70 91 87 3d 3e 0f 25 be
       0.16069119 0.18685348 0.06619537 -0.16119096
000070 97 60 db 3d 13 af 43 ba 34 01 28 3e 1f f7 32 3e
       0.107117824 -0.0007464748 0.16406709 0.17477082
000080 fb 82 ad 3c ed b5 c5 bd 29 e1 df bd 30 a8 ab 3d
       0.02118062 -0.0965384 -0.10931618 0.083816886
000090 e5 d7 56 3d 26 7d 16 3e b2 99 a3 bd bc 2c 02 3c
       0.052451987 0.14696178 -0.079882994 0.007945236
0000a0 8c af 2d bb 03 77 99 bd 49 2c 40 3e fc e2 15 3c
       -0.002650234 -0.07493403 0.18766893 0.009148356
0000b0 c0 09 89 be 76 73 c5 bc 98 07 f6 bd ce d9 4c bc
       -0.2676525 -0.024102908 -0.12013167 -0.012503101
0000c0 e1 4c f2 bc 24 af 87 be 44 e5 c5 bc ab 80 3d 3c
       -0.029577674 -0.2650081 -0.024157174 0.011566321
0000d0 86 62 32 bb 7f 24 4c 3f 46 12 fa bd 78 b0 d1 3d
       -0.002721937 0.7974319 -0.12210517 0.10238737
0000e0 69 48 01 3e bf 54 68 be 52 8b 04 3d 87 5c 1d 3e
       0.12625279 -0.22688578 0.03235943 0.15367328
0000f0 e5 fe fa bd 60 33 79 bd 34 64 29 bd 4a 4d 63 3e
       -0.122556485 -0.06084001 -0.041355327 0.22197452
000100 4b aa 28 be 4d 78 95 bc d3 90 63 bc ae 4a 8a be
       -0.16471212 -0.01824584 -0.013889509 -0.270101
000110 1e 7b cb ba a6 93 7b 3e 0d dd b4 ba ad 18 57 3f
       -0.0015524363 0.24568042 -0.0013798788 0.8402203
000120 c9 97 a2 be bb 23 1c be 99 c7 e0 3e d5 da 0e be
       -0.31756428 -0.15248005 0.4390228 -0.13950665
000130 1a 0d 93 3e 3e e1 13 3e 70 39 8c be c8 4b af 3d
       0.28720933 0.14441392 -0.2738757 0.08559376
000140 f0 b3 de 3e 25 b3 91 3e 69 9e c3 be fe 20 3b 3f
       0.43496656 0.2845699 -0.38206795 0.7309722
000150 68 de d5 be c5 41 a7 be a2 3e 08 3f 47 b0 41 be
       -0.41771245 -0.32667366 0.5322057 -0.189149
000160 49 43 aa bd e2 66 3a bf 10 6b 94 3e ff da 3b bd
       -0.08313615 -0.72813237 0.28987932 -0.045863148
000170 6e 1e 1f 3e 63 18 52 3e e2 60 53 be b8 7f 0d be
       0.15538952 0.20517115 -0.20642427 -0.13818252
000180 11 5a 21 3d 06 4f 9b 3d a2 01 c7 bd 06 d4 48 3d
       0.039392535 0.07583432 -0.09717108 0.049030326
000190 c2 2d 83 bb 7f d0 ed 3c 3e 22 a1 bd 10 06 1a 3e
       -0.0040032575 0.029030083 -0.07867859 0.15041375
0001a0 dd 7f ce 3d 7b f7 0b be 7f ea 65 be ee c1 d2 3d
       0.10082982 -0.13668625 -0.22452734 0.102908954
0001b0 64 72 37 ba a1 07 95 3e 7b 3d 8e 3d 09 0c f1 bb
       -0.00069979415 0.29107383 0.0694532 -0.007356171
0001c0 74 bc 39 3e 8a 42 32 be c1 9a 82 3b ef 8b 8d 3d
       0.18138295 -0.17408195 0.0039857333 0.06911456
0001d0 b1 1f bc be 6a ad 1d 3e ed 7c 82 be 7a d1 64 bc
       -0.3674293 0.15398183 -0.25485936 -0.013965959
0001e0 53 03 c1 bc 48 cf 2b be 84 27 8d bd e2 27 e3 bd
       -0.023561155 -0.1677829 -0.06892303 -0.110915914
0001f0 15 0b f8 ba bf 32 27 3f 79 84 6c be c8 6f 86 3d
       -0.0018924201 0.6531181 -0.2309741 0.06564289
000200 1e 21 10 be f8 43 5f bc 4b 76 7d 3e ee aa 7f 3e
       -0.14075133 -0.013627045 0.24752156 0.24967548
000210 04 3f 91 be 98 97 1d 3e 81 a9 61 3d a5 b5 ed 3c
       -0.2836839 0.1538986 0.055093292 0.029017279
000220 a0 ad 1a 3e bc 64 bc bd 00 f2 24 bd 73 b8 05 be
       0.15105295 -0.09198901 -0.04026985 -0.13058643
000230 79 52 db 3c 0c d9 fd 3d 08 9c 56 be b9 22 7e bc
       0.026772724 0.12394914 -0.20957959 -0.015511208
000240 5d c8 07 be c4 6e 82 bc b1 a8 13 be b1 00 b0 bd
       -0.13260026 -0.015921958 -0.1441982 -0.08593882
000250 e6 60 15 bd e4 f4 df bd 1f d5 26 3e 25 ba 44 3d
       -0.036469363 -0.10935381 0.16292237 0.048029084
000260 e9 c7 61 bc 2a 70 32 bd 50 e2 14 be 88 48 39 3d
       -0.013780572 -0.043564 -0.14539456 0.045235187
000270 8a ee 49 3d 6c f3 e0 bd 69 c2 e9 bd 48 a1 10 3e
       0.049299754 -0.10983929 -0.11414034 0.14124024
000280 a7 ee ab be 8f 35 32 3e 44 af da 3d eb 2c 10 be
       -0.33580515 0.17403243 0.106779605 -0.14079635
000290 64 04 12 be 17 a6 ee bd bf 65 2a 3e 17 cf 1f 3e
       -0.14259487 -0.11652773 0.16640376 0.15606342
0002a0 2d a0 3e bd 7b 67 55 3e 22 d5 6f bd dd 62 1a be
       -0.046539474 0.20840256 -0.05855287 -0.15076776
0002b0 c7 8e 6d 3d f5 1b 02 3e 16 b7 53 3e 5b 79 4b bc
       0.05799749 0.12705977 0.2067531 -0.01241907
0002c0 92 5b d1 3d 28 0c fe 3d 7b a6 fd 3c bc f1 de 3e
       0.10222544 0.12404662 0.030963173 0.43543804
0002d0 62 e0 80 3e b9 3d 1d be 08 e6 3a 3e cb 71 1d 3d
       0.2517119 -0.15355577 0.18251812 0.0384386
0002e0 54 d0 4f be 31 94 93 3d af bc 52 bd ff df 74 be
       -0.20294315 0.07206 -0.051449474 -0.23913573
0002f0 d8 ff f2 bc c1 bf 91 3d d1 03 ea 3d b1 6a d0 bb
       -0.029663011 0.07116652 0.11426509 -0.006360375
000300 95 86 e5 3d a9 c4 5e 3c 2d 25 62 3c ff 78 eb 38
       0.1120731 0.013596692 0.013802809 0.000112282105
000310 6a ef 81 be 91 5e 90 bc 9e 0d 55 3c 01 ec 33 be
       -0.2537797 -0.017623218 0.013003735 -0.17570497
000320 d5 5f bf bd 6e 3a 75 3d a9 3b 23 be f3 e6 85 bd
       -0.093444504 0.059870176 -0.15940727 -0.06538191
000330 59 cc e8 bc c3 e2 87 bd 24 3d 20 be f7 79 fe 3c
       -0.028417753 -0.06635048 -0.15648323 0.031064017
000340 3e 9b 4a bd 23 7f fd 3c 45 39 5e 3d ba 63 aa bd
       -0.049464457 0.030944413 0.054253835 -0.083198026
000350 52 d2 f4 bd 37 87 df 3c 58 df ae be e7 e1 41 bc
       -0.11954178 0.027286155 -0.34154773 -0.0118336445
000360 e5 8a 91 3c 28 10 ae 3d 3a dc d0 3d dd 5b 61 3e
       0.017766425 0.08499175 0.10198255 0.220077
000370 2e 88 d4 bd 56 ac 80 be e6 d9 3f 3e b2 3a 2f be
       -0.10377537 -0.25131482 0.18735465 -0.17112234
000380 0a 01 64 bd 68 e2 af bc 85 0e cd bd 11 07 13 bc
       -0.055665053 -0.021470264 -0.10012535 -0.008973853
000390 d4 8b 24 3e c6 21 07 3d fe 94 d7 3d e9 2f 45 3e
       0.16068965 0.032991193 0.10526465 0.19256558
0003a0 89 8a 03 bf 86 38 24 3e d0 02 3d 3e 6c b4 23 3e
       -0.5138326 0.16037187 0.18458104 0.15986794
0003b0 a4 e9 8e be 19 ec 1e 3d b0 4d bb bd 4e bd bf bc
       -0.2791263 0.03879938 -0.09145677 -0.023405697
0003c0 3a 9a e5 bc cb a0 4e be af 9e 47 be 48 f2 bf bd
       -0.028027643 -0.20178525 -0.19494127 -0.09372383
0003d0 01 4e 94 3a a5 cd ac 3d 3d ae 1f be 64 d5 f8 bd
       0.0011314751 0.08437661 -0.1559381 -0.12150076
0003e0 a1 42 9d ba c0 91 49 be 38 a0 1d 3d 59 b4 2d bf
       -0.0011998006 -0.19684505 0.038482875 -0.67853314
0003f0 cd e6 c7 3d 32 a5 f4 bd 8b 49 01 bc f5 ec c4 3d
       0.09760819 -0.11945571 -0.007891069 0.096155085

mps.1.l1.edge_block.m.0.bias f4 [16]
000000 95 7a 48 3e 78 65 ac 3d 9f 5f cf 3e e3 13 ca 3d
       0.19578011 0.08417791 0.4050264 0.09867074
000010 83 19 c8 be 1e 3c a0 3e 4d cf 22 3e 78 8e 68 3e
       -0.39081964 0.31295866 0.15899391 0.22710598
000020 30 c9 2c 3f ca 19 0e 3f db 55 35 3f 8c 6d 12 3f
       0.6749449 0.555081 0.7083413 0.57198405
000030 de b5 2e 3f 39 80 61 be 60 2d 86 3e 1a 30 6f 3e
       0.6824626 -0.2202157 0.26206493 0.23358193

mps.1.l1.edge_block.m.2.weight f4 [1, 16]
000000 df e7 b1 3c 3b 56 ad 3c 04 db ab 3e fc c6 54 3e
       0.02171701 0.021159282 0.33565533 0.20779032
000010 02 89 21 bf 9c a4 3e 3e eb 95 06 3f cc 06 04 3f
       -0.6309968 0.18617481 0.52572507 0.5157287
000020 3a 3c 1d 3e c6 06 73 3d cb a7 35 3e 96 48 4e 3e
       0.15355006 0.05933263 0.17739789 0.20144877
000030 01 6a dc 3e 3f 50 23 bd c9 d5 e3 3d fc 06 bc 3e
       0.43049625 -0.03987145 0.11124761 0.3672408

mps.1.l1.node_block.m.0.weight f4 [16, 9]
000000 56 1a 15 3e bb 3d 93 3d b3 0a eb bd 72 33 d6 3b
       0.14560828 0.071895085 -0.1147665 0.0065368945
000010 98 66 b2 3b 44 9c 84 bc 4e 2f b3 bc a9 37 b2 3e
       0.005444359 -0.016187795 -0.021873143 0.3480809
000020 f5 0b 99 3e 5d 8e 44 be 83 73 85 3d 83 6b 9b bd
       0.29891935 -0.19194932 0.06516173 -0.075888656
000030 fd 90 c0 bd 2e a8 c1 bc a5 09 c9 bd 84 e7 68 bd
       -0.09402654 -0.023639765 -0.09816293 -0.056861416
000040 16 e0 d7 bd 7b b3 41 be e0 fb 2d 3e 0f f9 0f 3e
       -0.10540788 -0.18916123 0.16990614 0.14059852
000050 a7 59 82 3e 16 43 e3 3d 5f 92 c6 3c 89 68 d6 3d
       0.25459024 0.1109678 0.024239717 0.10469157
000060 92 b5 ce 3d 8e d5 15 be 0c 1d 46 be c8 b2 05 be
       0.100932255 -0.14632246 -0.19347018 -0.13056481
000070 a1 2a ec 3b a1 e5 09 3e 12 7f 0f 3e 3f 65 6a 3e
       0.00720723 0.13466503 0.14013317 0.22890185
000080 96 51 be 3d 53 ca 03 be 6e 28 37 be 4c 5b 78 be
       0.09292905 -0.1287015 -0.17886516 -0.24253577
000090 9f 33 68 be ee 3f b0 3d 2d 5e 42 3e 2e 2a 92 3e
       -0.22675942 0.086059436 0.18981238 0.28547806
0000a0 b2 d9 d8 bd 78 a3 45 3c db bb 0b be 4a 9d 07 3d
       -0.10588397 0.0120629 -0.1364588 0.033108987
0000b0 38 b3 5a 3e 16 55 7b bc e2 80 67 3d b6 02 10 3d
       0.21357429 -0.01534011 0.056519397 0.035158835
0000c0 fb 58 8b 3d 33 50 5f bd 5a 37 f6 bd 14 8b 6d 3d
       0.06804081 -0.054519843 -0.12022276 0.057993963
0000d0 18 cc de bb e9 37 9c be 69 bd 43 3d 5f 57 5d 3d
       -0.006799232 -0.30511406 0.047788057 0.0540384
0000e0 32 3b 6e bd 75 c9 ff bd 79 66 39 bd 42 f7 86 be
       -0.05816192 -0.12489597 -0.04526374 -0.26360518
0000f0 52 61 a2 bb d5 e9 52 3d 6e 88 81 3e 97 34 d2 3d
       -0.004955449 0.05149253 0.252994 0.10263937
000100 d7 f8 59 3d 99 53 e7 3d 31 59 88 3e 43 84 35 be
       0.053215828 0.11295242 0.26630548 -0.17726235
000110 7e ef 0f 3e 34 a1 bb 3d 04 d0 60 be 79 36 30 3e
       0.14056203 0.091616064 -0.21954352 0.1720828
000120 c6 74 1c be 95 e1 8d bd 70 d6 3f be 9d 96 42 be
       -0.1527892 -0.06927792 -0.18734145 -0.19002767
000130 b3 ab 51 3e 4c e3 4d be ff 2b bf 3d fa 8a 8b be
       0.20475654 -0.20106238 0.093345635 -0.27254468
000140 08 d3 88 be 43 e6 15 be b0 b8 8d 3e 7b 8d 24 3d
       -0.26723504 -0.14638619 0.27679968 0.04017399
000150 c3 f1 16 3d b0 ff ac bc 36 d2 87 3d 9f 8b 1c bd
       0.036851656 -0.021118015 0.066318914 -0.03821909
000160 a4 58 8d 3e b1 2c 19 3d 3e 87 49 be dc db 82 3e
       0.2760669 0.037396137 -0.19680497 0.25558364
000170 24 66 5d be 47 b9 aa bd 32 88 1a bb 43 db b0 3e
       -0.21620995 -0.0833612 -0.0023579714 0.34542283
000180 02 73 ad bd 14 84 8b be 57 dd a6 3c 1a 76 c1 3d
       -0.084692016 -0.27249205 0.020369215 0.09446354
000190 71 02 52 3e 58 a0 7b 3e 1a a7 82 bc b8 76 c8 3d
       0.20508744 0.24572885 -0.01594882 0.09788269
0001a0 75 b4 94 be 7f fd af 3d e5 5d 54 3e 34 a2 8e 3e
       -0.29043928 0.085932724 0.20738943 0.27858126
0001b0 17 7b c4 bd 84 b3 0d bd a4 e6 03 3c 3f 07 2a be
       -0.0959379 -0.034595028 0.0080505945 -0.16604327
0001c0 b2 54 60 be 69 5c 54 be c1 12 a3 3c 10 ec 19 3e
       -0.21907309 -0.20738377 0.019906403 0.15031457
0001d0 e6 32 13 3e ec 94 3e 3d 0f aa 18 3e 1a 21 38 be
       0.14374885 0.04652874 0.14908622 -0.17981377
0001e0 b3 6a a2 3d da bd d7 bd 3f 44 42 be 26 5f 96 3e
       0.079305075 -0.10534258 -0.18971346 0.29369467
0001f0 d4 6d 7f be 4f 29 40 3e 5d 1c 64 be 45 d5 16 3d
       -0.2494424 0.18765758 -0.22276445 0.036824483
000200 75 bb 44 be 6f 3a 8c bc 99 3b 1f be c4 40 2a 3e
       -0.19212134 -0.017117707 -0.15550078 0.16626269
000210 fa d8 6e be 11 ea 1c 3e 2f b4 b4 be 6e e3 5b 3e
       -0.23324957 0.15323664 -0.3529372 0.21473476
000220 e1 70 b9 bd fa 46 6e 3c 41 d4 c1 bd 71 f0 3a 3e
       -0.09054733 0.014543289 -0.09464312 0.18255784
000230 5c 1d 0f 3d 3f d7 8e be 23 45 ce bc c1 45 9d be
       0.03494011 -0.27898595 -0.025179451 -0.3071728

mps.1.l1.node_block.m.0.bias f4 [16]
000000 43 52 28 3f 58 14 09 3f da 61 12 3d 0f c9 09 3e
       0.6575052 0.5354667 0.03573785 0.13455604
000010 ca d9 57 3f 64 e7 3c be 1d 11 13 3f 33 75 06 bd
       0.84316695 -0.18447644 0.5744799 -0.032826614
000020 5d ec 75 3d d7 2a 23 3f cd 5e 99 be a6 9f d0 3e
       0.060039867 0.63737243 -0.2995514 0.40746802
000030 ef 56 6a be 99 8a a8 3d b5 4f 98 be f6 c0 4d 3e
       -0.22884725 0.082295604 -0.29748312 0.2009314

mps.1.l1.node_block.m.2.weight f4 [8, 16]
000000 01 31 13 3e 3b 7f e2 ba 40 2a c1 3d 6b f5 8b be
       0.14374162 -0.0017280349 0.09431887 -0.27335677
000010 2e 29 cd 3d 45 19 2d be b8 91 e0 3d 3a 26 a7 bc
       0.1001762 -0.16904171 0.10965294 -0.02040397
000020 4b 9b f3 bd ae 9e 26 3e a4 25 f2 3e 06 7e e8 bd
       -0.11894854 0.16271469 0.47294343 -0.11352162
000030 9c ee f3 bc 4f be 6d 3e 3c 30 f2 3c 6b 19 bc bd
       -0.029776864 0.23217128 0.029564016 -0.091845356
000040 1c 13 fc be 45 2b 80 be fb 61 c8 3d 8f 0e 73 3e
       -0.4923333 -0.25033012 0.09784313 0.23736022
000050 2e 45 9b be db 4c 79 3e 0c 96 5b bd a5 47 70 3e
       -0.30326217 0.24345724 -0.053609893 0.2346483
000060 a1 ba 0d bd c5 a6 90 be b3 c1 14 bd e7 68 b0 3d
       -0.03460181 -0.28252235 -0.03631754 0.086137585
000070 e5 c2 95 3e f6 86 ec bd f1 3c 14 3e 69 5c 1b 3e
       0.29250255 -0.11549179 0.14476372 0.1517197
000080 a0 f7 90 bd 95 b4 9c 3d 3b a3 25 bd dd e4 05 3e
       -0.07078481 0.07651631 -0.04043887 0.13075586
000090 8a 42 29 bd 01 63 5e bc d7 0d 1c 3e e6 77 92 be
       -0.041323222 -0.013573409 0.15239654 -0.286071
0000a0 64 3e ef bd ca 52 08 3d c5 bd 84 3e 15 18 27 3e
       -0.11681822 0.03328208 0.25926033 0.1631778
0000b0 5c 08 6f be e4 b4 56 bd d8 46 22 be 9a 98 96 bd
       -0.23343033 -0.052418604 -0.15847337 -0.07353325
0000c0 52 dc 52 3e 47 d9 bb 3c 50 df 99 bc aa cc 72 3d
       0.20591858 0.022930754 -0.018783242 0.059277214
0000d0 fe 73 be bd 70 c2 a3 3d 8f 88 2e be 58 36 5f be
       -0.092994675 0.079960704 -0.1704428 -0.21798074
0000e0 30 81 29 3e 43 f4 9e bd 44 33 39 3e 01 a1 ea bd
       0.16553187 -0.07761433 0.18085963 -0.1145649
0000f0 4c fc 85 3c 54 5e 1d bd 65 d2 6e 3e a0 c0 8d 3d
       0.016355656 -0.038420036 0.23322447 0.06921506
000100 fd 07 d6 3e ed 0f 85 3b 53 9b bd bc e2 9c 20 3e
       0.4180297 0.0040607364 -0.023145353 0.15684846
000110 8e 65 b6 3e ef 1d 34 be c8 40 8b 3e a9 e4 03 3e
       0.35624355 -0.17589544 0.27197862 0.12880196
000120 56 71 2d bd 0a 41 c3 3e 5f 32 32 be 79 93 1e 3e
       -0.042344414 0.38135558 -0.17402028 0.15485944
000130 34 b2 9a 3e a4 b0 3f be cd a0 10 be da 12 76 be
       0.30214083 -0.18719727 -0.1412384 -0.24030629
000140 3c 9d 0e 3e 3e 09 0f be a8 2f 55 bd f1 bb b0 3d
       0.13927168 -0.1396837 -0.0520474 0.08629597
000150 0b a0 62 3e 2c 9c 35 3e 77 eb 46 3e 3f 7f 10 3e
       0.22131364 0.17735356 0.1942576 0.1411104
000160 d9 e6 c1 bd af 3c 5f 3e e4 5c 75 3d bb 38 70 3e
       -0.09467859 0.21800493 0.05990304 0.23459141
000170 07 aa d8 3d 26 cc 9f 3e a1 bd 22 be f3 06 9a bd
       0.10579305 0.3121044 -0.1589265 -0.07520857
000180 64 30 b6 3d d9 29 55 3e 66 4e 43 bd 7b c8 45 be
       0.088959485 0.20816745 -0.04768219 -0.19314758
000190 17 49 02 3e 40 b3 06 3e bb c8 cd 3d 65 eb 73 3d
       0.12723194 0.13154316 0.10048052 0.05955066
0001a0 83 7f 7b 3d 0b 3a 00 be ea 8f 09 be 06 fb d2 3b
       0.0614009 -0.12522142 -0.13433805 0.0064386157
0001b0 23 7e 76 be b8 3a 5b be db 17 5f 3e a0 2f 52 bd
       -0.24071555 -0.21409118 0.21786444 -0.05131495
0001c0 0c 8f 1a be 23 fc d7 bc 97 9e 25 be b1 5c 0d 3e
       -0.1509363 -0.026365345 -0.16173778 0.1380489
0001d0 c5 6a 18 bd f3 15 d2 bd 83 8c 2c be ce 6a d4 3d
       -0.0372112 -0.10258093 -0.16850476 0.10371934
0001e0 33 16 8b bd 55 94 6d 3d c0 6c 8a 3d 06 9a a4 bd
       -0.067913435 0.05800279 0.06759024 -0.0803719
0001f0 5a 1f b3 bc 5b 4b 86 3e 69 8f 35 be 33 a7 95 bc
       -0.021865536 0.26229367 -0.17730488 -0.018268203

mps.1.l1.node_block.m.2.bias f4 [8]
000000 76 c6 db be 6c b2 0c bf 7c 4f 13 3f 9e 36 09 3e
       -0.4292485 -0.5495975 0.5754316 0.13399741
000010 2c 7c 1e 3f 60 1c 4d 3d 24 42 1b be 9f 5d dd be
       0.6190822 0.05007589 -0.1516195 -0.4323549
