archive-july16/warmup_results/nif_sketch_pcg_50epochs/model_epoch19.pt (torch, 44782 bytes, 56 tensors)

mps.0.l1.edge_block.m.0.weight f4 [16, 17]
00000000: a876 3a3e 8970 583d 75b6 983d 7938 e33e
00000010: 74e2 77bc 2537 fe3f 7bdc 2f3e c2b7 843e
00000020: eb95 dd3d f50e fc3b f26b c33e 62aa 973e
00000030: ef0f b93e 4891 5d3f 726b bb3e a74f 493e
00000040: 153f 033f db3b af3b b30f c6bd cc5b 453d
00000050: bc9a c3bd 2ec3 d9bc 0801 a7bd 75d9 073e
00000060: 05a6 22be dec5 cdbd 7847 72bd 6502 fcbd
00000070: 20b2 813c e789 4dbe b71a 393e 5cc7 2ebe
00000080: 7cfc 1d3e b8f3 083d 3b7d 98be bfac c63e
00000090: c1dc d53e f384 863f a216 023f 7e6f 3740
000000a0: 1312 453f 5c73 053f a3e1 563e 09e7 1b3f
000000b0: 23fc 193f 859d 4b3f 0d6e 343f 4460 2940
000000c0: 7a59 513f 473c ff3e f371 3b3e 4f77 a9bd
000000d0: 3d09 2bbe 7830 1c3e 5dfc 293d 27be 8d3d
000000e0: 1182 7b3d cf14 afbb 47e6 1d3e d41b 13be
000000f0: 6852 9e3a 00e1 16be 5fcb 413d 88ce a7bd
00000100: 2277 733d e2b5 32bd 90ae 273e 80c7 f0bd
00000110: 2004 17be 8d49 31be e4d2 033e bc16 933b
00000120: 7e2f 0b3e ae36 34be c37b 56be 28d0 2fbe
00000130: 2873 20be fcbc ec3c 46ec b13c beae d73d
00000140: 50ac 23be d8fd 16be 7a3e c43d eff1 c3bd
00000150: ec38 c03d 518f abbd 6412 b03e d67e 29be
00000160: 05b4 2dbe 913e 313e 52d2 afbf ed86 e0bd
00000170: 6d60 1e3e 6f44 443e 78f6 2dbe 33b5 4bbe
00000180: 7961 e63d 0426 04be fd42 3abf 9b4b 81be
00000190: d289 22be e623 4cbe 9686 cabd 4be5 95bd
000001a0: e322 9a3e 1288 5e3e 6b50 913c 6fa1 993f
000001b0: fe8c 353e edb7 073e 1c13 883d 999a 483e
000001c0: fecc cd3e 630f 2e3e 6651 d13d 8b38 5f3f
000001d0: 8aae c43e 8982 df3d 4f5e 8dbd 4cd9 f5bd
000001e0: f5aa 113a 69ce 98bd 95a7 63bc 0223 0bbe
000001f0: 33ef 0cbe d193 efbd 2b91 8cbd aa0f 22be
00000200: 6c29 2c3e 6600 23bd e4a9 303e a0e8 7f3d
00000210: f7de 2dbe 1018 0e3e 0bfb 61bd 1b6a 9dbd
00000220: b17f 3abe 1f0d 72be 95cc ae3c 4334 b5bd
00000230: 170a 193d 7e3a 2fbe a190 113e 5c4e 20be
00000240: 7863 3cbd 8b26 b83b 9212 8c3d 6061 f13d
00000250: 0ed4 113e 16a7 29be eb31 333d 0e95 c3bd
00000260: 7834 1ebd aa96 41be 3841 883e 5bd6 7b3d
00000270: a161 0b3f fc28 9d3e 8383 c63f b819 a43e
00000280: a8b3 fa3e d813 893d 5c0d 333e d41c aa3d
00000290: d339 013f 4777 7f3e 75cd 943f 1ce5 193f
000002a0: bcfa bc3e 4c19 393d d512 f9bd 9f1f 0d3e
000002b0: de9a 013d 392c 56be 97e4 a9bd 303d c3bf
000002c0: b584 92be 3636 db3c 8e3d 683e 50c8 88be
000002d0: 2fc3 29be 8637 53bd b293 c8bd e589 0dbf
000002e0: 65d3 01bd 3180 f5bb eb2a 24be 8b62 11bd
000002f0: 31ed 65bd 68c5 983c 3620 21bd 2e7d 81bd
00000300: 27b8 023e 86f6 2f3e eb0d a8bc f6f3 38bd
00000310: c9fd e9b8 a412 72bc 826a 353d a4f0 573d
00000320: c104 3bbe 8289 98bd c53b 2c3e 0799 9b3d
00000330: 7866 23bc 3d96 f7bd 1e3e fbbd e2ec 37be
00000340: d5db 85bd 2bae 8a3d f3eb 023e 3e99 bd3d
00000350: 8f7f 35be 0cf4 f6bd ec9d 01bd 9d9f 463e
00000360: 859e ed3c 78b2 54bd 9ce4 a93d 1469 9cbd
00000370: a1e6 04be 460e 6e3e 4061 80be 4b33 8f3d
00000380: b7e3 503d 884e 073e 9b28 0940 b06e a33e
00000390: 04b5 fcbc d68f 63be 5f67 26bd a464 b23e
000003a0: 4fb8 b03e 9911 b83e dc6b 783f 17fe 973e
000003b0: b857 463e f279 263e 22eb 2fbe cc0d 40be
000003c0: 6b1b a83d 429e c9bd 2c4a 25bd d755 ecbd
000003d0: 8aa9 15bd 7084 10be 852a 06be c937 883d
000003e0: 5617 74bd 6484 fd3d cfbd 83bd 6c9f 16be
000003f0: 51e9 10bd 3f10 c7bd 4d46 7bbd 1520 74bd
0.18209326 0.052841697 0.07456676 0.44379023 -0.015129674 1.9860579 0.1717395 0.25921446
0.1081961 0.0076922127 0.38168293 0.2962218 0.3614497 0.86549807 0.36605412 0.19659291
0.5126813 0.0053477115 -0.09670963 0.048183247 -0.095509976 -0.026582327 -0.081544936 0.13266547
-0.15883644 -0.10047506 -0.05915019 -0.12305144 0.015832007 -0.20072137 0.18076597 -0.17068237
0.15428346 0.033435553 -0.29783043 0.3880367 0.41769984 1.0509323 0.50815785 2.86618
0.76980704 0.5212915 0.20984511 0.60899407 0.60150355 0.7953723 0.70480424 2.6465006
0.81777155 0.49850675 0.18305187 -0.082747094 -0.16702743 0.15252864 0.041500438 0.06921034
0.061403338 -0.0053430567 0.15419875 -0.14366084 0.0012079002 -0.14734268 0.04731309 -0.081936896
0.059439786 -0.04363049 0.16375184 -0.117568016 -0.14747667 -0.17313214 0.12873417 0.004488794
0.13592336 -0.17598984 -0.20945649 -0.17169249 -0.15668929 0.028898709 0.02171911 0.10531376
-0.15983701 -0.14745271 0.09582229 -0.095676295 0.09385857 -0.08376945 0.3438903 -0.1655229
-0.16963203 0.17309023 -1.373606 -0.10963235 0.15466471 0.1916673 -0.16988552 -0.19893341
0.1124906 -0.12905127 -0.72758466 -0.25252995 -0.15872887 -0.19935569 -0.098889515 -0.07319125
0.3010474 0.21731594 0.017738542 1.2002391 0.17729566 0.13253756 0.0664427 0.19590224
0.4019546 0.16998057 0.10220604 0.8719565 0.38414413 0.109135695 -0.069027536 -0.12004337
0.00055567856 -0.074612446 -0.013894935 -0.13587573 -0.13763122 -0.116981156 -0.06863626 -0.15826288
0.16812676 -0.0397953 0.17252308 0.062477708 -0.16979586 0.13876367 -0.055171054 -0.07686254
-0.18212773 -0.23637818 0.021337787 -0.08847859 0.037363138 -0.17112157 0.14215328 -0.15654892
-0.0459933 0.005619829 0.068394795 0.11786151 0.14241049 -0.16567644 0.043748777 -0.09549914
-0.038624257 -0.1890513 0.26612258 0.061483722 0.54445845 0.3069533 1.5508884 0.32050872
0.48965192 0.06693238 0.17485565 0.0830628 0.5047886 0.24947844 1.16252 0.6011522
0.36910045 0.04519014 -0.12161795 0.13781594 0.031641833 -0.20915307 -0.08295553 -1.5253048
-0.28616872 0.026759248 0.22679731 -0.26715326 -0.16578363 -0.051566623 -0.09793796 -0.55288535
-0.031695742 -0.0074920882 -0.16031997 -0.03549437 -0.056134406 0.018648818 -0.03933736 -0.06322704
0.12765561 0.17183885 -0.02051445 -0.045154534 -0.00011157577 -0.014774952 0.044291027 0.052719727
-0.18263532 -0.074481025 0.16819675 0.07597547 -0.009973161 -0.120892026 -0.12267707 -0.17961457
-0.0653607 0.06771501 0.1278532 0.09257744 -0.17724441 -0.12058267 -0.031644747 0.19396825
0.029006252 -0.051928014 0.08295557 -0.076372296 -0.12978603 0.23247632 -0.25074196 0.06992205
0.050998416 0.13213551 2.1431034 0.31920385 -0.030848034 -0.22222838 -0.040625926 0.34842408
0.34515616 0.35950926 0.9703958 0.29686043 0.193694 0.16257456 -0.1717954 -0.18755263
0.082083546 -0.098446384 -0.04035394 -0.1153981 -0.03653864 -0.14113021 -0.13102157 0.06651265
-0.059592567 0.12378767 -0.064326875 -0.14709252 -0.035378758 -0.097198956 -0.06134634 -0.05960091

mps.0.l1.edge_block.m.0.bias f4 [16]
00000000: 15cd cb3e deeb 183e a7b6 7e3f 48ba 50bd
00000010: aaf7 3cbe a8f1 89bc db61 f13e 5b5d 4cbe
00000020: 0837 6fbd 98cb ac3e ef4f 27be cb18 ccbd
00000030: e7dc a7bd 8c22 453e b81f 43be 50f8 333f
0.39804903 0.14933726 0.99497455 -0.0509589 -0.18453851 -0.016838863 0.4714497 -0.19957487
-0.05840209 0.3374908 -0.16339086 -0.099656664 -0.08196431 0.1925146 -0.19055068 0.7030077

mps.0.l1.edge_block.m.2.weight f4 [1, 16]
00000000: 243b 303e 2070 a1bc 534e 513f 7fde 9fbd
00000010: c407 16be d7ca a2be be08 95bb 6e68 e8bd
00000020: f69c d5bd 6efe 593e 7edf 85be aeb2 87bd
00000030: f19d d93b c02a a43f c0be 91bd 05cb d0be
0.1721006 -0.019706786 0.8176014 -0.0780611 -0.146514 -0.3179538 -0.0045481613 -0.113480434
-0.104303285 0.21288463 -0.26147074 -0.06625877 0.0066411425 1.2825546 -0.07116461 -0.40779892

mps.0.l1.node_block.m.0.weight f4 [16, 9]
00000000: d822 073e a345 e63e 37d0 513f 82d6 a53e
00000010: e49c 093f f5c1 37be e243 f33e 325a 413e
00000020: 22a6 f13f 4d8e 473e 48d4 673e a8e9 0c3f
00000030: 3633 1c3f 08cd 413e bfec 4b3f ffcd 103e
00000040: 04ba 5f3e 54dc 49bf 9a5b e13d c405 4fbe
00000050: 13d0 323d 0ac1 863e 270e 0fbe fbee cc3f
00000060: 2e7d c73e 9d09 fb3e 9d03 44bf e8a3 56be
00000070: 4962 62be 0263 0c3e c4e8 51be 1cfc 0abd
00000080: 565f 073e 9b9a 02be 682a f6bc 4482 c4bc
00000090: 5986 85bd 3a5a 11be 34d3 7dbe 371d 67be
000000a0: 6cdb 19be db17 883e 3db2 08be ae05 3ebe
000000b0: a027 393d 3bbd bb3d 8dc7 01bf fff4 05bf
000000c0: 47fd 6fbe 4ad9 65bf 6f3c 08bd ea19 69be
000000d0: 42f3 ffbe 9045 27bf 9128 8a3e f818 79bf
000000e0: 0f68 4abf 2902 4cbf aadf 57bf 4d19 4cbf
000000f0: 61ab 1cbf 34de 31bf d95e 2e3f 17ea 89be
00000100: 6b2a 53bd c265 483e 8d72 c03d 99c9 63be
00000110: df6b 4dbd 7da6 5ebe d888 1bbe 1ffe 89bc
00000120: 1f67 e23d 66bb bcbd 2453 f1be 1c90 163e
00000130: 24ee e3be deec a23e b30e 3e3e 6e47 07be
00000140: 30af 3dbf 32c6 a6bd 43b0 df3e bdcd 7c3f
00000150: 43bf 313f 4e11 1f3f c564 0f3f 2421 723f
00000160: f090 4c3f c246 b23e 8995 1ebe 8412 65be
00000170: 222e f43c a837 a73d dd4a 02be 56ea 9dbd
00000180: 2096 3e3e 6bd6 b33c 17b7 4b3c 98bc 2dbd
00000190: c6e7 85be e303 673e 9a7d 1dbd a9e4 e5bb
000001a0: 286f a0bf 8acd 7d3d a989 08bd 9e5b 153f
000001b0: c340 2ebe 569b 0e3f c09a 913e b257 a73e
000001c0: 658f 083f 87fd 183f 123e bc3e d7ab e93e
000001d0: 09a4 96bd 1275 a4bd 660a 273f 06be 763f
000001e0: 3419 393f edfe 0d3f aad5 df3e 74aa 133f
000001f0: 02f8 2b3f dc2e 813e 656e babd b082 53bb
00000200: de02 bd3e 61b3 853e 2a17 003f fbbb b63f
00000210: a2ae 223f 6cda c53e 7891 893e ffca 8dbc
00000220: 9759 633f 7945 2c3f 0724 7f3f e03a 783f
00000230: 8f93 c63f c203 113f 20c1 753f 1496 ba3e
0.13196886 0.44975004 0.81958336 0.3239022 0.5375502 -0.17945082 0.47512728 0.18882063
1.8878825 0.19487877 0.22639573 0.5504403 0.6101564 0.1892587 0.7965812 0.14141081
0.21848303 -0.7885182 0.110038 -0.20217043 0.043655466 0.26319152 -0.13970242 1.6010431
0.38962692 0.49030772 -0.76568013 -0.20960963 -0.22107805 0.13709643 -0.2049895 -0.033931836
0.13219962 -0.1275429 -0.030049518 -0.023987897 -0.065197654 -0.14194575 -0.24787599 -0.22569738
-0.15025109 0.265807 -0.13349243 -0.18556854 0.045203805 0.09166952 -0.50695115 -0.5232696
-0.23436461 -0.8978468 -0.03326076 -0.22763792 -0.49990278 -0.6534052 0.26984075 -0.97303724
-0.7906503 -0.79690796 -0.8432566 -0.79726106 -0.61199003 -0.6947968 0.68113476 -0.2693641
-0.051554125 0.19570068 0.09396849 -0.22244872 -0.050151702 -0.21743198 -0.1518892 -0.016844807
0.11054825 -0.09215431 -0.47133744 0.14703411 -0.44517624 0.3182134 0.18560295 -0.13210842
-0.7409544 -0.081432715 0.43689165 0.9875143 0.6943247 0.6213578 0.5601314 0.9458182
0.7990866 0.3481961 -0.1548673 -0.22370344 0.029807154 0.081649125 -0.1272387 -0.07710712
0.18611956 0.021952828 0.012433789 -0.042416185 -0.26153392 0.22560076 -0.03844986 -0.007015784
-1.2533922 0.061963595 -0.033334408 0.5834292 -0.17016892 0.55705774 0.28438377 0.32684094
0.533438 0.5976185 0.36766106 0.45638916 -0.07355506 -0.08030142 0.6525024 0.963837
0.7230408 0.5546711 0.437177 0.57681966 0.67175305 0.25231063 -0.09103087 -0.003227394
0.3691625 0.26113418 0.50035346 1.4276117 0.6354772 0.38643205 0.26868796 -0.01730871
0.8880858 0.67293507 0.9966435 0.96964836 1.5513781 0.5664636 0.9599781 0.36442626

mps.0.l1.node_block.m.0.bias f4 [16]
00000000: 4574 0e3e 9f1e a03e d7a2 3f3e 9b01 67be
00000010: ace9 563d 0bd8 a4be cb2f 1ebf 962b cebd
00000020: 64d3 513e 21ae 523f f484 26be 0d8b 083e
00000030: 990a 1e3f 263d 4c3f 999d e73e 1aaf 613f
0.13911541 0.31273362 0.18714462 -0.22559206 0.05246894 -0.32196078 -0.61791676 -0.10066907
0.20490795 0.8229695 -0.16261655 0.13334294 0.6173492 0.79780805 0.45237425 0.8815781

mps.0.l1.node_block.m.2.weight f4 [8, 16]
00000000: 059f 773b c24d 00be e954 57bd 451d 4c3e
00000010: dfec 343e b8f7 843e 6ca6 4b3e c86d 103e
00000020: 4f78 1b3c e28c 09bf 5f80 d33d 2df2 38bd
00000030: d4f6 79be 18f6 c7be ca69 73be 09fd 79bd
00000040: d817 08be c4c7 45be 58c8 22bd f580 f9bd
00000050: 97ca 09be 72f1 cf3c 71a3 e4bd ad5a 403e
00000060: 46ac 043e bad2 7abe f7ad 913d 3987 af3d
00000070: e1f0 6abd 4c27 91be 9bb8 fd3e 9814 02be
00000080: dbd2 8c3e 9aa8 84bd 6c9a bebd 5403 4dbd
00000090: 7182 ccbd 6725 373d 2a90 363e 960b 1e3e
000000a0: a6de 873d 0c54 00bf 392f e3bd 3cea 2b3e
000000b0: 50a5 48be d625 99be 47d1 4ebf a978 7ebe
000000c0: f8bb 34be 982f 89bd 6cbf cabd b569 383e
000000d0: 7f6a 48be fcdf 823e eb72 523d dadf 0fbd
000000e0: 5322 403e 000e 49bf 7cbc 043e b7a1 04bf
000000f0: c1b6 24be 20cc c9be 03f3 023e fb07 003c
00000100: 80b2 893c 71ab 003d 5f98 00be 75a0 d8bc
00000110: cf16 493e cae4 eb3d 4c6a a0bc 05db 47be
00000120: 73f1 aebc b9f2 d5be 3f1c 2c3e 0a0a bdbe
00000130: 20ea 9dbd 49a6 53be ef49 05bf 70e3 9a3d
00000140: 0f9e dbbc 56af 0b3e 2dbd 343e 9add 2a3e
00000150: b630 92bd b182 04bd 5a1e cc3d ddf2 28bd
00000160: f8be ff3d ebb9 e93e ca8c 0fbe 0162 3a3e
00000170: 6e26 8cbc a713 003f 6e6d 243e 88f6 bb3e
00000180: 4abc 253e 78ff 69bd 8d4f 7dbe 9979 14be
00000190: 0677 03be d119 85be 449e 33be dfdc 45be
000001a0: 861e 87be fab7 683d 37a6 50be 909b ce3d
000001b0: 9720 a03e 78ae 283e 5d71 ac3e c674 e0be
000001c0: dcde 873e dd53 96bd cd99 88bd f266 023e
000001d0: 7869 38be 731a 7d3d 35da 823e 99e4 0a3d
000001e0: 3d86 8d3d 2771 dfbe 3fe1 3abb d77d 643d
000001f0: 194c 5bbe 6895 13be 8798 98be a130 80be
0.0037783992 -0.12529662 -0.05257121 0.1993304 0.17668484 0.25970244 0.19887704 0.14104378
0.009489133 -0.53730595 0.10327219 -0.04515283 -0.24410564 -0.39054942 -0.23770824 -0.06103233
-0.13290346 -0.19314486 -0.039741844 -0.121828 -0.13456188 0.025383685 -0.111639865 0.1878459
0.12956342 -0.24494448 0.07113259 0.085707135 -0.057358626 -0.28350294 0.49554905 -0.12703168
0.2750462 -0.06477471 -0.093067974 -0.050052002 -0.09985817 0.044713404 0.17828432 0.15434107
0.06634264 -0.50128245 -0.110929914 0.16788572 -0.19594312 -0.2991168 -0.8078808 -0.24850716
-0.1764983 -0.06698531 -0.09899792 0.18009074 -0.19571875 0.25561512 0.051379126 -0.03512559
0.18763094 -0.7853699 0.12962526 -0.5180926 -0.1608534 -0.39413548 0.12788014 0.007814403
0.016808748 0.0314135 -0.12558125 -0.0264437 0.19637607 0.115182474 -0.019581936 -0.19517143
-0.021355366 -0.41786745 0.1680765 -0.36921722 -0.077106714 -0.20668902 -0.5206594 0.075629115
-0.026808767 0.13641104 0.1765029 0.16686097 -0.07138197 -0.0323512 0.099667266 -0.041247237
0.12487596 0.45649657 -0.1401855 0.18201448 -0.017108168 0.5002999 0.16057369 0.36711526
0.16185108 -0.0571284 -0.24737377 -0.14499511 -0.12838373 -0.2599626 -0.17540842 -0.19322537
-0.26390475 0.05681608 -0.20375906 0.10088265 0.31274864 0.16472805 0.3368024 -0.4383909
0.26537216 -0.073402144 -0.0666996 0.12734583 -0.18008983 0.061792802 0.25557104 0.033909414
0.069103695 -0.43641016 -0.0028515605 0.055784073 -0.21415748 -0.14412463 -0.2980387 -0.250371

mps.0.l1.node_block.m.2.bias f4 [8]
00000000: e1a6 1ebf 5840 f1bc b47a 0cbf 2f2c 39bf
00000010: b5c4 2fbf d339 943e d23d 573e f6c4 a9be
-0.61973387 -0.029449627 -0.5487473 -0.72333044 -0.68659526 0.28950366 0.21019676 -0.33158082

mps.0.l2.edge_block.m.0.weight f4 [16, 17]
00000000: 0080 963d 2017 00be 5e29 07be e8ad d23c
00000010: 737b 3fbe 1972 50be 647d b63c b5b0 cd3d
00000020: 9d39 2f3e 6bc7 3a3e 7b8a 28be ecc7 5dbd
00000030: efa2 2b3e 31ac 843b 39a9 593d c2f9 71bc
00000040: af1d 62be d397 823c 47b9 0c3f a9a6 debe
00000050: 1d6d 123e dd91 77be ffa1 99be 3c37 cb3e
00000060: 1c89 c0be 9252 8fbd 2b33 9e3e 3f72 2dbf
00000070: 5848 953d eef9 90be ecb6 22be ff9f b13e
00000080: 7134 62be d7a3 09be 201f 17be e716 81be
00000090: 3b34 1ebd 528c 62be d7ed a23b f02d e63d
000000a0: 1b7e 76be 1db9 7e3e 2c52 30bd cd98 35be
000000b0: dd9e 09be 703e 50bd 4923 6abd 9b04 ecbc
000000c0: dba6 53bd f5b7 fc3d 65ed ffbe fa45 2a3e
000000d0: b9f8 533c ca19 253d d02e 203e 2553 07bd
000000e0: d2cd e9bd d4d5 04bd 1088 263e ce59 18be
000000f0: c26b 3a3d 1fcb 49be 654f d73d 45b9 973d
00000100: dd44 0b3c fc3f b03d b77b 6c39 f23c e33d
00000110: 6929 913c 569d d23e 682c a9be de79 e83e
00000120: 938d da3d 7c09 dbbe 952b 413f 8d6b 60be
00000130: 8ce3 863d 5e2d 993d a941 eebe e35f 953e
00000140: c702 be3c 2ff4 9abe e7b9 a63e e308 84be
00000150: 76dc c6bd 04d5 19be df23 ce3b 086d 7dbe
00000160: 35a8 84bd 50c1 633d 47f9 fc3d 03cc b43d
00000170: 3141 073e 2eab 313e b027 bb3d 5347 5a3e
00000180: 8a38 813e 4a18 b7bd a116 493e a2fd a53d
00000190: 4b08 2ebd 8344 d13e d466 6abe 5164 21bd
000001a0: 1e8f 51be 431e 8c3c 2567 313d c911 d9bd
000001b0: 0995 8dbc e2b0 aebd d750 2bbd 3abc 4bbc
000001c0: bb01 58be 5cec af3d 509e 553e 479a 393e
000001d0: 85d9 6ebe d879 bebd 5ff1 213e 286b 89bd
000001e0: 0cb1 b73c 7a0c 0b3e f94b 2b3e d2b7 49bd
000001f0: 145e 1c3e ce53 ce3b 5a50 cdbd da1f 95be
00000200: 7f42 f8bd 0c2b ec3d 3cd1 6fbe 3e05 50be
00000210: 19f4 093e 9634 ef3d 13a1 0e3e a852 96be
00000220: a59c b1bd 907e 363e a1e9 2f3e 8b1a 273e
00000230: d0d1 453d 836c b73c 9144 523e 7362 edbd
00000240: 4d69 e6bc 1dfb 5f3e 70a2 11be b41e 84bd
00000250: 4f04 253e ba57 883c 1a05 ab3d 3ecb 96bd
00000260: 2068 61bd 7f1d 393e 3a82 f6bc ce41 8fbd
00000270: 01b4 d13d 42ca 43be 5142 083e 48b3 41bd
00000280: 2a0a ecbd 1331 69bd 85aa 21bd baca 89be
00000290: 6986 f73d fbdf cdba 72f0 7fbe 6958 9abd
000002a0: 7373 053e 30ad dd3c f947 8b3d 4b00 ddbd
000002b0: feb4 ccbd 7ccc 26bd 0cf6 3bbd 7662 19be
000002c0: b9bd f43c 7631 de3b a0e7 2dbd 9d43 323d
000002d0: c494 c3bd 2bbb 173d 25cd 7e3d ad20 f9bd
000002e0: 33f5 38be efcc b23d d573 c33a 7b9f 21be
000002f0: b3eb 2d3e d5eb d5bd 286d 423d 2e4c e93c
00000300: 0428 05be 468b f03d 0162 7abe e574 6cbd
00000310: 3e6f 38be a8ea 1c3c ba60 363e a0ec 05bd
00000320: 36e8 5a3e 3740 9ebe ef7a 783e 4d4e 1c3f
00000330: 4874 0cbe 9eac 7a3d 6277 883d 4715 483e
00000340: 6f87 d0bd 5f95 03be 67dd 803d d92f ec3c
00000350: 2ec9 453d fb11 143e 6f19 a8bd f22d f83d
00000360: 5c9e 2c3e b9a9 acbd 2462 2f3e 4068 843d
00000370: a1d8 163e 7fb7 ffbd a2c9 89bd 9999 a6bd
00000380: 6cb4 1bbc f60c b83d 67dc 00be 719a 0f3e
00000390: d28e 0fbe 0ca1 863e 3cd2 abbd 8dd5 86bd
000003a0: 97f0 12bd 9e64 f8bd c7f6 2b3e 11dd 45be
000003b0: 5acc 8d3d a593 313f e900 11be eb5b 38bd
000003c0: c681 a0be 45b1 65be d5c2 89be 4c1d 483d
000003d0: c0f7 1fbe 6f42 02be acb8 47be 24cd af3d
000003e0: ed43 82bd 5c62 a4bd 739f 43be ade0 cfbd
000003f0: 7baa 8a3e 8447 b5be 24bc 0bbe 08ef d23d
0.07348633 -0.12508821 -0.13199374 0.02571769 -0.18699436 -0.20356025 0.022276588 0.1004347
0.17111821 0.18240134 -0.16459076 -0.05414574 0.16761373 0.004048847 0.0531399 -0.01476902
-0.22081636 0.015941536 0.5497021 -0.43486527 0.14299436 -0.24176736 -0.30006406 0.39690578
-0.37604606 -0.06998171 0.30898413 -0.6775245 0.07289189 -0.2831568 -0.15890092 0.3469238
-0.22090317 -0.13441406 -0.14757967 -0.25212786 -0.03862403 -0.2212384 0.0049722004 0.11239231
-0.24071543 0.24875303 -0.043047115 -0.1773407 -0.13439508 -0.050840795 -0.057162557 -0.02881079
-0.051672798 0.123397745 -0.49985805 0.16628256 0.012937718 0.040307797 0.15642858 -0.033038277
-0.1141621 -0.032430485 0.16262841 -0.14878008 0.045512922 -0.19706391 0.1051319 0.07408384
0.008500305 0.08605954 0.00022552801 0.11095609 0.017719941 0.41135663 -0.33041692 0.45405477
0.106715344 -0.42780674 0.75457126 -0.21916027 0.0658637 0.07479356 -0.4653447 0.29174718
0.023194684 -0.30264422 0.32563707 -0.2578803 -0.09710018 -0.15022665 0.0062908973 -0.24748623
-0.064773954 0.05560428 0.123522334 0.08827975 0.13208462 0.17350456 0.09138429 0.2131627
0.25238448 -0.0894018 0.19637538 0.08105017 -0.042488378 0.40872583 -0.22890788 -0.03940231
-0.20464751 0.017104274 0.043311257 -0.105990954 -0.01728298 -0.085298315 -0.04182514 -0.012435013
-0.2109441 0.08590004 0.20861173 0.18125258 -0.23325165 -0.093005836 0.15814732 -0.067098916
0.02242329 0.13578978 0.167282 -0.04924757 0.15270263 0.0062966114 -0.100250915 -0.29125863
-0.12122058 0.11531648 -0.2341966 -0.203145 0.13472022 0.11679952 0.13928632 -0.29359937
-0.08672456 0.17821717 0.17178966 0.16318719 0.048295796 0.02239061 0.20533969 -0.11591043
-0.028126383 0.21873136 -0.14222121 -0.06451169 0.16114925 0.016643394 0.083505824 -0.07362984
-0.055030942 0.18077658 -0.030091394 -0.06994973 0.10239411 -0.19120124 0.13306548 -0.047290117
-0.11525376 -0.056931566 -0.03946926 -0.2691248 0.120861836 -0.001570701 -0.24994066 -0.07536394
0.13032322 0.027060121 0.06800837 -0.107910715 -0.09995459 -0.040722355 -0.045888945 -0.14978966
0.029875623 0.0067807985 -0.042457223 0.043521512 -0.09549859 0.03704373 0.06220736 -0.121644355
-0.18062286 0.08730494 0.001491184 -0.15783493 0.16984443 -0.10445372 0.04746738 0.028478708
-0.13003546 0.11745314 -0.24451448 -0.057728667 -0.18011186 0.009577431 0.17810336 -0.032696366
0.21377644 -0.30908367 0.24265645 0.6105698 -0.13716233 0.061199777 0.066633955 0.19539367
-0.10182082 -0.1284995 0.06292229 0.02883141 0.048287563 0.14459984 -0.08207976 0.121181384
0.16857284 -0.084308095 0.17127281 0.064651966 0.14731075 -0.12486171 -0.067279115 -0.08134765
-0.009503465 0.08986847 -0.12584077 0.14023758 -0.14019325 0.26294744 -0.083897084 -0.065837
-0.035873976 -0.12128566 0.16793357 -0.19322611 0.069237426 0.6936591 -0.14160503 -0.045009535
-0.3134901 -0.22430904 -0.26906458 0.048856065 -0.15621853 -0.12720655 -0.1950404 0.08584049
-0.06360612 -0.08026573 -0.19103794 -0.101502754 0.2708319 -0.35406125 -0.13645989 0.10299498

mps.0.l2.edge_block.m.0.bias f4 [16]
00000000: 5b7b d8bd 2853 463e b39e f33c 91c2 f43d
00000010: 0a13 a63c 4995 2a3e a521 c23e bc7a a63e
00000020: 776e 1abe 5c59 f1bc fa27 ed3d 934b d33e
00000030: e920 373e c3af a23e ddda af3e d3b8 37be
-0.10570403 0.19367659 0.02973876 0.11951173 0.02027275 0.1665851 0.37916294 0.32515514
-0.15081201 -0.029461555 0.115798905 0.41268596 0.17883648 0.3177472 0.34346667 -0.17941599

mps.0.l2.edge_block.m.2.weight f4 [1, 16]
00000000: dc50 4dbc dd85 143f e36e 0bbe 42c4 0dbd
00000010: 74be 023f 1395 be3d 9522 173d d996 72bd
00000020: ce4b 7fbd 8eec 943a ffe8 1cbd 8c16 173f
00000030: 28a3 da3d b187 f73e 07f7 f83d 406b 5b3b
-0.012531485 0.5801676 -0.13616519 -0.034610994 0.5107186 0.093057774 0.036898214 -0.05922589
-0.062328152 0.0011362003 -0.03830814 0.5901878 0.10675651 0.48345712 0.12156492 0.0033480674

mps.0.l2.node_block.m.0.weight f4 [16, 9]
00000000: 4cec b0be bdda 313e 4192 36be 53a1 07be
00000010: 7c79 53be a08a ad3d 8282 c93e f336 46bd
00000020: 4d8c cf3d d275 54be 20c1 133c 5c4b 97be
00000030: 9344 e2bd be6a 24be 44d4 67be 0944 983e
00000040: 1030 10bf c6d4 bf3d 065f 803e e8ef 84bd
00000050: 0dcc dabd 9692 183e 731b fabd 0daa 37bd
00000060: b5b5 713e 48fd 06be 6996 37be e332 1abe
00000070: 4902 50bd 737b 1bbe 1a56 d7bd 1b30 923d
00000080: d644 d53c 6952 9abd 5779 70be 1db3 c8bd
00000090: b019 02be 2622 dbbc d371 a0be b9c4 443d
000000a0: 9531 49be e338 90be f0b7 23be ae50 5d3d
000000b0: bb51 c4bd d1ca d1bd 7345 c63e 138c 9e38
000000c0: 4981 863e 5392 2cbe 36d5 abbe bd7f 95bd
000000d0: 43dd 943d f31c 293e 4555 9abe 833b a3bc
000000e0: dac1 81be 0bc3 e2bd 9fe4 1abe ac96 873e
000000f0: 58ce 4f3e fc45 cebd 99f9 13bd 5662 b0be
00000100: 2795 fa3d cd2f 113d 1059 80be b0d6 cfbe
00000110: c7a5 603e 1e53 143e 4614 40be 3ff6 8f3a
00000120: d3b6 0c3e 3490 cb3e fdcc 29bd c2ce 26be
00000130: 2182 433c 6136 093e f69b 09be ac77 2cbe
00000140: b179 e8bd 0f56 44b9 18c2 6e3e 11ab 26be
00000150: d7e1 89bd 08ed ae3d 5a55 19be 055a e4bd
00000160: 4d88 d53d e3a4 84bc 72d8 a1bc 8ab2 be3d
00000170: 93ad 85bd f5fb 5dbe 4345 a83d c571 33be
00000180: a5b1 d0bd b4a1 8d3c 4b65 ccbd 02f5 dcbd
00000190: 4d3c a9bd 24ed 01be 235d acbd b6c8 97bd
000001a0: a2e0 573d deeb 37be d02c 56be be35 9fbd
000001b0: 1b20 c13d 377a 563e e12c 85be 0ce9 0f3e
000001c0: 1c60 c03d 24e5 bf3d 51b6 4fbe 5ac9 2ebe
000001d0: a329 7cbe 0018 16be 5986 593e 42b9 cabd
000001e0: 5a0a 1e3e e452 4dbe 657f 48bb 9e6f c7bd
000001f0: d75d 993d b38e acbd afea 27bc 559e 1abe
00000200: ac2e b3bd fbaf 9f3e b079 4d3d e4d7 70be
00000210: 2eea bb3d 5cab f3bd 92d8 05be 2e5b 6c3e
00000220: 6b9c c13d 3161 c9bc 4869 83bd 9111 55be
00000230: 2319 d3bc bb6e 3a3e e584 cabc 55af 61bd
-0.3455528 0.17368598 -0.17829229 -0.13245134 -0.20651811 0.08473706 0.39357382 -0.048392247
0.10134182 -0.2074807 0.009018213 -0.29549682 -0.11048236 -0.16056344 -0.22639567 0.29739407
-0.5632334 0.09366755 0.25072497 -0.06491071 -0.10683451 0.14899668 -0.12212267 -0.044839907
0.23604472 -0.13182557 -0.1792847 -0.15058474 -0.05078343 -0.15183811 -0.105144694 0.07138082
0.0260338 -0.0753525 -0.23483787 -0.09799788 -0.12705112 -0.026749682 -0.3133684 0.04803917
-0.1964782 -0.281684 -0.15988135 0.05403202 -0.09585901 -0.10243762 0.3872486 7.560118e-05
0.26270512 -0.16852693 -0.33561105 -0.07299755 0.07268765 0.1651495 -0.3014318 -0.019925838
-0.2534321 -0.11072358 -0.15126275 0.2648214 0.20293558 -0.10071942 -0.036126707 -0.34450024
0.1223548 0.035445977 -0.2506795 -0.4059348 0.21938239 0.14484832 -0.18757734 0.0010983421
0.13741617 0.39758456 -0.041455258 -0.1628981 0.011932881 0.1339965 -0.134384 -0.16842526
-0.11351336 -0.00018724076 0.23316228 -0.16276194 -0.06732529 0.08541304 -0.14973965 -0.11149982
0.10426388 -0.016191905 -0.01975653 0.093113974 -0.06527247 -0.21678145 0.082163356 -0.17523868
-0.10190133 0.01728902 -0.099802576 -0.10788919 -0.082634546 -0.12688118 -0.08416202 -0.074113294
0.05270446 -0.1796107 -0.20915532 -0.077739224 0.09429952 0.20945059 -0.26010802 0.14053744
0.093933314 0.09369877 -0.20284392 -0.17068997 -0.24625258 -0.14657593 0.21242656 -0.098986164
0.15433636 -0.20051152 -0.0030593511 -0.09738086 0.07488602 -0.08425655 -0.010248824 -0.15099461
-0.08749136 0.3118895 0.05016488 -0.23519856 0.091755256 -0.118979186 -0.13070896 0.23081657
0.094536625 -0.024582477 -0.06416565 -0.20807482 -0.025768822 0.18206303 -0.024721572 -0.05509885

mps.0.l2.node_block.m.0.bias f4 [16]
00000000: 9100 073f cc06 b53d a71f 61be e350 b13d
00000010: 77ed 633e 6e1d 14bd 9365 b53e f175 d83d
00000020: 0f7d 9b3d 1152 bbbe 118a d6be 359f 083f
00000030: 2a3b 893e 5580 963e d3f0 8fbe bdd1 6b3d
0.5273524 0.08839187 -0.2198473 0.08658006 0.22258554 -0.03616088 0.35429057 0.105693705
0.075922124 -0.3658605 -0.4190221 0.5336793 0.2680295 0.29394785 -0.28113422 0.05757307

mps.0.l2.node_block.m.2.weight f4 [8, 16]
00000000: 0d2e de3c 9ef2 f1bd dac9 0d3e 1f05 203e
00000010: d446 193e 9361 7bbe 8bc5 853d 431e da3d
00000020: 888c 503c 156f 2b3d d578 15bd a05a 7abc
00000030: 0425 49bd 4679 c5bb 9010 d6bd bd47 c0bd
00000040: b3f4 3dbe 6379 05bf 0892 583c 723a e73d
00000050: 6c8c 173e f59c 9a3e 3282 69be 0635 44be
00000060: dac7 eb3d f09a 023e 164b 13be 649f 043c
00000070: 6671 303e 220b ccbc e580 f1bd 975a b23d
00000080: 7b42 00bb 23f3 ffbe e5b7 f5bd a653 ca3d
00000090: 0cdb d1bd 655d 743e 225d d1bd a048 ae3d
000000a0: 4af3 0d3d fdda c83d 20c1 dbbb ca10 243d
000000b0: eb00 853c 5079 16be 34b2 8abd a512 eb3d
000000c0: 5946 44bd 64d2 9c3d 8fd8 88bd af04 b33d
000000d0: 7d55 8e3d f438 f23b 9182 b0bd 2f65 6dbe
000000e0: 5814 a0bc 8605 c1bd 970b 293e b35f 72be
000000f0: 61c4 7a3d 195a 343e 8ea7 1f3e f326 e53c
00000100: e888 03be 7d63 ef3d cd8c 4cbd 97d6 18be
00000110: 81f9 653e 540b 24bf 2c73 d53d 4dee 863e
00000120: ed7c f4bd c682 a2bd b8e9 453d 6fe4 b83c
00000130: 4dc2 f03d f0d8 17be 5243 193c 8c2d 4fbd
00000140: 7a3a 1cbe 0667 4cbe 952f 853d d317 c53b
00000150: a6d4 51be 1f29 e53d 7df8 0bbd 893a 76bd
00000160: 7fa6 9bbd a49b 5fbb a2fb 4f3e 8bd0 573d
00000170: d9d5 36be bb7c 183e 76da 493d a00a ab3d
00000180: 9d57 333e 7e80 acbd 010c c7bd 645a 2e3e
00000190: 2e06 31be 8cac 87be 947c 22be dc28 4d3d
000001a0: 0ba3 963a e6fa 0fbd e27e 123d 9399 0e3c
000001b0: 8b26 6f3e b4da 183e dfda b43d dae9 b13d
000001c0: c12f d13d ae6c bb3d 3127 093d 12d5 f03c
000001d0: 2dc7 00be 5173 233e 7d40 903c 90da 58bd
000001e0: b52d 953c 2a3b 2fbd c13e 3c3c e295 2e3e
000001f0: 8b9d 16bd 705a 473e e615 d73d 6bc0 14be
0.027121568 -0.11813854 0.13846532 0.15626954 0.14968425 -0.2454894 0.06531819 0.10650303
0.012728818 0.041853983 -0.036492188 -0.015280396 -0.049107566 -0.00602642 -0.10452378 -0.09388683
-0.18550377 -0.52138346 0.01321841 0.112904444 0.1479966 0.30197874 -0.22803572 -0.19160852
0.11512728 0.12754416 -0.14384112 0.008094642 0.17230758 -0.024907652 -0.11792163 0.08708685
-0.0019570875 -0.49990186 -0.11997966 0.09879236 -0.10246858 0.23863752 -0.10222842 0.08509946
0.034655847 0.09807394 -0.006706372 0.040055074 0.01623579 -0.14694715 -0.06772271 0.114781655
-0.04791865 0.07657316 -0.0668193 0.08741128 0.06949899 0.0073920432 -0.086186536 -0.2318313
-0.01954095 -0.09424882 0.16508327 -0.23669319 0.061222438 0.17612495 0.15591261 0.027972674
-0.12845194 0.11688898 -0.049938966 -0.1492561 0.2245846 -0.64079785 0.10422358 0.26353684
-0.1193789 -0.07935099 0.048318595 0.022569863 0.1175581 -0.14828849 0.009354429 -0.050580546
-0.15256682 -0.19961175 0.06503216 0.006014803 -0.20491275 0.11189484 -0.034172524 -0.060114417
-0.07600116 -0.0034119869 0.20310834 0.052689116 -0.17855014 0.14891331 0.049280606 0.08351636
0.1751389 -0.084229454 -0.097190864 0.17026669 -0.17287514 -0.2649883 -0.15867835 0.050087795
0.0011492682 -0.035151385 0.035765536 0.008703607 0.23354547 0.14927179 0.08830809 0.08687182
0.102141865 0.091515884 0.03348464 0.029398475 -0.1257598 0.15961958 0.017608875 -0.052942812
0.018210271 -0.042781033 0.011489571 0.17049363 -0.03677134 0.19468093 0.10502224 -0.14526527

mps.0.l2.node_block.m.2.bias f4 [8]
00000000: b50b 1cbe 94e8 29bf e94c d13e 7437 43bf
00000010: 966f fe3d 0ace 2fbf 859e 4c3f 8e46 1c3f
-0.15238841 -0.6637051 0.4087899 -0.7625649 0.12423627 -0.68673766 0.7992938 0.6104516

mps.1.l1.edge_block.m.0.weight f4 [16, 18]
00000000: dc72 0ebe 1787 cb3d 2269 52bc 2a82 60be
00000010: 75d8 7c3d ba73 b0bd 9821 1f3e a7ae 493e
00000020: 437f 4ebd e83f a7bc b4bd 213e 33e6 793e
00000030: 63e3 00be 15a0 a23e 5b61 903b 2b26 82bd
00000040: 3c63 e4bc 3658 fd3e 4210 a9be 7029 38be
00000050: fc55 ae3e 7979 d8be 5372 b23e 19fb bdbe
00000060: 2b4b f03e 4211 f63e 0a72 96be 8c8c 2abe
00000070: 6d6e 9e3e 50bc e1bd f29a 13be 9c91 c03c
00000080: dac5 a43e 5dc9 913d ab2f 94bc ab60 0a3e
00000090: 26b4 513e efc3 b63e add0 abbe 98df 8a3e
000000a0: bdd0 34be 6e8f 823e 3eb7 f6bd bbd2 67be
000000b0: 0175 0d3d 8ace 243e 8884 adbe f256 913e
000000c0: 86ed 60be 8a01 0a3e 4325 aebe 72a1 90be
000000d0: 6e12 24be 8e4e 7cbe 8bb7 05be 2853 bdbc
000000e0: 857f b63d a7ad 45be fc01 7b3d 44c0 9c3e
000000f0: 7fdf d8bd e0df d7bd bab9 d73d 09d5 7f3c
00000100: c39d 56bd 9c1a b83d e361 20bd 8835 49bd
00000110: d64f 9d3d 4012 c33d f2a6 9ebe abe4 633d
00000120: 539c dbbd f0e1 7a3e 55a8 a23d 73a6 673e
00000130: 1402 27bf eee1 5d3e 76fb 85be 32ee bdbd
00000140: 1fff a6bd a37f d2be c283 0cbd 2235 87bd
00000150: 57d7 033e c12f 09bf f46f 9e3e 3d54 9c3e
00000160: b687 4c3f 8175 14be c516 9d3e 6910 39be
00000170: 0ccc 623e 7138 823d 03ca 4fbd cbfc 58be
00000180: 90c7 273e c90a 143e 1c65 69bc b3a3 babd
00000190: 82ff 473d ba8f 82bc 0827 0bbe f26c 5e3d
000001a0: 2de5 7a3e 874b cbbd 4c09 6bbd 6a5d 1c3f
000001b0: f3b9 9f3d 4f18 a93e 3d4b 22be 2d9c 7b3e
000001c0: e5ae aa3e 0dc6 253e 4868 a6be d7fb 86be
000001d0: d651 a7bd 5e4f 353e ff59 bbbe cbff 9d3e
000001e0: 7920 3a3e d061 8a3e 64e6 e0be 7cf6 edbe
000001f0: f639 2cbc 7950 793e 5b79 25be a1cc e63d
00000200: 73c9 23be 3318 993d 1288 1e3e fed1 803e
00000210: 8c9b 09be d0bd ce3d 6ab6 b13d 67c1 863d
00000220: 4b0c 223e 474f 9c3c 5822 dbbd 9b51 3e3d
00000230: f3b4 29bc a5f8 75bc 0cca 8cbe 4368 6ebd
00000240: 452b 2abe af6b 7f3c 46c7 71be 2bac 8cbd
00000250: 58f1 06be e0fa 3cbe bd5c cf3d 8101 273c
00000260: 820c 373e c894 d5bd c83b 0fbe c8e9 dc3c
00000270: c292 173a 69e2 3dbe 59d4 63bd d918 213d
00000280: f44d c9bd 0563 693f 0cda 01bd de78 bfbe
00000290: 5f8a 0f3e 5dd9 d7be 365c bc3e 23f6 b5bd
000002a0: 816a 953e 70ac ea3e 94ba bbbe 312d 4abe
000002b0: 28c3 833e 3c39 7bbd 982f ddbd 3545 86bd
000002c0: 2f27 933e 4f40 893e 2b12 92bc c924 4c3e
000002d0: 95e1 4c3e 04d7 5fbe a048 1e3e 4771 843c
000002e0: ede1 dfbd c1b0 c53d df64 a9bc 6ff3 0bbe
000002f0: b54d 90bd 73c6 d63d eeb1 1c3e a997 803d
00000300: 7f91 893d 50b5 513e 5c64 09bd a407 22bd
00000310: db86 9dbe eafc 86bc 855d d73c 8e76 6dbe
00000320: fe42 c3bc 377e 2bbc 5e38 7cbd e08c 36bd
00000330: 722a 3d3a 3bf7 7d3c b711 adbd 29bc 613d
00000340: 1b56 1cbd 2b5f 0a3e 6bdf 55bb bbf0 3b3d
00000350: 0b57 e3bd e378 5dbd bfd0 72be 55a4 73bc
00000360: e501 a9bd 8265 a93d 47b9 f53b 67a3 6d3e
00000370: 76c3 cebd 2ff3 4dbd 318e f63d 0ff3 2cbe
00000380: c057 a2bd 5bef 10bc 47df 02be 7da9 623d
00000390: a3cf 5e3d 74d6 7d3e dee5 a83d 9954 ca3d
000003a0: 53b6 9fbe 5195 76bc b332 da3e 4f8d 0d3f
000003b0: 141b 23bf 93d3 203f 61c2 803d 7fdd 233f
000003c0: 3190 2ebf d201 55bf cbea 3e3e e357 733e
000003d0: 06f8 4abe d4e6 0e3f a134 56be f13c 1b3f
000003e0: 08fe 22bf a843 6cbf eb52 d33e a78f 11bf
000003f0: f653 9c3e bbfd 4dbe ebd8 9a3d 0c8c 1b3d
-0.13911003 0.09937876 -0.012842448 -0.21924654 0.061729867 -0.08615823 0.15540159 0.19695531
-0.050414335 -0.020416215 0.15795022 0.2440422 -0.12586741 0.31762758 0.004406137 -0.06354936
-0.02787935 0.49481362 -0.33020216 -0.17984557 0.34049976 -0.42280176 0.34852847 -0.37105635
0.4693235 0.48060042 -0.2938388 -0.16655177 0.30943623 -0.11022246 -0.14414576 0.023506932
0.321822 0.07118485 -0.018089136 0.13513438 0.20478877 0.3569636 -0.33557644 0.27123713
-0.17657752 0.25500053 -0.120466694 -0.22638981 0.03453541 0.16094413 -0.33890176 0.28386647
-0.21965608 0.1347715 -0.34012803 -0.28248173 -0.16022655 -0.24639341 -0.13058297 -0.023110941
0.08911041 -0.19304524 0.06128119 0.30615437 -0.105895035 -0.10540748 0.105334714 0.015614756
-0.052396547 0.0898945 -0.039155852 -0.049123317 0.07681243 0.09524965 -0.30986744 0.055637997
-0.10723176 0.24500251 0.07942263 0.22622089 -0.65237546 0.21668217 -0.26168412 -0.09273948
-0.08154129 -0.41113004 -0.03430534 -0.06601931 0.12875114 -0.5358849 0.30944788 0.3053302
0.7989458 -0.14497949 0.30681434 -0.18072666 0.2214815 0.063584216 -0.050729763 -0.21190183
0.16384721 0.14457239 -0.014245298 -0.091132544 0.048827656 -0.015937675 -0.13589108 0.054303117
0.24501486 -0.09926515 -0.057381913 0.6108004 0.07799139 0.33026358 -0.15849014 0.24571295
0.3333656 0.16188832 -0.32501435 -0.26364014 -0.08169906 0.17706057 -0.365921 0.30859217
0.1817645 0.2702775 -0.43925774 -0.46477115 -0.010511866 0.24347104 -0.16159575 0.112694986
-0.15994816 0.07475319 0.15481594 0.2516021 -0.13438243 0.100947976 0.08677371 0.06579857
0.15825002 0.019080771 -0.1069991 0.046464544 -0.010358083 -0.015012895 -0.274979 -0.0582049
-0.16618069 0.015589639 -0.23611173 -0.06868776 -0.13178003 -0.18455076 0.1012511 0.01019323
0.17875865 -0.104287684 -0.13987648 0.026966944 0.00057820615 -0.185434 -0.055622432 0.039330337
-0.098293215 0.91166717 -0.031702086 -0.37396902 0.14017628 -0.42158023 0.367891 -0.088848375
0.2918282 0.45834684 -0.36665785 -0.19743802 0.2573483 -0.06133388 -0.108000934 -0.06556169
0.28740832 0.26806876 -0.017830929 0.19935907 0.20007928 -0.21859366 0.15457392 0.016167296
-0.10931764 0.09652854 -0.020677982 -0.13667081 -0.070460714 0.1048707 0.1530225 0.06278927
0.06717204 0.20479321 -0.033542976 -0.039558068 -0.3076695 -0.01647802 0.02628971 -0.23189756
-0.023835655 -0.010467104 -0.061577193 -0.044567943 0.00072161027 0.015500839 -0.084506445 0.055111084
-0.038168054 0.13512866 -0.0032634388 0.045883875 -0.111005865 -0.054070365 -0.23712443 -0.014870723
-0.082523145 0.08271314 0.0074988934 0.23206864 -0.10095875 -0.050280746 0.120388396 -0.16889594
-0.07926893 -0.008846129 -0.12780486 0.055337418 0.054397237 0.24788839 0.08246969 0.09879417
-0.3119379 -0.015050248 0.42616805 0.55293745 -0.6371319 0.62822837 0.06287075 0.6400985
-0.6818877 -0.832059 0.18644254 0.23763995 -0.19821176 0.55820966 -0.20918514 0.60639864
-0.6366887 -0.92290735 0.412742 -0.5685982 0.30532807 -0.20116322 0.07560905 0.037975356

mps.1.l1.edge_block.m.0.bias f4 [16]
00000000: 2310 c43e b283 ec3e c115 a7be d821 a8bd
00000010: ecc7 263d c947 7c3e 6edb ccbe 023b ee3e
00000020: 36be 0d3f bcd2 273f e8d5 723e 70f4 d53c
00000030: 452f 843e f8a6 53bf 7f87 5d3e b4c4 7fbe
0.3829356 0.46194226 -0.32633784 -0.0820958 0.040718004 0.24636759 -0.40011162 0.46529394
0.55368364 0.6555593 0.23714411 0.026117533 0.25817314 -0.8267665 0.21633719 -0.2497738

mps.1.l1.edge_block.m.2.weight f4 [1, 16]
00000000: 02eb 383e d675 5f3e c87d a6be 7898 c93e
00000010: f471 85bf 2b00 f63e 450e 9d3e b2c5 cd3e
00000020: 2636 a9bd c789 2c3e 0c4f 9b3e 69fe 6d3e
00000030: 00d1 a53e 4772 43bf 751b 403e 3b85 69bd
0.18058398 0.21822295 -0.32517838 0.39374137 -1.0425401 0.48047003 0.3067495 0.40189892
-0.08262281 0.16849433 0.30333745 0.23241581 0.32386017 -0.7634625 0.18760474 -0.057011824

mps.1.l1.node_block.m.0.weight f4 [16, 9]
00000000: 6105 913d 9c69 47bd cd1c c1bd fe9f 5ebd
00000010: 61b5 24be 11fc b13b b146 3abd 7971 a73e
00000020: 5700 203e c3ad 07be 619d 453e 3825 07be
00000030: a63a c239 e92e dd3b 1658 473e 1e6e a1be
00000040: beb5 99be 2b40 b03b bf6d af3e 9e38 82bd
00000050: 39c9 c1bb 4af9 533e ec89 45bd 5901 f53d
00000060: 4484 b8bd cf80 b2be 9350 b4bd 2538 fcbd
00000070: 6e63 4c3d 54ad 993d fadb f93d a9af a63d
00000080: 8a82 36bd 3d74 7a3d 49cb 93bd f137 dfbe
00000090: 287e 56be 0a2b 263e 0fc4 cc3d 7ca2 8f3e
000000a0: c9e4 2dbe fe69 053e 518e 62be cf6f 8ebc
000000b0: 5315 14bc bae9 243e 22c1 713e 892a 66be
000000c0: e60f ae3e d587 93be 2515 353e 2ec9 8bbe
000000d0: 6a38 bcbe 6936 25bd 5d1b db3c c563 8bbc
000000e0: 29a0 ee3d 169d 2abe a6fc ecbe 46f7 39be
000000f0: 30b8 4e3d 5fbe db3d 9ddd 1e3e 5cd6 c93b
00000100: a65e 7cbd bfa4 09bd ee2d 493e c9ab 27bd
00000110: 40d4 733e e58c c23d 3aa5 3cbe ad27 233b
00000120: 02fe 0dbe fa2b 1fbe f847 28be cb2a 10be
00000130: d841 22be fbb6 4bbe ccca 8c3d 172c 2dbe
00000140: 44e0 e03d fb8a 56bc 49e0 063e ddd6 b83b
00000150: 52ef 3e3b bdfb 0b3c 67d8 383e 5477 d7bb
00000160: cf30 9d3d aaa4 c8be ca00 57be e4a5 283e
00000170: 1267 7dbe 6268 b0bd 66ae cf3c 75ed 913e
00000180: e584 69bd eb5e 81be 6c64 513b 6621 6c3e
00000190: 5edf 943d d4f9 a83e 493f dbbd a293 83bc
000001a0: dadc 64be cf8f 153e 4c6d 353e 62f0 323e
000001b0: 0fed e2bd af94 09be 3e92 e03d 2392 87be
000001c0: 7b62 9bbe 1b5e 66be f5c1 bf3c cdc7 603e
000001d0: 51f2 8dbc e11d 183d 7873 a53d beb6 19be
000001e0: e6dc c53d e9f6 1cbe fbda 01bd 2d95 6b3e
000001f0: 1292 47be 267b f43e 26f7 0abe 569c 1e3d
00000200: e358 8cbe 458a 0d3e 6514 67be 8da8 b73e
00000210: 1af4 bdbe a207 e83c 7895 98bd 4952 933d
00000220: 1440 52be d348 b63d 7727 1cbe c166 bfbc
00000230: 39ee 253d 7d9b a3bd dfb3 103e 34f1 adbe
0.07081104 -0.0486847 -0.094293214 -0.0543518 -0.16084816 0.00543166 -0.045477573 0.3270376
0.1562513 -0.13249879 0.19298317 -0.13197792 0.0003704626 0.006749977 0.19467196 -0.31529325
-0.3002147 0.005378743 0.34263417 -0.06358455 -0.00591388 0.20700565 -0.048227236 0.11963148
-0.09009603 -0.34863898 -0.08804431 -0.12315396 0.04989951 0.07503763 0.1220016 0.08138973
-0.044558086 0.06114601 -0.07216508 -0.43597367 -0.20946562 0.16227356 0.09998333 0.28053653
-0.16981806 0.13028714 -0.22124602 -0.017387299 -0.009038287 0.16104785 0.2360883 -0.22477163
0.33996505 -0.2881457 0.17683847 -0.27301925 -0.3676179 -0.040335093 0.026746446 -0.017015347
0.11651642 -0.16661486 -0.46286505 -0.18160734 0.050468624 0.1072967 0.15514226 0.006159587
-0.0616137 -0.03360438 0.19646427 -0.04093531 0.23811436 0.0949953 -0.18422404 0.0024895475
-0.13866428 -0.1554412 -0.16433704 -0.14078824 -0.1584543 -0.1989402 0.06874618 -0.1691135
0.10980275 -0.013094659 0.13171495 0.005640848 0.0029134345 0.008543906 0.18051301 -0.0065755043
0.07675325 -0.3918813 -0.20996395 0.16469532 -0.2474635 -0.086136594 0.025351714 0.28501478
-0.057011504 -0.2526773 0.0031950725 0.23059615 0.072691664 0.33003104 -0.1070543 -0.016061608
-0.22349873 0.1460564 0.17717475 0.17474511 -0.110803716 -0.13435625 0.109653935 -0.2647868
-0.30348572 -0.22496836 0.023407916 0.21951218 -0.01732746 0.03713787 0.080786645 -0.15011117
0.09661274 -0.15328564 -0.031702977 0.23006125 -0.19489315 0.47750205 -0.13570842 0.038723312
-0.27411565 0.13822277 -0.22566374 0.35870782 -0.37100297 0.028323952 -0.07450384 0.07193429
-0.20532256 0.08900609 -0.1524943 -0.023364427 0.04051039 -0.079886414 0.14131115 -0.33973086

mps.1.l1.node_block.m.0.bias f4 [16]
00000000: c56f 5f3f efad 163e 3d67 bdbe e385 783e
00000010: ab49 8c3c a26c 31bf 518f 283f 92c0 e63c
00000020: 8901 013f 23ec e83e f561 06bf c7d0 293f
00000030: d383 003f eb1f c93c c604 b1be 6060 2b3e
0.8727992 0.14714788 -0.36992827 0.24269824 0.017124971 -0.69306386 0.65843683 0.028167997
0.5039297 0.45492658 -0.5249322 0.66334194 0.5020115 0.024551352 -0.34573954 0.16735983

mps.1.l1.node_block.m.2.weight f4 [8, 16]
00000000: 7726 4f3d 35bb 9dbd cd34 063d ed41 a8be
00000010: c807 0f3d 9560 3dbe 11ce 583e c4d5 42be
00000020: 0e44 0ebe cf3b 26bc 3311 0c3e beda 0fbe
00000030: e566 88bd 056e af3d 66ed 103d 4447 893e
00000040: 63f4 d7bd 1bf0 14be 1439 39bc f833 0c3f
00000050: 9b54 10be 95b6 c13d 26ef e03d 2515 a33d
00000060: 9032 18be 5699 803d 6619 843c 5405 f13d
00000070: ea3f 873e 7259 aabe 5e7c c73c 5cd8 d23e
00000080: fa9b 4fbe 9c3e 8c3d 129c 273e 6935 8fbe
00000090: bf02 3abd 39d5 083e 6a32 91bd 171f cebc
000000a0: 794b 0a3c a2b9 d9bd b5f9 443e 1273 273d
000000b0: 3e0e 05be 17b9 3a3e 7653 a33d c3a2 64bd
000000c0: f1ea a23e 1a21 723d 78be 843c a7d5 25be
000000d0: b3d7 e5bd fbf4 bfbd 6de4 0e3e 176c c0bc
000000e0: 944b 793e 2ae7 893d 549c 143e e740 a2bb
000000f0: be69 973e 040b 653d cce1 373e 58c7 243d
00000100: c514 6d3e 925e 293e 80ee 763d cb21 a33e
00000110: 376f 913d 990e d4bd dd33 ab3d 6ee6 143e
00000120: 7879 783d 9d7f b83e e5b3 eabd e980 863d
00000130: 1555 633e cfde 01bf 013e babb 2d09 8ebe
00000140: 23f7 e13e 722f 01be 4cd4 6e3d 85ae 393e
00000150: 6dd8 103e bed9 203e 21c8 8d3e 18d7 2d3e
00000160: 27e7 3b3e dea6 4ebd 7839 e6bc c5a3 b73e
00000170: d576 fe3c fbb4 5d3e 5bb4 07be 7c33 3cbe
00000180: f9e6 6bbe 85ee 3bbc 4d31 34bd e5f6 6ebe
00000190: abdc eebd 8d25 803d 5f69 1f3d 34e5 a8bb
000001a0: 35a4 5c3c 1517 82be d249 3fbe 7c0f 113d
000001b0: 79ee 48be 3f5a 563e 3821 c03d b55f e6ba
000001c0: 2635 8dbe 57b3 3bbe 168a efbd 2001 813d
000001d0: b923 a0bb 6676 b33c de96 9bbe 3c69 723d
000001e0: 6e4f 5bbe 757a 98be 80f1 0cbe 2c16 5bbe
000001f0: c9fd 08bb 71d8 073f b69e 2dbe 17cc 9b3d
0.050573792 -0.077017225 0.0327652 -0.32862797 0.03491953 -0.18493874 0.21172358 -0.19026858
-0.13893148 -0.010146095 0.13678436 -0.14048287 -0.066602506 0.085659064 0.03538265 0.26812184
-0.1054466 -0.14544718 -0.011305112 0.547668 -0.14094774 0.09458653 0.10983114 0.079630174
-0.14863038 0.062792465 0.016125392 0.117685944 0.2641595 -0.33271366 0.024351295 0.41180694
-0.20274344 0.06847879 0.1636813 -0.27970436 -0.045412775 0.13362588 -0.07089694 -0.02516131
0.008440846 -0.1063111 0.1923588 0.040881224 -0.12993714 0.18234669 0.07974903 -0.055819284
0.3181987 0.0591136 0.016204104 -0.16194783 -0.11222782 -0.09372898 0.13954325 -0.023489041
0.24345237 0.06733544 0.1451276 -0.0049515846 0.29572862 0.05591871 0.17957228 0.04022917
0.23152454 0.16539982 0.060286045 0.3186172 0.07101291 -0.10354347 0.083595015 0.14541027
0.060662717 0.3603486 -0.114600934 0.065675564 0.22200425 -0.50730604 -0.005683661 -0.27741376
0.44133863 -0.12615755 0.05830793 0.1813298 0.1414506 0.15708062 0.2769175 0.16976583
0.18349896 -0.050452106 -0.028103575 0.35867134 0.031062523 0.2165107 -0.13252394 -0.18379015
-0.23037328 -0.011470442 -0.04399233 -0.2333637 -0.11663183 0.06257162 0.03891885 -0.0051542763
0.013466884 -0.25408235 -0.18680504 0.035415158 -0.1962222 0.20932864 0.09381336 -0.001757613
-0.27579612 -0.18330131 -0.1169626 0.06299043 -0.004887071 0.021907043 -0.3038854 0.05918239
-0.21417019 -0.29780927 -0.13764 -0.21395177 -0.002090322 0.5306464 -0.16955075 0.076072864

mps.1.l1.node_block.m.2.bias f4 [8]
00000000: 800b eebe 2e94 84be 133c cc3e 438b 103f
00000010: 87e4 253f 54f3 a43e 6599 46bf 753e 0dbf
-0.4649315 -0.25894302 0.39889583 0.56462497 0.6480183 0.32216895 -0.7757781 -0.55173427

mps.1.l2.edge_block.m.0.weight f4 [16, 17]
00000000: b1e1 133e 90f2 17be e8f4 8e3d 182c 3d3e
00000010: d587 963d 84a1 a83e b0c2 58bd 78f9 cb3d
00000020: af98 6cbe c6d0 53bd 9082 9f3d 4bee 583e
00000030: fc25 a13c cd87 4d3e caea 18be 934e 8c3d
00000040: b3dd c2bd a227 993d f146 32bb 7211 813d
00000050: 0317 51be 3bb4 09be cc2e 263c 0d28 6b3e
00000060: e6c0 e8bc 6e2e 0abe 6802 c6bc ce86 50bc
00000070: ca83 68bd ec01 b33d d4a2 89be b4bd 593e
00000080: 4f53 69bd 786c 2cbb 7a3d 323e 3aef 483d
00000090: 4d6c 2e3e 4492 87be e960 42be 8dff 9bbe
000000a0: 7d6e 3f3e d5e0 323e 082b c1bd 7485 443d
000000b0: 4f06 2d3e c737 acbe bf7c d13d 13fc d9bd
000000c0: ca58 073e c228 9a3e fc62 fb3b 4afd a13d
000000d0: e888 1b3e f044 973d 63e2 143c da38 21be
000000e0: 1343 debc 43ea 1dbe ac48 053d eed1 e9bb
000000f0: 9548 c0bd cef1 43bd 28f8 b6bd f639 073e
00000100: 1b16 b83d c294 2e3e 73da 1bbd 3f37 1bbe
00000110: bbac e93c d100 d73d c02c 98bd ec43 7b3e
00000120: 8505 ca3d a89e 05be 585d 0cbc 479a 043d
00000130: 0c14 86bd 163e 5d3e 1424 8ebd c027 8f3e
00000140: 7087 81bd e683 b03d 7af6 a5be 96e5 2fbe
00000150: 6324 6e3d f6c1 b63e acc7 cd3d e1e4 9dbe
00000160: 0387 21be 127f 75be 4fef 993d 71a2 f7bd
00000170: 1649 3b3c 87ed 90be 53d6 21bf 191c 0c3f
00000180: 9784 733e 1db7 9dbd 4327 043e 4f3d f73e
00000190: 9381 143e 2c1e b4be 2246 6dbd 85b5 34be
000001a0: 602f 973d 5e2c 543d 0989 11be 0a71 70be
000001b0: 1fcf 413d 3ce6 973e be5c 813e cdb4 afbe
000001c0: 0e54 c23d 2db3 83be 76d8 89bd af53 77be
000001d0: aaa3 6e3d 8fbb ad3e 272f 7bbe cbef 423e
000001e0: f72e 8cbd 6127 403e b21b 1fbe a4ac 163d
000001f0: aa2e 6abe bfc5 d03d 41c5 6a3e 047e 6dbd
00000200: ed54 8ebe da32 8b3e 98fe 69be 097c 8dbe
00000210: 57bf eebd d2c1 6b3d d7eb a73d 03dd 65be
00000220: 0412 a73d 17ce 28be 0763 1f3c 276d fb3d
00000230: 9b5d 823d c27b 7abc 80fb b43b 5e34 c1bd
00000240: 24ea 0dbd d314 9bbd a013 10be a8d8 c5bd
00000250: 232e 653e 729d c7bc 75ee 3b3d 37c1 ce3d
00000260: 3bd3 dbba 8253 15be 5d81 0fbe 9006 efbd
00000270: 27cf be3d 18ba 16be da6f 193e 2ba0 9c3d
00000280: 9702 0e3e 30e6 a3bc 5185 0d3d 0f7f a83d
00000290: 941a 1b3e 1417 fc3d fde3 203e 5d15 3abe
000002a0: 68d7 d5bd 73ce 10be 6db6 94bc 513f 40bc
000002b0: e36a c73d de31 cbbb 61d5 26bd 91fa a1bd
000002c0: 394a 15be 7744 11be 0601 1d3d 9d52 f1bd
000002d0: 76de 0ebd 01b9 2fbe fd57 64bd 4dde 243e
000002e0: 0326 1abe edca a4bd 2878 0fbe 7791 153c
000002f0: 1ba5 203c a792 b2bd 949f d7bd e647 183d
00000300: dd9b 2dbe 8ca9 16bd 30c1 21be 224e 703d
00000310: bf23 57be d379 da3b 037a 8fbe 5076 2dbe
00000320: f3e8 04be b935 2d3e a1f0 933d 6205 36bc
00000330: bd81 43bd 5f84 1b3d b4cc edbc 8093 a4be
00000340: 43d0 00be 10ba bdbd 9404 063e 2afe 383e
00000350: ae06 513e bce9 12be af17 e9bd cbca 4dbe
00000360: ad8f 44be 33a7 4abe 2265 92bd 39a0 e33d
00000370: 7fd1 c0bb 13e8 933d 89b7 14be 585d 74be
00000380: bdb8 82be 3a3d a93c 7c7a 53be 67c4 983d
00000390: e2ca 813e 46d2 253e 4700 df3c 57c4 0fbe
000003a0: 9fe9 90bd f700 d53c d602 bebe d540 98bd
000003b0: 26c3 be3d 0254 e63a 8d87 673e 7bdb 1abe
000003c0: 4309 92be 6cb3 a8bd f064 44be 4da6 febd
000003d0: c192 893d 3597 b93e f0c7 243e 1227 e23d
000003e0: 1d05 7fbe 52b8 993b a9b6 22be 27dd 90be
000003f0: aa54 653e f1df 033d 167b dabb 79dd c73c
0.14441563 -0.14838624 0.06980306 0.18473852 0.07350127 0.32935727 -0.052920043 0.09959692
-0.23105119 -0.051712774 0.07788575 0.21184652 0.019671433 0.20071335 -0.14933315 0.06850924
-0.09514942 0.074782625 -0.002720293 0.063021556 -0.20418935 -0.13447659 0.010142993 0.22964497
-0.028412294 -0.13494274 -0.02417107 -0.012727452 -0.05676631 0.08740601 -0.2688204 0.21263772
-0.056964215 -0.002630977 0.17406264 0.04905627 0.17033501 -0.2647878 -0.18982281 -0.30468407
0.18694492 0.17468579 -0.09432036 0.047978833 0.16896938 -0.33636305 0.102288716 -0.106437825
0.13217464 0.3010922 0.007671712 0.07909639 0.15188944 0.07386196 0.009087178 -0.15744343
-0.027131593 -0.15421395 0.03254001 -0.0071356213 -0.09388844 -0.047838025 -0.08934051 0.13205704
0.08988591 0.17048934 -0.038050126 -0.15157793 0.028524747 0.104982026 -0.074304104 0.24537629
0.09864334 -0.13048804 -0.008567177 0.032373693 -0.065467924 0.21605715 -0.06940475 0.27960014
-0.06324661 0.08618908 -0.3241461 -0.17177424 0.05814017 0.35694855 0.1004785 -0.30838683
-0.15774159 -0.23974255 0.075163476 -0.1209153 0.011430999 -0.2830622 -0.6321766 0.54730374
0.23781048 -0.07700942 0.12905602 0.48288962 0.14502554 -0.3517927 -0.057928212 -0.17647369
0.07382083 0.051800124 -0.14212431 -0.23480621 0.047316667 0.29667842 0.2526607 -0.34317628
0.094886884 -0.25722638 -0.0673074 -0.24153017 0.05826155 0.33932158 -0.24529706 0.19036786
-0.06844895 0.18765022 -0.15537909 0.036785737 -0.22869363 0.10193967 0.22926809 -0.057981506
-0.27799168 0.27187234 -0.22851026 -0.27633694 -0.11657589 0.05755789 0.0819928 -0.2244759
0.08157733 -0.16484867 0.0097282 0.122766785 0.0636551 -0.015288295 0.005523145 -0.094338164
-0.034647122 -0.07572331 -0.14069986 -0.096604645 0.22380881 -0.024367068 0.045881707 0.100954466
-0.0016771326 -0.14582637 -0.14014192 -0.116711736 0.09316855 -0.14719427 0.14984074 0.07647737
0.13868175 -0.020007223 0.03455097 0.082273595 0.15146858 0.12309089 0.1571197 -0.18172212
-0.10441476 -0.14141254 -0.018153394 -0.011733846 0.09737184 -0.006201013 -0.040730838 -0.0790912
-0.14579095 -0.14186274 0.038331054 -0.11783335 -0.034880124 -0.17160417 -0.055747975 0.16100426
-0.15053563 -0.080465175 -0.1401068 0.00912892 0.009804989 -0.08719378 -0.10528484 0.037177943
-0.16953988 -0.036782786 -0.15796351 0.058668263 -0.2100973 0.0066673546 -0.28022775 -0.16939664
-0.12979488 0.16915025 0.07223631 -0.011109682 -0.04773115 0.037968036 -0.029028274 -0.32143784
-0.12579446 -0.09264004 0.13087684 0.18065706 0.20412704 -0.14346975 -0.113814704 -0.2009689
-0.19195433 -0.19790344 -0.07148196 0.111145444 -0.005884349 0.07221999 -0.14523138 -0.23863733
-0.2553157 0.020659078 -0.20652193 0.07459336 0.253501 0.16193494 0.027221812 -0.14039741
-0.0707581 0.026001437 -0.3711154 -0.07434241 0.09314565 0.0017572644 0.22610302 -0.15122788
-0.2852269 -0.08237347 -0.1917913 -0.12434063 0.06717444 0.36248174 0.16091895 0.11042608
-0.24904294 0.004691162 -0.15889992 -0.28293726 0.22395578 0.03219599 -0.006667505 0.024397599

mps.1.l2.edge_block.m.0.bias f4 [16]
00000000: 0023 123f cd96 9b3e 6112 77bc 01f3 f53e
00000010: 87d9 383e de86 3bbe b238 37be 86ff 5cbe
00000020: 449d cfbb 07a8 373f 09f2 d73d d0cc 64bc
00000030: 8e76 86be a1bd 583e 09ce 763e 9d29 e03e
0.57084656 0.3038849 -0.0150800655 0.4803696 0.1805173 -0.18313166 -0.17892721 -0.2158185
-0.006335886 0.71740764 0.105442114 -0.013964847 -0.26262325 0.21166088 0.24102034 0.43781748

mps.1.l2.edge_block.m.2.weight f4 [1, 16]
00000000: df1e 423e c031 903c 82b5 41bc a1bc 033e
00000010: 99db 8cbd d061 9abf 87ab ea3e 82cd 173f
00000020: 16a5 073b 0be2 503e 7758 473d 6e17 d03d
00000030: 2f59 93bc 3627 1e3b 0bf6 283c b9ed 24bc
0.18957089 0.017601848 -0.01182306 0.12864925 -0.068778224 -1.20611 0.4583399 0.59297955
0.0020697764 0.20398729 0.04866835 0.10160719 -0.017986862 0.0024132258 0.010312567 -0.010066443
