archive-july16/results/nif_sketch_pcg_50epochs/model_epoch32.pt (torch, 44782 bytes, 56 tensors)

mps.0.l1.edge_block.m.0.weight f4 [16, 17]
0	0x3e39b391	0.18134905
1	0x3e6378c8	0.22214043
2	0x3e5d4582	0.21608546
3	0x3efcbf96	0.49364918
4	0x3e762417	0.24037205
5	0x3fb38185	1.4023901
6	0x3ecab738	0.3959291
7	0x3ed7e702	0.42168432
8	0x3d7c3c85	0.061581153
9	0x3d3877b6	0.04503604
10	0x3eb9d58d	0.3629574
11	0x3eca5691	0.3951917
12	0x3ebfcceb	0.37461028
13	0x3f567734	0.8377564
14	0x3f1107a4	0.56652284
15	0x3ea251e4	0.31703103
16	0x3f04ab46	0.5182384
17	0x3b99d855	0.0046949782
18	0xbdade2d8	-0.08490533
19	0x3d2d4514	0.042302206
20	0xbdabbab0	-0.08385217
21	0xbcbf2e69	-0.02333756
22	0xbd929ed4	-0.071592
23	0x3dee88f6	0.11647217
24	0xbe0ecbb0	-0.13944888
25	0xbdb4a7bf	-0.088210575
26	0xbd54b4af	-0.051930126
27	0xbddd3fea	-0.10803206
28	0x3c63bac8	0.013899513
29	0xbe347324	-0.17622048
30	0x3e2282da	0.15870228
31	0xbe197203	-0.14984898
32	0x3e0ab413	0.13545255
33	0x3cf078ca	0.029354472
34	0xbe9786dc	-0.29595077
35	0x3ece4dce	0.40293735
36	0x3e9ce437	0.30642864
37	0x3f75d9e1	0.9603558
38	0x3f290233	0.6601898
39	0x402c98a9	2.6968176
40	0x3f7df314	0.9919903
41	0x3f228f77	0.6350016
42	0x3e260ab2	0.16215017
43	0x3f26cc76	0.6515573
44	0x3f206c85	0.6266559
45	0x3f4a5ab3	0.79044646
46	0x3f584ea1	0.8449498
47	0x401ad007	2.418947
48	0x3f845d0d	1.0340897
49	0x3f251df3	0.64498824
50	0x3f3ec250	0.7451525
51	0xbd94c7d2	-0.07264675
52	0xbe16288f	-0.1466391
53	0x3e092075	0.13391288
54	0x3d153d1e	0.03643524
55	0x3d78e225	0.060762543
56	0x3d5ccf24	0.053908482
57	0xbb99b60a	-0.00469089
58	0x3e0aa0a5	0.13537844
59	0xbe012763	-0.12612681
60	0x3a8aff43	0.0010604638
61	0xbe047681	-0.1293583
62	0x3d2a23b4	0.041537955
63	0xbd9352e7	-0.07193547
64	0x3d55bf79	0.052184556
65	0xbd1ce5d4	-0.03830512
66	0x3e1336b7	0.14376341
67	0xbdd363b7	-0.103217535
68	0xbe04955e	-0.12947604
69	0xbe1ba5ff	-0.15200041
70	0x3de77882	0.11302282
71	0x3b8122ee	0.0039409315
72	0x3df46501	0.119333275
73	0xbe1e3796	-0.15450892
74	0xbe3c4d8f	-0.18388961
75	0xbe1a5a94	-0.15073615
76	0xbe0cdd52	-0.13756302
77	0x3ccfd781	0.025371315
78	0x3c9c3459	0.01906793
79	0x3dbd5b6d	0.09245954
80	0xbe0fb220	-0.14032793
81	0xbe048fd8	-0.12945497
82	0x3dac4a7a	0.08412643
83	0xbdac076e	-0.083998546
84	0x3da8c275	0.08240215
85	0xbdb063c3	-0.08612778
86	0x3ece6268	0.40309453
87	0xbd073903	-0.033013355
88	0x3cbac4a6	0.022798847
89	0x3e611334	0.21979982
90	0xbf2c7d91	-0.673791
91	0xbcb71c67	-0.02235241
92	0x3e747583	0.23872952
93	0x3e449481	0.19197275
94	0xbd3d6f05	-0.046248455
95	0xbc090d38	-0.008364968
96	0x3e794c7e	0.24345586
97	0x3cd251de	0.025673803
98	0xbf2e399f	-0.6805667
99	0xbe175b4f	-0.14780925
100	0xbd10d6a6	-0.035360955
101	0xbe81bc78	-0.25339103
102	0xbe32bb12	-0.17454174
103	0xbe449655	-0.19197972
104	0x3d548592	0.051885195
105	0x3e109ad1	0.14121558
106	0x3c3cd78c	0.011526
107	0x3fb4cb66	1.4124572
108	0x3e8d7174	0.2762562
109	0x3e032bdf	0.12809704
110	0xbc83509c	-0.016029648
111	0x3da96244	0.08270696
112	0x3e980542	0.2969151
113	0x3dc78824	0.09742764
114	0x3df2c636	0.11854212
115	0x3f3dd540	0.7415352
116	0x3eea6c1a	0.457856
117	0x3df32005	0.118713416
118	0x3ef548f2	0.47907215
119	0xbdd7d728	-0.10539085
120	0x39ffc72c	0.00048785785
121	0xbd8627d4	-0.06550565
122	0xbc47de2b	-0.012198965
123	0xbdf44f0e	-0.11929141
124	0xbdf77792	-0.12083353
125	0xbdd255c1	-0.102702625
126	0xbd76d1ff	-0.06025886
127	0xbe0e47aa	-0.13894525
128	0x3e1725d1	0.1476052
129	0xbd0f1b17	-0.034937944
130	0x3e1b1999	0.15146483
131	0x3d60abf2	0.05485148
132	0xbe18a5fa	-0.14907065
133	0x3df9804b	0.12182673
134	0xbd4665d6	-0.048436962
135	0xbd8a335a	-0.06748076
136	0xbe23bc01	-0.15989687
137	0xbe54816f	-0.207525
138	0x3c997697	0.018733306
139	0xbd9f15e4	-0.07767847
140	0x3d065c58	0.03280291
141	0xbe19d722	-0.15023473
142	0x3dff991c	0.12480375
143	0xbe0cbd16	-0.13744006
144	0xbd2564b3	-0.040379237
145	0x3ba1ac65	0.004933881
146	0x3d75f34d	0.060046483
147	0x3dd3eb17	0.10347574
148	0x3e00078d	0.1250288
149	0xbe14f201	-0.14545442
150	0x3d1d52be	0.038408987
151	0xbdabb5ae	-0.08384262
152	0xbd0ae511	-0.03390986
153	0xbe3d1929	-0.18466629
154	0x3e4fcaa3	0.20292144
155	0x3d6e4cea	0.05817882
156	0x3f1d16e0	0.6136303
157	0x3eef23c4	0.46706975
158	0x3ff1f14f	1.8901767
159	0x3f331e7c	0.6996839
160	0x3f2a5ef5	0.6655114
161	0x3d5e2bce	0.054240994
162	0x3e8a2649	0.26982334
163	0x3e8843d0	0.26614237
164	0x3f27a652	0.6548816
165	0x3eff8ad0	0.49910593
166	0x3faf4b54	1.3694863
167	0x3f72323a	0.9460789
168	0x3f1dd5b6	0.6165422
169	0x3f2e9b5a	0.682058
170	0xbde6e494	-0.112740666
171	0xbdb40f60	-0.08791995
172	0x3c943702	0.018092636
173	0xbea61fad	-0.32446042
174	0xbe80df70	-0.2517047
175	0xc0056a58	-2.0846157
176	0xbed1b497	-0.40958092
177	0xbe16d665	-0.14730223
178	0x3e656908	0.22403347
179	0xbead61f8	-0.33863807
180	0xbe9a3f96	-0.30126637
181	0xbe44d430	-0.19221568
182	0xbe2114b3	-0.15730552
183	0xbf03f408	-0.5154424
184	0xbe3ea423	-0.186173
185	0xbe187485	-0.14888199
186	0xbe67089c	-0.22561878
187	0xbcff47cc	-0.031162165
188	0xbd49dc53	-0.049282383
189	0x3c861fe7	0.016372634
190	0xbd0d7594	-0.03453596
191	0xbd635dfa	-0.055509545
192	0x3de5871a	0.11207409
193	0x3e1a7c43	0.15086465
194	0xbc938acc	-0.01801052
195	0xbd226095	-0.03964289
196	0xb8cd6e65	-9.795724e-05
197	0xbc548640	-0.012971461
198	0x3d1f455f	0.038884517
199	0x3d3d94f7	0.046284642
200	0xbe2430f9	-0.16034307
201	0xbd85eb30	-0.06538999
202	0x3e1735e4	0.14766651
203	0x3d889ad5	0.06670157
204	0xbc0f74c3	-0.0087558655
205	0xbdd95deb	-0.106136166
206	0xbddc936a	-0.107703045
207	0xbe2179e2	-0.15769151
208	0xbd6b0a4c	-0.057382867
209	0x3d73819c	0.059449777
210	0x3de5e20d	0.112247564
211	0x3da674fe	0.08127783
212	0xbe1f57f4	-0.15560895
213	0xbdd8cf59	-0.105864234
214	0xbce3975f	-0.02778214
215	0x3e2e610c	0.17029208
216	0x3cd09d96	0.025465768
217	0xbd3abc2e	-0.04558962
218	0x3d952853	0.07283082
219	0xbd8951ec	-0.067050785
220	0xbde95be1	-0.11394478
221	0x3e703c70	0.23460555
222	0xbd0b6516	-0.03403195
223	0x3e629de8	0.22130549
224	0x3e21b962	0.15793374
225	0x3ec34a0a	0.38142425
226	0x3fc4c32e	1.5372064
227	0x3f09b4ad	0.53791314
228	0x3e36754e	0.17818186
229	0xbe61f07e	-0.22064397
230	0x3c2bc1ab	0.010483186
231	0x3ead8bd8	0.33895755
232	0x3ee547a0	0.44781208
233	0x3ec3464d	0.38139573
234	0x3f6e200f	0.9301767
235	0x3f04ae4c	0.51828456
236	0x3ea671dc	0.32508743
237	0x3e5bfb69	0.21482624
238	0xbe1a7243	-0.1508265
239	0xbe289c77	-0.16465937
240	0x3d9396b4	0.07206479
241	0xbdb1025b	-0.086430274
242	0xbd111d9f	-0.03542864
243	0xbdcf7d02	-0.10131265
244	0xbd036508	-0.032078773
245	0xbdfdc14b	-0.12390383
246	0xbdeb943e	-0.11502884
247	0x3d6f2f5e	0.058394782
248	0xbd564c06	-0.052318595
249	0x3dde92d3	0.10867848
250	0xbd675350	-0.056475937
251	0xbe043ce0	-0.12913847
252	0xbcfe72a0	-0.031060517
253	0xbdaec41c	-0.08533499
254	0xbd5c9a9c	-0.053858384
255	0xbd8cc026	-0.06872587

mps.0.l1.edge_block.m.0.bias f4 [16]
0	0x3f18574b	0.595082
1	0x3e0641c0	0.13111019
2	0x3f984e86	1.1898963
3	0xbd374009	-0.044738803
4	0xbe25e6f8	-0.16201389
5	0x3d725ae0	0.059168696
6	0x3f0b14b6	0.5432848
7	0xbe336b76	-0.17521462
8	0xbd520432	-0.051273532
9	0x3f371e71	0.71530825
10	0xbe9a948a	-0.3019145
11	0xbdb32f16	-0.08749215
12	0xbd935f92	-0.07195963
13	0x3eda7d91	0.42673925
14	0xbe2b4e5d	-0.16729112
15	0x3ed0a334	0.40749514

mps.0.l1.edge_block.m.2.weight f4 [1, 16]
0	0x3e221570	0.1582849
1	0xbc8dbbb1	-0.017301412
2	0x3f6c6a75	0.9234994
3	0xbd8c5b13	-0.068533085
4	0xbe03b7b8	-0.12863052
5	0xbea0a076	-0.31372422
6	0x3d98daab	0.074635826
7	0xbdcc0a98	-0.09962958
8	0xbdbb8a34	-0.091572195
9	0x3efaa6c7	0.48955366
10	0xbe8d6e4d	-0.27623215
11	0xbd6e44e6	-0.058171175
12	0x3bbf0dda	0.0058305087
13	0x3fbefdbe	1.4921186
14	0xbd7fe9d2	-0.062478848
15	0xbe9b787c	-0.3036536

mps.0.l1.node_block.m.0.weight f4 [16, 9]
0	0x3dd771b8	0.10519737
1	0x3ea5ec86	0.32407016
2	0x3f434ea9	0.762919
3	0x3dc5e3c0	0.096625805
4	0x3eb78218	0.3584144
5	0xbf54016c	-0.8281467
6	0x3e2d2d32	0.16911772
7	0xbc57561d	-0.01314309
8	0x4011efbe	2.2802577
9	0x3e06ec0f	0.13175987
10	0x3eff24de	0.49832815
11	0x3f4edcfe	0.8080596
12	0x3f608c09	0.87713677
13	0x3ee45a1f	0.44600007
14	0x3f6b5596	0.9192747
15	0x3ee19ffa	0.44067365
16	0x3f024697	0.5088896
17	0xbf3bb575	-0.73323756
18	0x3dd14869	0.10218889
19	0x3e85755d	0.26066104
20	0x3e5f7189	0.21820654
21	0x3f875acf	1.0574588
22	0x3ebdaf4b	0.370478
23	0x400c52ff	2.1925657
24	0x3f92a1a0	1.1455574
25	0x3f940b37	1.1565922
26	0xbf83d522	-1.0299418
27	0xbe3c70de	-0.1840243
28	0xbe46c05f	-0.19409321
29	0x3df680b6	0.120362684
30	0xbe3849c7	-0.17996894
31	0xbcf40aa8	-0.029790238
32	0x3dedb2cc	0.116063684
33	0xbde5533c	-0.11197516
34	0xbcd81e99	-0.026381778
35	0xbcac85dd	-0.021059925
36	0xbd6a74b5	-0.057240207
37	0xbdff391d	-0.12462065
38	0xbe5ed800	-0.21762085
39	0xbe4ae7a6	-0.1981493
40	0xbe071398	-0.13191068
41	0x3e6ef70b	0.23336427
42	0xbdf005d3	-0.11719861
43	0xbe26d3c3	-0.16291718
44	0x3d228e3d	0.03968643
45	0x3d81a34e	0.06329976
46	0xbe8979a7	-0.26850626
47	0xbf1640cb	-0.58692616
48	0x3eebaa7a	0.460285
49	0xbf0e41cd	-0.55569154
50	0x3fc1b19c	1.5132327
51	0x3ee1324e	0.43983692
52	0x3dba9df0	0.091121554
53	0xbfa2b7e5	-1.271237
54	0x3e3a272a	0.18179002
55	0xbf12e2cf	-0.5737733
56	0xbed9736b	-0.4247087
57	0xbed65c10	-0.41867113
58	0xbf238b5a	-0.6388451
59	0xbf2e3491	-0.6804896
60	0xbf23257d	-0.6372908
61	0xbef58602	-0.47953802
62	0x3f0e61b6	0.55617845
63	0xbe722a49	-0.23648943
64	0xbd396424	-0.045261517
65	0x3e2fefe0	0.17181349
66	0x3da8f539	0.082498975
67	0xbe47fc11	-0.1952975
68	0xbd3458e5	-0.04403009
69	0xbe437934	-0.19089204
70	0xbe088c8e	-0.13334867
71	0xbc724d4b	-0.014788936
72	0x3dc8531d	0.097814776
73	0x3ef855fe	0.48503107
74	0xbd872f80	-0.06600857
75	0x3f97f79b	1.1872438
76	0x3e8d1569	0.27555397
77	0x3fa032e4	1.251553
78	0x3f9c1b40	1.2195816
79	0x3f53993f	0.8265571
80	0xbf8ca1aa	-1.0986836
81	0xbddb4f6f	-0.1070851
82	0x3e74c269	0.23902287
83	0x3f3b64ba	0.7320057
84	0x3f07afdb	0.5300271
85	0x3f12d877	0.5736155
86	0x3e76297f	0.24039267
87	0x3f732cc5	0.9499019
88	0x3f328e02	0.69747937
89	0x3ee7a130	0.45240164
90	0xbe0b39ff	-0.13596343
91	0xbe491cc9	-0.19639887
92	0x3cd6601d	0.026168877
93	0x3d92ce81	0.07168294
94	0xbde4c827	-0.111709885
95	0xbd8aa432	-0.06769599
96	0x3e2752ce	0.16340181
97	0x3c9de2c1	0.019273164
98	0x3c32d979	0.010916107
99	0xbd8c2b80	-0.068442345
100	0xbeab996c	-0.3351549
101	0x3e3b22da	0.18275014
102	0xbd2fd165	-0.042924304
103	0x3d3cfa66	0.046137236
104	0xbfadfdff	-1.3593138
105	0x3e32d28c	0.1746313
106	0xbbad719b	-0.005293084
107	0x3f1d8c90	0.61542606
108	0xbe330ef3	-0.17486171
109	0x3f019c92	0.5062953
110	0x3e80715a	0.2508648
111	0x3f15fe02	0.5859071
112	0x3f406eab	0.75168866
113	0x3fcb21f7	1.586974
114	0x3f6def0b	0.92942876
115	0x3f47a015	0.7797864
116	0x3e38fad7	0.18064438
117	0xbdd7e9b4	-0.10542622
118	0x3f07263a	0.52792704
119	0x3f53a867	0.82678837
120	0x3f21f7ad	0.6326855
121	0x3f1daec2	0.61594784
122	0x3d81709b	0.06320306
123	0x3f34f9e5	0.7069381
124	0x3f2bea01	0.67153937
125	0x3eb8a5d7	0.36064026
126	0xbdbf8d97	-0.09353178
127	0xbacea9f1	-0.0015767199
128	0x3eab42ae	0.3344931
129	0x3e31bb26	0.17356548
130	0x3f2855dd	0.65756017
131	0x3f248d2c	0.6427791
132	0x3f4d6671	0.8023444
133	0x3ee2c2b5	0.44289175
134	0x3eb21dbf	0.3478832
135	0xbc755c7c	-0.014975663
136	0x3fb17029	1.3862354
137	0x3f8ef483	1.1168369
138	0x3f8e11cc	1.1099181
139	0x3fa52d6d	1.2904488
140	0xbe81a926	-0.25324363
141	0x3f30fc2a	0.6913477
142	0x3f96b218	1.17731
143	0x3e8f87f6	0.28033417

mps.0.l1.node_block.m.0.bias f4 [16]
0	0xbe011153	-0.12604265
1	0x3f17907b	0.59204835
2	0x3f786612	0.97030747
3	0xbe4acf7c	-0.19805712
4	0x3d3cae38	0.046064585
5	0x3eb79422	0.35855204
6	0xbf2486d6	-0.64268243
7	0xbdb50167	-0.08838158
8	0x3f9e9050	1.2387791
9	0x3f579632	0.84213555
10	0xbe1231d7	-0.14276825
11	0x3e730a93	0.23734502
12	0x3f93240d	1.1495377
13	0x3f66ad16	0.9010786
14	0x3f24466a	0.64169943
15	0x3f77e3cc	0.96831965

mps.0.l1.node_block.m.2.weight f4 [8, 16]
0	0xbe0d5ca8	-0.13804877
1	0xbcb60b20	-0.022222102
2	0xbc209c65	-0.009802912
3	0x3e333308	0.17499936
4	0x3e1ed77f	0.15511893
5	0x3dd35977	0.103197984
6	0x3df2817a	0.11841102
7	0x3dfd99a4	0.1238282
8	0x3cfc5ef0	0.030806988
9	0xbf2e33ec	-0.68047976
10	0x3db9af96	0.090666935
11	0xbefe1bab	-0.49630484
12	0xbe879045	-0.26477256
13	0xbf2662f8	-0.64994764
14	0xbeaa0981	-0.33210376
15	0xbe312cdd	-0.1730227
16	0xbe57bd6a	-0.2106835
17	0xbe21b1f8	-0.15790546
18	0x3d087e6d	0.033323694
19	0xbddb0caa	-0.10695775
20	0xbdf1f2b0	-0.11813867
21	0x3e2197f1	0.15780617
22	0xbded7a62	-0.11595608
23	0x3e28e032	0.16491774
24	0x3e3ac37f	0.18238638
25	0xbe72739f	-0.23676918
26	0x3d7fcc70	0.062450826
27	0xbc3635f0	-0.011121258
28	0xbc7d730c	-0.015469324
29	0xbe595850	-0.21225095
30	0x3ec026e9	0.37529686
31	0xbe29f647	-0.16597854
32	0x3e9398ad	0.2882742
33	0xbda1e6c3	-0.079053424
34	0xbdfefe9c	-0.12450907
35	0xbd33fd84	-0.043942943
36	0xbdb38c1f	-0.0876696
37	0xbc94b4c5	-0.018152604
38	0x3e169465	0.14705046
39	0x3e0ac14a	0.13550296
40	0x3c83cc86	0.016088735
41	0xbed71977	-0.42011616
42	0xbdc77459	-0.097389884
43	0x3be5e338	0.007015612
44	0xbeca9ff3	-0.39575157
45	0xbe881224	-0.2657634
46	0xbf35ff97	-0.71093124
47	0xbe87c256	-0.26515454
48	0xbe6dc99a	-0.23221436
49	0xbd4bb34e	-0.049731545
50	0xbd78e393	-0.060763907
51	0x3e21e73d	0.15810867
52	0xbe2ff400	-0.17182922
53	0x3e8042c7	0.25050947
54	0x3cfba7d1	0.03071967
55	0xbcfca10c	-0.030838512
56	0x3e40c51c	0.18825191
57	0xbf33246b	-0.69977444
58	0x3de911c3	0.11380341
59	0xbf072928	-0.52797174
60	0xbd454ca0	-0.04816878
61	0xbed2e520	-0.41190434
62	0xbdcabba1	-0.098990686
63	0x3d848677	0.0647096
64	0x3de9213e	0.113832936
65	0x3d43a1ec	0.047761843
66	0xbe558d03	-0.20854573
67	0xbcbe2f78	-0.023215994
68	0x3e308b53	0.17240648
69	0x3dc8acfc	0.09798619
70	0x3d5156d2	0.05110819
71	0xbe2f761d	-0.171349
72	0xbddd8296	-0.10815923
73	0xbf125070	-0.5715399
74	0x3e171a47	0.14756118
75	0xbf03d329	-0.5149408
76	0x3e006b6e	0.12540981
77	0xbf16aad7	-0.5885443
78	0xbf2c61c5	-0.67336684
79	0x3dd11bcc	0.1021038
80	0xbda0ebf0	-0.078575015
81	0x3e198546	0.14992246
82	0x3e49ee5c	0.19719833
83	0x3e160236	0.14649281
84	0xbd8058a1	-0.062669046
85	0xbd1fdf12	-0.039031096
86	0x3dac7911	0.08421529
87	0xbd145386	-0.036212467
88	0x3e15319c	0.14569706
89	0x3eed6910	0.4636922
90	0xbdfc0e95	-0.12307469
91	0x3e40d95f	0.1883292
92	0xbe665492	-0.22493199
93	0x3eded468	0.43521428
94	0x3e3c7586	0.18404207
95	0x3ec69c5f	0.38791177
96	0x3e4ab7a4	0.19796616
97	0xbdbaf225	-0.09128217
98	0xbe86e571	-0.26346925
99	0xbe025a16	-0.12729678
100	0xbde6d63d	-0.112713315
101	0xbe74a3c4	-0.23890597
102	0xbe21b4ff	-0.15791701
103	0xbe2db644	-0.1696406
104	0xbe8b7781	-0.27239612
105	0x3d8f6a73	0.070027255
106	0xbe372e77	-0.17888819
107	0x3ed93687	0.42424414
108	0x3f133e8a	0.575173
109	0x3ea963e7	0.33084032
110	0x3f23547a	0.63800776
111	0xbf060e51	-0.52365595
112	0x3e94b64a	0.29045326
113	0xbd527960	-0.051385283
114	0xbd94dcd2	-0.07268681
115	0x3de4f922	0.11180331
116	0xbe21e709	-0.15810789
117	0xbb957916	-0.0045615537
118	0x3e7256aa	0.23665872
119	0x3cf3e14e	0.02977052
120	0x3d35114c	0.04420595
121	0xbed20338	-0.4101808
122	0xbb2411cb	-0.002503502
123	0xbea49368	-0.32143712
124	0xbf0ac4f6	-0.5420679
125	0xbe40f8e4	-0.18844944
126	0xbe9fb4b3	-0.3119255
127	0xbe7c5b12	-0.24644116

mps.0.l1.node_block.m.2.bias f4 [8]
0	0xbf3657fe	-0.71228015
1	0x3c459a65	0.012060736
2	0xbf3ae548	-0.73006105
3	0xbedc4886	-0.4302408
4	0xbf39451c	-0.7237108
5	0x3eeeba79	0.46626642
6	0xbdabd1b6	-0.083896086
7	0xbed9fb22	-0.42574412

mps.0.l2.edge_block.m.0.weight f4 [16, 17]
0	0x3d842143	0.06451657
1	0xbde0e91e	-0.109819636
2	0xbded5438	-0.11588329
3	0x3cb8f6a3	0.022578543
4	0xbe281c2b	-0.16416995
5	0xbe3700d0	-0.17871404
6	0x3ca0372f	0.019557564
7	0x3db49516	0.088174984
8	0x3e19d65d	0.1502318
9	0x3e23fb1d	0.16013761
10	0xbe13f850	-0.14450192
11	0xbd42b612	-0.047536917
12	0x3e16afff	0.14715575
13	0x3b68f51d	0.003554649
14	0x3d3f17b8	0.04665348
15	0xbc547081	-0.012966276
16	0xbe468444	-0.19386393
17	0x3df72f29	0.12069542
18	0x3f2557f1	0.6458731
19	0xbe9e43b1	-0.3091102
20	0x3e6f8b63	0.23393016
21	0xbe042c62	-0.12907556
22	0xbec9ab9f	-0.3938875
23	0x3ea9dc31	0.33175805
24	0xbe8e0d9a	-0.27744752
25	0xbd89e758	-0.067335784
26	0x3eac3821	0.33636573
27	0xbf2738ac	-0.6532085
28	0x3da10ada	0.07863398
29	0xbe83ad48	-0.2571814
30	0xbe2ea0d8	-0.17053545
31	0x3ec647b2	0.38726574
32	0xbe9f474c	-0.31109083
33	0xbd99d13d	-0.07510612
34	0xbdcecafb	-0.10097309
35	0xbe8886e9	-0.26665428
36	0x3cd25427	0.025674893
37	0xbe93d613	-0.28874263
38	0x3e32254e	0.17397043
39	0x3deb58aa	0.11491521
40	0xbe593295	-0.21210702
41	0x3e88ee2d	0.26744214
42	0xbd2a3413	-0.041553568
43	0xbe41623c	-0.1888513
44	0xbd8b9e38	-0.06817287
45	0xbe75a792	-0.23989704
46	0x3dea4575	0.11439029
47	0xbd0df087	-0.034653213
48	0xbc655d14	-0.013999242
49	0x3e101f15	0.14074357
50	0xbf2947fd	-0.6612547
51	0x3d7ea224	0.062166348
52	0x3c88f192	0.016716752
53	0x3d00ad87	0.03141549
54	0x3d426b42	0.04746557
55	0x3d0ea45e	0.03482472
56	0xbe149f61	-0.14513923
57	0x3d330025	0.04370131
58	0x3dfb81ca	0.12280615
59	0xbe683ea6	-0.22680148
60	0x3d36d36e	0.04463523
61	0xbe4917e2	-0.19638017
62	0x3c07ca7a	0.00828802
63	0x3e17bec3	0.14818864
64	0xbcc6d833	-0.024273014
65	0x3df6a716	0.12043588
66	0xbcf52ee6	-0.02992959
67	0x3e1e036e	0.15430996
68	0x3c7ee34d	0.015557122
69	0x3eb8e81a	0.3611458
70	0xbe9485d1	-0.29008344
71	0x3ecc19dc	0.3986348
72	0x3dbfe09f	0.09369015
73	0xbec04d3a	-0.3755892
74	0x3f299780	0.66246796
75	0xbe450705	-0.19240959
76	0x3d6cd9fb	0.05782507
77	0x3d867b4f	0.06566488
78	0xbed12cdb	-0.40854535
79	0x3e832466	0.25613707
80	0x3ca6d13a	0.020363439
81	0xbe880a5c	-0.26570404
82	0x3e92607b	0.28589234
83	0xbe67d6d8	-0.2264055
84	0xbdae96a5	-0.08524827
85	0xbe03de72	-0.12877825
86	0x3c6d0b73	0.014468062
87	0xbe6c5c26	-0.23082027
88	0xbbf3c6ce	-0.007439471
89	0x3e2ce2c2	0.16883376
90	0x3dcbda1b	0.0995371
91	0x3d8dae9b	0.06918069
92	0x3dd49dd3	0.10381665
93	0x3e34fa3f	0.17673586
94	0x3da47889	0.08030803
95	0x3e33d56c	0.17561883
96	0x3eae6a2d	0.3406538
97	0x3c48c2c9	0.012253472
98	0x3e3e7ff1	0.18603493
99	0x3d1aba78	0.037775487
100	0xbd213836	-0.039360248
101	0x3eefa0a0	0.46802235
102	0xbe57ee91	-0.210871
103	0x3dde5e99	0.10857887
104	0xbee09f19	-0.43871382
105	0x3d6d1f4a	0.057891168
106	0xbe2845e1	-0.16432907
107	0xbe20802a	-0.1567389
108	0x3edf6390	0.43630648
109	0xbe9ad7b9	-0.30242708
110	0x3ed79423	0.42105207
111	0x3cacc979	0.021092163
112	0xbdd45c01	-0.10369111
113	0x3e94d65a	0.29069787
114	0x3f0ef10a	0.55836546
115	0x3d17052a	0.03687016
116	0xbefcee25	-0.4940044
117	0xbc6df6b6	-0.0145241525
118	0x3ec75d82	0.38938528
119	0xbca70b4f	-0.020391135
120	0xbcac8e8b	-0.021064064
121	0x3e364538	0.17799842
122	0x3da31a67	0.0796402
123	0x3e6488c9	0.22317804
124	0x3e148e8d	0.14507504
125	0x3bbdcd57	0.0057923007
126	0xbd2618c5	-0.040550966
127	0xbe8b9544	-0.27262318
128	0xbe0e0197	-0.13867794
129	0x3e17f074	0.1483782
130	0xbedeb093	-0.4349409
131	0xbca0bd25	-0.019621441
132	0x3dd6dbb7	0.10491126
133	0x3e1010bc	0.14068884
134	0x3e1a8abc	0.15091985
135	0xbf088fae	-0.5334424
136	0xbd9beee3	-0.076139234
137	0x3e203832	0.15646437
138	0x3e1a70f3	0.15082149
139	0x3e12b515	0.1432689
140	0x3d2dac92	0.042400904
141	0x3ca10913	0.019657647
142	0x3e389a46	0.180276
143	0xbdd068d2	-0.10176243
144	0xbcca4991	-0.024693282
145	0x3e44a45a	0.1920332
146	0xbdffb844	-0.12486318
147	0xbd67fcf5	-0.056637723
148	0x3e10e02a	0.14148012
149	0x3c6f67b6	0.014612129
150	0x3d9624e5	0.07331256
151	0xbd846360	-0.06464267
152	0xbd45e4cb	-0.048313897
153	0x3e1cb6b3	0.15304069
154	0xbcc1bdb1	-0.023650022
155	0xbd81bb25	-0.06334523
156	0x3d865f5a	0.065611556
157	0xbddf8147	-0.109133296
158	0x3de394e3	0.11112382
159	0xbd0f6bf1	-0.03501505
160	0xbdd560dc	-0.10418865
161	0xbd634906	-0.055489562
162	0xbcfb963e	-0.03071129
163	0xbe75b9b3	-0.2399662
164	0x3dba173a	0.09086461
165	0x3d193cec	0.037411615
166	0xbe66200b	-0.22473161
167	0xbd774258	-0.060366005
168	0x3de1d6a5	0.11027268
169	0x3cca0ed0	0.024665266
170	0x3dacc9aa	0.08436902
171	0xbde1f136	-0.110323355
172	0xbd96fdbc	-0.07372615
173	0xbcabf599	-0.020991134
174	0xbd1353c6	-0.035968564
175	0xbddcf346	-0.10788588
176	0x3b0d752b	0.002158473
177	0x3cbfcf28	0.02341421
178	0xbc9849bf	-0.018589852
179	0x3c6c770b	0.014432679
180	0xbd72a80e	-0.0592423
181	0x3d19fc8b	0.03759436
182	0x3daca51b	0.08429929
183	0xbdb03ccb	-0.08605345
184	0xbe36bfef	-0.17846654
185	0x3dcbcc66	0.09951095
186	0x3ccb6dda	0.024832655
187	0xbe2009a7	-0.15628682
188	0x3e1c5fd5	0.15270932
189	0xbdd62421	-0.1045611
190	0x3c574141	0.013138116
191	0x3d7df701	0.06200314
192	0xbdf3b26a	-0.11899264
193	0x3dc87594	0.09788051
194	0xbe68b29f	-0.22724389
195	0xbd461dec	-0.04836838
196	0xbe2794c7	-0.16365348
197	0xbb4e95eb	-0.0031522464
198	0x3e49aadd	0.19694085
199	0xbd870a49	-0.065937586
200	0x3e555aad	0.20835371
201	0xbe9bd1aa	-0.30433398
202	0x3e57c03d	0.21069427
203	0x3f2b4d65	0.6691497
204	0xbdf69392	-0.120398656
205	0x3d741e27	0.059599068
206	0x3d5c5d88	0.053800136
207	0x3e33c762	0.17556527
208	0xbdb882eb	-0.090093456
209	0xbdf1ed15	-0.11812798
210	0x3d738856	0.059456192
211	0x3ca07f28	0.019591883
212	0x3d175443	0.036945593
213	0x3e0ecd0a	0.13945404
214	0xbdb1305d	-0.08651803
215	0x3ded5b7d	0.11589716
216	0x3e14c6be	0.14528939
217	0xbda9fdf6	-0.08300392
218	0x3e1ffc57	0.15623604
219	0x3d27f478	0.041004628
220	0x3ddf89fb	0.109149896
221	0xbdfab8c4	-0.122422725
222	0xbd6d90d6	-0.057999454
223	0xbda13475	-0.078713335
224	0xbb1a347e	-0.0023529823
225	0x3e4db1df	0.20087384
226	0xbdec2bfc	-0.11531827
227	0x3deac933	0.11464157
228	0xbe0696fb	-0.13143532
229	0x3e729818	0.23690832
230	0xbda698c1	-0.08134604
231	0xbd84986a	-0.06474383
232	0x3d162811	0.036659304
233	0xbdbf9f63	-0.093565725
234	0x3e2d68fa	0.16934577
235	0xbe52faa3	-0.20603423
236	0x3d7f8313	0.06238086
237	0x3f3e0483	0.74225634
238	0xbe1f2875	-0.15542777
239	0x3d764424	0.060123578
240	0xbf0729df	-0.52798265
241	0xbe3baf65	-0.18328626
242	0xbea45d5b	-0.32102475
243	0xbc49eb82	-0.012324216
244	0x3e42ce98	0.19024122
245	0xbeeda2ed	-0.46413365
246	0xbd39df77	-0.04537913
247	0x3e4ce4a3	0.20009093
248	0xbe61d051	-0.22052123
249	0x3db0453f	0.08606958
250	0xbc73c432	-0.01487832
251	0xbe4d7622	-0.20064595
252	0x3dc21fd3	0.09478726
253	0xbf06692f	-0.5250425
254	0xbd978b73	-0.07399645
255	0x3db92fd5	0.09042326

mps.0.l2.edge_block.m.0.bias f4 [16]
0	0xbdbe0ecf	-0.09280168
1	0x3e5c1dd1	0.21495749
2	0xbde2729c	-0.11057016
3	0x3e545486	0.20735368
4	0x3c91cd86	0.017798197
5	0x3ec5fc69	0.38669136
6	0x3e6c2a9e	0.23063132
7	0x3e13e56e	0.14442989
8	0xbe07952a	-0.13240495
9	0xbc689279	-0.014195078
10	0x3dcbdfc5	0.0995479
11	0x3f27347e	0.6531447
12	0x3e2052d7	0.15656601
13	0x3f1322ed	0.5747517
14	0x3e989c19	0.29806593
15	0xbe214c48	-0.15751755

mps.0.l2.edge_block.m.2.weight f4 [1, 16]
0	0xbc344148	-0.011001892
1	0x3f651d51	0.8949786
2	0xbe2db719	-0.16964377
3	0x3cb8db32	0.022565458
4	0x3ee59229	0.44838074
5	0x3d9ce662	0.076611295
6	0x3f2da0b4	0.6782334
7	0xbe2825f8	-0.16420734
8	0xbd6022b9	-0.054720614
9	0x3bf48242	0.007461817
10	0xbcec8872	-0.028873656
11	0x3f1d724f	0.61502546
12	0x3dbe19fb	0.09282299
13	0x3f069d1b	0.52583474
14	0x3e8d0f03	0.27550516
15	0x3b40a2c6	0.0029393896

mps.0.l2.node_block.m.0.weight f4 [16, 9]
0	0xbeaa2150	-0.3322854
1	0x3e68dfaf	0.22741579
2	0xbe9a001e	-0.30078214
3	0xbda9844c	-0.08277187
4	0xbe88142e	-0.26577896
5	0x3d8f960c	0.07011041
6	0x3ec61e1e	0.38694853
7	0xbe382a20	-0.1798482
8	0x3e1422f8	0.14466465
9	0xbe3f7196	-0.18695673
10	0x3e16c59d	0.14723821
11	0xbea00d27	-0.31260034
12	0xbd9db2ba	-0.07700105
13	0xbea28d42	-0.31748396
14	0xbeb4b543	-0.35294542
15	0x3f3bffe3	0.7343733
16	0xbf19e6ea	-0.6011797
17	0x3dcb6ff6	0.09933464
18	0x3e6167cd	0.22012253
19	0xbd696c34	-0.056987956
20	0xbdc0177a	-0.09379478
21	0x3e05f32e	0.13081047
22	0xbddb944e	-0.10721646
23	0xbd213f58	-0.03936705
24	0x3e543506	0.20723352
25	0xbded06ec	-0.11573586
26	0xbe212e13	-0.15740232
27	0xbe0760aa	-0.13220468
28	0xbd369ee1	-0.044585112
29	0xbe0880bb	-0.13330357
30	0xbdbd0d92	-0.09231104
31	0x3d805817	0.06266802
32	0x3cbb3cc8	0.022856131
33	0xbd877c71	-0.06615532
34	0xbe531ef6	-0.2061728
35	0xbdb033b7	-0.08603614
36	0xbde4716b	-0.11154445
37	0xbcc062cf	-0.023484616
38	0xbe8cdc28	-0.27511716
39	0x3d2cc014	0.042175367
40	0xbe30a2db	-0.17249624
41	0xbe7d3d3a	-0.24730387
42	0xbe0fbc55	-0.14036687
43	0x3d424ce7	0.04743662
44	0xbdac5b58	-0.0841586
45	0xbced3110	-0.028954059
46	0x3ec4c45f	0.3843107
47	0xbdc0b814	-0.0941011
48	0x3e9e6c8c	0.3094219
49	0xbd6dfc3a	-0.05810187
50	0xbea05f83	-0.3132287
51	0xbe6d6b54	-0.23185474
52	0xbcafd969	-0.021465974
53	0x3e576dde	0.21038005
54	0xbe96abe2	-0.2942801
55	0x3e27b177	0.16376291
56	0xbf2ed04f	-0.68286604
57	0xbcfe0f32	-0.031013105
58	0xbe62e1d9	-0.22156467
59	0x3e33b4cc	0.17549437
60	0x3ecc857f	0.399456
61	0xbf0942f2	-0.53617775
62	0xbbe48588	-0.006973926
63	0xbef8f135	-0.48621526
64	0x3d4b870e	0.049689345
65	0xbd7b19e0	-0.061303973
66	0xbeaf449d	-0.34232035
67	0xbf1145fd	-0.5674742
68	0x3eb03224	0.34413254
69	0x3e25530f	0.16144966
70	0xbe49ce26	-0.19707546
71	0xbaeabf6a	-0.0017909829
72	0x3dba2e08	0.09090811
73	0x3ec1fd91	0.37888768
74	0xbd87b8dd	-0.06627057
75	0xbe3136d1	-0.17306067
76	0x3d268fca	0.04066447
77	0x3db31d41	0.08745814
78	0xbdb3dc2b	-0.08782228
79	0xbe363c5f	-0.17796467
80	0xbd8e2b39	-0.06941838
81	0xb92c5f24	-0.00016438641
82	0x3e519d6a	0.20470205
83	0xbe12536a	-0.14289632
84	0xbd721bc1	-0.0591085
85	0x3d999317	0.07498758
86	0xbe069e25	-0.13146265
87	0xbdc87a6d	-0.09788976
88	0x3dbb780c	0.091537565
89	0xbc68e847	-0.0142155355
90	0xbc8e1739	-0.017345058
91	0x3da76bcf	0.0817486
92	0xbd6ab95b	-0.057305675
93	0xbe42e3b3	-0.19032173
94	0x3d93bb98	0.07213515
95	0xbe1d8a79	-0.15384854
96	0xbdb73879	-0.08946318
97	0x3c78b045	0.015178745
98	0xbdb37273	-0.08762064
99	0xbe05b112	-0.13055828
100	0xbd1197fa	-0.035545327
101	0xbe17a256	-0.1480802
102	0xbddda31a	-0.10822125
103	0xbc0676af	-0.008207007
104	0x3bc553ff	0.006021976
105	0xbdf14d91	-0.11782373
106	0xbe64396d	-0.22287531
107	0xbdbd16b7	-0.09232848
108	0x3cbad7e9	0.022808032
109	0x3e79b82f	0.24386667
110	0xbe93a1a2	-0.28834254
111	0x3d81da9a	0.06340523
112	0x3e11d8ca	0.14242855
113	0x3cb67f89	0.02227761
114	0xbdf1de61	-0.118099935
115	0xbe56df99	-0.20983733
116	0xbe1ffc34	-0.15623552
117	0xbe318c5d	-0.173387
118	0x3e6cf1f4	0.23139173
119	0xbe068fc1	-0.13140775
120	0x3db0c3ea	0.08631118
121	0xbe0482ee	-0.1294057
122	0xbd468a41	-0.048471693
123	0xbd229b0b	-0.03969864
124	0x3ca9e50a	0.020739097
125	0xbd8bc5ed	-0.06824861
126	0xbc136bba	-0.008997852
127	0xbe07bf59	-0.13256587
128	0xbd9d4fe8	-0.076812565
129	0x3e8c3250	0.27382135
130	0x3d3464f8	0.044041604
131	0xbe537225	-0.20649011
132	0x3da4fa68	0.08055574
133	0xbdd5ed2f	-0.1044563
134	0xbdeb049b	-0.11475488
135	0x3e4f81b0	0.20264316
136	0x3da9fa4b	0.08299693
137	0xbcb0ccb3	-0.021581983
138	0xbd66be1c	-0.056333646
139	0xbe3b0fbb	-0.1826772
140	0xbcb954f9	-0.022623526
141	0x3e23ad20	0.1598401
142	0xbcb1cc9a	-0.021704007
143	0xbd462356	-0.048373543

mps.0.l2.node_block.m.0.bias f4 [16]
0	0x3f0114e5	0.5042251
1	0xbe078b86	-0.13236818
2	0xbe45a521	-0.19301273
3	0x3d9bac73	0.076012515
4	0x3e481b6e	0.19541714
5	0xbc971385	-0.018441925
6	0x3eb17510	0.34659624
7	0x3e993041	0.29919627
8	0x3d2b0a92	0.041758128
9	0xbea474dc	-0.32120407
10	0xbebc5a23	-0.3678752
11	0x3ed48e5a	0.41514856
12	0x3e350594	0.17677909
13	0x3e6b5394	0.22981101
14	0xbe7cbf02	-0.24682239
15	0x3d4f0918	0.05054578

mps.0.l2.node_block.m.2.weight f4 [8, 16]
0	0x3d9942e4	0.074834615
1	0xbe13ed3d	-0.14445968
2	0x3df8f6a5	0.12156419
3	0x3e0c7cea	0.13719526
4	0x3e06917f	0.1314144
5	0xbeac7e8a	-0.33690292
6	0x3e17067d	0.14748569
7	0x3e4d5046	0.20050153
8	0xbc5987c4	-0.013276998
9	0x3d168290	0.036745608
10	0xbd033a4b	-0.032038014
11	0xbd33882c	-0.043831035
12	0xbd25ddb4	-0.040494636
13	0xbbca1db2	-0.0061680907
14	0xbdbbefc1	-0.09176589
15	0xbda8cf82	-0.08242704
16	0xbed66d58	-0.41880298
17	0xbf1c7453	-0.61114997
18	0x3c3e22c5	0.011604969
19	0x3dcb0137	0.09912341
20	0x3e050d24	0.12993294
21	0x3db041ec	0.086063236
22	0xbe55778f	-0.20846389
23	0xbede0928	-0.4336636
24	0x3dc90d62	0.09817006
25	0x3de553d1	0.11197627
26	0xbe0150cd	-0.1262848
27	0x3ccb398b	0.024807712
28	0x3dbbe57e	0.091746315
29	0x3b2f566d	0.0026754395
30	0xbdd406d3	-0.10352864
31	0x3d9c9576	0.07645695
32	0x3e27cffa	0.1638793
33	0xbedce0d8	-0.43140292
34	0xbdd7b9b3	-0.10533466
35	0x3db1a149	0.08673341
36	0xbdb83dc1	-0.089961536
37	0x3e891e8f	0.26781127
38	0xbed05d66	-0.40696257
39	0x3ea51b6e	0.3224749
40	0x3cf08e0d	0.02936461
41	0x3db056c1	0.08610297
42	0xbbc0ee40	-0.0058877766
43	0x3ca036d5	0.019557396
44	0x3c4059bd	0.011740145
45	0xbe0df3f7	-0.13862596
46	0xbd7388b7	-0.059456553
47	0x3dce6117	0.10077112
48	0xbd81fe8a	-0.063473776
49	0x3e2e561f	0.1702504
50	0xbd704919	-0.05866346
51	0x3d9d2b32	0.076742545
52	0x3d79ec9b	0.06101666
53	0x3c82c74b	0.01596417
54	0x3de523e1	0.11188484
55	0xbe727646	-0.2367793
56	0xbc806d91	-0.015677245
57	0xbda9763e	-0.08274506
58	0x3e146921	0.14493228
59	0xbe2b1da5	-0.16710527
60	0x3d668fbd	0.056289423
61	0x3e1b0c1f	0.15141343
62	0x3e0c2aef	0.13688253
63	0x3cc92ec4	0.024558432
64	0xbe19c794	-0.1501754
65	0x3e005757	0.12533318
66	0xbd33953e	-0.0438435
67	0xbe062f06	-0.13103876
68	0x3e49e717	0.1971706
69	0xbf4569d7	-0.77114624
70	0x3e517fc9	0.20458902
71	0x3e89f92d	0.2694792
72	0xbda46ec9	-0.08028943
73	0xbd8eacba	-0.06966539
74	0x3d2dc18a	0.0424209
75	0x3dbaf956	0.09129588
76	0x3dce127f	0.100621216
77	0xbdd585c3	-0.10425904
78	0x3c068e70	0.008212671
79	0xbd35e39f	-0.04440653
80	0xbe33d01a	-0.17559853
81	0xbea82607	-0.32841513
82	0x3d69dc32	0.05709476
83	0x3bad090e	0.0052806204
84	0xbe383826	-0.17990169
85	0x3e228e7d	0.15874667
86	0xbdfd96ee	-0.12382303
87	0xbcb075e7	-0.021540595
88	0xbd215f44	-0.039397493
89	0xbb445091	-0.0029955248
90	0x3e369905	0.1783181
91	0x3d60156b	0.054707926
92	0xbdc6e9e6	-0.09712581
93	0x3e425b07	0.18980037
94	0x3d313743	0.043265592
95	0x3d9629c9	0.07332189
96	0x3dd2c003	0.102905296
97	0xbc295113	-0.010334271
98	0xbdaec061	-0.08532787
99	0x3e19123e	0.14948365
100	0xbe1b6ac0	-0.1517744
101	0xbe87cdfb	-0.26524338
102	0xbe51750d	-0.20454808
103	0x3c839e97	0.016066832
104	0xbb6a6216	-0.003576403
105	0xbcfcd0d0	-0.030861288
106	0x3d009d04	0.03139974
107	0xbd73000b	-0.059326213
108	0x3e14905e	0.14508197
109	0x3dbe09ce	0.09279214
110	0x3d9ec7c2	0.077529445
111	0x3d9c3236	0.076267645
112	0x3e38c306	0.18043146
113	0x3e3813c3	0.17976288
114	0x3cf0d323	0.029397553
115	0x3cd36fa8	0.025810078
116	0xbde21f37	-0.1104111
117	0x3dec24e4	0.11530474
118	0x3ccddb7b	0.02512907
119	0x3cf26e2f	0.029593555
120	0x3c858ba7	0.016301943
121	0xbd19d7b7	-0.037559237
122	0x3c254493	0.01008715
123	0x3df07202	0.11740495
124	0xbd0b1a13	-0.033960413
125	0x3e1a5bb0	0.15074039
126	0x3dbcd51e	0.092203364
127	0xbe029874	-0.12753469

mps.0.l2.node_block.m.2.bias f4 [8]
0	0xbe06cde7	-0.13164483
1	0xbecd480e	-0.40094036
2	0x3eb38657	0.3506343
3	0xbf0a1926	-0.53944623
4	0x3e9f3a92	0.31099373
5	0xbf0de94c	-0.5543411
6	0x3f2c2c3a	0.67254984
7	0x3ec534c8	0.3851683

mps.1.l1.edge_block.m.0.weight f4 [16, 18]
0	0xbf0c5b70	-0.5482702
1	0x3e83f72d	0.25774518
2	0x3d717956	0.058953606
3	0xbe3c4737	-0.18386541
4	0xbe8e8859	-0.278384
5	0xbd611df5	-0.05496021
6	0x3e017a18	0.12644231
7	0x3e5659f3	0.2093275
8	0xbe87e411	-0.26541188
9	0x3d8d68ed	0.06904779
10	0x3d042b7d	0.032268036
11	0x3e77a822	0.24185231
12	0xbd97c98c	-0.07411489
13	0x3e81b990	0.25336885
14	0x3cdba9fa	0.02681445
15	0xbd691f5d	-0.056914676
16	0xbd4c7d90	-0.049924433
17	0x3eff1cab	0.4982656
18	0xbeecfae8	-0.46285176
19	0xbe6bfeba	-0.23046389
20	0x3ece8de0	0.40342617
21	0xbeecb5c7	-0.46232435
22	0x3d11892e	0.035531215
23	0xbecb1f30	-0.39672232
24	0x3ecf9a75	0.4054753
25	0x3f04529c	0.5168855
26	0xbd8ec675	-0.069714464
27	0xbe22a533	-0.15883331
28	0x3f1c208a	0.6098715
29	0xbe9e0845	-0.30865684
30	0xbe51839e	-0.20460364
31	0x3bdd0ecd	0.006746149
32	0x3ec1c31c	0.3784417
33	0x3dc77def	0.09740817
34	0xbc8a354c	-0.016871117
35	0x3d9bc8b1	0.07606638
36	0x3e7f6696	0.24941477
37	0x3ebce571	0.368938
38	0xbeb86ceb	-0.36020598
39	0x3e99e29e	0.30055708
40	0xbe3fddc5	-0.18736942
41	0x3e932445	0.2873861
42	0xbe232cfd	-0.1593513
43	0xbe81f5f6	-0.25382966
44	0x3dde492e	0.10853802
45	0x3e51fb5c	0.20506042
46	0xbebdec83	-0.37094507
47	0x3ea080a5	0.31348148
48	0xbe59b445	-0.21260174
49	0x3e3c57a2	0.18392804
50	0xbeb4bbfe	-0.35299677
51	0xbe9d8253	-0.30763492
52	0xbe106069	-0.14099278
53	0xbedcb8b4	-0.43109667
54	0xbe5be711	-0.21474864
55	0x3e5f7348	0.2182132
56	0x3e0ccb16	0.13749346
57	0xbe39a235	-0.18128283
58	0xbc9f3036	-0.019432168
59	0x3eb7b3f3	0.35879478
60	0xbd839b34	-0.06426087
61	0xbe3aaa2e	-0.18228981
62	0x3eb93902	0.36176306
63	0xbdf1c93d	-0.11805961
64	0x3d6ee668	0.0583252
65	0xbcff5db4	-0.03117261
66	0x3edba19d	0.4289674
67	0xbdf2ef59	-0.11862058
68	0x3e0a75d3	0.13521509
69	0x3de8c014	0.11364761
70	0xbe82ca0c	-0.25544775
71	0x3e0388eb	0.12845199
72	0xbe5cb4a1	-0.2155328
73	0x3e8aa489	0.27078655
74	0x3dfec224	0.12439373
75	0x3e36dab5	0.17856868
76	0xbf41cd24	-0.75703645
77	0x3e62957c	0.22127336
78	0xbe3e1ef5	-0.18566497
79	0xbdb12f23	-0.08651569
80	0xbe3909aa	-0.18070093
81	0xbed03213	-0.40663204
82	0xbe3abb12	-0.18235424
83	0xbd1a19e3	-0.037622344
84	0x3e496bff	0.19670103
85	0xbf03b57e	-0.5144881
86	0x3e7c3e8f	0.24633239
87	0x3e9a98eb	0.30194792
88	0x3f4e736e	0.8064488
89	0xbdabf2aa	-0.08395894
90	0x3e4f1fc7	0.20226966
91	0xbeed2f6b	-0.4632524
92	0x3e57ee15	0.21086915
93	0xbda7726c	-0.08176121
94	0xbe24d2d4	-0.1609605
95	0xbeda2ded	-0.42613164
96	0x3e18e83d	0.14932342
97	0x3ebb0cd6	0.3653323
98	0xbf06c5f5	-0.5264581
99	0x3db95935	0.09050218
100	0xbcbd8e6f	-0.023139207
101	0x3e0cba1f	0.13742875
102	0xbf077c76	-0.5292429
103	0x3e0d14c3	0.13777451
104	0x3ddd1f82	0.10797025
105	0xbe0f17f1	-0.13973977
106	0xbe02ee5d	-0.12786241
107	0x3f04c3de	0.5186137
108	0x3d8fb838	0.07017559
109	0x3e977648	0.2958243
110	0xbe13f523	-0.14448981
111	0x3e654c85	0.22392471
112	0x3e953a45	0.2914602
113	0x3e16a023	0.14709525
114	0xbe95fdee	-0.29295295
115	0xbe733ed4	-0.23754436
116	0xbd8eebd4	-0.069785744
117	0x3e25bafe	0.16184613
118	0xbea773c2	-0.32705504
119	0x3e8f029d	0.2793168
120	0x3e22039c	0.1582169
121	0x3e786ccf	0.24260257
122	0xbec981a8	-0.39356732
123	0xbed447e1	-0.4146109
124	0x3bde6d11	0.006787904
125	0x3e4180b0	0.18896747
126	0xbeb44cf5	-0.35214964
127	0x3e1ee582	0.15517238
128	0xbd9213e1	-0.07132698
129	0x3d0fc4e9	0.035099898
130	0xbdc5acde	-0.096521124
131	0x3e66579a	0.22494355
132	0xbe0207ec	-0.12698334
133	0x3dfc3596	0.12314908
134	0x3e105c4b	0.14097707
135	0xbd919cc3	-0.07109978
136	0x3e916670	0.28398466
137	0xbdc4b939	-0.09605641
138	0xbd0ca4d4	-0.03433688
139	0xbc93f565	-0.01806135
140	0x3c9ec072	0.019378874
141	0x3d5ca9b8	0.053872794
142	0xbe635055	-0.22198613
143	0xbbbee7f4	-0.005825991
144	0xbe84f631	-0.2596908
145	0x3e09bee9	0.13451733
146	0xbeee54e2	-0.46549135
147	0x3df5a4c4	0.11994317
148	0xbe976390	-0.29568148
149	0xbd761915	-0.060082514
150	0xbc73d45d	-0.014882174
151	0xbd99af66	-0.07504158
152	0x39d5b2ce	0.00040759746
153	0xbe1e5be1	-0.15464737
154	0xbeda7da4	-0.4267398
155	0x3e1de88e	0.15420744
156	0xbd19cb33	-0.0375473
157	0xbe46ceab	-0.19414775
158	0xbe2786c1	-0.16359998
159	0x3d6fccbc	0.05854486
160	0xbce1f1ca	-0.027581114
161	0x3f1f0353	0.6211445
162	0xbe4874b4	-0.19575769
163	0xbecb7d75	-0.39744154
164	0x3e68fbc8	0.22752297
165	0xbeebb101	-0.4603348
166	0x3d8f2bb3	0.06990757
167	0xbe15002c	-0.14550847
168	0x3e812ac8	0.25227952
169	0x3efc0a53	0.49226627
170	0xbe087a17	-0.13327824
171	0xbe392382	-0.18079951
172	0x3f1083a0	0.56450844
173	0xbe86e9ad	-0.26350155
174	0xbe26b285	-0.16279037
175	0xbd89a6b2	-0.06721248
176	0x3eb3723b	0.35048088
177	0x3e87f2e5	0.265525
178	0xbcab973d	-0.02094614
179	0x3e064a09	0.1311418
180	0x3d66c0f2	0.05633635
181	0xbd7f54fd	-0.06233691
182	0x3e072604	0.13198096
183	0x3c846cd8	0.016165182
184	0xbe001e88	-0.12511647
185	0x3ddfb409	0.10923011
186	0xbb7507a7	-0.0037388594
187	0xbe21902c	-0.15777653
188	0x3e27b117	0.16376148
189	0x3dca4d2b	0.09878
190	0x3e3ca83f	0.18423556
191	0xbc4a2932	-0.012338923
192	0x3f0a61d3	0.5405552
193	0x3e381433	0.17976455
194	0x3cf1a00e	0.029495265
195	0xbdbde172	-0.09271516
196	0xbe823322	-0.25429636
197	0x3c846a92	0.016164098
198	0xbd889139	-0.06668324
199	0xbcea7f69	-0.028625207
200	0x3d4bdf45	0.049773473
201	0xbc5cca57	-0.013475976
202	0xbe069d9e	-0.13146064
203	0x3c60c4f2	0.01371883
204	0x3cb673d3	0.022272026
205	0xbd0ff039	-0.035141204
206	0x3e105e1b	0.14098398
207	0x3d8c552c	0.06852183
208	0x3db993a2	0.09061362
209	0x3d255a0c	0.04036908
210	0x3eae8de1	0.3409262
211	0x3d6bec62	0.05759848
212	0xbd187dbc	-0.037229285
213	0xbdcd7af7	-0.10033219
214	0xbe42af0e	-0.1901209
215	0x3ccfa9f8	0.025349602
216	0xbe92a42b	-0.28640875
217	0x3e2a4c2d	0.16630621
218	0xbbba3d48	-0.005683575
219	0x3e4ea76e	0.20181057
220	0xbe7a2a74	-0.24430257
221	0xbd60a639	-0.054846022
222	0x3de5eb5f	0.11226534
223	0xbe0f63c1	-0.14002897
224	0x3ca030c0	0.019554496
225	0xbd8f448a	-0.06995495
226	0xbd5cd8f1	-0.05391783
227	0xbcf4101f	-0.029792843
228	0x3e825413	0.2545477
229	0x3e3575b8	0.17720687
230	0x3dfa3e15	0.122188725
231	0x3db18180	0.08667278
232	0xbe848231	-0.25880578
233	0x3c23e213	0.010002631
234	0x3ec74725	0.38921466
235	0x3eb885cf	0.36039588
236	0xbeeeb201	-0.4662018
237	0x3ed05232	0.4068771
238	0x3e8ed738	0.27898574
239	0x3ed7d8ab	0.42157492
240	0xbee35726	-0.44402426
241	0xbf244aaf	-0.6417646
242	0xbba537af	-0.0050420384
243	0x3e0f3a01	0.1398697
244	0xbcd53063	-0.02602405
245	0x3eabcef5	0.33556333
246	0xbeb3021b	-0.34962544
247	0x3ee45cf3	0.44602165
248	0xbeea8649	-0.45805576
249	0xbf315456	-0.6926931
250	0x3eeb2432	0.45926052
251	0xbed128a3	-0.40851316
252	0x3e485e28	0.19567168
253	0xbe975f6f	-0.29564998
254	0x3e876832	0.26446682
255	0xbda0545e	-0.07828592

mps.1.l1.edge_block.m.0.bias f4 [16]
0	0x3ecaf5dd	0.39640704
1	0x3f03781d	0.51355153
2	0xbeb0f0db	-0.34558758
3	0xbd0d1724	-0.034445897
4	0x3cfcc755	0.030856768
5	0x3e93a6e0	0.28838253
6	0xbeb8582d	-0.36004773
7	0x3eedeebd	0.46471205
8	0x3ec77640	0.38957405
9	0x3f2f2334	0.6841309
10	0x3e76bfa3	0.24096541
11	0x3d7221b2	0.059114166
12	0x3e8aa510	0.27079058
13	0xbf161abb	-0.5863454
14	0x3e7597a8	0.23983634
15	0xbea02dd7	-0.31284973

mps.1.l1.edge_block.m.2.weight f4 [1, 16]
0	0x3e3e00c0	0.18554974
1	0x3e8a01b5	0.26954427
2	0xbea20016	-0.3164069
3	0x3ead02f2	0.3379131
4	0xbf81da34	-1.0144715
5	0x3f0f4a8a	0.5597311
6	0x3e898d8f	0.26865813
7	0x3eac0a2c	0.3360151
8	0xbd0a1736	-0.033713542
9	0x3e565b96	0.20933375
10	0x3e82004c	0.25390851
11	0x3e3b21c0	0.18274593
12	0x3e8b119a	0.27161866
13	0xbf2f79f8	-0.68545485
14	0x3e637ece	0.22216341
15	0xbb40d3fa	-0.0029423223

mps.1.l1.node_block.m.0.weight f4 [16, 9]
0	0x3dd17377	0.10227101
1	0xbc663c8c	-0.014052521
2	0xbe376713	-0.17910413
3	0x3d507f4d	0.050902653
4	0xbe1e6be9	-0.15470852
5	0x3d564702	0.052313812
6	0xbe449838	-0.19198692
7	0x3e80ae9f	0.25133225
8	0x3e25fa3b	0.16208737
9	0xbe3b6f5a	-0.18304196
10	0x3e2ac15e	0.16675326
11	0xbd764c4b	-0.060131352
12	0x3d6c3002	0.05766297
13	0xbd6a1133	-0.05714531
14	0x3ed14acc	0.40877378
15	0xbeb792fe	-0.35854334
16	0xbe7b0211	-0.24512507
17	0x3e31abf0	0.17350745
18	0x3ed4095e	0.41413397
19	0xbd27ab9c	-0.040935144
20	0xbac60aae	-0.0015109384
21	0x3e890820	0.2676401
22	0xbe287298	-0.16449964
23	0x3e823c22	0.25436503
24	0xbe83cdd3	-0.2574297
25	0xbec0adf2	-0.3763271
26	0xbdba3c6c	-0.09093556
27	0xbdd09365	-0.10184363
28	0xbccf90e7	-0.02533765
29	0x3dabf412	0.08396162
30	0x3dc2bfe1	0.09509254
31	0x3d1ac821	0.037788514
32	0xbd3e85f5	-0.04651447
33	0x3d63ccce	0.05561524
34	0xbd4548b6	-0.048165046
35	0xbecd8ac1	-0.40144923
36	0xbe843a52	-0.25825745
37	0x3e718840	0.23587132
38	0x3e10383b	0.1408395
39	0x3e8e873a	0.27837545
40	0xbe79d661	-0.24398185
41	0x3e3a69af	0.18204378
42	0xbe5e92ac	-0.21735638
43	0xbc0d01ff	-0.008606433
44	0x3d0f197f	0.034936424
45	0x3d545b8e	0.051845126
46	0x3eac5ee4	0.33666146
47	0xbdc911ea	-0.0981787
48	0x3e9bf5d3	0.30460986
49	0xbead7071	-0.33874848
50	0x3edd2a53	0.43196353
51	0xbef0a5b8	-0.47001433
52	0xbe956fd1	-0.29186872
53	0xbd4cb77f	-0.049979683
54	0x3cc8d647	0.024516238
55	0xbd37f69e	-0.044912927
56	0x3e28e9f4	0.16495496
57	0xbe1fd31a	-0.15607873
58	0xbf047122	-0.51735127
59	0xbe2eebdd	-0.17082162
60	0xbd9fd336	-0.07803957
61	0x3de3430f	0.11096775
62	0x3e00fa1e	0.12595412
63	0xbdbdccd9	-0.09267587
64	0x3d5c5aac	0.05379741
65	0xbd950fac	-0.0727838
66	0x3e7d7796	0.2475265
67	0xbe272a37	-0.16324697
68	0x3e9e3537	0.30899975
69	0xbc8537c8	-0.01626195
70	0xbe183141	-0.14862539
71	0x3e2ed5ba	0.17073718
72	0xbe5c15b5	-0.21492656
73	0xbdfadaa5	-0.122487344
74	0xbcf3d0c1	-0.029762628
75	0xbda833f9	-0.08213038
76	0xbecfab52	-0.40560395
77	0xbe10f5ae	-0.1415622
78	0xbe0bbf3e	-0.13647172
79	0xbdde19ac	-0.1084474
80	0x3e76b61e	0.2409291
81	0x3b9f4d4f	0.004861511
82	0x3d7b8bb6	0.061412536
83	0xbcb687d2	-0.022281561
84	0x3c936a15	0.01799492
85	0x3c4ef25a	0.012631023
86	0x3e277043	0.16351418
87	0xbc87f09b	-0.016594222
88	0x3d749a48	0.059717447
89	0xbeb5ca64	-0.35505974
90	0xbe3cc28d	-0.1843359
91	0x3e141045	0.14459331
92	0xbe5e7908	-0.21725857
93	0xbd9ae001	-0.075622566
94	0x3cb654e1	0.02225727
95	0x3e801dc6	0.25022715
96	0xbd4d03db	-0.050052505
97	0xbe6328ee	-0.22183582
98	0x3b37d584	0.002805085
99	0x3e9fbbe4	0.31198037
100	0x3e310b4a	0.17289463
101	0x3e39f938	0.18161476
102	0xbbc47681	-0.005995572
103	0x3ce9d57f	0.028544186
104	0xbdf1db8b	-0.118094526
105	0x3dd15a66	0.1022232
106	0x3c9ccb5e	0.019139942
107	0x3e0319c0	0.12802792
108	0xbda41bab	-0.0801309
109	0xbdcefb50	-0.10106528
110	0x3e039f67	0.12853776
111	0xbe687bd0	-0.2270348
112	0xbe884722	-0.2661677
113	0xbe1749a2	-0.14774182
114	0x3d0b6aab	0.034037273
115	0x3e1b5ad6	0.1517137
116	0xbd03b9b4	-0.032159522
117	0x3e133eb6	0.14379391
118	0x3e428483	0.18995862
119	0xbe6603ed	-0.22462435
120	0x3e32ec7a	0.17473021
121	0xbe2760c5	-0.16345508
122	0x3d88f960	0.066881895
123	0x3e0821c2	0.13294128
124	0xbe968d82	-0.29404837
125	0x3eda5293	0.42641124
126	0xbe6279ec	-0.22116822
127	0xbdbfac36	-0.093590185
128	0xbee96904	-0.45587933
129	0x3e2875aa	0.16451135
130	0xbed350e7	-0.4127266
131	0x3e5605a0	0.20900583
132	0xbf04cc8f	-0.5187463
133	0x3dfccbc7	0.12343555
134	0xbd9ee7a7	-0.07759028
135	0x3e02bca3	0.12767272
136	0xbe62df39	-0.22155465
137	0x3e9204e0	0.28519344
138	0xbe51a4e4	-0.20473057
139	0xbe96db1f	-0.2946405
140	0x3d50b344	0.05095221
141	0xbdba23c0	-0.0908885
142	0x3e14c227	0.14527188
143	0xbe9cbe4d	-0.30613938

mps.1.l1.node_block.m.0.bias f4 [16]
0	0x3f201aa6	0.6254066
1	0x3e026a8f	0.12735961
2	0xbef5e87f	-0.48028943
3	0x3e33b5c1	0.17549802
4	0x3e1d43f8	0.1535796
5	0xbf23dd9e	-0.64010036
6	0x3f09adef	0.53781027
7	0x3c1c7867	0.0095501905
8	0x3eb04684	0.344288
9	0x3eb52c87	0.35385534
10	0xbeebf5e6	-0.46086043
11	0x3f0534df	0.520338
12	0x3ed4429c	0.4145707
13	0xbd7562cc	-0.059908673
14	0xbee2e3f2	-0.44314533
15	0xbce3d6db	-0.027812412

mps.1.l1.node_block.m.2.weight f4 [8, 16]
0	0xbd77bc4b	-0.060482305
1	0xbe887f31	-0.2665954
2	0x3cc7fa7b	0.02441143
3	0xbe8f5a73	-0.27998695
4	0x3e1503b8	0.145522
5	0xbdd3143d	-0.103065945
6	0x3e8a8161	0.27051833
7	0xbeffe321	-0.49977973
8	0xbe79f648	-0.24410355
9	0x3c1d5d96	0.009604832
10	0x3df5f0ea	0.12008841
11	0xbdd0c698	-0.10194129
12	0xbb24f0fa	-0.0025168047
13	0x3cc6241d	0.024187142
14	0xbd9042d9	-0.07044
15	0x3e6f3428	0.2335974
16	0xbe3970c9	-0.1810943
17	0xbdee7b47	-0.11644607
18	0x3cb1849e	0.021669682
19	0x3f020752	0.5079242
20	0xbe77fdbf	-0.2421789
21	0x3de47c54	0.11156526
22	0x3dffc0db	0.12487956
23	0xbd7d9839	-0.06191275
24	0xbe8dc586	-0.2768976
25	0x3da49265	0.08035735
26	0x3c67f3ae	0.014157219
27	0x3e126bb1	0.14298894
28	0x3e5f5858	0.21811044
29	0xbeaf8703	-0.34282693
30	0x3d3ae68e	0.04563003
31	0x3ec8d417	0.39224312
32	0xbcd92a7b	-0.026509514
33	0x3e56112a	0.20904985
34	0x3e314596	0.17311701
35	0xbe80def1	-0.2517009
36	0xbd7a2c00	-0.061077118
37	0x3dfaa63f	0.1223874
38	0xbdbbaf80	-0.09164333
39	0x3e42f5d1	0.19039084
40	0x3e328cca	0.1743652
41	0xbdcdd3f8	-0.100501955
42	0x3e2cee7e	0.16887853
43	0xbd0ff9cc	-0.035150334
44	0xbdb123a5	-0.08649377
45	0x3e6e8430	0.23292613
46	0x3debaeb8	0.11507934
47	0xbd69aea4	-0.057051316
48	0x3ecbafc7	0.39782545
49	0x3e706cfe	0.23479077
50	0xbe0b3c8d	-0.13597317
51	0xbe131a17	-0.14365421
52	0xbdef9d7b	-0.11699959
53	0xbd539940	-0.051659822
54	0x3e58fe15	0.21190675
55	0x3e622708	0.22085202
56	0x3e81ea66	0.25374144
57	0x3d839837	0.06425517
58	0x3e0278ca	0.1274139
59	0xbe16a711	-0.14712168
60	0x3ea66fbb	0.3250712
61	0x3dc28fda	0.09500094
62	0xbdea4d24	-0.11440495
63	0x3c2aec39	0.010432296
64	0x3e513987	0.20432101
65	0x3ea9a0bb	0.3313044
66	0x3df5abb7	0.11995643
67	0x3e9c9145	0.30579582
68	0xbe4963db	-0.19666998
69	0xbdc2dcd2	-0.095147744
70	0x3d3191a6	0.04335179
71	0x3e863954	0.26215613
72	0x3d88897f	0.0666685
73	0x3eac6554	0.33671057
74	0xbdce0e07	-0.10061269
75	0x3d9aeb1c	0.07564375
76	0x3e32f6c0	0.1747694
77	0xbee725b5	-0.45145956
78	0x3d1920b0	0.03738469
79	0xbe56f75d	-0.20992799
80	0x3eb2d9b4	0.3493172
81	0xbe1590d0	-0.14606023
82	0xbe9e12ce	-0.30873722
83	0x3e1a1651	0.15047576
84	0xba3de227	-0.0007243477
85	0x3ee5838d	0.44826928
86	0x3e6907c9	0.22756876
87	0xbc3da047	-0.011573858
88	0x3df782e2	0.12085511
89	0xbce17816	-0.027523082
90	0xbcca1f6f	-0.024673192
91	0x3e911900	0.28339386
92	0xbca5eee8	-0.020255521
93	0x3e69e635	0.22841723
94	0xbeb98571	-0.3623462
95	0xbe62617f	-0.22107504
96	0xbe003f38	-0.12524116
97	0x3e3742eb	0.17896621
98	0xbcb60d4d	-0.02222314
99	0xbe5bafd7	-0.21453796
100	0x3d2b563b	0.041830283
101	0x3d810bee	0.063011035
102	0x3c479ae8	0.012182929
103	0x3e60b38b	0.2194349
104	0x3debe234	0.11517754
105	0xbe6dae7d	-0.23211093
106	0xbe27f0d7	-0.16400467
107	0xbd027528	-0.03185001
108	0xbe1a9794	-0.15096885
109	0x3e63cd7e	0.22246358
110	0x3d28feae	0.041258506
111	0xbc43bba5	-0.011946593
112	0xbe1df297	-0.15424572
113	0xbe0ab61e	-0.13546035
114	0xbdf017ac	-0.11723265
115	0x3d67a7ab	0.056556385
116	0xbd984151	-0.07434333
117	0x3d1b92d8	0.037981838
118	0xbe94b168	-0.290416
119	0xbe01a689	-0.12661184
120	0xbe071e59	-0.1319517
121	0xbe86389b	-0.26215062
122	0xbdf77b9d	-0.12084124
123	0xbe51785c	-0.2045607
124	0x3d4bc703	0.04975034
125	0x3efebec6	0.49754924
126	0xbe49c75c	-0.19704956
127	0x3d8c9c27	0.06865721

mps.1.l1.node_block.m.2.bias f4 [8]
0	0xbed6b574	-0.41935313
1	0xbe8dd9ed	-0.27705327
2	0x3ec65a5d	0.38740817
3	0x3f6272bb	0.88456315
4	0x3efb6d6a	0.49106914
5	0x3f81e482	1.014786
6	0xbf2cbac0	-0.6747246
7	0xbeea27a2	-0.45733362
