archive-july16/results/nif_sketch_pcg_50epochs/model_epoch28.pt (torch, 44782 bytes, 56 tensors)

mps.0.l1.edge_block.m.0.weight f4 [16, 17]
000000 5c 53 37 3e ef 28 88 3e b8 70 55 3e fc c9 06 3f
       0.17902893 0.2659373 0.2084378 0.52651954
000010 9f 2d 69 3e 56 6c cc 3f e6 6f b7 3e bc ec da 3e
       0.2277131 1.5970562 0.3582756 0.4275874
000020 27 9b 9c 3d 84 16 0b 3d ad 8a bd 3e 4b 40 d0 3e
       0.076467805 0.03395702 0.37019864 0.40674052
000030 a2 d9 c7 3e 75 db 5d 3f f6 2c 09 3f 2e 95 9a 3e
       0.39033228 0.8666299 0.5358423 0.3019194
000040 ad dd 05 3f d6 21 a0 3b f8 fd b4 bd c4 59 34 3d
       0.52291375 0.004886846 -0.08837503 0.04403092
000050 53 bf b2 bd a4 fe c6 bc d0 9c 98 bd ca 48 f8 3d
       -0.087278984 -0.024291344 -0.074517846 0.121232584
000060 5c a1 14 be d6 09 bc bd 25 66 5d bd a9 4a e6 bd
       -0.14514679 -0.091815636 -0.05405249 -0.11244709
000070 51 09 6d 3c 33 d3 3b be 45 27 29 3e 76 b7 1f be
       0.014467553 -0.18342285 0.16518886 -0.15597329
000080 0a 5f 10 3e 94 4c fa 3c 83 f2 9b be 9a e4 ea 3e
       0.14098755 0.030554093 -0.3045846 0.45877534
000090 4a 18 c0 3e 1a af 83 3f 52 a5 26 3f 60 c8 2f 40
       0.3751853 1.0287812 0.6509601 2.746605
0000a0 5e 23 6f 3f b8 1d 22 3f 68 33 2d 3e e2 10 2d 3f
       0.9341334 0.633266 0.16914141 0.67603886
0000b0 f6 68 2b 3f 85 83 51 3f c9 83 54 3f 36 84 1a 40
       0.6695703 0.8184131 0.8301359 2.4143195
0000c0 36 5b 7a 3f 6e 71 1f 3f 52 e5 06 3f 5b dc 9a bd
       0.97795427 0.62282455 0.52693665 -0.07561561
0000d0 95 4b 1c be d4 ba 0e 3e 71 56 1b 3d 0b 87 81 3d
       -0.15263207 0.13938457 0.037924234 0.063245855
0000e0 37 d5 65 3d 2f fe 9f bb c1 4a 10 3e 9d 6e 06 be
       0.05611154 -0.004882596 0.14091016 -0.13128133
0000f0 87 ad 90 3a d4 df 09 be d4 17 31 3d 25 58 99 bd
       0.0011038043 -0.1346429 0.043235615 -0.07487515
000100 d0 7b 5e 3d 3c 4f 23 bd ca 3a 19 3e 2c 07 dc bd
       0.054317296 -0.039870486 0.14963832 -0.107435554
000110 07 00 0a be 3b 02 22 be 27 ee f0 3d fe 69 86 3b
       -0.13476573 -0.15821163 0.11764174 0.0041019907
000120 0d 62 fe 3d e4 ae 24 be ab ff 43 be 3e a9 20 be
       0.124210455 -0.1608234 -0.19140498 -0.15689561
000130 5d 9f 12 be 2d 56 d8 3c dc 96 a2 3c 6a 18 c5 3d
       -0.14318605 0.02640828 0.019847326 0.09623797
000140 99 91 15 be 40 fa 09 be d3 54 b3 3d cf 0e b3 bd
       -0.14606322 -0.13474369 0.08756413 -0.08743059
000150 00 a8 af 3d 33 83 b2 bd ec 25 c2 3e 9b 8e 54 bd
       0.08576965 -0.087164305 0.37919557 -0.05189381
000160 d1 fa 04 bc 0e 1d 60 3e 73 8c 44 bf a2 72 06 bc
       -0.00811644 0.21886083 -0.7677681 -0.0082060415
000170 31 a5 71 3e 5f 78 42 3e dc b9 3f bd db 9f bc bc
       0.23598172 0.1899123 -0.04680811 -0.023025444
000180 54 b5 74 3e 4e 56 fd 3b b9 1c 32 bf b4 1e 0e be
       0.23897296 0.0077312356 -0.6957508 -0.138789
000190 30 be 06 bd 9b 02 79 be 75 28 df bd 2f 47 ae bc
       -0.03289622 -0.243174 -0.108963884 -0.021274177
0001a0 03 d6 5c 3e f6 4a 9c 3e 9f 07 0e 3e 81 eb c7 3f
       0.21566014 0.3052594 0.13870095 1.5618745
0001b0 37 1d b9 3e 8c 8c 82 3e 4a d2 4e 3d db 19 83 3e
       0.36155102 0.25497854 0.050493516 0.25605664
0001c0 34 c4 f2 3e 66 fc 81 3e 6a 81 7f 3e cc 82 55 3f
       0.47415316 0.25387877 0.24951711 0.83402705
0001d0 3d f2 0c 3f f2 1c 77 3e 05 36 d1 3d 36 a9 e0 bd
       0.55057126 0.24132136 0.102153815 -0.109697744
0001e0 45 1d 05 3a 11 a3 8b bd e5 08 50 bc 24 4b fe bd
       0.0005077909 -0.06818212 -0.012697433 -0.12416676
0001f0 d9 c9 00 be 22 ee da bd ea 73 80 bd 69 18 14 be
       -0.12576999 -0.106899515 -0.06272109 -0.14462437
000200 13 53 1d 3e 24 f4 14 bd 54 70 21 3e 74 da 69 3d
       0.15363722 -0.036365643 0.15765506 0.0570931
000210 e6 e2 1e be 39 d9 01 3e 33 81 4e bd 12 d9 8f bd
       -0.15516242 0.1268052 -0.050416183 -0.07023825
000220 53 6d 2a be f0 30 5d be 3a bc 9f 3c 57 96 a5 bd
       -0.16643266 -0.216007 0.019498933 -0.08085316
000230 f9 d9 0b 3d 97 20 20 be 6a 05 05 3e b9 7d 12 be
       0.03414342 -0.15637432 0.12990347 -0.14305772
000240 6e 27 2c bd 80 47 a8 3b 53 00 80 3d 1b 94 dc 3d
       -0.04202979 0.0051354766 0.06250062 0.107704364
000250 85 42 05 3e 43 08 1b be 5f c0 23 3d 24 ba b2 bd
       0.13013656 -0.1513987 0.03997838 -0.0872691
000260 2f 92 10 bd ac 89 46 be e4 17 96 3e 9d 79 b6 3d
       -0.03529566 -0.19388455 0.29315102 0.08909915
000270 de 3d 28 3f c8 93 f3 3e 85 4a f5 3f d5 37 24 3f
       0.657194 0.47573686 1.9163367 0.6414769
000280 9c 9a 2c 3f 73 db 49 3d 8d a4 9d 3e 57 ca 8d 3e
       0.67423415 0.04928155 0.30789605 0.27693436
000290 8d fa 2a 3f 6d 85 f9 3e de b1 ab 3f 30 e0 65 3f
       0.6678856 0.48734608 1.3413656 0.8979521
0002a0 9a eb 19 3f 1d 4f bb 3e 98 95 ee bd bb 2a d5 bd
       0.60125124 0.36583796 -0.116496265 -0.10408541
0002b0 14 89 04 bd 77 f3 b1 be 92 df 8a be fc 7e fe bf
       -0.03235729 -0.3475606 -0.27123696 -1.9882503
0002c0 63 10 d9 be 63 f3 21 be af a8 63 3e a8 7f b0 be
       -0.42395315 -0.15815501 0.22232316 -0.34472394
0002d0 c8 3c 9b be 52 d6 4f be 97 f8 3f be 5e e9 07 bf
       -0.3031981 -0.202966 -0.18747173 -0.53090465
0002e0 ca 01 44 be d9 3c 1b be 08 46 59 be 4f db 04 bd
       -0.19141307 -0.1515993 -0.21218121 -0.03243571
0002f0 83 1c 52 bd c8 9a 8b 3c 4a 3d 13 bd a3 a8 6c bd
       -0.051296722 0.017041579 -0.03594712 -0.057778012
000300 8e e8 ee 3d 59 cc 20 3e 57 92 99 bc b8 03 29 bd
       0.1166545 0.15702952 -0.018746538 -0.041263312
000310 85 d3 d5 b8 f7 35 5d bc 06 c8 25 3d 47 54 45 3d
       -0.0001019603 -0.013501636 0.04047396 0.048176076
000320 ce e6 2a be c8 63 8b bd cc 63 1d 3e 0f 30 8e 3d
       -0.16689608 -0.06806141 0.153701 0.0694276
000330 a0 51 15 bc e4 3f e2 bd 07 97 e5 bd 15 13 28 be
       -0.009113699 -0.110473424 -0.11210447 -0.16413529
000340 20 a5 74 bd 1a 75 7d 3d 1e 47 ef 3d 68 42 ad 3d
       -0.059727788 0.061879255 0.116834864 0.084599316
000350 4f db 25 be b7 ab e1 bd 57 e4 ec bc b6 81 35 3e
       -0.16196941 -0.1101908 -0.028917475 0.17725262
000360 cb 23 d9 3c d6 5d 42 bd cc 40 9b 3d 7e ee 8e bd
       0.026506325 -0.04745277 0.075807184 -0.069790825
000370 1e e5 f2 bd 23 a1 6c 3e d4 63 00 bb fb c8 58 3e
       -0.11860107 0.23108344 -0.0019590752 0.21170418
000380 46 6d 33 3e da b0 be 3e c7 81 de 3f 37 d2 00 3f
       0.17522153 0.37244302 1.7383355 0.5032076
000390 2f 2f 30 3e 3d ca 61 be 91 ff 92 bb 2c e6 af 3e
       0.17205499 -0.22049804 -0.0044860323 0.34355295
0003a0 7c 3e eb 3e d7 46 ca 3e 06 a6 76 3f f5 2f f7 3e
       0.4594611 0.39507172 0.9634708 0.48278776
0003b0 80 7a 9d 3e b5 bf 52 3e dd c1 20 be a3 80 2f be
       0.30757523 0.20580943 -0.15698953 -0.17138915
0003c0 be 9e 99 3d 41 3e b8 bd e4 0b 17 bd b0 f7 d7 bd
       0.07500981 -0.08996249 -0.036876574 -0.105452895
0003d0 a6 c3 08 bd e9 0f 04 be 15 35 f5 bd 8d f5 78 3d
       -0.03338971 -0.12896694 -0.11973015 0.06078105
0003e0 00 0e 5f bd 65 ab e7 3d 7e c7 70 bd 35 a4 09 be
       -0.05445671 0.11311988 -0.058784 -0.13441546
0003f0 4b 6c 04 bd 71 e8 b5 bd 85 9e 65 bd 2e 41 86 bd
       -0.03232984 -0.08882225 -0.05605938 -0.06555401

mps.0.l1.edge_block.m.0.bias f4 [16]
000000 e1 c1 10 3f 2a be 0b 3e 57 ed 91 3f 42 bd 3e bd
       0.56545836 0.1364676 1.1400555 -0.04656721
000010 7a ae 2c be 58 fc 9c 3d aa e1 23 3f 59 c0 3a be
       -0.16863433 0.07665318 0.6401621 -0.18237437
000020 26 99 5a bd 11 5c 28 3f 27 af 9f be bf 81 ba bd
       -0.05336871 0.6576548 -0.31188318 -0.09106778
000030 55 65 99 bd 9d 64 c6 3e e1 4e 32 be 41 66 e2 3e
       -0.07490031 0.38748637 -0.17412902 0.4421864

mps.0.l1.edge_block.m.2.weight f4 [1, 16]
000000 12 ca 23 3e 6b 86 93 bc 2e ce 72 3f 73 17 92 bd
       0.15995052 -0.018008431 0.94845855 -0.07133379
000010 30 1a 09 be ed b3 9f be c3 dc 82 3d 17 61 d4 bd
       -0.13388896 -0.3119196 0.06389763 -0.10370081
000020 3c 34 c3 bd f6 a7 00 3f 11 05 8a be c5 01 78 bd
       -0.09531447 0.5025629 -0.2695699 -0.060548563
000030 85 dc c6 3b 02 9b b9 3f 36 2f 85 bd 58 a9 a3 be
       0.0060687684 1.450043 -0.065031454 -0.31965137

mps.0.l1.node_block.m.0.weight f4 [16, 9]
000000 74 b1 e4 3d ea 49 ab 3e d2 4b 4d 3f 15 f9 19 3e
       0.11166659 0.3345483 0.8019382 0.15036424
000010 f6 48 c7 3e 00 0d 31 bf c2 04 73 3e 77 aa cc 3c
       0.38922852 -0.6916046 0.23732284 0.024983628
000020 36 2e 11 40 29 bd 1c 3e 7d 28 f8 3e a7 df 39 3f
       2.2684455 0.15306534 0.4846839 0.7260689
000030 1a 7c 4a 3f a3 9f d2 3e d1 df 5d 3f c4 85 b3 3e
       0.79095614 0.41137418 0.8666964 0.35062993
000040 7a 32 e2 3e c0 66 39 bf 59 34 ce 3d 6d 45 88 3e
       0.44179136 -0.7242241 0.10068578 0.26615468
000050 5e bc 16 3e e7 46 4d 3f d0 5d 92 3e 96 47 02 40
       0.14720294 0.80186313 0.28587198 2.0356193
000060 3b e9 66 3f f8 eb 7c 3f 8f 8e 8c bf 66 24 44 be
       0.9019963 0.9879756 -1.0981005 -0.1915451
000070 ea df 4e be c4 49 00 3e c8 d1 3f be be 03 fe bc
       -0.20202604 0.1252814 -0.18732369 -0.031007644
000080 72 69 f7 3d 9d b2 ee bd 7f f3 e0 bc d5 92 b3 bc
       0.12080659 -0.116551615 -0.027459858 -0.0219206
000090 96 09 74 bd b2 d3 04 be 68 f3 67 be 3e 32 53 be
       -0.059579454 -0.1297138 -0.22651446 -0.20624635
0000a0 e3 98 0c be 12 bb 78 3e 3f d5 f9 bd 86 a5 2d be
       -0.13730197 0.24290112 -0.121988766 -0.16957673
0000b0 16 33 29 3d c4 98 8b 3d 01 f9 0a be 97 46 18 bf
       0.041308485 0.06816247 -0.1357155 -0.5948271
0000c0 08 23 8d 3e 35 58 0d bf 0a e8 57 3f 7c a7 84 3e
       0.2756579 -0.5521272 0.8433844 0.2590903
0000d0 ad 87 d9 bb 8e 89 97 bf 22 a6 55 3e 31 f3 1c bf
       -0.0066384883 -1.1838853 0.20864156 -0.6130858
0000e0 ac 68 ff be 67 97 ef be 58 20 23 bf 69 de 33 bf
       -0.49884546 -0.46795198 -0.6372123 -0.70261246
0000f0 ef c4 16 bf 6c e2 f5 be d8 2a 16 3f a0 0f 7c be
       -0.58894247 -0.4802431 0.58659124 -0.24615335
000100 ae f7 40 bd d8 20 37 3e 98 dc af 3d 2c 28 50 be
       -0.047111206 0.17883623 0.08586997 -0.20327824
000110 d7 b7 3b bd 07 76 4b be 4d 21 0e be fa 33 7c bc
       -0.04582962 -0.19869243 -0.1387989 -0.015393252
000120 91 e4 cc 3d 40 78 ff 3e 6e 49 3d be 6b b0 60 3f
       0.10004533 0.4989643 -0.18485042 0.8776919
000130 b1 af 23 3e 5a 38 80 3f 19 05 6a 3f e0 d0 18 3f
       0.1598499 1.0017197 0.9141403 0.5969372
000140 81 85 8b bf 0f b3 a9 bd 20 1e 9b 3e 6c 44 4d 3f
       -1.0900117 -0.08286106 0.3029642 0.8018253
000150 b9 91 0f 3f fc 98 12 3f d2 10 85 3e 92 55 6b 3f
       0.5608173 0.57264686 0.25989395 0.91927445
000160 cd ff 35 3f 32 3b ef 3e d9 ea 10 be 9f 54 51 be
       0.71093446 0.4672485 -0.14152087 -0.20442437
000170 cd 22 df 3c 79 ce 98 3d 9a 21 ee bd 76 4e 90 bd
       0.027238274 0.074612565 -0.11627503 -0.07046215
000180 41 29 2e 3e cb 56 a4 3c c9 28 3a 3c d7 3a 7b bd
       0.17007925 0.020060917 0.011362263 -0.06133541
000190 49 ad 9a be 29 e3 61 3e fd 1f 8b bd 91 4e 92 3c
       -0.3021033 0.22059311 -0.06793211 0.017859729
0001a0 34 c5 c5 bf a3 50 c9 3d 85 fe 14 bd c1 2e 1d 3f
       -1.5450807 0.09829833 -0.03637554 0.61399466
0001b0 78 6d 4d be c0 b7 1a 3f 86 58 8d 3e e9 59 19 3f
       -0.2006129 0.6043663 0.276066 0.59902817
0001c0 37 99 47 3f fc 3c ce 3f 72 2a 68 3f f7 1b 4d 3f
       0.7796816 1.6112361 0.90689766 0.80120796
0001d0 d0 55 63 3e 52 76 d7 bd f0 2d 13 3f be 70 5f 3f
       0.22200704 -0.10520615 0.5749197 0.87281406
0001e0 c3 34 27 3f 7b 99 16 3f 8f 81 02 3e 7a 1c 26 3f
       0.65314883 0.5882794 0.12744735 0.648872
0001f0 fd f8 29 3f b1 09 b2 3e a0 40 c9 bd 38 4c cf 3c
       0.6639555 0.3477302 -0.09826779 0.025304899
000200 6c 36 ae 3e ed 67 2d 3e 2d be 20 3f 5e 97 36 3f
       0.34025896 0.16934176 0.62790185 0.7132472
000210 6f d3 3b 3f a0 0d d7 3e 47 29 bf 3e ae f4 95 bc
       0.733695 0.42002583 0.3733618 -0.018305149
000220 16 5a ab 3f 94 71 89 3f fe 7a 92 3f ff f3 a5 3f
       1.3386867 1.0737786 1.1443784 1.2965087
000230 81 5a 6e 3d fc 39 3a 3f b9 c4 98 3f 95 0e bf 3e
       0.05819178 0.7274473 1.1935035 0.37315813

mps.0.l1.node_block.m.0.bias f4 [16]
000000 93 19 8f bd bb 00 02 3f 0b fe 37 3f ff 18 53 be
       -0.069873 0.50782365 0.71872014 -0.20615004
000010 38 64 44 3d ce 34 32 3e df 2d 18 bf f2 66 bc bd
       0.04794714 0.17402956 -0.59444994 -0.09199323
000020 3a ef 6e 3f 4b 9b 4e 3f 49 2b 18 be 65 77 27 3e
       0.9333378 0.8070571 -0.14860262 0.16354139
000030 66 68 91 3f 16 d4 59 3f d1 02 11 3f 89 04 82 3f
       1.1359985 0.8508924 0.5664492 1.0157634

mps.0.l1.node_block.m.2.weight f4 [8, 16]
000000 41 7c c0 bd 0c 29 54 bd b5 14 c0 bc d2 85 3a 3e
       -0.093986996 -0.051796958 -0.023447374 0.18215111
000010 f4 54 25 3e b7 d5 15 3e c5 ec 12 3e 29 fb 03 3e
       0.16145688 0.14632307 0.14348133 0.12888779
000020 45 1b d4 3c 05 b7 32 bf 38 46 c1 3d 61 22 d3 be
       0.02589191 -0.69810516 0.09437221 -0.41237167
000030 62 61 c1 be 6c ae 22 bf 4c 88 bb be 9c f8 17 be
       -0.3776961 -0.63547397 -0.36627424 -0.1484093
000040 c9 70 46 be 95 12 21 be 8d a7 e1 3c 43 00 e4 bd
       -0.19378962 -0.15729745 0.027545715 -0.111328624
000050 ee d5 fb bd 69 aa f2 3d 0b d3 d6 bd d0 c6 2f 3e
       -0.12296663 0.118489094 -0.10489472 0.17165685
000060 9c 32 36 3e f8 fc 78 be ff 1f 85 3d 64 41 a1 bc
       0.17792743 -0.2431525 0.065002434 -0.019684501
000070 fd 79 c0 bc b2 04 6b be 2d 58 d1 3e 0b 4e 31 be
       -0.023495669 -0.2295101 0.40887585 -0.17314927
000080 c6 26 93 3e 51 2d a1 bd c3 43 f7 bd 96 58 3b bd
       0.2874052 -0.078699715 -0.120734714 -0.04573878
000090 63 e2 ba bd 92 00 53 bb 51 fe 1f 3e d5 6c 10 3e
       -0.09125211 -0.0032196385 0.15624358 0.14104016
0000a0 35 cf dc 3c 5d 52 dd be f9 9a cf bd 4f d1 34 3d
       0.026954273 -0.432269 -0.101369806 0.044144925
0000b0 e2 d5 e1 be 7e 38 8a be a2 28 46 bf 71 f0 93 be
       -0.44108492 -0.26996225 -0.7740575 -0.2889438
0000c0 3e 97 5f be b4 d7 57 bd 32 d8 8b bd e2 84 28 3e
       -0.21835038 -0.052695945 -0.06828345 0.16456941
0000d0 25 25 37 be bd 17 82 3e 10 54 11 3d dd 79 03 bd
       -0.17885263 0.25408736 0.03548056 -0.03209864
0000e0 ff fa 42 3e 54 66 3c bf 18 98 f2 3d 56 13 0b bf
       0.1904106 -0.7359364 0.11845416 -0.5432638
0000f0 ed 2c 2a be 13 20 da be 40 33 a1 bd c3 56 98 3d
       -0.166187 -0.42602596 -0.07871103 0.074384235
000100 00 28 c0 3d 16 77 49 3d 9c 2f 53 be 3c f5 c5 bc
       0.093826294 0.049185835 -0.2062363 -0.024164788
000110 17 c2 37 3e e4 4a d7 3d 48 a1 1c 3d ca a1 36 be
       0.17945133 0.10512331 0.038239747 -0.17835155
000120 3c 68 da bd 9d 82 02 bf 11 47 1d 3e d0 07 14 bf
       -0.106644124 -0.5098055 0.15359141 -0.5782442
000130 9e aa f7 bc 6d cd fa be cc 1d 33 bf da 55 fd 3d
       -0.030232724 -0.48984852 -0.6996734 0.123698905
000140 8b db 8a bd 1c dd 14 3e c7 85 49 3e 94 23 1c 3e
       -0.06780156 0.14537472 0.19679938 0.15247947
000150 3e 97 85 bd c2 37 bd bc 72 23 b0 3d 58 63 1a bd
       -0.06522988 -0.023097876 0.08600511 -0.037692398
000160 4c fc 15 3e bd 43 ea 3e e0 2d 03 be 63 fe 7e 3e
       0.14647025 0.45754805 -0.12810469 0.24901728
000170 17 3b 40 be 37 31 e4 3e d3 4c 39 3e 5b 0d c3 3e
       -0.18772541 0.44568798 0.18095712 0.38096127
000180 e1 d2 3e 3e 61 e3 ac bd d5 d7 86 be 4d ae 07 be
       0.18635131 -0.084418066 -0.26336542 -0.13250084
000190 73 45 f0 bd 34 3f 80 be 9b 27 27 be 70 cf 34 be
       -0.117319964 -0.2504822 -0.16323702 -0.17657256
0001a0 6c 44 8c be 2c cc c5 3d f5 aa 3e be 08 d8 ba 3e
       -0.27395952 0.09658083 -0.18619902 0.36492944
0001b0 7b 93 32 3f 30 e8 ae 3e a0 68 29 3f 70 30 0a bf
       0.6975629 0.3416152 0.6617527 -0.5398016
0001c0 8e e6 93 3e db 69 75 bd a1 e2 96 bd 8b 54 ee 3d
       0.28886837 -0.059915405 -0.07367445 0.11637219
0001d0 ac 84 28 be 65 4c 7f 3c 96 e1 79 3e 96 d8 fd 3c
       -0.1645686 0.015582179 0.2440246 0.030987065
0001e0 6a 92 50 3d 88 53 dd be 7a c6 2a bb 26 dc 5b be
       0.05092088 -0.43227792 -0.0026058243 -0.21470699
0001f0 ab 61 1f bf 10 32 4b be 99 c2 c0 be 6a 8f 86 be
       -0.62258404 -0.19843316 -0.37648466 -0.2628129

mps.0.l1.node_block.m.2.bias f4 [8]
000000 29 72 28 bf 69 bc 2c bc 68 d1 2f bf 1e e5 f9 be
       -0.65799195 -0.010542967 -0.68678904 -0.48807615
000010 7e d6 31 bf c2 52 d1 3e 55 b4 64 bd bd 0b bd be
       -0.69467914 0.40883452 -0.05583604 -0.36923018

mps.0.l2.edge_block.m.0.weight f4 [16, 17]
000000 a5 87 89 3d 2f 1a ea bd 39 07 f7 bd c9 85 c0 3c
       0.06715325 -0.114307754 -0.120619245 0.023501294
000010 11 fb 2e be 66 7b 3e be 0b c3 a6 3c 8d f6 bb 3d
       -0.17087962 -0.1860176 0.020356676 0.09177885
000020 ca 1f 20 3e f5 ae 2a 3e 5f 04 1a be 37 ab 4a bd
       0.15637127 0.16668303 -0.1504073 -0.04947969
000030 7d d8 1c 3e 52 7a 72 3b dc e6 46 3d 47 1f 5d bc
       0.15316959 0.0036999178 0.04856001 -0.013496227
000040 09 a1 4e be 3d ef ed 3d 0b ea 28 3f ac bc a7 be
       -0.20178618 0.11617897 0.6598212 -0.32761133
000050 04 4d 6f 3e 2d ba 12 be 99 ef cb be 91 f3 b3 3e
       0.23369223 -0.14328833 -0.39831236 0.35146764
000060 7c 11 96 be 43 94 9d bd b3 58 ae 3e 83 84 2f bf
       -0.29310215 -0.07694294 0.34052047 -0.6856157
000070 58 b2 99 3d 92 ee 8b be 76 21 2d be a0 8a d0 3e
       0.075047195 -0.27330452 -0.16907296 0.40730762
000080 a9 eb a7 be d0 db ba bd 54 52 e2 bd 68 f7 84 be
       -0.32796982 -0.09123957 -0.11050859 -0.25970006
000090 20 0f 35 3c 62 cb 8c be 7a f0 16 3e 0a e9 e4 3d
       0.011050969 -0.2749892 0.14740172 0.11177261
0000a0 26 df 5f be e2 91 87 3e 94 1b 1d bd d2 fb 38 be
       -0.21862468 0.26478487 -0.03835638 -0.18064812
0000b0 11 ac b9 bd 31 fc 47 be a7 e7 62 3d 27 ce 11 bd
       -0.09066022 -0.19529797 0.055396702 -0.035596993
0000c0 c2 ae b0 bc 07 d5 09 3e 8a 26 28 bf 7c 99 1b 3e
       -0.021567706 0.1346017 -0.65683806 0.15195268
0000d0 2c b4 41 3c 8a df 16 3d e2 60 12 3e 40 53 f7 bc
       0.0118227415 0.036834277 0.1429477 -0.030191064
0000e0 c4 a7 d5 bd 6c c6 f2 bc 24 2e 18 3e 5f 38 0b be
       -0.104323894 -0.02963563 0.14861351 -0.13595723
0000f0 04 5b 2a 3d 61 67 38 be 47 c1 c4 3d 49 a6 8a 3d
       0.041590706 -0.18008186 0.09607177 0.067699976
000100 43 89 fe 3b 8f 0f a1 3d 60 1a 58 39 81 a7 cf 3d
       0.0077678277 0.07864296 0.0002060919 0.10139371
000110 fd a6 84 3c a6 76 c0 3e b7 97 9a be ed 70 d4 3e
       0.016192907 0.37590522 -0.30193874 0.41492406
000120 0b b8 c7 3d f5 28 c8 be e0 85 30 3f 35 14 4d be
       0.097519 -0.39093748 0.6895428 -0.2002724
000130 1e 88 76 3d 58 fa 8b 3d 56 b9 d9 be 02 80 88 3e
       0.060188405 0.06834859 -0.42524213 0.26660162
000140 e0 a2 ad 3c c2 99 8d be de 5b 98 3e 36 50 71 be
       0.021195829 -0.2765637 0.2975759 -0.23565754
000150 65 b9 b5 bd f5 3b 09 be d7 0c 94 3c d2 39 7a be
       -0.08873252 -0.13401778 0.018072529 -0.24436119
000160 ca 36 33 bb ca 7e ff 3d b2 38 d8 3d f8 3c 97 3d
       -0.002734589 0.12475355 0.10557689 0.07384676
000170 0d e9 d7 3d 3b b5 31 3e d0 cd b6 3d 34 03 3a 3e
       0.10542498 0.1735429 0.08925974 0.18165284
000180 8a 20 ab 3e 49 79 07 bd b3 22 40 3e c1 9c 4c 3d
       0.33423263 -0.03307465 0.18763237 0.04995418
000190 c6 0e 3c bd 31 ee e4 3e c8 d0 68 be 22 2c 9b 3d
       -0.045912527 0.44712976 -0.22735894 0.07576777
0001a0 9b 26 c5 be 21 49 26 3d 1a cd 04 be 43 1d 17 be
       -0.38506016 0.040597085 -0.12968865 -0.14757256
0001b0 5c fe da 3e 25 78 7f be 6c f8 ca 3e f3 af 8e 3c
       0.42772186 -0.24948175 0.39642656 0.017417884
0001c0 4a 8a f6 bd 44 00 90 3e 47 c6 12 3f 5a 3b 2f 3d
       -0.12038095 0.28125203 0.573338 0.04278121
0001d0 1a fa d3 be a6 0f e0 bc f8 2a b1 3e ee ba 0e bd
       -0.4140175 -0.027351212 0.34603095 -0.03484624
0001e0 6b 5a 06 bc b2 70 30 3e 25 4a b5 3d c9 bb 34 3e
       -0.008200268 0.1723049 0.088520326 0.1764976
0001f0 e7 df 13 3e 19 9e 1b 3c a0 11 5c bd eb c4 8c be
       0.1444088 0.009498143 -0.053727746 -0.27493986
000200 2d e8 04 be ad c5 0b 3e 9d ff ca be e7 4c a0 bd
       -0.12979193 0.13649626 -0.39648142 -0.07827168
000210 4a 3e e3 3d 5b 24 0d 3e ba d5 16 3e 5b 7b 01 bf
       0.11095865 0.137834 0.14729968 -0.5057885
000220 07 4e a2 bd 19 c4 26 3e 7f c0 20 3e ff b3 18 3e
       -0.07925039 0.16285743 0.15698431 0.14912413
000230 51 c5 34 3d 04 9e a7 3c 99 25 40 3e 1a ed d8 bd
       0.044133488 0.02046109 0.18764342 -0.105920985
000240 f2 8d d2 bc 78 ad 4c 3e 8e 15 05 be d5 77 71 bd
       -0.02570245 0.19988048 -0.12996504 -0.05895217
000250 d9 cb 16 3e 20 30 79 3c c5 47 9c 3d 0b cc 89 bd
       0.14726199 0.015209228 0.076308765 -0.06728371
000260 23 fb 4d bd 86 9a 22 3e 1c 23 c6 bc 27 fa 87 bd
       -0.05028833 0.15879259 -0.024186663 -0.0663951
000270 e5 59 88 3d c0 ef e3 bd 27 3b eb 3d 13 92 11 bd
       0.06657771 -0.11129713 0.11485892 -0.035539698
000280 e3 65 df bd 70 a7 6e bd 79 27 01 bd a0 1f 80 be
       -0.10908105 -0.05826515 -0.031531785 -0.25024128
000290 b6 30 be 3d cd 27 29 3d 55 5d 70 be ec 9c 7d bd
       0.092866346 0.041297723 -0.23473103 -0.06191723
0002a0 62 c0 e9 3d 68 e8 d8 3c fa 8e 7e 3d 36 f4 c9 bd
       0.11413647 0.026478007 0.06214807 -0.09861033
0002b0 c9 10 bb bd e9 6c 18 bd 47 c3 2b bd b4 2a 0c be
       -0.09134061 -0.03721324 -0.041934278 -0.13688165
0002c0 4a a6 df 3c 5c 0b cb 3b ce ea 1e bd bb e6 22 3d
       0.027300972 0.0061964225 -0.038798146 0.039770823
0002d0 de b9 b2 bd 03 a8 0a 3d ab d7 68 3d 6e a8 e3 bd
       -0.087268576 0.033851635 0.056846302 -0.1111611
0002e0 d9 04 29 be 4e 64 a3 3d c4 9b b2 3a 75 21 20 be
       -0.16505755 0.07978116 0.0013626744 -0.15637763
0002f0 3d ce 21 3e 19 98 e0 bd e5 dd b8 3c 15 a9 32 3d
       0.1580133 -0.1096651 0.022566745 0.04361828
000300 d3 a1 f4 bd 00 33 ce 3d 04 dd 70 be 5d 83 58 bd
       -0.11944928 0.10068321 -0.23521811 -0.052859653
000310 c8 c6 2c be fd 94 19 ba 4c 53 46 3e ed a5 7b bd
       -0.16872704 -0.0005858688 0.19367713 -0.061437536
000320 94 4a 59 3e 50 f4 9d be a8 af 5f 3e 68 59 27 3f
       0.21219856 -0.30850458 0.21844351 0.653708
000330 8b 53 00 be 18 18 7e 3d ea 5e 65 3d 29 20 3b 3e
       -0.12531869 0.062034696 0.05599872 0.18273987
000340 48 0d c0 bd 1d d0 fb bd 14 7c 7d 3d 3a 0e a7 3c
       -0.09377533 -0.12295554 0.06188591 0.020392526
000350 65 83 1d 3d c5 a2 14 3e 3d 6e b8 bd c5 0e f7 3d
       0.038455386 0.14515217 -0.09005401 0.12063364
000360 3c db 1a 3e be f0 b0 bd f6 85 26 3e 91 d1 2e 3d
       0.15122694 -0.08639668 0.1626204 0.042680327
000370 a7 ac e8 3d 61 c8 f4 bd 8c 7d 6f bd 07 f6 b0 bd
       0.11361056 -0.11952282 -0.05846934 -0.08640676
000380 93 68 2d 3c 62 15 30 3e 56 b7 ee bd f6 bf f3 3d
       0.0105840145 0.17195657 -0.11656062 0.11901848
000390 bd 36 0d be 4d af 7b 3e 59 25 a5 bd e1 11 8a bd
       -0.13790412 0.2457859 -0.08063764 -0.067416914
0003a0 4b 46 f9 3c af 25 d2 bd 58 64 2e 3e 0c ee 51 be
       0.030429026 -0.10261094 0.17030466 -0.20500964
0003b0 49 60 7e 3d f1 d2 3a 3f d5 68 23 be af 9e 34 3d
       0.062103543 0.7297812 -0.15957959 0.044096645
0003c0 42 20 f0 be 0a 01 46 be 3a 09 a2 be 1b 62 2f bc
       -0.4689961 -0.19336334 -0.31647664 -0.0107045425
0003d0 74 79 37 3e 1b 50 c1 be 50 e3 0b bd 67 e3 57 3e
       0.17917424 -0.37756428 -0.03415233 0.21082841
0003e0 29 49 31 be 6d 9d c1 3d ba 0d ab 3a fa 35 67 be
       -0.17313065 0.09453855 0.0013050355 -0.22579184
0003f0 ba 08 ba 3d aa 7f fc be 6f 84 e4 bd 3e c1 c0 3d
       0.09083696 -0.4931615 -0.11158072 0.09411858

mps.0.l2.edge_block.m.0.bias f4 [16]
000000 44 d3 c5 bd d2 a8 66 3e 0b f8 91 bd b9 aa df 3d
       -0.09659436 0.22525337 -0.071273886 0.10921235
000010 c9 c2 97 3c 9e 16 a5 3e 66 df 84 3e 12 7d 40 3e
       0.018525498 0.32243818 0.2595169 0.1879771
000020 4c 1f 0d be 5c b7 75 bc e1 b7 d8 3d 38 67 1d 3f
       -0.1378147 -0.01499733 0.10581947 0.61485624
000030 cd df 26 3e 32 fb 04 3f a8 f8 87 3e c3 e3 27 be
       0.1629631 0.51945794 0.26556897 -0.16395478

mps.0.l2.edge_block.m.2.weight f4 [1, 16]
000000 3a 9f 3b bc 4b 5c 7d 3f 37 d0 24 be 9e 8c 01 bd
       -0.011451537 0.9896895 -0.16095053 -0.031628244
000010 0d f4 ee 3e e8 b1 9a 3d 90 e7 10 3f f9 f2 09 be
       0.4667057 0.07553464 0.56603336 -0.13471593
000020 a1 4b 69 bd 9e 7c fe 3b 3c 63 0f bd bb 68 1d 3f
       -0.05695689 0.0077663204 -0.035006747 0.6148793
000030 e3 de c5 3d 82 27 04 3f cc 3b 7e 3e 26 82 48 3b
       0.09661653 0.51622784 0.24827498 0.0030595153

mps.0.l2.node_block.m.0.weight f4 [16, 9]
000000 d9 d8 ad be 61 3d 7d 3e 98 f9 99 be d1 1f a5 bd
       -0.33954504 0.24730445 -0.30073237 -0.08062709
000010 39 cc 8a be ad a3 2f 3d 4c 0a e6 3e bb 73 37 be
       -0.27108935 0.042880703 0.4492973 -0.17915241
000020 85 53 0b 3e 63 e9 6e be e7 3d e1 3d 3c 11 b2 be
       0.13606079 -0.23331217 0.10998135 -0.34778774
000030 cb 8a d8 bd 10 a8 a8 be 47 92 96 be 78 d8 36 3f
       -0.10573348 -0.32940722 -0.29408476 0.71424055
000040 a0 4d 1f bf ab d5 d5 3d 00 9e 6a 3e 14 f6 72 bd
       -0.6222782 0.104411446 0.22911835 -0.05931671
000050 13 f1 c7 bd 0b 6c 0b 3e 8f 8d e4 bd 55 d6 27 bd
       -0.09762778 0.13615434 -0.11159813 -0.040975887
000060 3b e1 5c 3e f6 b6 f6 bd 6a c4 27 be 8f e8 0c be
       0.21570294 -0.12046616 -0.1638352 -0.13760589
000070 62 15 3e bd 16 15 0e be 6b c7 c4 bd af 96 85 3d
       -0.04640711 -0.13875231 -0.096083485 0.06522881
000080 aa e3 c2 3c 77 05 8d bd f2 bf 5b be 2a 67 b7 bd
       0.0237902 -0.06885808 -0.2145994 -0.08955224
000090 66 c7 ed bd 65 3f c8 bc 25 9e 92 be 9f cf 33 3d
       -0.11610298 -0.024444291 -0.2863628 0.043899175
0000a0 a2 da 37 be c6 ca 83 be 3e 9c 15 be f1 3d 4a 3d
       -0.17954496 -0.2574064 -0.14610383 0.04937548
0000b0 6f 66 b3 bd f1 97 42 bd de 28 c5 3e 02 b4 61 bd
       -0.08759772 -0.047508184 0.38507742 -0.05510331
0000c0 43 ec 99 3e d5 18 87 bd 04 1c a8 be 7e 12 55 be
       0.30063066 -0.06596533 -0.32833874 -0.20807835
0000d0 86 f9 82 3c 7e 55 5b 3e 23 b3 a4 be 88 0b 07 3e
       0.015988123 0.21419331 -0.3216792 0.13187993
0000e0 c8 06 2b bf 99 47 5a bd de bb 66 be 17 23 50 3e
       -0.6680722 -0.053290937 -0.22532603 0.20325886
0000f0 54 da d8 3e 67 90 02 bf 41 aa e7 bc 35 53 ef be
       0.4235407 -0.5100159 -0.028279426 -0.4674317
000100 9f 48 b9 3d dc 05 99 bd c5 44 a3 be 74 e1 13 bf
       0.090470545 -0.07471821 -0.31888404 -0.5776589
000110 a5 7d 97 3e 58 36 5e 3e df 53 66 be ac b5 65 bc
       0.29588047 0.21700418 -0.22492932 -0.014020365
000120 d9 c9 c1 3d e3 ea c9 3e 99 44 8d bd fa 74 38 be
       0.094623275 0.39437017 -0.068978496 -0.18013373
000130 6f 5e 2d 3d 4f 6f ba 3d d3 35 bb bd d6 ae 3d be
       0.042326387 0.09103262 -0.091411255 -0.18523726
000140 bf fa 93 bd 66 6a 33 b9 a5 2e 5a 3e 42 4e 18 be
       -0.072255604 -0.00017110407 0.21306856 -0.14873603
000150 8c 00 7c bd da d9 9f 3d c3 1e 0c be 1c ac d0 bd
       -0.06152396 0.07805224 -0.1368361 -0.10189077
000160 57 21 c3 3d fa 6c 72 bc e2 e5 93 bc 2c 43 ae 3d
       0.095278434 -0.01479649 -0.018053953 0.08508906
000170 e8 50 74 bd 9f da 4a be 27 c5 99 3d ac fa 23 be
       -0.05964747 -0.1980996 0.07508307 -0.16013592
000180 62 b5 be bd 09 6d 81 3c a1 c7 ba bd 25 c9 e3 bd
       -0.0931194 0.015799062 -0.091201074 -0.1112235
000190 30 d3 75 bd b8 e1 05 be 7f 5b aa bd a0 a2 e9 bc
       -0.060015857 -0.13074386 -0.08318233 -0.028519928
0001a0 54 b2 0b 3d 8d 37 1a be 6c 8b 52 be 47 49 f5 bd
       0.034105614 -0.15060253 -0.20560998 -0.11976867
0001b0 79 aa 66 3d 65 91 62 3e f3 fc 88 be e2 df c9 3d
       0.05631492 0.22125776 -0.26755485 0.098571554
0001c0 24 eb ec 3d fb 69 64 3d ed 3b 1f be 2e 4c 3e be
       0.11568287 0.055765133 -0.15550204 -0.18583748
0001d0 e8 db 47 be 0c 85 16 be 9f ed 53 3e 28 79 d3 bd
       -0.19517481 -0.14699191 0.20696114 -0.10325843
0001e0 a7 22 01 3e 36 3c 2a be d9 60 81 bc 30 76 9b bd
       0.12610875 -0.16624531 -0.01579325 -0.07590902
0001f0 4b 9a 63 3d 84 20 8f bd fd 71 19 bc 60 4b 0d be
       0.055567067 -0.06988624 -0.009365556 -0.13798285
000200 6d bd a3 bd eb ec 91 3e 6c c4 3b 3d 20 16 5c be
       -0.079951145 0.28501067 0.04584162 -0.21492815
000210 5e b8 ab 3d 7b ab de bd 2b 9f f4 bd 93 fc 57 3e
       0.083847746 -0.10872551 -0.119444214 0.21092443
000220 f2 ec b0 3d 48 06 b8 bc 33 2c 70 bd c9 b4 42 be
       0.08638944 -0.022463933 -0.0586359 -0.19014277
000230 e5 e7 c0 bc c0 5d 2a 3e 96 10 b9 bc 16 3c 4e bd
       -0.023548076 0.16637325 -0.022590917 -0.05035027

mps.0.l2.node_block.m.0.bias f4 [16]
000000 fb c7 e9 3e 9a a4 c2 bd 06 b9 4d be f1 08 a2 3d
       0.45660385 -0.095040515 -0.20090112 0.07911862
000010 f8 48 50 3e 98 8d 78 bc f7 f9 b3 3e d6 35 56 3e
       0.20340335 -0.015170477 0.35151646 0.20918974
000020 0f 08 32 3d 35 2d ab be c1 0c c4 be fe 67 ea 3e
       0.043464717 -0.33432928 -0.3829098 0.45782465
000030 24 0f 5d 3e be 45 8a 3e 63 89 83 be e2 7e 57 3d
       0.21587807 0.27006334 -0.25690755 0.05261124

mps.0.l2.node_block.m.2.weight f4 [8, 16]
000000 5b c3 84 3d fb 9d 15 be bc 91 01 3e c3 3a 12 3e
       0.064825736 -0.14611046 0.1265325 0.14280228
000010 89 11 0c 3e 6b 1a 9f be ab c9 45 3e 90 c7 3e 3e
       0.13678564 -0.31074843 0.19315211 0.18630815
000020 6f 6b 62 bc 39 a9 1c 3d eb 96 08 bd 86 27 85 bc
       -0.0138195595 0.03824732 -0.03334705 -0.016254198
000030 40 fe 98 bd 39 10 16 bd e9 9d c3 bd 85 b5 af bd
       -0.07470369 -0.036636565 -0.09551603 -0.08579544
000040 3b ee d0 be f4 7b 25 bf 07 e8 45 3c f7 4c d3 3d
       -0.40806755 -0.6464226 0.012079245 0.10317414
000050 4e 7d 0a 3e e5 7d c8 3d f1 9b 60 be c5 d9 db be
       0.13524362 0.097896375 -0.21934487 -0.42939582
000060 a2 44 d1 3d 39 b3 ee 3d 7c 99 06 be 72 38 8d bb
       0.10218169 0.11655278 -0.13144487 -0.0043097073
000070 c3 ab 02 3e ad 79 46 bd 09 b1 dc bd be fb a2 3d
       0.12760834 -0.048455883 -0.10775954 0.07958172
000080 7b c4 36 3e 8b ff d4 be b7 8a e0 bd c9 e3 b8 3d
       0.17848389 -0.41601214 -0.10963958 0.090278216
000090 42 c5 bf bd 54 bd 84 3e ca 04 b9 be b9 4e a9 3e
       -0.09363796 0.25925696 -0.36136466 0.33067873
0000a0 a6 62 fa 3c 69 8b b7 3d dc d0 c8 bb a6 87 e4 bb
       0.030564617 0.08962137 -0.0061284136 -0.0069741784
0000b0 0f 0c 37 3d 10 ee e2 bd 78 7c 7d bd 83 d0 d6 3d
       0.044689234 -0.11080563 -0.06188628 0.10488989
0000c0 72 d2 b0 bd 86 1e 13 3e 13 1b 7a bd 4a 97 a3 3d
       -0.08633889 0.14367113 -0.061060976 0.079878405
0000d0 5c 11 82 3d 89 f7 88 3b 87 cf f9 3d 69 59 88 be
       0.06350967 0.004179899 0.12197786 -0.26630715
0000e0 2e ad 85 bc 1f 63 b0 bd d8 79 1a 3e 7b 2c 51 be
       -0.01631793 -0.08612656 0.15085542 -0.20427124
0000f0 2e d7 d5 3c a1 9d 0e 3e 38 e5 11 3e 49 67 d1 3c
       0.026103582 0.13927318 0.14247596 0.025561946
000100 f5 78 2b be bf be fe 3d e5 eb 3a bd 97 aa 0b be
       -0.1674536 0.12438726 -0.045635123 -0.13639294
000110 c3 27 52 3e 19 68 47 bf 9f 6d 77 3e ea 07 87 3e
       0.2052298 -0.77893215 0.24162911 0.26373225
000120 e9 26 ab bd 41 81 94 bd 34 db 34 3d 4c d9 84 3d
       -0.08357031 -0.07251216 0.04415436 0.064867586
000130 57 90 0c 3e 6f 12 de bd 57 0e 0c 3c ac 52 3d bd
       0.13726936 -0.1084336 0.008548341 -0.04622142
000140 c5 04 2a be df ed b3 be 0d 6b 73 3d a2 1b b4 3b
       -0.16603382 -0.3514242 0.059428263 0.005496458
000150 6c bf 3f be 65 79 08 3e d3 4a 14 be 2a be a0 bb
       -0.18725365 0.13327558 -0.14481668 -0.004905482
000160 76 f7 27 bd 71 56 4c bb 49 0f 3e 3e be 00 d2 3c
       -0.04100748 -0.0031179453 0.18560518 0.02563512
000170 f9 86 08 be 7e ee 1c 3e 71 75 38 3d db 4c 9c 3d
       -0.13332738 0.15325353 0.045033876 0.076318465
000180 0d b0 ce 3d 69 fa 66 bc 95 e4 b5 bd b7 53 1f 3e
       0.10092173 -0.014097788 -0.08881489 0.15559278
000190 ab c4 21 be ae b3 96 be 3a a6 4b be 98 2d b5 3b
       -0.15797679 -0.2943396 -0.19887629 0.005529117
0001a0 3d f6 73 bb 9c 92 03 bd e5 de 05 3d 6a 2f 10 bd
       -0.0037225627 -0.03212224 0.032683272 -0.035201468
0001b0 17 fa 3b 3e ef 6d 00 3e 9c 44 a5 3d a3 94 a2 3d
       0.1835712 0.12541936 0.08069727 0.079385065
0001c0 bc 34 37 3e e9 66 53 3e 5b aa fa 3c 8b 13 dc 3c
       0.1789121 0.20644726 0.03059881 0.026864788
0001d0 db 5c eb bd 35 81 fb 3d 71 58 1e 3d 8e 7c ef 3c
       -0.1149232 0.12280504 0.038658563 0.029234197
0001e0 fd 00 8b 3c 32 21 20 bd f8 05 2c 3c cd db 0e 3e
       0.016968245 -0.039094158 0.01049947 0.13951035
0001f0 4d b5 75 bb ad ab 4b 3e b0 8c c4 3d d8 ee 07 be
       -0.0037492097 0.19889708 0.095971465 -0.13274705

mps.0.l2.node_block.m.2.bias f4 [8]
000000 80 ad 9d bd 5e 3e e3 be 19 26 a5 3e 5d 5d 0f bf
       -0.07699108 -0.4438352 0.3225563 -0.56001836
000010 91 44 91 3e 45 e7 0b bf a2 f7 28 3f 9d 42 ce 3e
       0.28372625 -0.54649764 0.6600286 0.40285197

mps.1.l1.edge_block.m.0.weight f4 [16, 18]
000000 f2 2d e7 be 44 e2 64 3e ed 27 67 3d 25 4a 3e be
       -0.4515224 0.22351938 0.05643456 -0.18582971
000010 43 7c 7e be 88 c5 4d bd 04 b1 f5 3d 20 ed 4f 3e
       -0.2485209 -0.05023721 0.11996654 0.203053
000020 ba 43 a7 bd b0 3b 0a bb 1e 61 96 3d 0f de 67 3e
       -0.08167215 -0.0021092705 0.073427424 0.22643302
000030 bd 96 c4 bc 6b 24 87 3e 84 ac 25 3d 06 30 8e bd
       -0.023997659 0.26394972 0.040447727 -0.069427535
000040 f5 fe 40 bd c7 5f ff 3e 2e f3 e7 be 47 4c 73 be
       -0.047118146 0.4987776 -0.4530272 -0.23759566
000050 dd 0e ce 3e b2 0b ee be 66 bc a3 3d 73 53 d0 be
       0.40245715 -0.46493298 0.079949185 -0.40688667
000060 9b c9 dd 3e 5a af 06 3f 8c 37 be bd 9a b9 1d be
       0.43317875 0.52611315 -0.092879385 -0.15402833
000070 47 51 16 3f 9e 75 8b be b1 8f 49 be 08 98 6a 3c
       0.5871777 -0.27238172 -0.1968372 0.014318474
000080 e1 96 ca 3e 8e 54 b3 3d 4e 1a 9d bc 46 20 b4 3d
       0.39568236 0.08756362 -0.019177582 0.08795218
000090 9d f8 48 3e d3 6f b8 3e 07 b7 a6 be 4f 18 91 3e
       0.19626088 0.36022815 -0.32561514 0.28338858
0000a0 d2 b6 61 be 35 59 8b 3e 1d 79 1c be 84 f4 75 be
       -0.22042397 0.27216497 -0.15280576 -0.24019057
0000b0 04 28 0b 3d b2 40 3f 3e 92 bf a8 be 21 e0 97 3e
       0.03397371 0.18677023 -0.32958657 0.29663184
0000c0 b8 8d 87 be 0f a1 28 3e 7c 64 b6 be c5 b0 95 be
       -0.2647531 0.16467689 -0.35623538 -0.29236427
0000d0 f1 04 23 be b2 30 b4 be 3a e2 3c be cc f5 ee 3d
       -0.15919854 -0.35193402 -0.18445674 0.11667976
0000e0 0c c8 0b 3e b7 af 42 be 46 11 65 bc 86 83 a6 3e
       0.1365053 -0.19012342 -0.013981169 0.3252222
0000f0 1d 79 90 bd 1b 18 05 be df 23 92 3e 65 fc cd bd
       -0.070543505 -0.12997477 0.28542992 -0.10057906
000100 06 52 18 3d 88 44 21 bb 45 0b a0 3e 5e 89 d1 bd
       0.0371876 -0.0024607498 0.31258598 -0.10231279
000110 1c fe f0 3d ed 0b f0 3d 68 0e 8a be ec f6 b9 3d
       0.117672175 0.11721025 -0.26964116 0.090803
000120 b2 c2 45 be 03 5e 92 3e cf 1c c9 3d 07 83 60 3e
       -0.19312552 0.2858735 0.09819948 0.21924983
000130 25 92 42 bf 78 17 6d 3e 20 d1 5c be 3c 4f c4 bd
       -0.7600425 0.23153484 -0.2156415 -0.09585425
000140 b2 1d 3b be 2e 09 d9 be e8 2b 48 be 5f cc 98 bc
       -0.18273047 -0.42389816 -0.19547999 -0.01865214
000150 3c 28 4c 3e d2 fb 08 bf a1 6b 73 3e 4f 76 a1 3e
       0.19937223 -0.5350925 0.23771526 0.31535575
000160 58 68 4d 3f 8f d5 c6 bd b6 db 21 3e a0 bf de be
       0.8023734 -0.09708702 0.1580647 -0.43505573
000170 c1 63 39 3e 9c ef 07 bd d2 99 2c be f5 fa ca be
       0.1810446 -0.033187494 -0.16855553 -0.3964459
000180 fc 2b 1b 3e 56 a6 a9 3e 41 b6 e4 be 06 23 6b 3d
       0.15153497 0.33134717 -0.446703 0.057406448
000190 3d 75 01 3d 29 55 b6 3d 61 f9 06 bf 3b 2f ff 3d
       0.031605948 0.08902962 -0.5272427 0.1246018
0001a0 e5 58 16 3e bb d1 f7 bd 4b 94 dd bd e1 34 16 3f
       0.14682348 -0.1210055 -0.108193 0.58674437
0001b0 f5 97 95 3d ca a6 9d 3e 11 01 1a be 94 ab 6e 3e
       0.07304374 0.30791312 -0.1503947 0.2330764
0001c0 7a 53 9b 3e fd c7 1c 3e 1f 1f 9c be d0 2f 7d be
       0.30337125 0.15310664 -0.30492494 -0.2472527
0001d0 dd c2 94 bd e4 80 2c 3e 68 4b ae be 9e da 94 3e
       -0.0726373 0.16846043 -0.34041905 0.29073042
0001e0 98 a2 28 3e dc 49 81 3e ba bd d1 be e6 f4 dc be
       0.16468275 0.25251663 -0.40965062 -0.43155593
0001f0 17 84 e7 3b 10 69 49 3e 03 eb a9 be 39 42 00 3e
       0.007065307 0.19668984 -0.33187112 0.12525262
000200 6d 11 9f bd 8e b4 2b 3d a6 c0 ac bd 10 5d 5e 3e
       -0.077669956 0.041920237 -0.08435182 0.21715188
000210 ac e3 01 be 48 66 11 3e 07 7a 09 3e 30 54 71 bd
       -0.12684506 0.14199173 0.13425456 -0.058918178
000220 6d 78 88 3e 51 74 94 bd 16 f8 03 bd 6c cd 0c bc
       0.26654378 -0.07248748 -0.032219015 -0.008593898
000230 47 67 c1 3c ab 5d 2b 3d bd ed 72 be 72 ca 8c bc
       0.023608817 0.041837376 -0.23723502 -0.017186377
000240 94 9f 75 be f4 24 ec 3d c7 b8 c8 be 24 54 94 3d
       -0.23986655 0.11530486 -0.39203474 0.07242611
000250 f6 2c 97 be 0e 18 b4 bd 13 08 05 3c a3 82 69 bd
       -0.2952649 -0.087936506 0.008119601 -0.05700935
000260 40 c9 20 3d 6a 69 0c be 13 19 d3 be d4 20 15 3e
       0.039254427 -0.13712087 -0.41230068 0.14563304
000270 88 61 57 3b 40 df 3c be 66 80 13 be b3 81 0d 3d
       0.003286453 -0.18444538 -0.14404449 0.03454752
000280 6a 38 7a bd 57 3b 32 3f ae 33 32 be a7 47 d3 be
       -0.061088957 0.69621795 -0.17402527 -0.41265604
000290 dc b0 5f 3e b8 a3 ec be b0 0b ed 3d 72 ea 15 be
       0.2184481 -0.46218657 0.11574495 -0.14640215
0002a0 94 9c 8b 3e 72 65 00 3f 8b d1 21 be 82 5f 36 be
       0.27267897 0.50154793 -0.1580259 -0.17809871
0002b0 4b 09 0a 3f 03 1a 66 be 2c 05 1d be 3c 33 82 bd
       0.5392043 -0.2247086 -0.15334004 -0.063574284
0002c0 e6 21 bb 3e 25 ef 86 3e db 89 9d bc 73 4e 15 3e
       0.365493 0.26354328 -0.019230774 0.14580707
0002d0 ed 29 c2 3d 7f 60 da bd eb 7f 1f 3e ae 79 5c 3c
       0.09480653 -0.106629364 0.1557614 0.013456745
0002e0 b4 9e 18 be 5f dc e1 3d d4 23 a2 bb fa 3d 10 be
       -0.1490429 0.110283606 -0.0049481187 -0.14086142
0002f0 b2 d9 ca 3d 79 55 b5 3d 5f 7e 47 3e d1 a3 b8 3a
       0.09904803 0.08854193 0.194818 0.0014086907
000300 f0 95 e2 3e 4b 5e 40 3e 66 28 b1 3c 20 a7 8a bd
       0.44255018 0.1878597 0.021625709 -0.06770158
000310 66 54 89 be 23 6f 51 3c 71 9f 75 bd 11 00 7d bd
       -0.26822203 0.012782845 -0.05996651 -0.06176764
000320 8a 71 48 3d 2e 37 15 bc 47 e0 15 be 03 3d 38 3c
       0.048936404 -0.009107394 -0.14636336 0.011245015
000330 89 d1 9a 3c e3 d5 8b bc e7 91 8a 3d ed ed 8e 3d
       0.018898742 -0.017069763 0.0676611 0.069789745
000340 14 98 91 3d b9 07 85 3d 39 93 8a 3e 28 85 79 3d
       0.07109085 0.064956136 0.27065447 0.060918003
000350 4b b3 48 bd ba fb a9 bd 5f 72 4f be d5 6c ad 3c
       -0.048999112 -0.08299966 -0.20258473 0.02117006
000360 cf cf 48 be de 67 dd 3d 00 26 21 3d 03 b0 42 3e
       -0.19610523 0.10810827 0.03934288 0.19012456
000370 06 22 6d be dd 42 81 bd 77 ea ff 3d af 32 00 be
       -0.2315751 -0.06311581 0.124958925 -0.12519334
000380 90 45 80 3d 03 fc cc bd d0 00 17 bd cc d6 00 bd
       0.06263268 -0.10009005 -0.03686601 -0.031454846
000390 4c c0 83 3e c1 7c 3b 3e 27 e9 05 3e 57 09 dd 3d
       0.25732648 0.18309309 0.13077222 0.10792797
0003a0 44 58 8b be ad 7a 08 3c 19 49 b6 3e 75 5c c7 3e
       -0.2721578 0.008330029 0.35602644 0.38937727
0003b0 81 34 fb be 77 08 ec 3e af 76 33 3e 1e 78 f2 3e
       -0.49063495 0.46100208 0.17525743 0.47357267
0003c0 4a 5b 00 bf 3e ee 2b bf d9 bb fa 3d f5 71 92 3d
       -0.50139296 -0.67160404 0.1224286 0.07150642
0003d0 61 ab 0d bd ab 37 af 3e 59 2f 9b be f9 22 d2 3e
       -0.034587268 0.3422216 -0.3030956 0.41042307
0003e0 c0 06 01 bf 26 24 2d bf 20 a3 e5 3e c9 56 e6 be
       -0.50400925 -0.67633283 0.44851017 -0.44988087
0003f0 08 2a 73 3e d1 14 8b be 18 5d 83 3e 7e 4d 8d bd
       0.23746502 -0.2716432 0.25656962 -0.06899546

mps.1.l1.edge_block.m.0.bias f4 [16]
000000 0d 14 c5 3e 7b db fe 3e c9 65 aa be a1 4e 37 bd
       0.3849186 0.49776825 -0.3328078 -0.04475272
000010 33 44 12 3d 3e 1b 89 3e c6 e0 bf be 39 d7 ee 3e
       0.03570957 0.26778597 -0.37476176 0.46648577
000020 c3 80 db 3e ac 82 2c 3f 2e 81 78 3e c4 19 59 3d
       0.42871675 0.6738689 0.24268028 0.053003088
000030 ee 19 8b 3e 0c ea 24 bf a8 ee 72 3e f9 b3 96 be
       0.2716822 -0.6441963 0.23723853 -0.29434183

mps.1.l1.edge_block.m.2.weight f4 [1, 16]
000000 7a d5 37 3e fd 46 8a 3e e2 dc ab be 33 f7 b2 3e
       0.17952529 0.27007285 -0.33566958 0.34954223
000010 5e f3 82 bf 9f 1f 0b 3f c7 2c 8f 3e f2 a6 b5 3e
       -1.023052 0.54345125 0.2796385 0.35478932
000020 83 81 2f bd 8d 72 58 3e 52 5e 88 3e 3c 32 47 3e
       -0.04284812 0.21137448 0.2663446 0.19452757
000030 df b9 91 3e c0 83 33 bf a4 87 49 3e a7 53 11 bc
       0.2846212 -0.7012291 0.19680649 -0.008870042

mps.1.l1.node_block.m.0.weight f4 [16, 9]
000000 b6 c3 ac 3d 0b f6 16 bc 72 72 4d be fe 84 3c 3d
       0.084357664 -0.009213935 -0.20063189 0.04602527
000010 f4 96 2f be e9 3a 4c 3d ab 1c 2c be 73 d5 85 3e
       -0.17147428 0.04986087 -0.16807811 0.2613941
000020 86 79 2e 3e 18 84 bb bd d2 ad 2c 3e a8 5c 1d be
       0.17038545 -0.09156054 0.16863182 -0.15367377
000030 3a 84 26 3d 88 b9 1a 3d 13 43 47 3e d3 4e 8e be
       0.040653445 0.037774593 0.1945918 -0.27794513
000040 15 ac a0 be 77 e4 ad 3c 12 3b a7 3e 94 98 12 bc
       -0.31381288 0.021227105 0.32662255 -0.00894751
000050 97 d1 8d bc e0 a2 76 3e fb f0 e8 bd 82 69 54 3e
       -0.017311854 0.2408557 -0.113740884 0.20743373
000060 37 57 52 be 60 2e bf be 44 20 96 bd b5 73 d2 bd
       -0.20541082 -0.3734007 -0.07330373 -0.102759756
000070 90 fe 32 bc 8e 29 4b 3d 23 f4 ec 3d c9 d4 75 3d
       -0.01092495 0.049600177 0.11570003 0.06001738
000080 0d 9c 3e bd b4 e3 1c 3d cc 14 76 bd ba 57 d2 be
       -0.04653554 0.038303092 -0.060078427 -0.41082555
000090 21 58 87 be 42 4c 27 3e 8c ca 24 3e 6f 3a 81 3e
       -0.26434425 0.16337684 0.1609289 0.25239894
0000a0 de 82 81 be 63 0b b1 3d 0b 2c 6d be f2 fd 10 3d
       -0.25295156 0.0864475 -0.23161332 0.03539843
0000b0 fe 11 c3 3c 51 2e f6 3d 30 eb 96 3e 87 21 36 be
       0.02381229 0.12020553 0.2947631 -0.17786227
0000c0 cf d8 a2 3e 15 1b 8d be 75 55 91 3e be 19 c9 be
       0.31806037 -0.27559724 0.2838551 -0.39277452
0000d0 e1 67 a7 be 9f cf fd bc 44 97 12 3d ae df 4d bd
       -0.3269644 -0.03098279 0.03578879 -0.050262146
0000e0 e3 1c 48 3e 68 9c 35 be fe d4 11 bf 25 e8 39 be
       0.1954227 -0.17735445 -0.56965625 -0.18154962
0000f0 9d 74 aa bd 47 4f 03 3e f5 96 06 3e c0 05 01 be
       -0.083230235 0.1282321 0.13143523 -0.1259985
000100 a5 2f 42 3d 30 00 9a bd f4 bb 99 3e 04 29 45 be
       0.04740872 -0.07519567 0.3002621 -0.19253927
000110 f6 a9 a9 3e 04 31 10 bd 12 f7 0c be 82 cd f8 3d
       0.33137482 -0.035202995 -0.13766125 0.121485725
000120 a2 09 96 be 40 38 e3 bd cc 43 fc bc 18 06 b9 bd
       -0.29304224 -0.11094713 -0.030794047 -0.090343654
000130 47 63 df be cb d7 0e be 94 46 a8 bd fe ba 05 be
       -0.4363043 -0.13949506 -0.08216587 -0.13059613
000140 20 f5 62 3e 34 d0 c3 3c 41 ef 6a 3d 2b d2 fa bc
       0.2216382 0.02390299 0.057357077 -0.030617794
000150 08 bb 5d 3c af b3 bb 3c 26 d5 20 3e e3 d3 e9 bc
       0.013533361 0.022912828 0.1570631 -0.028543418
000160 02 36 91 3d e6 f2 ba be 5f 79 44 be 51 1d 1a 3e
       0.07090379 -0.36513442 -0.19186924 0.15050246
000170 8c 90 67 be 7a 34 a1 bd 4d c8 bd 3c 97 59 85 3e
       -0.22613734 -0.07871337 0.0231668 0.26044914
000180 09 65 55 bd 74 71 6c be b7 58 3f 3b a0 98 a5 3e
       -0.052098308 -0.23090154 0.0029197165 0.32343006
000190 eb 13 39 3e 27 57 4a 3e 8e f0 a2 3c 89 67 5d bc
       0.18074004 0.19759808 0.019890096 -0.013513454
0001a0 4a f8 bc bd 94 bc 74 3d 7c 3f 7a 3c e4 10 38 3e
       -0.09227045 0.059750155 0.015273925 0.17975193
0001b0 41 61 71 bd c8 a1 0f be d4 56 f2 3d 32 7e 76 be
       -0.05893064 -0.14026558 0.118329674 -0.24071577
0001c0 1a f7 8a be 96 95 3f be 3f 60 87 3c ea 0c 3d 3e
       -0.2714165 -0.18709406 0.016525386 0.18461958
0001d0 26 d0 d6 bc 4d 2c d4 3d be 74 e8 3d d5 94 39 be
       -0.0262223 0.10360012 0.11350392 -0.18123181
0001e0 84 d5 0c 3e 5c 63 28 be f5 47 0f 3c 72 54 27 3e
       0.13753325 -0.16444153 0.008745183 0.16340807
0001f0 91 69 75 be e8 7e e7 3e c1 39 82 be 6f 76 ae bd
       -0.23966052 0.4521401 -0.25434688 -0.08518683
000200 0b ca cb be b9 b1 11 3e 79 79 db be 53 23 76 3e
       -0.39802584 0.14227952 -0.42866114 0.24036913
000210 77 ad 03 bf c2 64 f3 3d 31 8d 82 bd f9 54 f0 3d
       -0.5143656 0.118844524 -0.063745864 0.11734957
000220 13 30 69 be 8b b8 86 3e 51 cd 50 be 83 29 8d be
       -0.22772245 0.2631267 -0.20390822 -0.27570733
000230 a6 64 48 3d a4 01 cd bd b1 f9 1a 3e f1 3e 9d be
       0.04892411 -0.100100785 0.15134312 -0.30712083

mps.1.l1.node_block.m.0.bias f4 [16]
000000 d8 e8 32 3f 4c 71 d0 3d ce 65 d9 be 8f 96 41 3e
       0.6988654 0.1017786 -0.42460483 0.1890509
000010 4f 03 fa 3d 9d c1 25 bf 35 5d 00 3f e9 82 35 38
       0.12207662 -0.64748555 0.5014222 4.3275682e-05
000020 da 85 cc 3e 7b 44 c2 3e 84 9a f5 be 08 c3 01 3f
       0.3994587 0.3794287 -0.4796945 0.5068822
000030 35 07 dd 3e 30 0b b0 bc 78 00 d4 be 45 78 a0 3c
       0.4316956 -0.02148971 -0.41406608 0.019588599

mps.1.l1.node_block.m.2.weight f4 [8, 16]
000000 6c 95 63 bd 8b 83 2c bd d4 b3 99 bc f5 93 9d be
       -0.05556242 -0.042117637 -0.018762507 -0.30776945
000010 40 7b f5 3d 4e be 19 be 9a 9a 88 3e 48 a6 0c bf
       0.11986399 -0.15014002 0.26680452 -0.54941225
000020 72 45 68 be 74 ca 1a bc 28 fe ff 3d f7 5b 98 bd
       -0.22682741 -0.009447683 0.12499648 -0.07439416
000030 6b 24 34 bc 66 83 94 3d 5d e8 a3 bc 07 d4 70 3e
       -0.010995011 0.07251625 -0.02000826 0.23518382
000040 b5 67 36 be 61 fe e5 bd 19 21 09 3c c2 78 04 3f
       -0.17812999 -0.112301596 0.0083697075 0.5174676
000050 fc 53 5b be 2a 4e 07 3e 9c 06 eb 3d 0c da 8d bc
       -0.21418756 0.13213411 0.1147587 -0.017315887
000060 f1 5d 85 be f4 b6 95 3d 31 6e 71 3c fe 08 c4 3d
       -0.26048234 0.07310286 0.014735744 0.095720276
000070 f0 5d 66 3e 17 b9 a6 be dd 29 32 3d 01 6c ca 3e
       0.22496772 -0.32563087 0.043496955 0.39535525
000080 0c 4d 51 bd 04 a2 1b 3d 56 2e 31 3e 23 7d 82 be
       -0.05109887 0.037996307 0.17302832 -0.25486097
000090 4b 11 64 bd d1 6c eb 3d 9a 81 c2 bd 59 f1 82 3e
       -0.055680554 0.114953645 -0.09497376 0.2557476
0000a0 a0 d9 1b 3e 03 1c ca bd 17 00 34 3e 99 ca d5 3c
       0.15219736 -0.09868624 0.1757816 0.026097583
0000b0 05 40 9b bd 51 d9 3a 3e 45 1c ba 3d d7 a5 39 bd
       -0.0758057 0.18246962 0.09087423 -0.045324173
0000c0 31 d9 ca 3e e5 b9 ad 3b 2c 98 e5 bd 2d b2 14 be
       0.3961883 0.0053017014 -0.11210665 -0.14521094
0000d0 75 d3 0f be b7 61 0a be 52 f2 63 3e c1 a8 9f 3e
       -0.14045508 -0.13513838 0.22260407 0.31183437
0000e0 19 7f 8b 3e 25 c4 84 3d 12 ce 07 3e fd 5a 8e bd
       0.27245405 0.06482724 0.13262203 -0.069509484
0000f0 bc 6b b1 3e b7 8f 66 3d 56 9e 9d bd 5d 5e 04 3d
       0.34652507 0.0562894 -0.07696216 0.032316554
000100 8e 02 62 3e dc c9 1a 3e ac f9 d3 3d 58 f6 9e 3e
       0.22071287 0.15116066 0.103503555 0.3104732
000110 c6 5b fe bd d7 b6 84 bd 1d 6f 2f 3d 57 36 a9 3e
       -0.12419848 -0.064801864 0.042830575 0.3304927
000120 7d 25 8e 3d 3a e7 af 3e c3 79 d6 bd 3a 44 19 3d
       0.06940744 0.343561 -0.10472443 0.03741858
000130 86 c9 48 3e 6f 45 f4 be 4d d7 f5 3c 77 ad 65 be
       0.19608125 -0.47709224 0.03000989 -0.22429453
000140 68 05 c8 3e 5b ca 2c be 99 82 43 be 27 6b 22 3e
       0.39066625 -0.16874067 -0.19092788 0.15861188
000150 da 4a b3 3b d0 5c 61 3e e5 9d 85 3e 23 21 9e bb
       0.0054715695 0.22008061 0.26097026 -0.0048257275
000160 f5 bb 16 3e 4e 88 01 bd 3b 62 d2 bc e0 59 b1 3e
       0.14720137 -0.03162413 -0.025681606 0.34638882
000170 80 b1 fb bc 80 d7 59 3e 38 b9 b0 be cf 56 69 be
       -0.030724287 0.21273613 -0.3451631 -0.22787021
000180 26 64 11 be 72 e3 c1 bc 80 40 dd bc 84 ad 5f be
       -0.1419836 -0.023668025 -0.027008295 -0.21843535
000190 d0 2f 3c bd 5c 64 d9 3c c8 ee 30 bb 60 de 1d 3e
       -0.045944035 0.026537113 -0.0026997793 0.1541686
0001a0 d6 2a d6 3d 27 69 72 be c5 cd 2e be 4c f7 e7 3c
       0.10457389 -0.23672925 -0.17070682 0.028316163
0001b0 e2 b1 21 be 3e 58 51 3e 9e 01 80 3d fc e2 cb bb
       -0.15790513 0.20443818 0.062503085 -0.006222127
0001c0 97 7b 20 be aa f9 1a be 36 4c db bd ad 2b 6d 3d
       -0.15672146 -0.15134302 -0.107078955 0.05790298
0001d0 d5 62 79 bd 48 f4 00 3e a5 6e 9a be af 9a 12 be
       -0.06088527 0.12593186 -0.3016254 -0.1431682
0001e0 2c 74 06 be 84 23 8c be f8 cb 00 be 63 34 2c be
       -0.13130254 -0.27370846 -0.12577808 -0.16816859
0001f0 0e 1f 63 3d 92 49 02 3f d0 5c 41 be c3 ca 9c 3d
       0.055449538 0.5089351 -0.18883061 0.07655861

mps.1.l1.node_block.m.2.bias f4 [8]
000000 38 28 db be 52 88 8f be eb 38 cb 3e 73 c6 54 3f
       -0.42804122 -0.28033692 0.39691862 0.8311531
000010 41 f7 06 3f e3 e6 62 3f 69 88 32 bf 63 e1 fc be
       0.5272103 0.88633555 -0.69739395 -0.49390706
